logs/exp/21_11_01_17_52_36/model_50.pt (torch, 34660 bytes, 12 tensors)

log_std f4 [3]
000000 89 ac 10 be 89 53 33 bd 9d ce da 3b
       -0.14128317 -0.043780837 0.0066774623

actor.0.weight f4 [64, 24]
000000 21 95 64 be ba c2 95 bb 18 f4 bc bc 60 78 09 3f
       -0.22322513 -0.0045703324 -0.023065612 0.536993
000010 9a 17 08 bf 50 90 72 bd 3d 07 3f be 77 a1 51 be
       -0.53161013 -0.05921966 -0.18655105 -0.2047175
000020 5c 7b ae be 8b f9 f0 bd df d4 b1 3d 1e 75 b0 bd
       -0.3407849 -0.117663465 0.0868318 -0.08616088
000030 2c 34 ab 3d b8 4c 24 be 77 78 5c 3e 7f b5 37 be
       0.0835956 -0.16044891 0.21530329 -0.17940329
000040 69 01 e8 3d 19 3f 68 3e 21 10 24 3e 3d 5c cb 3e
       0.11328394 0.2268032 0.16021778 0.3971881
000050 55 ff 87 3d 73 b6 c8 bd 20 fd a9 bd 7d d4 90 3d
       0.066404976 -0.098004244 -0.08300233 0.07071779
000060 a3 b3 d6 be c5 d5 01 3e e3 48 49 3e ae 5f ae 3e
       -0.41933927 0.12679203 0.1965671 0.34057373
000070 77 43 89 3e 55 30 6f 3e 57 c0 0f 3e 74 b8 7f 3e
       0.26809284 0.23358281 0.14038216 0.24972707
000080 5e c3 0e be 6e fa f2 3d 48 ab 54 bd 59 ed bd 3e
       -0.13941714 0.11864172 -0.05192116 0.37095144
000090 2b 35 00 bd 19 0e 53 3e 93 b7 3c be 8f bb c6 3e
       -0.031300705 0.20610847 -0.18429403 0.3881497
0000a0 7c b6 46 be 86 ae a2 bb 18 d3 89 3d 61 05 ee 3d
       -0.1940555 -0.0049646525 0.06729716 0.1162212
0000b0 f0 23 87 3c 83 fd b8 3c d2 84 85 be ad 01 c1 bd
       0.016496629 0.022581821 -0.26077896 -0.09424148
0000c0 2f db 32 be cd 01 36 be 57 7b 52 3e b1 79 d5 3c
       -0.17466424 -0.17774124 0.20554863 0.026059004
0000d0 84 65 d7 3e e7 71 7c 3e 6c ce e5 3d 7f 8f 4f be
       0.42069638 0.24652825 0.112210125 -0.20269583
0000e0 0b 9e a2 be ff 00 7e 3e 96 57 b6 3e c9 f0 0a be
       -0.31761202 0.24805067 0.35613698 -0.13568415
0000f0 9a 4b c6 3d 17 fe a3 3c 08 3e 06 3e c7 75 89 bb
       0.096823886 0.02001862 0.131096 -0.0041949484
000100 ca 44 81 be 5b 2c 72 bc 25 06 36 be 07 18 1a be
       -0.25247794 -0.014781083 -0.17775781 -0.15048228
000110 da b3 ce bd 97 fa ac be 96 ca bc 3b 8d 59 cf be
       -0.10092898 -0.33784935 0.005761455 -0.4049801
000120 01 28 10 bd b0 3a d8 3d c1 f7 77 3e c1 1f 9d bf
       -0.0351944 0.10558069 0.24215604 -1.2275316
000130 7e 24 bf 3d 9b d7 9c be 29 f2 fe 3d 96 60 70 3e
       0.09333132 -0.30633244 0.12448532 0.23474345
000140 0b 10 00 3e 90 74 02 be 52 c6 e2 bd f5 45 1d 3e
       0.1250612 -0.12739778 -0.11072983 0.15358718
000150 e9 58 3c be aa 62 e7 bc a7 34 25 3e fe bc 8e be
       -0.18393292 -0.028245289 0.16133367 -0.27878565
000160 78 59 36 3e 6e 01 1d 3e 63 2d c5 3e 14 42 8d 3d
       0.17807567 0.15332577 0.3851119 0.06897369
000170 8e bd 04 3e 39 eb 14 3e 6e dc e0 bd 97 e7 86 be
       0.12962934 0.14542855 -0.109795436 -0.26348564
000180 2c 15 7a be de 0d aa 3c af 40 b4 3d d3 ec fe 3e
       -0.24422139 0.020758566 0.088014 0.49790058
000190 e5 1f 04 bf 23 5f 8b 3d 2d af 9b be b0 2f 2e 3c
       -0.5161117 0.06805255 -0.30407086 0.010631487
0001a0 79 e5 18 be 85 bf db be 25 0c a2 3d fb 87 7e 3d
       -0.14931287 -0.42919555 0.07912473 0.0621414
0001b0 57 09 05 3e 63 56 06 bf 16 e7 a6 3d 84 a4 d2 be
       0.12991844 -0.52475566 0.08149545 -0.4114114
0001c0 47 26 99 3e 3a 40 5b be 3a 57 f9 3e c4 d5 04 bd
       0.29912016 -0.21411219 0.4869936 -0.032430425
0001d0 8d 8d 85 3e 0d a4 1d bd 48 80 a2 3e a9 09 1f 3d
       0.26084557 -0.03848653 0.31738496 0.038827572
0001e0 9b cb 35 bd 7f 6b 99 bd 90 54 1f 3e 07 3d 8b bc
       -0.044383626 -0.074912064 0.15559602 -0.016996874
0001f0 d2 db 75 be 42 53 4f be 82 ee 4e be 41 ca d6 3d
       -0.24009636 -0.20246604 -0.20208171 0.104877956
000200 26 88 d7 3c 1d 77 16 be 9e aa 4e bd 85 df ac bd
       0.026310038 -0.14693876 -0.050455682 -0.084410705
000210 4c 9c 82 3d 2d a3 27 bd d0 c1 d8 3e d8 06 c1 be
       0.063774675 -0.0409271 0.42335367 -0.37700534
000220 67 31 c0 3c f2 ad 3e be d2 57 0e 3d 6b 65 e7 bd
       0.023461057 -0.18621042 0.03475172 -0.11298641
000230 47 f6 9b 3e 8b 43 c7 be 03 0a ac 3e 11 c3 58 be
       0.30461332 -0.3891872 0.33601388 -0.21168162
000240 49 af cc be 9c 6a 72 bd 82 6e 90 be 5d 17 d3 be
       -0.39977482 -0.059183702 -0.2820931 -0.41228762
000250 58 f7 4d be 51 e9 39 bd 3f 14 d7 be 05 e3 21 be
       -0.20113885 -0.045388523 -0.42007634 -0.15809257
000260 ec a3 c7 3e 27 18 a6 3e 93 9e a1 3e 39 57 6d 3e
       0.3899225 0.32440302 0.31566295 0.23177804
000270 8d f1 81 3d 39 af 96 3a b1 61 3b 3d d5 38 43 3e
       0.063449 0.0011496312 0.045747463 0.19064648
000280 56 27 0e 3e f5 14 7b 3e b2 98 09 3f 37 b6 a3 3e
       0.13882193 0.24519713 0.5374862 0.31974956
000290 01 cb 80 bb ab da c4 3d 9a bf 09 3f 93 d1 87 3e
       -0.00393045 0.0961202 0.53807986 0.2652708
0002a0 ea 8a 8d bd 21 cf 7d be 7d 28 e3 bd 5c c4 80 3f
       -0.069112614 -0.24786045 -0.11091707 1.0059924
0002b0 1f 30 1d 3f 72 d7 00 bf 02 d0 8d 3e 9f e8 2f 3d
       0.6140155 -0.50328743 0.2769776 0.042946454
0002c0 ea a0 c0 3e 8f 82 45 3e aa ad c6 3e 8c 40 82 3d
       0.37622768 0.19288085 0.3880437 0.063599676
0002d0 fd 30 b9 3d 91 28 cd b9 17 3a 96 bd b6 29 a6 3d
       0.09042547 -0.0003913087 -0.073352985 0.081134245
0002e0 92 9b 39 3e d2 d1 38 3e 9b ce 9f 3d 90 85 6a 3e
       0.18125752 0.1804879 0.07803079 0.22902513
0002f0 c3 cd 8f 3d e5 45 ba 3e a8 15 a4 3e 0b 13 04 be
       0.07021668 0.3638145 0.32047772 -0.1289789
000300 ee 72 7b be f9 27 30 bd 53 0b 1f 3e 35 7e 1c bd
       -0.24555561 -0.04300687 0.15531664 -0.038206298
000310 fd e5 3c 3e 3a 4d 2f 3d 96 6f a5 3d 00 f8 d0 be
       0.18447109 0.04279826 0.08077924 -0.4081421
000320 a6 39 9a 3e 5d e7 30 be 69 7e db 3d cd 4c 4b bd
       0.30122107 -0.17275758 0.1071747 -0.04963379
000330 b9 fc 3d 3e b7 bc 69 3e 79 63 e1 3e 4e 78 52 be
       0.18553437 0.22825895 0.44021204 -0.20553705
000340 65 19 f7 bc 10 45 18 3c 26 7d b1 3e 2c 63 d6 be
       -0.030163476 0.0092938095 0.34665793 -0.41872537
000350 28 e8 33 3e 53 1d ee bd 20 42 7e 3d 51 19 b1 be
       0.1756903 -0.11626687 0.06207478 -0.34589627
000360 c1 ab 6e be f8 2c f2 3c bc cf 3e bd 84 d2 d4 be
       -0.23307706 0.029562458 -0.04658483 -0.4156686
000370 09 26 4d be d0 48 0a 3e 8e ec 1d be 45 56 fa bc
       -0.2003404 0.13504338 -0.1542227 -0.030558715
000380 97 af f3 bd 96 70 84 3d 98 8b 9f 3c 0c c7 2c bd
       -0.118987255 0.064667866 0.019475743 -0.042182013
000390 7d 90 b6 3d 50 bc da bd 90 1b 8d bd 6e 51 0b bf
       0.08914278 -0.10680449 -0.06890023 -0.54421127
0003a0 f7 ca 1b be c8 86 1a bd dc e7 4a be 5b 13 5c bd
       -0.15214144 -0.037726194 -0.1981501 -0.053729396
0003b0 04 20 cc be 7d df 3f 3e 75 be e0 bd 0e 1e 3d 3e
       -0.39868176 0.18737598 -0.10973827 0.18468496
0003c0 15 a3 ce 3d 83 f5 71 3e 8f 9c df be 78 8e e3 be
       0.10089699 0.23628812 -0.43674132 -0.44444633
0003d0 4d 15 82 be 3e 6a 73 3e b0 7c 6a be bc 46 c8 3e
       -0.25406876 0.23770997 -0.22899127 0.39116466
0003e0 1c ce 0b be e2 c0 3e 3f 4e 41 2d be 6b 99 35 3f
       -0.13652843 0.74513066 -0.16919443 0.7093722
0003f0 da 74 c9 bb 9b 3d b3 3e 45 1d 9a be 4d 63 c7 3e
       -0.006147963 0.3500794 -0.30100456 0.38942948

actor.0.bias f4 [64]
000000 a7 f8 2f 3a 17 0a 84 bd a5 7a 7c be 8f 43 a7 be
       0.00067127723 -0.06447237 -0.2465616 -0.3266873
000010 78 20 4a be 24 fe 2f bd 63 b4 17 3e 2a a2 b1 bd
       -0.19738948 -0.042966977 0.14814906 -0.086735085
000020 2c b2 7d bc e7 3b 92 bd 86 a1 1a 3b aa c8 b5 be
       -0.015484374 -0.07140332 0.002359481 -0.35504657
000030 47 02 b5 be ac ef 37 3d 8a f6 8c bd 15 42 1b be
       -0.353533 0.044906303 -0.06882961 -0.15161927
000040 0c 86 6f bd 41 49 35 be 99 e3 48 be 3b ce aa be
       -0.058477446 -0.17703725 -0.19618072 -0.33360466
000050 96 ad 70 bd 65 b8 8c be e8 23 8b be 1c 26 8d bd
       -0.058759294 -0.27484432 -0.27175832 -0.068920344
000060 92 e7 39 be 56 3b ea bd f2 4b a3 be 31 cb bd 3d
       -0.18154743 -0.11437099 -0.3189388 0.09267271
000070 cd 1b 30 bd a1 14 14 3c 94 e8 22 bd 20 7d c0 be
       -0.042995263 0.009038121 -0.039772585 -0.37595463
000080 4b 22 33 3e 97 0c a4 3e ba f9 2d 3c 1c 6d b7 bd
       0.1749355 0.32040855 0.0106186215 -0.08956358
000090 01 95 69 be 9b 54 bd be 0f 9f 00 be 91 85 6b be
       -0.22810747 -0.3697861 -0.12560676 -0.2300017
0000a0 61 0d cc be 07 24 f8 3d 60 f8 b8 bd f7 0c 07 be
       -0.39853957 0.12116247 -0.09031749 -0.1318854
0000b0 1d e9 38 bd 65 a9 2f be 8a ed 7a bc 9d 2e 0b bb
       -0.04514419 -0.17154463 -0.015315423 -0.00212375
0000c0 dc db 57 be a6 55 bf be 82 41 0a be 39 21 ae be
       -0.21079963 -0.37370032 -0.13501552 -0.34009722
0000d0 11 6e 44 be c5 53 5a be 30 4c e2 bd 0e 63 4b 3e
       -0.19182612 -0.21321018 -0.11049688 0.19862005
0000e0 e6 b1 71 3d 77 6d 48 be 58 3d 80 3e 55 2a 75 be
       0.059007548 -0.19573008 0.25046802 -0.2394193
0000f0 46 bc d3 bc 31 84 95 bd 5a bd a9 be 28 9c 02 be
       -0.025846612 -0.07300604 -0.33152276 -0.12754881

actor.2.weight f4 [32, 64]
000000 32 6d 43 3e ae c6 01 3e cc 8c 5e be ae 50 29 be
       0.19084623 0.12673447 -0.21733397 -0.16534683
000010 d1 c6 eb 3c 8c a0 5b be ee 17 f1 3c 9b 57 58 be
       0.028781326 -0.21447963 0.029430356 -0.21127169
000020 37 9a 58 be b9 b3 38 3e 00 4e 60 3e bb 0b 0f 3e
       -0.21152578 0.18037309 0.21904755 0.13969319
000030 85 20 00 bf 6a af 20 be 07 d6 03 3e b6 3a 9e bc
       -0.5004962 -0.15691915 0.12874614 -0.019315105
000040 fa 70 c0 3d a3 c5 ae bd cf 98 6d be 9d a2 b4 3d
       0.093965486 -0.0853379 -0.23202823 0.088200785
000050 95 0c 50 bd 8e 23 86 be 59 6b 16 3e 66 7a 36 be
       -0.05079325 -0.26199 0.14689387 -0.17820129
000060 1c d8 3f 3d 71 ac c2 3d 51 39 bd bb a3 ee 1a 3e
       0.046836957 0.09505547 -0.005774655 0.15130095
000070 8c 69 96 be f1 ce 63 3e ac 06 d0 bd bf ab 7a 3e
       -0.293774 0.2224691 -0.101575226 0.24479578
000080 d6 bd a9 be 0c be 80 be 5a 79 eb 3d 70 b0 e3 bd
       -0.33152646 -0.25144994 0.11497755 -0.11117637
000090 84 31 0e be 8b 20 e6 3d d0 65 d3 bc 40 35 0b bf
       -0.13886076 0.11236676 -0.025805384 -0.5437813
0000a0 69 f0 c8 3d 21 64 8c be 3e 34 2f 3d ae 61 17 be
       0.098114796 -0.27420142 0.04277443 -0.14783356
0000b0 54 0f 1d 3d bc f2 4a 3e 4d 93 d5 3d ea ff 81 be
       0.038344696 0.19819158 0.10428486 -0.2539056
0000c0 2c 29 b1 3e 9f a7 06 3d a8 8b df bc 05 55 a8 3d
       0.34601724 0.0328747 -0.027288273 0.08219341
0000d0 48 fd ea be 3a a9 17 bf b5 f0 71 3d 6c 7f 64 3e
       -0.45896363 -0.59242594 0.059067447 0.22314233
0000e0 65 db 04 be 58 ac 59 3c f1 32 09 be be 53 5d be
       -0.12974317 0.013285719 -0.13398339 -0.21613976
0000f0 37 b9 a1 3e e8 d8 0c be f9 cd e4 3c 24 76 aa bd
       0.3158662 -0.13754618 0.027930247 -0.08323315
000100 ed 8a 09 3e 85 be 51 3e 28 01 98 be e8 4d 66 bd
       0.13431902 0.20482834 -0.29688382 -0.05622664
000110 45 74 3a bd 94 4c 89 3d 9f 63 23 be 47 a8 a2 3d
       -0.04552104 0.06704059 -0.15955971 0.079422526
000120 61 f4 d1 bd 72 2b b1 3d 79 b9 57 be c5 98 ae 3d
       -0.1025169 0.08650865 -0.21066846 0.08525232
000130 70 52 b1 3b 73 f3 2f be d4 96 a9 3b 10 a2 8a bd
       0.0054114386 -0.17182712 0.005175451 -0.06769192
000140 d4 dc 82 be b3 4a e6 3b 14 52 4f bd 64 dd df 3e
       -0.25559103 0.007027948 -0.050615385 0.43723595
000150 9c aa 0f bd 19 e3 f2 be a9 74 2b 3d 63 7a ff 3c
       -0.035074815 -0.47438887 0.041859303 0.031186288
000160 8f d4 ac 3d 58 e1 46 3e 8e 9d 38 be c9 8f c1 bd
       0.0843898 0.194219 -0.18028852 -0.09451253
000170 c9 69 6a 3c 40 7e 32 be fa 35 c8 3d 80 c6 a7 3d
       0.014307448 -0.17430973 0.0977592 0.08192158
000180 06 8e dd bc 05 6b fb be 35 7c cd be 44 a5 c7 3d
       -0.027045261 -0.49105087 -0.40133825 0.09748319
000190 29 98 11 3e 45 02 13 be 37 48 77 be 08 08 aa be
       0.142182 -0.14356335 -0.24148642 -0.33209252
0001a0 dc 91 93 3d f0 03 f4 bd 60 b7 96 3e 84 bd 58 be
       0.07205555 -0.119148135 0.2943678 -0.21166044
0001b0 58 21 12 3e d5 e5 f7 3c 19 be c6 3d 48 d4 2a 3d
       0.14270532 0.03026096 0.09704227 0.041706353
0001c0 ac 25 7d 3e 8e 2d 19 3e 05 3d 7c 3d 7d 3e 8c 3e
       0.24721402 0.14958784 0.06158163 0.27391425
0001d0 d0 f0 9f bb af c9 3d be 31 ad 93 bd 82 45 c8 be
       -0.004881002 -0.18533967 -0.07210768 -0.3911553
0001e0 93 ce 04 3e 79 38 c4 3d 73 61 ff 3d 41 81 45 3e
       0.12969427 0.09581084 0.12469759 0.19287588
0001f0 d8 99 43 be bd 7c eb bd 48 b8 19 3d ff 4e 85 be
       -0.19101655 -0.11498401 0.03752926 -0.26036832
000200 72 59 c5 bc 57 68 91 3c d7 d2 89 3e e6 0b 9b 3d
       -0.024090502 0.017749948 0.2691867 0.07570629
000210 17 33 63 3d a0 45 30 be 85 a9 82 bd b0 b2 af bd
       0.055468645 -0.1721406 -0.063799895 -0.08579004
000220 f4 0b 01 be 83 e3 06 3e 57 4e 8a bd f3 e2 95 3d
       -0.12602216 0.13172726 -0.067532234 0.07318678
000230 8a 5d 49 be 71 3a 48 bd 97 8b 37 3e 6d 2d 39 3e
       -0.19664589 -0.04888386 0.17924343 0.18083735
000240 ed 80 41 3c 86 71 96 3e e6 08 65 3e e6 cd 02 3d
       0.011810523 0.29383487 0.22366676 0.03193464
000250 6d 6f cc bd b7 42 28 3e 0d a9 88 3e 0e 88 3d be
       -0.0998219 0.164317 0.26691476 -0.18508932
000260 0b 30 9d be d8 58 1c be 83 ac 90 bc 6b 7a 54 be
       -0.30700716 -0.15268266 -0.017660385 -0.20749824
000270 09 34 bf 3d 48 61 b8 bd 40 35 f2 be c3 79 d3 3d
       0.09336097 -0.0900293 -0.47306252 0.103259586
000280 a3 de fe bd 65 04 62 3d 26 d0 9a be 6a 8b df be
       -0.12444808 0.055179972 -0.3023693 -0.43661052
000290 8f 99 0a be e4 b7 2b 3d 47 ad 81 3e 63 fd 34 bd
       -0.1353514 0.04192342 0.25327513 -0.04418696
0002a0 ad 61 a5 3e df 7b 4c be 26 f1 0e 3d d1 5a b1 bd
       0.32301083 -0.19969128 0.034897946 -0.086599
0002b0 2f a2 be 3d cc e5 37 be 8d 73 a1 be 70 ad 20 bd
       0.09308278 -0.17958754 -0.3153347 -0.039227903
0002c0 e7 76 03 3f 50 e3 0b be 35 49 ce 3e a4 f8 88 3e
       0.51353306 -0.13660932 0.40290228 0.26752198
0002d0 65 7d d1 bd 33 d8 ea bc 3d 36 74 3e 3c 00 c5 be
       -0.10228995 -0.028667545 0.23848815 -0.3847674
0002e0 57 73 13 bf 40 57 8a bd 94 d5 e8 bc 7c a2 13 be
       -0.5759787 -0.06754923 -0.028422154 -0.14417452
0002f0 e0 02 8c bc 52 86 81 be 80 ed 60 3e 1d 38 ae 3e
       -0.017091215 -0.2529779 0.21965599 0.34027186
000300 72 93 aa 3d d8 df 78 bc 48 4d 67 be a4 08 a6 bd
       0.08328904 -0.015190087 -0.22588074 -0.08107117
000310 f7 a5 b1 3d 8a 91 8b 3c 2f fd c1 3e e1 56 97 bd
       0.086742334 0.017037172 0.37888476 -0.07389618
000320 82 7c fa 3d bc f5 83 be f6 8d 48 3e 23 4a 5d 3e
       0.12230779 -0.25773418 0.19585404 0.21610312
000330 4d c9 f9 bd df 0f 9d bd ec 7f 20 be a1 3c b0 3d
       -0.12196598 -0.07669043 -0.15673798 0.08605314
000340 5e 4e 0f 3e c4 ad 89 be 55 c8 6a 3e 8b c9 00 be
       0.13994738 -0.26890385 0.22927983 -0.12576883
000350 d2 f6 66 bd 9c 58 e2 3d b5 65 8e 3e 0f 03 a5 3e
       -0.05638773 0.11052057 0.2781197 0.32228896
000360 7b f9 78 3e dd c5 02 3e 52 84 17 be d2 47 9b bd
       0.24313919 0.12770791 -0.1479657 -0.07582058
000370 dd c4 fc be fe 57 6a be 6d 82 fc bd 83 3e 28 3c
       -0.49368945 -0.22885129 -0.12329564 0.01026881
000380 a1 8d 93 3d cf 49 15 be cf 00 45 3d 50 e2 b2 3c
       0.07204748 -0.14578937 0.048096474 0.02183643
000390 72 b3 05 bf 9c f1 c8 3c 10 02 88 be bc ad 55 be
       -0.52226937 0.02452927 -0.26564074 -0.20867056
0003a0 85 96 c2 3d 6d 4a 88 be 68 e9 ca bc a6 46 02 3d
       0.095013656 -0.26619282 -0.0247695 0.031805657
0003b0 52 96 95 be 25 10 34 3d 58 14 b6 3d af 33 a6 bd
       -0.29216248 0.04396071 0.08890599 -0.081153266
0003c0 40 36 42 3d be 65 ab bd 19 ee a8 3e 60 70 df bd
       0.047415018 -0.08369015 0.32994154 -0.10910106
0003d0 39 db 31 be e8 f6 ae be 96 9b 6a be 2f 3e 52 be
       -0.17368783 -0.3417275 -0.22910914 -0.20531534
0003e0 2a 87 c1 be 62 8e 6b 3e de aa 6c be 7a 2b a4 bd
       -0.37798434 0.23003533 -0.23112056 -0.08016105
0003f0 d0 00 d1 bd 9a cb 81 be 6a 1b bb bc 3f 9b 93 3e
       -0.10205233 -0.25350648 -0.02284022 0.2882938

actor.2.bias f4 [32]
000000 5e d5 d8 bd 76 95 0b 3d e7 9b 96 be f2 5c 26 be
       -0.105875716 0.034078084 -0.2941582 -0.16246393
000010 79 66 68 3d 7c 77 5a be 08 e4 9b 3c cf 49 ad 3d
       0.05673835 -0.21334642 0.019029632 0.084613435
000020 ac f6 ef bd 23 93 9b bd 1c aa 1f be 2b fb 09 3e
       -0.11716971 -0.075964235 -0.15592235 0.13474719
000030 9d e3 91 bd a0 c0 83 bd 05 ea a7 bd a5 d5 d6 bd
       -0.07123492 -0.06433225 -0.081989326 -0.10489968
000040 1b eb 83 bc 9f ba cc bc 84 92 6a bc eb bf c6 3c
       -0.016103318 -0.024991332 -0.014317159 0.024261435
000050 27 f6 f7 bd c9 71 22 be 84 aa 8a 3c aa 0f 6e bd
       -0.12107497 -0.15863718 0.016927011 -0.058120407
000060 d9 fe c6 bd 42 68 17 bd e0 63 1d be 6e 1a d2 3c
       -0.09716577 -0.036964662 -0.1537013 0.025647368
000070 99 b5 23 be f7 bd 34 be f6 1c 8a bd 23 8b 75 be
       -0.15987243 -0.17650591 -0.06743805 -0.23978858

actor.4.weight f4 [3, 32]
000000 ed 4c 0c bd 3a 3d b3 bc 98 16 7a 3b 90 ec 25 3d
       -0.03425305 -0.021879781 0.003816044 0.040508807
000010 c2 59 93 3c 37 ec b0 bb 33 83 1e bc 9b 6e ca bd
       0.017987136 -0.0053992528 -0.009674835 -0.098843776
000020 a3 31 be bb 7f d1 9b bd 97 f4 91 bd bc dc cd 3d
       -0.005804257 -0.076083176 -0.0712673 0.10051867
000030 3f 37 e9 3d 2a 2b c8 ba d4 16 15 ba 97 9a 7a bd
       0.113874905 -0.0015271653 -0.00056873006 -0.061182585
000040 ec 5e 73 bd 7d 08 9c 3c 41 80 0c 3d 10 34 95 3c
       -0.059416696 0.019047016 0.034302 0.018213302
000050 0c 6d ac 3c fd a1 b5 3d 47 f2 be bd 56 fd 44 bc
       0.021048091 0.088687874 -0.093235545 -0.012023291
000060 a2 73 05 be 23 db 52 3d 4d 3a 45 bc 19 86 2e bd
       -0.13032392 0.051478516 -0.012037826 -0.042608354
000070 40 bb 6e bd 61 5d 50 bd a4 4a dd 3c 3a a5 5d be
       -0.058284044 -0.050870303 0.02701313 -0.2164506
000080 fa f3 4a 3c b6 ad d4 b9 ed 04 6c bd 43 66 e5 3d
       0.01238727 -0.00040565216 -0.057621885 0.112011455
000090 44 51 2d 3d f5 ce 99 3c 82 58 aa 3c 7a 65 8c 3d
       0.04231383 0.018775443 0.020794157 0.068552926
0000a0 6f 4b 00 bc 44 77 74 bb 48 34 75 3d dd 13 65 3c
       -0.007830485 -0.0037302533 0.059864312 0.013981787
0000b0 16 ee 21 bc 5b 9f 5e 3d 9e 3c 9b bb 9f aa 9f 3b
       -0.009883424 0.054351192 -0.0047374507 0.0048726345
0000c0 5c c8 f5 3c 0a 1d f9 3c 41 7d da 3d 90 db e8 3c
       0.030002765 0.030409355 0.106684215 0.028425008
0000d0 76 03 c1 3d d7 cd 39 bd 90 7b 9b 3c 63 6d 41 3d
       0.09424488 -0.04536232 0.018979818 0.04722346
0000e0 5b ca ce 3c 0c 6d ea bc bc 26 94 bd ce 1f 39 3d
       0.025242975 -0.02861645 -0.072339505 0.045196347
0000f0 67 f3 f4 bc 7e 9e 58 bc e9 37 0e 3d 0e a5 d2 3c
       -0.02990122 -0.013221381 0.03472129 0.02571347
000100 99 ef c6 bd f5 b0 1a 3d 11 19 fe 3c b8 6c 44 bd
       -0.097136684 0.037766416 0.031017812 -0.047955245
000110 e1 64 19 bd b9 64 4a bd 28 f4 91 bc 66 06 d3 bd
       -0.03744972 -0.049412463 -0.017816618 -0.10303955
000120 84 3e 78 3d 69 0c b1 bc dc 4f 98 3d 67 24 43 3c
       0.060606495 -0.021612363 0.07437107 0.011910534
000130 34 b5 48 3d f4 ae 8d bd 1e 18 56 3c 3a 81 58 3d
       0.049000934 -0.06918135 0.013067273 0.052857615
000140 a7 ac 09 bd 13 cc 36 bd 26 a8 0c bd 46 a5 d7 3c
       -0.03361192 -0.044628214 -0.034340046 0.026323926
000150 5f 67 f6 bc d0 ae d1 bb c3 a7 bb 3b 6d 23 71 bd
       -0.030078588 -0.006399013 0.005726786 -0.058871675
000160 3b 59 80 3d e3 ca bf 3d b0 7f 82 3d 18 48 26 3d
       0.06267019 0.093648694 0.06372011 0.040596098
000170 14 22 60 3d 44 1a 3b bb 4c 4b 44 3d 7d da f4 3d
       0.05472 -0.002854959 0.04792337 0.11955736

actor.4.bias f4 [3]
000000 06 62 d1 bd a8 f6 41 be 55 f4 ab bd
       -0.102237746 -0.18941748 -0.08396212

critic.0.weight f4 [64, 24]
000000 6d 31 cc 3b 02 62 93 3e 88 c9 b2 bd fb 95 0e 3e
       0.006231478 0.28785712 -0.08729845 0.139244
000010 df 0e 17 3f f9 00 4f bf 89 a6 17 3f 85 87 34 be
       0.59007066 -0.8086086 0.5923849 -0.17629822
000020 7d a4 33 3d 9d 00 d8 be 13 70 84 3c b5 4a 04 be
       0.04385804 -0.42187968 0.016166722 -0.12919123
000030 5c 55 e0 be 69 92 98 bd 02 a7 ce be 3b 4b 00 bd
       -0.43815124 -0.074498005 -0.40361792 -0.031321745
000040 51 4f d9 be 71 da 24 3e 1f c2 7e be f7 b9 d7 bd
       -0.42443326 0.16098954 -0.24878739 -0.10533517
000050 21 89 be be 81 93 2f 3d c2 77 0f bf b5 b5 b3 bd
       -0.37213996 0.04286528 -0.5604211 -0.08774892
000060 38 0b 84 bd 5a b0 7a 3e 5e 6d 80 3e fc 74 c4 3e
       -0.06447452 0.24481335 0.2508344 0.38370502
000070 1c 05 a1 bf 79 ce 41 be fb 15 94 bf f0 cb 3e 3e
       -1.2579684 -0.1892642 -1.1569208 0.18632483
000080 52 b1 5c bf 9f 65 88 3e 72 35 3e bf 77 6b a2 be
       -0.8620807 0.2664003 -0.743003 -0.31722614
000090 da f8 ea be 85 1d 67 be 32 3d e1 bc 7c bf 47 bd
       -0.45892984 -0.22569855 -0.027495 -0.048766598
0000a0 10 65 85 3e c4 a8 04 bf 3e 4a 99 3e 0b 5b 96 be
       0.26053667 -0.51820016 0.29939455 -0.29366335
0000b0 8c 9e cb 3e c5 0a e1 be a7 84 20 3f 5e 8c e3 be
       0.397694 -0.4395353 0.6270241 -0.4444303
0000c0 03 5c d3 bd d4 b2 f1 3e 93 ce e9 be 49 aa 52 bd
       -0.10320284 0.47206748 -0.45665416 -0.051431928
0000d0 fa a4 98 be 13 53 9a 3e 3e 9e 4b be 38 d4 b0 3e
       -0.29813367 0.30141506 -0.19884583 0.3453691
0000e0 aa 6b e8 bd 04 f2 82 3e 5d 63 ff 3b 9f a1 29 3e
       -0.1134866 0.25575268 0.0077938274 0.1656556
0000f0 b1 d4 13 3f ca 2a d4 3d 7d 7d 8e be 5a 22 c5 3e
       0.57746416 0.10359724 -0.27830115 0.3850277
000100 5b 02 e0 be e7 de 3b be 03 2a 1b 3d 65 b4 d6 bd
       -0.43751797 -0.18346749 0.037881862 -0.10483626
000110 1c 3b 06 3e 80 25 2b be b0 c4 0d bd 22 b6 a2 be
       0.13108486 -0.16713524 -0.034611404 -0.3177958
000120 72 09 11 3f 89 2c 7c 3e 85 97 2a bf a4 e0 14 3e
       0.5665504 0.24626364 -0.6663745 0.14538819
000130 e3 cc 07 bf 59 6e 3c 3f 83 0a c5 be 20 f4 68 3d
       -0.5304701 0.7360588 -0.38484582 0.05687344
000140 e2 ec 1e bf 6f 88 35 bd ca f0 0f bf a2 b1 87 be
       -0.62080204 -0.044319566 -0.5622679 -0.2650271
000150 cb 86 94 be 5a f7 61 bf 7e 82 6d be e4 f0 35 bf
       -0.2900909 -0.88268054 -0.2319431 -0.71070695
000160 5e f1 b5 3d 47 c7 2d bf 8c cd b5 3d 7c 62 46 bf
       0.08883928 -0.678822 0.088770956 -0.77494025
000170 54 2d 88 3e 75 d1 81 bf 71 13 41 3e b6 9f 57 bf
       0.26597083 -1.0142046 0.18855073 -0.84228075
000180 2a c6 76 be 43 89 09 3f b2 f1 25 bf 8c db 88 bf
       -0.24099031 0.5372507 -0.6482192 -1.0692
000190 bf 4c e1 bf dc 2e e1 3f a3 03 43 bf 40 b1 a1 3f
       -1.7601546 1.7592425 -0.76177424 1.2632217
0001a0 5e 83 03 bf 69 95 60 3f 91 5d 31 be 6f 3a 73 3f
       -0.51372325 0.8772798 -0.17320849 0.9501104
0001b0 f7 3a cb 3e 49 79 17 3f dd f0 1f 3e ab 71 bb 3d
       0.39693424 0.5916944 0.15619226 0.0915254
0001c0 52 12 1e 3e 12 3c 73 3b 9d 79 d7 3e c5 b4 a2 3e
       0.15436676 0.0037114662 0.4208497 0.3177854
0001d0 83 bb f9 3e a3 3a dd 3e 95 39 36 3f ce 19 e7 3e
       0.48775873 0.432088 0.71181613 0.45136875
0001e0 18 4a 9e 3e a2 b7 37 be 6d 13 36 bf 8b 8a a4 3e
       0.30915904 -0.17941144 -0.7112339 0.3213695
0001f0 c5 4b c2 3d 07 6d 9d 3f 43 91 9c be b5 af 59 3f
       0.09487108 1.2298898 -0.30579576 0.8503373
000200 91 86 e5 bb 3b a6 94 3f b8 0a 32 bd 85 0a 32 3f
       -0.007004567 1.161323 -0.043467253 0.695473
000210 31 4b 7c bd 2c 60 02 3f c8 b5 8e 3d 50 2e 02 3f
       -0.061595146 0.50927997 0.06968266 0.5085192
000220 fd 48 a0 be b2 30 10 3e 62 4d 83 be bd e3 c0 3e
       -0.31305686 0.14081076 -0.25644976 0.3767375
000230 41 96 07 be 18 34 56 3e 43 4f 92 be 6d 36 23 3e
       -0.13240911 0.2091831 -0.28576097 0.1593873
000240 e8 ee 25 bf 48 e0 df 3e 01 41 a5 bd 52 92 4c bf
       -0.64817667 0.437258 -0.08069039 -0.7991077
000250 4f ac e1 bd c1 83 54 3e bf 69 48 bf 6b e5 51 3e
       -0.110191934 0.20753385 -0.78286356 0.20497672
000260 c0 5f 6b bf 70 cd 90 bd 51 07 3f bf a3 af 86 be
       -0.9194298 -0.07070434 -0.7462054 -0.26305875
000270 6a 38 5f bf 4e 4f 03 bf 99 83 14 bf ff 42 ca be
       -0.87195456 -0.51292884 -0.580133 -0.3950424
000280 3a 5f 0b bf c8 92 93 3c 9f 48 1f bf fd 50 bc 3d
       -0.5444218 0.018014327 -0.62220186 0.09195135
000290 08 5c ca be 9b 8b dd bc ab 7e bd be 99 64 71 3d
       -0.3952334 -0.027044108 -0.37010702 0.058933828
0002a0 2b 7b 2d 3e fe 41 77 be a0 40 84 bd 79 4e fb 3e
       0.16941516 -0.24146268 -0.06457639 0.49083307
0002b0 68 cf 34 3f c6 0f a5 3f 5a ce bf 3e 61 66 ac 3f
       0.70628977 1.2895439 0.3746212 1.3468744
0002c0 b5 40 12 3e c4 17 d8 3f 33 e7 15 3e 2d 34 d2 3f
       0.14282496 1.6882253 0.14638977 1.6422173
0002d0 7b e8 a7 3d 57 e9 b7 3f 85 45 1b be 6d b3 91 3f
       0.08198639 1.4368085 -0.15163238 1.1382881
0002e0 f3 6d 64 be 8f 82 6c 3f 52 47 1e 3e 71 70 89 3f
       -0.22307567 0.92386717 0.15456894 1.0737439
0002f0 f8 21 8d 3d 7c c6 4e 3f 5c 7d 61 3d 31 1b 90 3e
       0.06891245 0.80771613 0.055051193 0.28145745
000300 07 8f aa 3d d1 40 d2 3e db db 01 bf c0 12 cc bf
       0.083280616 0.41065076 -0.507261 -1.5943222
000310 7e 47 20 bd 34 11 d5 3e 39 c8 08 bc 64 4c ca 3c
       -0.03913068 0.41614687 -0.008348518 0.024694629
000320 6a 44 2c 3e 5a 51 98 3d 22 17 37 be 56 70 8f bd
       0.16822973 0.074373916 -0.17879918 -0.07003848
000330 28 e0 d2 bd ef 4a 5c 3e 8c 19 ba be a9 45 ea be
       -0.10296661 0.2151296 -0.36347616 -0.4575627
000340 a1 45 88 3d 97 e3 c3 be 26 7c e5 bd a0 3c 30 bf
       0.06653906 -0.38259575 -0.1120532 -0.68842506
000350 77 89 e7 3c b9 6a e3 be 55 4e 60 3e 21 16 0f bf
       0.02826379 -0.4441736 0.21904881 -0.5589314
000360 bf f3 e1 bd 9c 1c b2 bd de a7 59 3f 10 9e e2 3e
       -0.11032819 -0.08696863 0.8502177 0.44261217
000370 24 55 5b be 8b f5 24 bf 61 60 ec 3c 5f 02 8e be
       -0.21419197 -0.6443717 0.02885455 -0.27736184
000380 14 3e 8f be dc d9 2e be ea 73 e4 be c0 ad e4 be
       -0.2797705 -0.17075294 -0.44619685 -0.4466381
000390 73 7b b8 bc 32 01 85 3d cf 4f 63 be 43 3d 48 3e
       -0.022519803 0.064943686 -0.22198413 0.1955462
0003a0 55 22 6e be 71 c7 fe bc 7f 7f cc 3d f6 17 6b 3e
       -0.23255284 -0.03110096 0.099852555 0.22958359
0003b0 6c 81 78 be d7 62 92 3d c4 db ad be 06 14 b2 3e
       -0.2426812 0.071477585 -0.3395673 0.34780902
0003c0 41 21 15 3f 36 3c f7 be 29 22 33 bf 44 07 9f 3e
       0.58253866 -0.48288125 -0.69974 0.3106023
0003d0 76 32 a6 3d de 65 48 3f b9 68 bd 3d 07 14 8b 3f
       0.081150934 0.78280437 0.0924849 1.0865487
0003e0 e4 23 ad 3e 22 62 4c 3f 05 fd fb bd 14 03 a4 3f
       0.33816445 0.7983724 -0.12304119 1.2813439
0003f0 6f d3 c7 bd 77 6b 08 3f 73 00 60 3d 42 12 18 3f
       -0.09757125 0.5328898 0.05468793 0.5940286

critic.0.bias f4 [64]
000000 f8 ba 3d 3f fd 2e 50 3f f4 01 23 bf f7 ca 9f 3e
       0.74113417 0.813217 -0.63674855 0.31209537
000010 d4 49 29 3e 24 86 2b 3f 72 10 3f bf f1 10 45 3e
       0.1653207 0.6700156 -0.7463447 0.19244744
000020 4b 95 ec be d2 35 18 3f 60 f9 22 3f c5 a9 bc 3e
       -0.46207651 0.59457123 0.63661766 0.36848274
000030 29 3d 26 3f 12 4f c8 3e a7 25 2d bf e4 1e 68 3e
       0.64937073 0.39122826 -0.6763558 0.22668034
000040 34 c1 0f be fd 8c 06 3f 3b 70 b2 3e c0 65 07 bf
       -0.14038545 0.5255888 0.3485125 -0.52889633
000050 b4 dd 37 3e 36 26 5a 3f 1d 67 94 bf d9 e9 83 bf
       0.17955667 0.85214555 -1.1593968 -1.030574
000060 7e 4c ad 3e 83 4c 72 be 4a af d1 bf 7b 1d 06 3f
       0.3384742 -0.23662 -1.6381619 0.52388734
000070 09 61 07 3f 51 ce 04 3f 31 93 f1 3e a6 45 18 3e
       0.5288244 0.51877314 0.4718261 0.14870319
000080 8c 6b 0a 3f 05 8c a8 be c5 22 c7 3d 85 67 1e 3f
       0.54070354 -0.32919326 0.09723429 0.6187671
000090 67 e8 85 be ed 54 f3 3d da b9 03 3f 3a 75 7d bf
       -0.2615387 0.11881433 0.5145546 -0.99007
0000a0 4a c3 81 bf bf 26 23 3d 27 4a 3c bf 19 75 c1 3e
       -1.0137722 0.039831873 -0.7355065 0.3778465
0000b0 08 12 0e 3f 46 b3 e9 3e c8 57 5b bf df 12 16 3f
       0.55496264 0.45644587 -0.8568082 0.58622545
0000c0 88 64 cd 3e eb 63 a5 bf ed d8 2a 3f 1b 0a dd be
       0.40115762 -1.2921118 0.6673725 -0.43171772
0000d0 16 27 56 3f 24 39 0e bf 23 80 1e 3f 32 a3 03 3f
       0.8365339 -0.5555594 0.6191427 0.5142089
0000e0 21 65 38 bf c6 d3 58 bf 48 3f 44 bf 81 61 93 be
       -0.7202931 -0.8469814 -0.7665906 -0.28785327
0000f0 c0 7b 0b 3f 89 0c 37 bf 1d 2f 39 be 99 d0 d5 3e
       0.544857 -0.715035 -0.18084379 0.4176071

critic.2.weight f4 [32, 64]
000000 ee 55 40 3e ea f3 d9 3e 2a 56 b8 be 70 5d 4a 3e
       0.1878278 0.42568904 -0.36003238 0.19762206
000010 ea bd a3 3e cc 5a 31 3e e5 fb 58 3e 8f f3 95 be
       0.3198083 0.17319793 0.2118984 -0.29287383
000020 62 88 05 3f 88 0d 62 3e 34 ea e4 be 8a a6 68 be
       0.5216123 0.22075474 -0.44709933 -0.2271978
000030 8d 22 e8 3e d5 11 cb bd e2 cb b1 be f3 74 ab bd
       0.4533886 -0.099155106 -0.34725863 -0.08371916
000040 20 66 06 bf 97 a5 6b 3e e4 80 8c 3e 40 66 55 3d
       -0.5249958 0.23012386 0.27442086 0.052099466
000050 ca de 92 3c 06 4b 2a be 67 d5 e6 3c 13 80 2a be
       0.0179285 -0.16630182 0.02817793 -0.16650419
000060 60 8d f0 3e f0 6c 34 3f 9f ed 18 3f b3 9e 0f bd
       0.4698286 0.70478725 0.5973758 -0.035063457
000070 c5 04 da be 4f 04 20 3f b9 e4 81 bd bc 18 1d 3f
       -0.42581764 0.62506574 -0.063424535 0.61365867
000080 d0 0c 0d 3f 3c 12 32 3f 53 d8 01 3c 17 39 3f 3e
       0.55097675 0.69559073 0.007925111 0.18674122
000090 cf 33 9d 3c df 63 2e 3e b5 54 d0 3e 48 fa c7 bf
       0.019189743 0.17030285 0.40689626 -1.5623255
0000a0 13 59 b3 be 8b b7 a3 3d 66 70 82 be 1b 58 a8 3e
       -0.35028896 0.079939924 -0.25476378 0.3287972
0000b0 50 65 03 bf 45 58 9a be dd 9c 75 3e e3 54 40 3d
       -0.51326466 -0.3014547 0.2398562 0.046955954
0000c0 f8 c7 14 be 6b 34 09 3f e3 fa 73 3e 05 54 07 3f
       -0.14529407 0.5359561 0.23826174 0.5286258
0000d0 32 74 14 3f c4 20 4e 3e 77 61 86 3e 38 80 9e 3e
       0.579898 0.20129687 0.26246235 0.30957198
0000e0 f1 95 dd 3e e5 ca fc be 6f e5 80 3e 04 36 d3 bf
       0.4327846 -0.49373546 0.25175044 -1.6500859
0000f0 07 b0 c0 3e 4c fb 67 be 85 86 d6 bd 0f 9d 22 3d
       0.37634298 -0.22654456 -0.10474876 0.039700564
000100 6f 8a 5a 3e 34 9c 49 3e d0 e7 af be 1e 2e 96 3e
       0.2134187 0.19688493 -0.34356546 0.2933206
000110 96 05 83 3e b5 04 86 3e 5e b7 24 bf cc 03 d8 be
       0.255902 0.26175466 -0.64342296 -0.42190397
000120 d0 3a dd 3b d9 c0 b5 bd 2a 59 44 3d 72 2d c5 3e
       0.0067513958 -0.088746734 0.047936596 0.38511235
000130 b4 bc ac 3e a1 ff da 3d f6 26 79 bf d1 a1 b4 3d
       0.3373772 0.106932886 -0.97325075 0.088199265
000140 53 6f c8 3d ad 98 a9 3e d5 37 50 3c e8 cb b0 be
       0.097868584 0.33124295 0.012708624 -0.34530568
000150 df 97 85 bd 3b b3 9f 3e e0 d7 94 bf 82 80 5d bf
       -0.06523108 0.3119143 -1.162838 -0.8652421
000160 18 fc 87 3e 78 3d 42 bf e0 cb 89 bf e3 3f 6f bd
       0.2655952 -0.75875044 -1.0765343 -0.058410536
000170 de d1 a5 3e 05 42 c8 3e 60 8b b7 3e 72 fb 30 3c
       0.32386678 0.3911287 0.35848522 0.010802137
000180 22 f0 50 3e 19 bc 59 be 09 da 4f 3d 5b 04 d6 3e
       0.20404103 -0.2126316 0.050745044 0.41800198
000190 9c 9f f6 3d 4a bc ae bd d6 be ff 3e 3f 64 53 bf
       0.12042162 -0.08532007 0.49950284 -0.8257484
0001a0 2d 1b ef bf a8 31 9b be da c9 87 bf c8 c0 a8 3c
       -1.8680168 -0.30311322 -1.0608475 0.020599738
0001b0 0e 0f be bd 66 56 88 3e 9e 48 83 be fc b8 07 3e
       -0.09280215 0.26628417 -0.2564134 0.1325416
0001c0 09 4b 1f 3e 35 d3 59 bf 61 2a 05 3f e1 36 e2 be
       0.15555967 -0.850879 0.5201779 -0.44182494
0001d0 3b 92 e3 3d bc bc 24 bf ac 58 8c 3e 92 bb b2 3d
       0.111118756 -0.64350486 0.274114 0.087271824
0001e0 a9 44 19 bd 70 2a 8d bf 8a 96 e3 bd 9d f7 90 be
       -0.037418995 -1.1028576 -0.111126974 -0.28313914
0001f0 ec 15 b1 3e 33 39 32 bf 97 e9 86 be 37 ef 03 3c
       0.34587038 -0.6961853 -0.2635009 0.008052639
000200 ce ab 15 3e fb aa 90 3e 86 bd 22 bf bb 9e 43 bd
       0.1461632 0.28255448 -0.6357044 -0.0477588
000210 df 7c 95 be 11 7e 32 bd 67 79 0a bd 87 47 46 3e
       -0.29196832 -0.043577258 -0.033807185 0.19363223
000220 fa fb 6d bf e0 6a 33 3e 08 d8 82 be aa d8 e7 3e
       -0.9296261 0.17521238 -0.25555444 0.4528249
000230 3e 07 7d bd df e2 0e be c5 4f e7 be 42 53 95 be
       -0.061774485 -0.13953732 -0.45178047 -0.29165083
000240 fe 92 8a be 93 85 42 3e 1f 1c 9e 3e 29 89 ae be
       -0.2706527 0.18996267 0.3088083 -0.3408902
000250 8a 02 5b 3e a5 65 13 bf a6 4f 82 3d 33 87 b2 be
       0.21387687 -0.5757697 0.06362848 -0.34868774
000260 fa 5c b4 3e 41 95 37 3e 66 ab 59 3f a0 bc c5 be
       0.35227185 0.1792803 0.8502716 -0.38620472
000270 45 ac 10 be 10 cc 3f 3e fa 22 dc be 7e f1 97 be
       -0.14128216 0.18730187 -0.42995435 -0.2967643
000280 ee b9 d9 be 4f 1d ef 3d 6c b6 b4 3d 5f a4 83 3e
       -0.42524666 0.11675512 0.08823857 0.25711343
000290 7d 42 ab bf fd aa 5c be 25 8d b2 3e 40 9d 78 bf
       -1.3379666 -0.21549602 0.3487331 -0.97114944
0002a0 29 fc 98 be 05 fd 31 bf fa bb 96 be a9 a4 58 bd
       -0.29879883 -0.695267 -0.2944029 -0.052891407
0002b0 49 41 bf bc ce bd 57 bf 93 f4 45 bd 6e e9 86 3e
       -0.02334656 -0.84273994 -0.048328947 0.26349968
0002c0 e6 ed 27 bf f2 09 d2 3d 90 aa c4 3e 60 f9 96 3e
       -0.6559738 0.10255803 0.3841138 0.29487133
0002d0 36 79 50 bf b9 38 34 3e f8 80 9e 3e 0e ad e2 3e
       -0.81434953 0.17599763 0.3095777 0.44272655
0002e0 1a af 94 be 36 09 d5 be bd 60 21 bf 65 a6 69 bf
       -0.29039842 -0.4160859 -0.63038236 -0.9126952
0002f0 c0 4d 82 3e e0 1d 53 bf a8 09 a9 be 74 3b 33 3d
       0.25449944 -0.8246746 -0.3301518 0.04375787
000300 b6 d9 b1 3e eb ba e5 bf dc 55 96 3d 0a 3e b2 bf
       0.34736413 -1.7947668 0.07340595 -1.3925183
000310 ed 95 30 3e 14 af b8 bf b7 9c 28 3f b7 b3 62 bf
       0.17244692 -1.442843 0.6586413 -0.88555473
000320 d2 1d 5a be c9 e0 1f 3f a3 48 b3 bf 01 f3 a3 3e
       -0.21300438 0.6245237 -1.4006542 0.32021335
000330 09 ab 02 bf 73 2d 21 3f 9a d9 22 3f f6 41 ac bf
       -0.5104223 0.62959975 0.63613284 -1.345763
000340 16 dd 16 3c fb 46 44 3e 4a ff 79 3e f4 cc bb be
       0.009207984 0.19167702 0.24413791 -0.36679804
000350 f1 d6 45 bc 59 cf 1a c0 1e 01 86 3e 92 80 24 3f
       -0.012075172 -2.4189055 0.26172727 0.6425868
000360 d9 15 04 bf 78 f1 10 3f a0 56 01 bf 85 3a 8b bf
       -0.51595837 0.5661845 -0.50522804 -1.0877234
000370 c3 d9 43 bf 85 d4 09 3e cd ab 3e be 50 33 6a be
       -0.76504153 0.13459976 -0.18620224 -0.22871137
000380 d4 3c d8 be f9 19 90 bf 68 6d 21 bf 71 99 fa 3e
       -0.42233908 -1.1257926 -0.63057566 0.48945192
000390 db 4b ad be b4 d7 78 bf a6 d9 41 be 66 7c d8 bd
       -0.33846936 -0.97204137 -0.18930683 -0.10570602
0003a0 50 25 f3 3e 98 6c e4 be 12 f3 39 3f 70 98 a5 bf
       0.47489405 -0.446141 0.7263652 -1.2937145
0003b0 4e 65 fe be 3c d5 3e bc 7d d8 14 3f ec 51 0b be
       -0.49686664 -0.011647519 0.58142835 -0.1360547
0003c0 87 72 bf be 3d 49 76 3e 7f 33 94 3d 1e 7f c6 be
       -0.37392065 0.24051376 0.072363846 -0.38768858
0003d0 0d 7b 6d bf fb c5 7e be 8e ef 9b bd ff 7a e3 3d
       -0.92765886 -0.24880211 -0.07614051 0.11107444
0003e0 dc f0 90 3f e5 90 5f bd 0e 85 32 bd 68 96 78 bf
       1.1323504 -0.05458154 -0.043583922 -0.971045
0003f0 52 38 ee bf f1 fb 28 3f 27 6a 99 3e 04 a1 d8 be
       -1.8610938 0.6600943 0.299638 -0.42310345

critic.2.bias f4 [32]
000000 74 2f b5 3e e4 c2 4a 3f a4 79 3c 3e 8b 62 63 be
       0.35387766 0.7920363 0.18405777 -0.2220556
000010 1b bf 06 3f f7 20 00 3f 9c 9b 0d 3f c4 80 89 be
       0.52635354 0.500503 0.55315566 -0.26856053
000020 d3 cc 02 3f 3c 1f 15 bf ae 10 20 bf 2d 16 51 3f
       0.51093787 -0.58250785 -0.6252545 0.8167446
000030 60 5a 0b 3f 81 ac 84 be 0e 31 ec 3e eb ef 5e be
       0.54434776 -0.2591286 0.46131176 -0.21771209
000040 b7 54 df be e9 00 34 be b7 f5 82 be 00 c2 d6 be
       -0.4361932 -0.17578472 -0.2557809 -0.41944885
000050 bc e3 c3 bd 26 01 85 be c9 3f ac 3e e2 05 23 3f
       -0.09564921 -0.2597744 0.33642414 0.6368085
000060 f4 93 ab bd 27 a0 fc 3d 58 6e 28 bf be d1 c1 be
       -0.08377829 0.12335234 -0.6579337 -0.37855333
000070 1b 53 d0 be 5a d1 26 3f ce 22 e0 be 2d e2 0e 3f
       -0.40688404 0.65163195 -0.43776554 0.55813867

critic.4.weight f4 [1, 32]
000000 c6 55 04 3f 52 c1 1f 3f c8 31 2b 3f ac da 99 bf
       0.5169338 0.6240436 0.66872835 -1.2019858
000010 e3 4d 08 3f 54 ff f0 3e c9 53 f4 3e a6 e1 6b bf
       0.53243846 0.470698 0.47720173 -0.9214119
000020 0e a8 13 3f 5c 6c 94 be 1c 14 57 bf a2 f8 05 3f
       0.57678306 -0.28988922 -0.8401506 0.5233251
000030 0d 40 a8 3e dc 43 15 bf a0 59 26 3f bd 6f 8e bf
       0.32861367 -0.5830667 0.64980507 -1.112785
000040 73 52 78 bf c7 16 70 be 39 17 0a bf 32 2b b9 be
       -0.9700081 -0.23446189 -0.53941685 -0.36165768
000050 b3 67 2b be 80 04 65 bf a7 ad f9 3e 13 1a 03 3f
       -0.16738777 -0.8945999 0.487653 0.5121166
000060 7d 5c 40 bf 04 35 b8 3e b4 28 63 bf 4a b9 44 bf
       -0.75141126 0.35977948 -0.88733983 -0.7684523
000070 e0 4b 67 bf 2b 9c 3f 3f f5 96 8b bf 88 db df 3e
       -0.9035015 0.7484767 -1.0905443 0.43722177
