logs/exp/21_11_02_11_46_52/model_0.pt (torch, 34660 bytes, 12 tensors)

log_std f4 [3]
0	0xbbb8acf4	-0.005635852
1	0xba1c01f9	-0.00059512217
2	0xba87066f	-0.00103016

actor.0.weight f4 [64, 24]
0	0xbdca96ee	-0.09892069
1	0x3c7fa57c	0.015603419
2	0x3e0ba3e3	0.13636737
3	0xbc51ec3a	-0.012812668
4	0x3d6b6da1	0.057477597
5	0xbd798414	-0.060916975
6	0x3e6b270b	0.22964112
7	0x3ebaafe0	0.36462307
8	0xbdbb9297	-0.09158819
9	0x3e0f7157	0.1400808
10	0x3e0ad759	0.13558711
11	0xbd23e73f	-0.040015455
12	0xbec3e45d	-0.38260165
13	0xbde86c00	-0.11348724
14	0x3e846587	0.2585871
15	0xbd0c2f21	-0.034224633
16	0x3d96abb1	0.07356966
17	0x3eab712e	0.33484787
18	0xbe281574	-0.16414434
19	0x3cb3ec92	0.021963391
20	0xbdee3afe	-0.116323456
21	0xbce2cb92	-0.02768496
22	0x3e206bd3	0.15666132
23	0xbe53f0d6	-0.2069734
24	0xbcf8053d	-0.030275935
25	0x3e0ae4fe	0.13563916
26	0x3e46b5c2	0.19405273
27	0xbe34ca89	-0.17655386
28	0xbee13241	-0.43983653
29	0xbe6da4a3	-0.23207335
30	0x3db411f5	0.087924875
31	0xbddf7a48	-0.10911995
32	0xbdbbfe98	-0.09179419
33	0xbcf140dc	-0.029449873
34	0xbe626395	-0.221083
35	0xbd99d3c6	-0.07511096
36	0xbd4b2286	-0.04959347
37	0x3d114d92	0.035474367
38	0x3e42684d	0.189851
39	0xbe3075fe	-0.1723251
40	0xbe0c882a	-0.13723817
41	0x3eb84330	0.3598876
42	0x3d65d9a1	0.05611575
43	0x3e60beb7	0.21947752
44	0xbdad40f4	-0.084596545
45	0xbee3015e	-0.4433698
46	0xbdc7cf03	-0.09756281
47	0x3e0588b5	0.13040431
48	0xbd2d81b2	-0.042360015
49	0xbd00b747	-0.031424787
50	0x3e4720f4	0.19446164
51	0xbe157f83	-0.14599423
52	0xbe03f143	-0.12885003
53	0x3cd53013	0.0260239
54	0x3e81f986	0.25385684
55	0x3ddb7b5c	0.10716888
56	0xbebdd9ec	-0.37080324
57	0xbe02c4ee	-0.12770435
58	0x3e0c73ed	0.13716097
59	0x3ea10304	0.31447613
60	0x3c30cbb4	0.010790754
61	0x3de8f620	0.113750696
62	0xbe7c62f5	-0.24647124
63	0xbe0b043e	-0.13575837
64	0x3d26f0ec	0.040757105
65	0xbaa6b0ef	-0.0012717525
66	0x3e100b90	0.1406691
67	0xbe7a9667	-0.24471436
68	0xbe1f1cb1	-0.15538289
69	0x3cccf163	0.025017446
70	0x3d9e21f1	0.077213176
71	0xbbc739b6	-0.0060798777
72	0xbe49b5f8	-0.19698322
73	0xbb990cae	-0.004670701
74	0xbc366335	-0.011132051
75	0x3d6f35b2	0.058400817
76	0xbe07e07e	-0.1326923
77	0x3e8b731d	0.27236262
78	0x3e84ff2d	0.25975934
79	0xbee5cea5	-0.4488422
80	0xbe0fd744	-0.14046961
81	0xbe5cb64e	-0.21553919
82	0x3e247036	0.1605843
83	0xbddad656	-0.106854126
84	0xbdef5834	-0.11686745
85	0xbdd0d6b2	-0.101972
86	0xbe14acbb	-0.14519016
87	0xbe9beb48	-0.30452943
88	0x3e72a07e	0.23694035
89	0xbe74a662	-0.23891595
90	0xbe0aeb16	-0.1356624
91	0x3d03febd	0.03222536
92	0xbd4a3fc3	-0.049377214
93	0x3e62f648	0.22164261
94	0x3e279494	0.16365272
95	0x3d4343f8	0.047672242
96	0xbef8783c	-0.48529232
97	0xbd0e21de	-0.034700267
98	0xbea2e36d	-0.31814137
99	0xbdaaf873	-0.08348169
100	0x3ebe4125	0.37159076
101	0xbd81954c	-0.06327304
102	0x3d810518	0.062998
103	0xbdbfbf76	-0.0936269
104	0x3dda33e3	0.10654428
105	0x3e08d2ec	0.1336171
106	0xbe1d913a	-0.15387431
107	0x3d9d2a94	0.07674137
108	0x3da60a3d	0.081074215
109	0x3dfef3f7	0.12448876
110	0xbdeac84c	-0.11463985
111	0x3e7b28e6	0.2452732
112	0x3e542cc8	0.20720208
113	0xbc545e77	-0.012961975
114	0x3db5c1a0	0.08874822
115	0x3cf69a9b	0.030103019
116	0xbd66db46	-0.05636146
117	0x3e157bc6	0.14597997
118	0xbe7a6fa3	-0.24456649
119	0xbea131c3	-0.31483278
120	0xbe95030c	-0.29103887
121	0xbd61adac	-0.055097267
122	0xbdd96da8	-0.106166184
123	0xbd451447	-0.04811504
124	0xbd9d5157	-0.0768153
125	0xbe357603	-0.17720799
126	0x3df9a6e6	0.121900365
127	0xbe81f5a6	-0.25382727
128	0xbe5323ee	-0.20619175
129	0x3e993114	0.29920256
130	0xbd37c3a8	-0.044864327
131	0xbd8dd446	-0.069252536
132	0x3dc48625	0.095958985
133	0x3e0b5455	0.13606389
134	0x3dd59c3f	0.10430192
135	0x3e0db7de	0.13839671
136	0xbdf30ba3	-0.11867454
137	0xbea0a6d7	-0.3137729
138	0xbdf5c5d9	-0.12000627
139	0x3eca3eb4	0.39500964
140	0x3e4a3524	0.19746834
141	0xbe300b3f	-0.1719179
142	0xbc519401	-0.012791635
143	0xbe9d9e8c	-0.30785024
144	0xbcf64bf3	-0.030065512
145	0x3e1373df	0.1439967
146	0x3e6b6e79	0.2299136
147	0x3e850d77	0.25986835
148	0xbdc72314	-0.097234875
149	0xbe8bc13e	-0.2729587
150	0x3d927804	0.071517974
151	0x3e14496c	0.14481133
152	0xbe917edc	-0.284171
153	0x3ebffaa6	0.37495917
154	0xbdf2fa5f	-0.11864161
155	0xbe3a56a0	-0.18197107
156	0xbcd324ba	-0.025774349
157	0x3e2a6690	0.16640687
158	0xbc9e69c5	-0.019337544
159	0x3dcab04a	0.09896906
160	0x3eaac848	0.33355927
161	0xbe89de35	-0.26927343
162	0x3e397914	0.18112594
163	0xbea93ea2	-0.33055598
164	0x3ea89aa3	0.32930478
165	0x3cf0f7a9	0.029414969
166	0x3e69eca6	0.2284418
167	0x3d851568	0.064982235
168	0x3e853821	0.26019385
169	0xbe5d36f9	-0.21603002
170	0x3e3982af	0.18116258
171	0xbe2d7e08	-0.16942608
172	0x3de59a4d	0.11211071
173	0xbe50e0ea	-0.20398298
174	0x3e08fc60	0.13377523
175	0xbd90290a	-0.070390776
176	0x3e225a64	0.15854794
177	0xbe289edc	-0.1646685
178	0xbcfa1b87	-0.030530704
179	0x3d28939f	0.041156407
180	0x3e6d0d37	0.23149572
181	0xbe62b9ee	-0.22141239
182	0xbe2d4306	-0.16920099
183	0x3dd09ebc	0.10186526
184	0xbd2dc554	-0.042424515
185	0x3d594a46	0.05304935
186	0xbe81c89d	-0.25348368
187	0x3d365a44	0.044519678
188	0x3e3acaec	0.18241471
189	0x3dcebc3d	0.10094497
190	0xbe49b217	-0.19696842
191	0x3d60c2e0	0.054873347
192	0x3db28fc6	0.08718829
193	0x3deb6484	0.11493781
194	0x3d092826	0.033485554
195	0xbe04d3a3	-0.12971358
196	0x3ed64d1e	0.4185571
197	0xbeb3e2f4	-0.3513409
198	0x3cc2ac56	0.023763817
199	0xbe8b43d6	-0.27200192
200	0x3e8cb678	0.27482963
201	0xbc872c15	-0.016500512
202	0x3e84e4ce	0.25955814
203	0x3bdc4130	0.006721638
204	0xbe5d9d65	-0.21642072
205	0x3d04f718	0.03246221
206	0xbe1b53c7	-0.15168677
207	0xbdfcc89a	-0.12342949
208	0xbdb37d0e	-0.08764087
209	0xbe702886	-0.23452958
210	0xbe5b28eb	-0.21402328
211	0x3d16810a	0.036744155
212	0xbdbbda2e	-0.09172474
213	0xbeacdf06	-0.33763903
214	0x3e67219d	0.22571416
215	0x3e1ec9aa	0.15506616
216	0x3eca4731	0.3950744
217	0xbdce304f	-0.10067808
218	0xbe5feecf	-0.21868442
219	0xbd9bdb85	-0.076102294
220	0x3d69142b	0.056904
221	0xbcfd8390	-0.030946523
222	0x3ea21136	0.31653756
223	0x3c99f217	0.018792195
224	0x3da19cf3	0.07891264
225	0xbd205178	-0.039140195
226	0xbec47cb6	-0.38376397
227	0xbc6a1e9f	-0.014289527
228	0x3d19d442	0.03755594
229	0x3e599539	0.2124833
230	0x3de83d1a	0.11339779
231	0x3c0d4b3b	0.008623893
232	0xbe763025	-0.24041803
233	0xbc92fe6a	-0.01794358
234	0xbc06cdd3	-0.008227783
235	0xbacbbfeb	-0.0015544867
236	0x3e530da2	0.2061067
237	0x3e5a6759	0.21328487
238	0x3df66c33	0.12032356
239	0xbccf0355	-0.025270144
240	0xbec9657c	-0.3933524
241	0xbd87e753	-0.066359185
242	0x3dba50a3	0.090974115
243	0xbde4eb26	-0.111776635
244	0x3e1e75e1	0.15474655
245	0x3d427052	0.0474704
246	0x3e9c52fd	0.30532065
247	0xbe34a6d5	-0.17641766
248	0x3d836e7f	0.0641756
249	0x3d234db7	0.039869037
250	0x3d9e99be	0.07744168
251	0x3d5977cc	0.053092763
252	0xbdbc8d54	-0.09206644
253	0xbca3c772	-0.019992564
254	0xbe7b4723	-0.24538855
255	0xbe3f49f5	-0.18680556

actor.0.bias f4 [64]
0	0xbdbf9eab	-0.093564354
1	0xbdc2b1b7	-0.09506553
2	0xbdff893a	-0.12477346
3	0x3c197044	0.009365145
4	0xbdd045d0	-0.10169566
5	0xbe26ffca	-0.16308513
6	0x3a833e3c	0.0010013054
7	0xbc313139	-0.010814958
8	0xbdd4a132	-0.10382308
9	0xbd81de2d	-0.06341205
10	0xbd856b80	-0.065146446
11	0x3d13e027	0.03610244
12	0xbc0d426d	-0.008621794
13	0xbce019dc	-0.02735608
14	0x3d327a67	0.043573763
15	0x3dc00f69	0.09377939
16	0x3e10d55d	0.14143892
17	0xbe0a26ce	-0.13491365
18	0x3dec841a	0.11548634
19	0xbd3fe3eb	-0.04684822
20	0xbd7eccae	-0.062206917
21	0xbcb28f4e	-0.021796849
22	0xbe5d0a71	-0.21586014
23	0x3df7a2df	0.12091612
24	0x3dcf712d	0.101290084
25	0x3dd0d72f	0.10197293
26	0xbd99a143	-0.07501461
27	0xbe1db730	-0.15401912
28	0xbc2bcf08	-0.010486372
29	0xbe4c02c4	-0.1992293
30	0xbe3577ea	-0.17721525
31	0x3b865417	0.0040993798
32	0xbdc88ba5	-0.0979226
33	0xbe67977d	-0.22616382
34	0x3dc901bf	0.09814786
35	0x3e145c35	0.14488299
36	0x3c6bdbe0	0.014395684
37	0xbcf905cd	-0.030398274
38	0xbde439aa	-0.11143811
39	0xbdc6337d	-0.09677789
40	0x3d8ade20	0.06780648
41	0xbe206998	-0.15665281
42	0x3d60b0c4	0.054856077
43	0x3e5d0c3f	0.21586703
44	0xbdc21617	-0.094768696
45	0x3e16ffac	0.14745969
46	0x3e1d857b	0.1538295
47	0x3d3599e0	0.0443362
48	0xbdfd260a	-0.12360771
49	0x3dc90b30	0.09816587
50	0xbd9fb8c6	-0.077989146
51	0xbe11d702	-0.14242175
52	0xbc98d69a	-0.018657017
53	0x3da71002	0.0815735
54	0xbe6f97fe	-0.23397824
55	0xbdda5d23	-0.10662296
56	0xbd7d6bb0	-0.061870277
57	0x3d9930da	0.07480021
58	0x3d9c6896	0.07637136
59	0x3e09c50d	0.13454075
60	0xbdf54ed5	-0.11977927
61	0x3ac07bdc	0.001468535
62	0xbb92712f	-0.004469059
63	0xbdf3a04a	-0.11895807

actor.2.weight f4 [32, 64]
0	0xbe5fedcb	-0.21868055
1	0x3e9fe53c	0.3122958
2	0x3e9252db	0.2857884
3	0x3d242ba9	0.0400807
4	0x3ea82bed	0.32846013
5	0xbe0104d1	-0.12599494
6	0xbddc735f	-0.10764193
7	0xbe24ca77	-0.16092859
8	0xbe128c36	-0.14311299
9	0xbd471eac	-0.048613235
10	0xbd95555c	-0.07291672
11	0xbe0e180c	-0.1387636
12	0x3daff2ce	0.08591233
13	0xbe819dab	-0.25315604
14	0x3e46153f	0.19344042
15	0x3c537a0f	0.012907519
16	0x3dc21764	0.09477118
17	0xbe3d3694	-0.18477851
18	0xbe2fe40d	-0.17176838
19	0xbd0e4a5e	-0.03473889
20	0x3e085ac5	0.13315876
21	0xbe2aaf7f	-0.16668509
22	0x3d5f7a46	0.05455997
23	0x3d2d96b9	0.04238007
24	0xbdae5f4b	-0.085142694
25	0x3eb046ce	0.3442902
26	0x3e9c7820	0.30560398
27	0x3e25a1aa	0.16174951
28	0xbe0c38d0	-0.13693547
29	0x3cfcc876	0.030857306
30	0x3e4f83ff	0.20265196
31	0x3cecba63	0.02889747
32	0xbd4b01b8	-0.049562186
33	0xbe812dfb	-0.25230393
34	0xbce5c788	-0.028049245
35	0xbe90835b	-0.28225216
36	0x3d2cc710	0.04218203
37	0xbe270614	-0.16310912
38	0x3e42d621	0.19026996
39	0x3e16309f	0.14666985
40	0xbcf5d05c	-0.03000658
41	0xbdc398b6	-0.09550612
42	0xbd836961	-0.06416584
43	0x3de08a2b	0.109638534
44	0x3eaaee5a	0.33384973
45	0x3dabce1c	0.083889216
46	0x3e0ed7a0	0.13949442
47	0x3e0ff1e0	0.14057112
48	0x3d24d1d0	0.040239155
49	0x3de35866	0.11100845
50	0xbe2f8708	-0.17141354
51	0x3ce3aaee	0.027791467
52	0x3e949d40	0.29026222
53	0xbc83cd64	-0.016089149
54	0xbd86152c	-0.06547007
55	0xbde0cd84	-0.10976699
56	0xbcd944e1	-0.026522102
57	0xbd10b731	-0.035330955
58	0xbdeeef96	-0.11666791
59	0x3d1732d7	0.03691372
60	0x3dddaa01	0.10823441
61	0x3d9558c6	0.07292323
62	0x3f0604b8	0.5235095
63	0x3d239b6b	0.03994314
64	0xbe9a4be7	-0.30136034
65	0xbdba1743	-0.09086468
66	0xbd96b2d7	-0.0735833
67	0x3db201ce	0.086917505
68	0x3df13994	0.1177856
69	0x3d9c1f38	0.07623142
70	0x3ebd451d	0.36966792
71	0x3eb81d92	0.3596006
72	0x3eabbc0b	0.33541903
73	0xbdee4af5	-0.11635391
74	0xbe94dee3	-0.290763
75	0x3e2a251d	0.1661572
76	0x3dfcba98	0.123402774
77	0xbed1d788	-0.4098475
78	0x3d85aaa9	0.065266915
79	0x3e43df5e	0.19128177
80	0x3b21f060	0.0024709925
81	0xbe38be9f	-0.18041466
82	0x3eae39e9	0.34028557
83	0x3df14f73	0.11782732
84	0xbe72b184	-0.2370053
85	0xbc70b8f3	-0.014692533
86	0x3e121781	0.14266779
87	0xbd8270de	-0.06369184
88	0xbd8559df	-0.06511282
89	0x3c50e785	0.012750511
90	0x3d5d07aa	0.053962387
91	0x3e4148a4	0.18875366
92	0x3e03dbd0	0.1287682
93	0x3d24fdac	0.040280983
94	0x3e2f4bed	0.17118807
95	0x3ddfa27b	0.109196626
96	0x3cf0e52e	0.029406156
97	0xbe86cdc0	-0.2632885
98	0x3d1a53f5	0.037677724
99	0xbd88cd23	-0.06679752
100	0x3dca6291	0.09882081
101	0x3c59efb1	0.013301776
102	0x3e01c975	0.12674506
103	0xbdda0682	-0.106457725
104	0x3a875432	0.0010324775
105	0xbce05c51	-0.02738777
106	0x3e0ed9df	0.13950299
107	0x3da473d6	0.080299065
108	0xbe8dd969	-0.27704933
109	0xbe00ad0b	-0.1256601
110	0xbdf495dd	-0.11942647
111	0x3dc6f352	0.097143784
112	0xbe0590a3	-0.13043456
113	0x3ea52fdf	0.32263085
114	0xbcdbc753	-0.026828444
115	0x3dbe5c9a	0.09295006
116	0xbe935223	-0.28773603
117	0x3c8bea71	0.017079564
118	0x3e82818a	0.25489455
119	0x3e096d09	0.134205
120	0x3d27e10d	0.04098611
121	0xbe3c6a82	-0.18400005
122	0x3eb6126f	0.3556094
123	0x3d5b09f9	0.053476308
124	0x3c42a432	0.0118799675
125	0xbbe5ac83	-0.0070090904
126	0x3d7958f4	0.060875848
127	0x3deb0eff	0.1147747
128	0xbb32f7d4	-0.0027308362
129	0x3d897609	0.067119665
130	0xbe34f239	-0.17670526
131	0x3ec41ce2	0.38303286
132	0xbb8ba6e4	-0.0042618383
133	0x3eed1788	0.46307015
134	0xbe264a39	-0.16239251
135	0x3db70766	0.08936958
136	0x3d7de85f	0.061989184
137	0xbd396c7d	-0.045269478
138	0x3eb83954	0.35981238
139	0x3da52cbf	0.08065175
140	0x3d550bae	0.05201309
141	0x3eaa2428	0.3323071
142	0x3e905f0f	0.28197524
143	0xbe95f078	-0.29285026
144	0xbda49a9e	-0.080373034
145	0xbd4c00fa	-0.04980562
146	0xbd1906d2	-0.03736002
147	0x3e88671b	0.26641163
148	0x3d5ece14	0.05439575
149	0x3daefd18	0.085443676
150	0x3c5b5f57	0.01338943
151	0xbb6522cd	-0.003496337
152	0x3dcf8fb0	0.10134828
153	0x3d8f0943	0.069841884
154	0x3c1040b6	0.008804491
155	0x3dbe29ee	0.09285341
156	0x3e924f99	0.28576353
157	0x3ed7c7bf	0.42144582
158	0xbd7fed4b	-0.06248216
159	0xbdc088f8	-0.09401125
160	0x3e877322	0.26455027
161	0x3d78a4f4	0.060704187
162	0x3d3a638e	0.0455051
163	0xbe9c49b4	-0.3052498
164	0x3e719b3f	0.23594378
165	0xbcac05a5	-0.020998785
166	0x3ca78076	0.020446997
167	0x3dd5632e	0.10419308
168	0x3df44c15	0.11928574
169	0x3cdcb8c0	0.026943564
170	0xbc1e5a16	-0.009665033
171	0xbd18e705	-0.037329692
172	0x3d1aa9ed	0.03775971
173	0xbd25f726	-0.040518902
174	0x3d8b5274	0.06802836
175	0x3e1edb2a	0.15513292
176	0xbe031738	-0.12801826
177	0x3de263ef	0.11054217
178	0xbe0a04dc	-0.13478416
179	0xbe9e396f	-0.30903193
180	0xbd94122f	-0.07230031
181	0xbd422687	-0.047400024
182	0x3e72fd7a	0.23729506
183	0xbe55f091	-0.2089255
184	0x3e05d053	0.1306775
185	0xbea76403	-0.3269349
186	0xbe0b9091	-0.13629366
187	0x3da45a4b	0.080250345
188	0x3e04e9a4	0.12979752
189	0x3e75db0b	0.2400934
190	0xbda2ed8c	-0.07955465
191	0x3d967bf8	0.07347864
192	0xbe6174b2	-0.22017172
193	0x3d8c8a89	0.06862361
194	0x3e301221	0.17194416
195	0x3ebdf062	0.3709746
196	0x3d9e4efe	0.0772991
197	0xbdcbf6b2	-0.09959163
198	0x3e3c46f4	0.18386441
199	0xbdea70fe	-0.11447333
200	0xbd1f4fd0	-0.038894475
201	0xbd94ad43	-0.072596096
202	0xbd56675a	-0.052344657
203	0x3e4a317c	0.1974544
204	0x3e4b707a	0.19867125
205	0x3d72612c	0.0591747
206	0x3cefabe5	0.02925677
207	0x3dd3a57e	0.103342995
208	0xbe827a91	-0.25484136
209	0x3d372b2c	0.044718906
210	0x3e6c5949	0.23080935
211	0xbe3bf19d	-0.18353887
212	0xbd335f66	-0.04379215
213	0x3dbe2c17	0.09285753
214	0x3d34a29f	0.0441004
215	0xbe7690cf	-0.24078678
216	0x3b0c45c6	0.0021403893
217	0xbe4388e4	-0.19095188
218	0xbe4f25f4	-0.20229322
219	0x3c6b8223	0.014374289
220	0x3e5161e0	0.20447493
221	0xbbc7d2f6	-0.0060981466
222	0x3ce2af3b	0.027671447
223	0xbd50d3e0	-0.05098331
224	0xbe816c5e	-0.2527799
225	0xbd040991	-0.032235686
226	0xbbcae30d	-0.0061916173
227	0x3da2324b	0.07919749
228	0x3e4f001a	0.20214882
229	0x3d7e971a	0.06215582
230	0xbe793924	-0.24338204
231	0x3ea4225f	0.32057473
232	0xbcc311f1	-0.023812266
233	0xbe012250	-0.12610745
234	0xbe67fdf7	-0.22655474
235	0xbd4be84a	-0.049782075
236	0x3ddb4222	0.10705973
237	0xbca9105b	-0.020637682
238	0xbe15fcfc	-0.14647287
239	0xbe133096	-0.14374003
240	0xbc885cd7	-0.016645832
241	0xbf035dd8	-0.5131507
242	0x3e8aa862	0.2708159
243	0xbe1615dd	-0.14656778
244	0xbd66e994	-0.0563751
245	0xbebfb32f	-0.37441394
246	0xbe342d81	-0.17595483
247	0x3e0d00a5	0.13769777
248	0xbd97615c	-0.07391617
249	0x3dc1708a	0.09445293
250	0xbdd91745	-0.106001414
251	0x3d678ab8	0.056528777
252	0x3d123819	0.03569803
253	0x3ef26175	0.4733998
254	0x3e3e1142	0.18561271
255	0x3e1570e4	0.14593846

actor.2.bias f4 [32]
0	0x3dc29496	0.09500997
1	0x3d2f70e8	0.042832285
2	0xbdf62ade	-0.12019895
3	0x3dcce4d6	0.100045845
4	0xbe3a5553	-0.18196611
5	0xbdc757a2	-0.097335115
6	0x3d916ad7	0.07100456
7	0xbe4a5ec9	-0.1976272
8	0x3d868189	0.065676756
9	0x3d8328fb	0.06404301
10	0x3d167aef	0.036738332
11	0xbd4d007f	-0.0500493
12	0xbe210f8d	-0.15728588
13	0x3dbfb40c	0.09360513
14	0x3c4b0a50	0.012392595
15	0x3ce450c2	0.02787054
16	0xbd9d0a53	-0.07667985
17	0x3bc3a1c9	0.005970214
18	0xbdbb5faa	-0.09149106
19	0xbb8d6f9e	-0.0043162843
20	0xbe15d612	-0.14632443
21	0xbd528700	-0.051398277
22	0x3dc3f017	0.09567278
23	0x3dab3a1a	0.08360691
24	0xbcf3b134	-0.029747583
25	0xbdedd54a	-0.11612947
26	0xbc9d07d8	-0.01916878
27	0xbd02dd23	-0.031949174
28	0x3da8bbd2	0.08238949
29	0x3d5a7645	0.053335447
30	0xbd8f65b2	-0.07001819
31	0x3d0d4cae	0.034496956

actor.4.weight f4 [3, 32]
0	0x3bca3a35	0.0061714896
1	0xbc44ea72	-0.012018787
2	0xbb96db0d	-0.0046037496
3	0xbc501a63	-0.012701604
4	0xbca58d80	-0.020209074
5	0x3bcb5349	0.0062049967
6	0xb6ce8e9d	-6.155881e-06
7	0xbc2841ae	-0.0102695655
8	0x3c263212	0.010143774
9	0xbc8385c0	-0.016054988
10	0x3b35989b	0.0027709368
11	0xbaa94047	-0.0012912833
12	0xbb0287bf	-0.0019917337
13	0x3b06ed03	0.0020588047
14	0xbc1f6013	-0.009727496
15	0xbc7efd47	-0.015563316
16	0xbc1cc7dc	-0.009569135
17	0xbaedcdc0	-0.0018142983
18	0x3c396c20	0.011317283
19	0x3b8585c3	0.0040747835
20	0xbb7106b5	-0.003677768
21	0x3cf98766	0.03046007
22	0x3c38d298	0.011280678
23	0x3841bc26	4.6190013e-05
24	0x3ba60be8	0.0050673373
25	0x3c105a68	0.008810617
26	0x3c3fe8fc	0.011713263
27	0x3c3976de	0.011319844
28	0xbccac42c	-0.024751745
29	0xbd105d19	-0.035245035
30	0x3b6c98fb	0.0036101926
31	0x3b652441	0.0034964236
32	0xbc0c255e	-0.008553831
33	0xbce01930	-0.02735576
34	0xbbca5b7f	-0.006175458
35	0x3c2120af	0.0098344525
36	0x3c766e5d	0.015040961
37	0xbced2b02	-0.028951172
38	0xbc47b1c6	-0.012188381
39	0x3ac3e430	0.0014945325
40	0xbc28638e	-0.010277642
41	0x3c770068	0.01507578
42	0x3bbd250d	0.005772239
43	0x3c256380	0.010094523
44	0x3beca0c2	0.0072213123
45	0x3c7c00de	0.015381066
46	0x3c56fbd1	0.013121561
47	0x3c81f876	0.015865546
48	0x3ca1b71f	0.01974064
49	0x3a19566e	0.0005849366
50	0xbbce5df2	-0.0062978202
51	0x3b65562f	0.0034993996
52	0x3bd92d13	0.0066276877
53	0xbc10f673	-0.008847821
54	0x3ab3eb61	0.0013726765
55	0xbc95ee11	-0.018301995
56	0x3c3e0a37	0.011599115
57	0xbbddb28c	-0.006765669
58	0xbbec469f	-0.007210567
59	0x3cbb31ff	0.022850988
60	0x3c8e001e	0.01733404
61	0x3ca41b3f	0.020032523
62	0x3ba67d68	0.0050808676
63	0x3b8e7d0c	0.004348403
64	0x3be94046	0.0071182577
65	0x3c8a7957	0.016903562
66	0x3c705858	0.0146695
67	0xbc8941ce	-0.016755011
68	0xbc61749b	-0.013760711
69	0x3c84b264	0.016198345
70	0xbbb0f51d	-0.0054003135
71	0x390a15c3	0.00013168812
72	0xbbc8a71b	-0.006123436
73	0xbd01fb96	-0.03173407
74	0xbb947921	-0.0045310413
75	0xbbfd5f68	-0.0077323206
76	0xbc83b904	-0.016079433
77	0xbcb8a9fc	-0.022541992
78	0x3b3e2fa7	0.0029020102
79	0xbad50715	-0.0016252721
80	0xbb10145c	-0.0021984791
81	0x3c1535cb	0.0091070635
82	0xbaa48e07	-0.0012554534
83	0x39d97853	0.00041479114
84	0xbbbe1c44	-0.0058017094
85	0x3c21384d	0.009840083
86	0xb9b33a13	-0.0003418481
87	0xbb759b0f	-0.0037476455
88	0xbd13c4bc	-0.036076292
89	0xbb585298	-0.0033008214
90	0xbbb754a4	-0.0055948067
91	0xbc07f78d	-0.008298767
92	0xbc29ff5e	-0.010375826
93	0xbc9930a3	-0.01869995
94	0xbc6bb9cf	-0.014387562
95	0x3c4ef1ae	0.012630863

actor.4.bias f4 [3]
0	0x3de01b16	0.10942666
1	0xbe286d79	-0.1644801
2	0xbc78152d	-0.015141767

critic.0.weight f4 [64, 24]
0	0x3e42ac96	0.19011149
1	0xbe8b6674	-0.27226603
2	0x3eb256de	0.348319
3	0x3ea55745	0.32293144
4	0x3e05103a	0.12994471
5	0xbe87621d	-0.26442042
6	0x3e604a51	0.2190335
7	0x3e9ff0c1	0.31238368
8	0x3cf037d1	0.02932349
9	0x3ed42d49	0.414408
10	0x3dcd292b	0.10017618
11	0x3e095e83	0.1341496
12	0xbe989e2c	-0.29808176
13	0x3e0e77e9	0.1391293
14	0xbcdc2edb	-0.026877811
15	0x3e0d61a6	0.13806781
16	0x3cd9cc69	0.026586728
17	0xbea07544	-0.31339467
18	0x3ac82edf	0.0015272758
19	0xbe99fba7	-0.30074808
20	0xbdc110b7	-0.09427016
21	0xbdc9802c	-0.098389
22	0x3d3941fb	0.04522894
23	0x3cda108c	0.026619218
24	0x3f0c5cda	0.5482918
25	0xbde62eeb	-0.11239418
26	0xbdf1e320	-0.11810899
27	0x3dea0be0	0.11428046
28	0x3ece43e3	0.40286168
29	0x3db179c7	0.08665805
30	0xbdaad305	-0.0834103
31	0xbe2dcd06	-0.16972741
32	0xbe64c61c	-0.22341198
33	0x3e29c582	0.1657925
34	0xbe71140b	-0.23542802
35	0x3ea60e95	0.32433
36	0xbdfba1e3	-0.12286737
37	0x3e330cdf	0.17485379
38	0x3d15dfc6	0.03659036
39	0x3a928847	0.001117953
40	0xbd340baa	-0.043956436
41	0x3e0fe026	0.1405035
42	0xbe0936be	-0.13399789
43	0xbde33778	-0.11094564
44	0xbddce9fd	-0.10786817
45	0xbe9d75a0	-0.30753803
46	0x3e9ca94b	0.3059791
47	0xbae2cc99	-0.0017303406
48	0xbe2a82f7	-0.16651522
49	0x3e7b9946	0.24570188
50	0x3d39baab	0.045344036
51	0xbea1f04d	-0.31628647
52	0x3e9779e2	0.29585177
53	0xbe0ae6d8	-0.13564622
54	0xbe661364	-0.22468334
55	0x3df2e4ed	0.118600704
56	0xbbcfa62e	-0.006336949
57	0xbdec61eb	-0.11542114
58	0xbe84af0d	-0.25914803
59	0xbcc5e518	-0.024157092
60	0x3c620b65	0.013796662
61	0xbe2ab27f	-0.16669653
62	0xbe84ad45	-0.25913444
63	0xbcc55748	-0.02408947
64	0x3e13ca69	0.14432682
65	0xbe3eb2c4	-0.18622881
66	0x3d0c2cd1	0.034222428
67	0x3d02402a	0.031799473
68	0xbe6cad3a	-0.23112956
69	0xbea271ac	-0.3172735
70	0x3d27993d	0.040917624
71	0xbce97cbb	-0.028501859
72	0x3ceb58bc	0.028728835
73	0xbddb266d	-0.107006885
74	0x3c83efef	0.01610562
75	0x3def275a	0.116774276
76	0x3e92ed43	0.2869664
77	0x3e713631	0.23555829
78	0x3e4525e8	0.19252741
79	0xbce8f9d1	-0.028439434
80	0xbda306b6	-0.079602644
81	0xbd500b69	-0.05079213
82	0xbcd10858	-0.025516674
83	0xbd9e9a3d	-0.07744262
84	0xbda344dc	-0.07972118
85	0x3dbf2074	0.09332362
86	0xbaa828a9	-0.00128295
87	0x3e46658c	0.19374675
88	0xbda4fc71	-0.08055962
89	0xbd3bfdfc	-0.045896515
90	0x3bc69b51	0.0060609956
91	0x3d3eff92	0.04663045
92	0xbc03a869	-0.008035758
93	0xbd1188b2	-0.035530753
94	0x3e4579b8	0.19284713
95	0x3e445ebb	0.19176762
96	0xbdd763ca	-0.1051708
97	0xbe420cc0	-0.18950176
98	0xbe0d3120	-0.13788271
99	0xbeecdfc6	-0.46264476
100	0xbe29eaeb	-0.1659352
101	0x3eb9e5ad	0.3630804
102	0xbda4a407	-0.08039098
103	0xbd760b15	-0.060069162
104	0xbd0342a8	-0.03204599
105	0x3e9739e3	0.29536352
106	0x3e85536f	0.26040217
107	0x3db84dcb	0.08999213
108	0x3d35d171	0.044389192
109	0x3e2e9a9c	0.17051166
110	0x3e29fa36	0.16599354
111	0xbe9b920e	-0.30384868
112	0xbc4858b8	-0.012228183
113	0x3e6905bb	0.22756092
114	0x3da5dc46	0.080986544
115	0x3e539d1d	0.20665403
116	0xbe819aee	-0.25313514
117	0x3c86af7b	0.016441097
118	0x3dc7fb2f	0.09764706
119	0xbd8ec0d1	-0.069703706
120	0xbd99bbac	-0.07506499
121	0xbd179c11	-0.03701407
122	0xbd47b02c	-0.048751995
123	0xbea78317	-0.327172
124	0x3e50e9cd	0.20401688
125	0x3e655972	0.22397402
126	0x3e6ef79b	0.23336641
127	0xbf035ae1	-0.51310545
128	0x3e6bde79	0.23034085
129	0xbe5136f4	-0.20431119
130	0xbe0f6671	-0.14003922
131	0x3bb1fe42	0.005431921
132	0xbe123fd3	-0.1428216
133	0x3d0427d1	0.032264534
134	0xbe981f07	-0.29711172
135	0x3d0d04c5	0.034428377
136	0x3d9fe7b9	0.078078695
137	0x3e0fba8d	0.14036007
138	0xbdfd6558	-0.123728454
139	0xbe5f00f4	-0.21777707
140	0xbd71f08f	-0.059067305
141	0x3a30bbfb	0.00067418785
142	0xbdebfd06	-0.1152287
143	0x3b4391fb	0.002984165
144	0xbd0f2826	-0.034950398
145	0xbe01f9c1	-0.1269293
146	0xbe0c5bd6	-0.13706908
147	0x3cb837c7	0.022487534
148	0xbdcbc80d	-0.09950266
149	0xbbc43e2e	-0.0059888577
150	0xbd93c5f7	-0.07215493
151	0xbcf1c146	-0.029511105
152	0xbd53a84c	-0.051674172
153	0x3e0413ec	0.12898225
154	0x3efdb0cf	0.49548957
155	0xbc11a72c	-0.008889955
156	0x3dffe388	0.1249457
157	0xbed6a6c9	-0.41924122
158	0xbee28401	-0.44241336
159	0xbd8fb773	-0.07017412
160	0x3e8abf51	0.27099088
161	0x3e50a490	0.20375276
162	0x3cc5d629	0.024149971
163	0xbebd3024	-0.3695079
164	0x3daff2d7	0.0859124
165	0xbead3388	-0.33828378
166	0x3e2d4423	0.16920523
167	0x3e74b45a	0.23896924
168	0x3d9dec71	0.07711113
169	0x3d8daa22	0.06917216
170	0x3f0b24fd	0.54353315
171	0xbdf9e340	-0.122015476
172	0x3e397be5	0.18113668
173	0xbea81184	-0.32825863
174	0xbd96a942	-0.07356502
175	0xbd817dee	-0.06322847
176	0xbe12b4b7	-0.1432675
177	0x3e69cc1e	0.22831771
178	0x3dc9f285	0.0986071
179	0x3da574cc	0.08078918
180	0x3d8ba3b2	0.06818332
181	0x3e6c2c92	0.23063877
182	0x3aaa4a82	0.0012992176
183	0x3e102cf9	0.14079656
184	0x3e716df7	0.23577105
185	0x3d87345c	0.06601784
186	0x3e05697d	0.13028522
187	0xbe9b0dd4	-0.30283988
188	0x3ded8362	0.11597325
189	0x3e373461	0.17891075
190	0xbee00463	-0.43753347
191	0xbdca1fa8	-0.09869319
192	0xbe4efe41	-0.20214178
193	0xbd824563	-0.06360891
194	0xbe457ece	-0.19286653
195	0xbd69d42f	-0.05708712
196	0x3de7efe0	0.113250494
197	0xbeac8040	-0.33691597
198	0xbe664f21	-0.22491123
199	0x3e06a955	0.13150533
200	0xbe60f5d8	-0.21968782
201	0x3bdcf0ec	0.0067425873
202	0xbc1ff02d	-0.009761852
203	0xbebfd93b	-0.3747042
204	0xbe111d49	-0.14171328
205	0x3be8d3af	0.007105313
206	0x3cb58330	0.022157282
207	0x3d92ec86	0.071740195
208	0x3e19fcc9	0.15037836
209	0x3d271bdb	0.04079805
210	0x3dbacc24	0.09120968
211	0xbd5e3899	-0.054253194
212	0xbe62c780	-0.22146416
213	0xbe06190e	-0.13095495
214	0xbe1bb09b	-0.15204088
215	0xbe059383	-0.13044553
216	0x3e3067ba	0.17227069
217	0x3e4ab4d7	0.19795547
218	0xbdb4ca10	-0.08827603
219	0x3e3a9a17	0.18222843
220	0x3e80c96a	0.25153667
221	0xbe6c7b3e	-0.23093888
222	0x3b2d4e17	0.002644425
223	0x3db34206	0.08752827
224	0xbbfe57e9	-0.0077619446
225	0xbd054975	-0.032540757
226	0x3cd48851	0.025943907
227	0x3e991324	0.29897416
228	0x3e0c9273	0.13727741
229	0xbdd1a2f9	-0.10236163
230	0xbac12515	-0.0014735783
231	0xbcf77905	-0.030209074
232	0xbe99ad8d	-0.3001522
233	0xbcbc1047	-0.02295698
234	0xbe3a032d	-0.18165274
235	0x3ea8acea	0.32944423
236	0xbe34f9f4	-0.17673475
237	0xbefe988d	-0.49725762
238	0xbe5a679b	-0.21328585
239	0x3e980013	0.29687557
240	0x3d70d421	0.058796052
241	0x3eb3ef12	0.35143334
242	0x3e27db10	0.1639216
243	0xbd260c6f	-0.0405392
244	0x3e1d81ce	0.15381548
245	0xbddebfdf	-0.1087644
246	0xbe2e9dac	-0.17052335
247	0xbdafea32	-0.08589591
248	0x3d8360d6	0.06414954
249	0x3d1f7497	0.038929548
250	0xbe08d1d6	-0.13361296
251	0x3ea6636c	0.32497728
252	0xbeed5ce8	-0.46359944
253	0x3d73b5d3	0.059499573
254	0x3e860ef7	0.26183292
255	0x3ea95582	0.3307305

critic.0.bias f4 [64]
0	0xbdb25fe6	-0.087096974
1	0x3dfbd84d	0.122971155
2	0xbd88b312	-0.0667478
3	0x3d7b76ab	0.061392467
4	0xbe1fd2bc	-0.15607733
5	0xbe399bdc	-0.18125862
6	0x3e46ed69	0.19426502
7	0x3baebccd	0.0053325654
8	0xbe48e113	-0.19617109
9	0x3e565e1b	0.20934336
10	0x3d2f5237	0.042803016
11	0x3d20d210	0.03926283
12	0x3dad2b1c	0.08455488
13	0xbe57ff67	-0.21093522
14	0xbd3738a3	-0.044731747
15	0xbd3cbbac	-0.046077415
16	0x3d4475af	0.047963794
17	0xbe4ba594	-0.19887382
18	0xbdeddce1	-0.11614395
19	0x3d346537	0.04404184
20	0xbd88ea7d	-0.0668535
21	0xbe0879f8	-0.13327777
22	0x3e797aba	0.24363223
23	0xbd0792a4	-0.03309883
24	0xbe68bb0e	-0.22727606
25	0xbd95ced0	-0.07314837
26	0xbdc5165a	-0.09623404
27	0x3e0750bf	0.13214396
28	0xbe1184b1	-0.14210774
29	0x3d5cd2d1	0.053911988
30	0xbe544752	-0.20730332
31	0x3da014f5	0.07816497
32	0xbe14d42c	-0.14534062
33	0xbe503e49	-0.2033626
34	0x3e0067e4	0.12539631
35	0x3d91bd34	0.07116166
36	0xbe4072fd	-0.18793865
37	0xbdf99abf	-0.121877186
38	0x3d9791d1	0.07400859
39	0xbd33cf35	-0.04389878
40	0xbe10e670	-0.14150405
41	0x3cd4bf51	0.025970133
42	0xbe5013d2	-0.20320061
43	0xbe2a8eda	-0.16656056
44	0xbda13ac9	-0.078725405
45	0xbdc3e573	-0.09565248
46	0xbe591cf2	-0.21202448
47	0xbe4a9af9	-0.1978568
48	0xbe4fab94	-0.20280296
49	0x3d83a877	0.064286165
50	0x3dfac68d	0.12244902
51	0x3e5948a3	0.21219115
52	0x3d19b12e	0.037522487
53	0xbcafa616	-0.0214415
54	0x3e598734	0.21242982
55	0xbd1b2211	-0.037874285
56	0xbe1d9f23	-0.15392737
57	0x3e15d9cc	0.14633864
58	0x3e664f3d	0.22491165
59	0xbd8ed128	-0.06973487
60	0x3e2e977e	0.17049977
61	0xbc4b0d40	-0.012393296
62	0xbd9fc776	-0.07801716
63	0xbe5d04be	-0.2158384

critic.2.weight f4 [32, 64]
0	0xbdb0accd	-0.08626709
1	0xbe8a136a	-0.26967937
2	0x3e72f997	0.23728023
3	0xbe7baaf9	-0.2457694
4	0x3c80dae3	0.015729373
5	0x3e0c1cb7	0.13682829
6	0xbe0e1e3d	-0.13878722
7	0xbe108e11	-0.14116694
8	0x3db4fcb1	0.088372596
9	0x3cce8c22	0.025213305
10	0xbd975160	-0.07388568
11	0x3de2e5ce	0.11078988
12	0xbd312b3b	-0.04325412
13	0x3ea32da6	0.31870764
14	0x3da69e75	0.08135692
15	0x3e86f6f7	0.26360294
16	0x3e855787	0.2604334
17	0xbd86fbd2	-0.06591
18	0x3cac42cd	0.021027947
19	0xbee1b088	-0.44079995
20	0xbd1120cf	-0.03543168
21	0x3d792d02	0.06083394
22	0x3dce66e2	0.10078217
23	0x3e7dc8a6	0.24783573
24	0x3dbe9b0f	0.09306919
25	0xbc73bd67	-0.0148767
26	0x3db8b143	0.09018185
27	0xbdb17e9c	-0.08666727
28	0x3eb0b89a	0.3451584
29	0xbf08a040	-0.5336952
30	0xbdb3e2a7	-0.08783465
31	0x3d5a04dc	0.05322729
32	0x3e886194	0.26636946
33	0xbd858012	-0.06518568
34	0x3e40a0f5	0.188114
35	0x3e0ea23b	0.13929074
36	0x3e7015c9	0.2344581
37	0x3e72288d	0.23648281
38	0xbd41f33b	-0.047351103
39	0xbdd27365	-0.10275916
40	0xbdfc3a8d	-0.12315855
41	0x3d8424ca	0.064523295
42	0x3e6a8402	0.2290192
43	0xbded45a2	-0.11585547
44	0x3e7acede	0.24492976
45	0x3d43fa44	0.047846094
46	0xbd315845	-0.04329707
47	0x3e8b608d	0.272221
48	0x3dc520fd	0.09625433
49	0xbdb29e3b	-0.08721586
50	0x3e404419	0.18775977
51	0x3e2dacd6	0.16960463
52	0xbcbb992f	-0.022900192
53	0xbe33c99d	-0.17557378
54	0xbeabb4a2	-0.3353625
55	0x3a84e298	0.0010138331
56	0x3deb6c9e	0.114953265
57	0x3c40c8bf	0.011766612
58	0xbde7d74c	-0.113203615
59	0xbdba6752	-0.09101738
60	0xbe6d7478	-0.2318896
61	0x3e29800a	0.1655275
62	0xbd8dd453	-0.06925263
63	0x3dc14636	0.0943722
64	0xbcec7e3c	-0.028868787
65	0xbe8e9f66	-0.27855986
66	0x3c19df5b	0.009391631
67	0xbe24b498	-0.16084516
68	0x3e7cbd10	0.24681497
69	0xbdb384f7	-0.087655954
70	0xbea2d194	-0.3180052
71	0xbcb09744	-0.021556504
72	0xbe8805c3	-0.26566896
73	0x3d1f8825	0.038948197
74	0xbeb455b1	-0.35221627
75	0xbd662022	-0.056182988
76	0xbdbe9556	-0.09305827
77	0xbd302054	-0.04299958
78	0xbbd3dfb6	-0.0064658774
79	0x3c998c88	0.018743768
80	0x3d9ac25a	0.07556601
81	0xbe62bfa6	-0.2214342
82	0xbd1bd384	-0.038043514
83	0xbec73dda	-0.38914376
84	0xbe78bfa2	-0.24291852
85	0xbdc23f0b	-0.09484681
86	0xbe5ccace	-0.21561739
87	0x3d22d0db	0.03974996
88	0xbccf05b6	-0.025271278
89	0x3c7d1a1c	0.0154481195
90	0xbd90c49b	-0.070687495
91	0xbe8b3ce7	-0.27194902
92	0xbddcee72	-0.10787667
93	0x3eae1df0	0.34007215
94	0x3de56c86	0.1120234
95	0x3e8c153c	0.2735995
96	0x3e4b1d1a	0.1983532
97	0xbd1d69e3	-0.03843106
98	0x3d84e41e	0.064888224
99	0x3ebc6b0d	0.36800423
100	0xbd121584	-0.03566505
101	0xbd6602ea	-0.056155123
102	0x3e08c863	0.13357691
103	0xbe2a84eb	-0.16652267
104	0xbe6efaec	-0.23337907
105	0xbe05b1f0	-0.13056159
106	0x3de49bf6	0.1116256
107	0xbe0162fd	-0.12635417
108	0xbdba53d9	-0.09098024
109	0xbe21a226	-0.15784511
110	0xbe8713e8	-0.26382375
111	0xbe6e6146	-0.23279294
112	0xbe8d0333	-0.27541503
113	0x3c1dbe9a	0.0096279625
114	0xbd8e80b5	-0.06958143
115	0x3b74098f	0.0037237143
116	0xbde5cf39	-0.11221165
117	0xbd1b0491	-0.03784615
118	0x3e5973d0	0.21235585
119	0xbe851fae	-0.26000732
120	0xbe336bc4	-0.17521578
121	0x3e9aa635	0.3020493
122	0xbe3d75ec	-0.18502015
123	0xbe20ac3a	-0.15690699
124	0xbd87c2d9	-0.06628961
125	0x3bb87054	0.005628625
126	0x3dab3dcd	0.08361397
127	0xbc928d57	-0.017889662
128	0xbd5ce601	-0.053930286
129	0xbe73e069	-0.23816074
130	0xbe7b2dac	-0.24529141
131	0x3d31550c	0.043293998
132	0xbcd3e88e	-0.025867727
133	0x3e42bae1	0.19016601
134	0x3d83cb6d	0.06435285
135	0x3be6683d	0.007031469
136	0x3e5a9fb0	0.21349978
137	0xbe32b486	-0.17451677
138	0xbd95b7f9	-0.073104806
139	0x3c90b3f1	0.017663928
140	0xbd800c10	-0.06252301
141	0x3de33be8	0.110954106
142	0x3e63ecf2	0.22258356
143	0xbcac87e3	-0.02106089
144	0xbe2761c5	-0.1634589
145	0xbe02ea90	-0.12784791
146	0xbd4c8467	-0.049930956
147	0x3d1fbd21	0.038998727
148	0xbe77d758	-0.24203241
149	0xbea4443a	-0.32083303
150	0xbdca1d66	-0.098688886
151	0xbcb7ec15	-0.02245144
152	0xbeb30abc	-0.34969127
153	0xbe8a417a	-0.2700308
154	0xbea83fcf	-0.32861182
155	0x3d8f7cea	0.07006247
156	0x3e2b028d	0.16700192
157	0xbed50db0	-0.41612005
158	0x3d8f2348	0.06989151
159	0x3e5c969e	0.21541831
160	0x3ddd1777	0.10795491
161	0x3eb67e5f	0.35643288
162	0x3e2c9b12	0.1685603
163	0x3e9232d6	0.2855441
164	0xbcb0fc36	-0.021604639
165	0xbe0c1101	-0.13678361
166	0xbed03748	-0.40667176
167	0x3e5abbff	0.21360777
168	0xbe663a8f	-0.22483276
169	0x3ddbeec6	0.10738902
170	0xbcf1b1de	-0.029503759
171	0xbe1de6ce	-0.15420076
172	0xbe2e523d	-0.17023559
173	0x3e521543	0.20515923
174	0xbeb0e23d	-0.34547606
175	0xbd6137e5	-0.054984946
176	0xbcfbec4d	-0.030752325
177	0xbde1e747	-0.11030441
178	0x3a120d9e	0.0005571487
179	0x3cdef185	0.027214775
180	0x3dd4c4c9	0.10389096
181	0xbdf37bc0	-0.11888838
182	0xbdcd660d	-0.1002923
183	0xbd73d12b	-0.05952565
184	0xbc163c33	-0.009169626
185	0xbe6c16d5	-0.23055585
186	0x3eb52741	0.3538151
187	0xbccfd99c	-0.025372319
188	0x3e42e05f	0.19030903
189	0xbdacc8b2	-0.08436717
190	0x3e6c0e6c	0.23052377
191	0xbca9d573	-0.020731663
192	0xbe46eb59	-0.19425716
193	0x3e21278b	0.1573774
194	0x3c8299a4	0.015942402
195	0xbe151ec4	-0.14562517
196	0x3ea28462	0.31741625
197	0x3e9fd2e8	0.31215596
198	0xbe2059dd	-0.1565928
199	0x3b1af7b3	0.0023646175
200	0xbeb0d4e7	-0.34537432
201	0x3c9cf625	0.01916034
202	0x3daa5adf	0.083181135
203	0x3de2ab9e	0.1106789
204	0x3ae9df1b	0.001784298
205	0xbe665be0	-0.22495985
206	0xbe836f07	-0.25670645
207	0x3e8aec91	0.2713361
208	0xbdd48ef8	-0.103788316
209	0xbde7d09e	-0.113190874
210	0x3dd965dc	0.10615131
211	0x3e3480b0	0.17627215
212	0x3e88b13c	0.2669772
213	0xbd9f9bc5	-0.077933826
214	0xbe04611b	-0.12927668
215	0xbe62d282	-0.22150615
216	0x3c841dec	0.01612755
217	0xbe1c4d29	-0.1526381
218	0x3e871045	0.263796
219	0x3de71e27	0.11285048
220	0x3e4e6192	0.20154408
221	0xbdd92a19	-0.106037326
222	0xbdab47cb	-0.08363303
223	0x3dc3f454	0.09568086
224	0xbde7092f	-0.112810485
225	0x3ddfd7d6	0.10929839
226	0xbde4ba03	-0.111682914
227	0xbd0e1a7e	-0.034693234
228	0xbe213673	-0.15743427
229	0x3e024024	0.1271978
230	0x3e5e724b	0.21723287
231	0xbd57d85e	-0.05269658
232	0xbe1f4752	-0.1555455
233	0xbdfd6cd4	-0.12374273
234	0xbea19ca2	-0.31564814
235	0xbd010f6e	-0.031508856
236	0xbeace01b	-0.3376473
237	0xbdb726e9	-0.089429684
238	0x3b97beb2	0.004630887
239	0xbe3382a0	-0.17530298
240	0xbd83543d	-0.064125516
241	0x3e43490a	0.19070831
242	0x3e4a68e5	0.19766577
243	0x3da148da	0.078752235
244	0xbe82b6cf	-0.25530097
245	0xbedba80b	-0.42901644
246	0xbda69aa3	-0.08134963
247	0x3dab4d6a	0.08364375
248	0x3da56374	0.0807561
249	0xbe816bac	-0.2527746
250	0x3e0ee31e	0.13953826
251	0xbe25065b	-0.16115706
252	0xbe007d70	-0.1254785
253	0x3e0fb72b	0.14034717
254	0x3e3f46f7	0.18679415
255	0xbbe0dd40	-0.0068623126

critic.2.bias f4 [32]
0	0x3cdd0a89	0.026982563
1	0xbc71d4e7	-0.0147602325
2	0xbdb02dad	-0.08602462
3	0xbe09a843	-0.13443093
4	0xbd6baf22	-0.057540067
5	0xbe3464a8	-0.17616522
6	0xbbc3b7a6	-0.0059728203
7	0x3c1c8e1c	0.009555366
8	0xbe0536da	-0.13009205
9	0xbe0b019e	-0.13574836
10	0xbd60ba5e	-0.054865234
11	0xbd9d2a5e	-0.076740965
12	0xbe31bf7f	-0.17358206
13	0xbe2a2f7d	-0.16619678
14	0xbdbe7f8b	-0.09301671
15	0xbd8cd897	-0.06877249
16	0x3d487b8f	0.04894596
17	0x3d619db6	0.055082045
18	0xbe19a746	-0.15005216
19	0xbe83cf77	-0.2574422
20	0xbdecc1b1	-0.11560381
21	0x3c4af3c9	0.0123872245
22	0xbdfb7f09	-0.122800894
23	0x3d3badf0	0.045820177
24	0xbde5fc23	-0.11229732
25	0xbe16af33	-0.1471527
26	0xbd3d873e	-0.046271555
27	0x3c2aba4a	0.010420391
28	0xbdf9113d	-0.12161491
29	0xbe1961f2	-0.1497877
30	0xbd9b4ad8	-0.07582635
31	0x3d5d8c05	0.05408861

critic.4.weight f4 [1, 32]
0	0x3d61bfe3	0.055114638
1	0xbddf82bd	-0.10913608
2	0xba76a1eb	-0.0009408283
3	0xbbe9b68e	-0.007132358
4	0x3e6b014d	0.22949715
5	0xbc772500	-0.015084505
6	0xba392df1	-0.0007064036
7	0x3b2f05ba	0.0026706294
8	0x3e9e2bc2	0.3089276
9	0xbb82baaa	-0.0039895372
10	0xbe47ecc7	-0.19523917
11	0x3d1155ee	0.03548234
12	0x3c0d47fb	0.0086231185
13	0xbca1c7e0	-0.019748628
14	0xbe9842f4	-0.2973858
15	0x3c81551f	0.01578766
16	0xbce151ea	-0.02750488
17	0x3e438b34	0.1909607
18	0xbbc180b2	-0.0059052343
19	0xbb5056a1	-0.0031789916
20	0xbe6e34f7	-0.23262392
21	0x3e0392d9	0.12848987
22	0xbda51257	-0.08060139
23	0xbd277d10	-0.040890753
24	0x3cbe8dd5	0.02326099
25	0xbc61bd3d	-0.013778028
26	0xbd2fc4bf	-0.04291224
27	0xbdceb236	-0.10092585
28	0xbeb26d44	-0.34848988
29	0x3e6b1ec7	0.2296096
30	0xbc3d467e	-0.011552451
31	0x3c49e09c	0.012321617
