logs/exp/21_11_01_17_00_54/model_50.pt (torch, 34660 bytes, 12 tensors)

log_std f4 [3]
0	0xbe810d8b	-0.25205645
1	0xbdefdc4a	-0.11711939
2	0xbd4a8d8c	-0.049451396

actor.0.weight f4 [64, 24]
0	0x3e117b47	0.14207183
1	0x3dbd03df	0.09229254
2	0xbe515734	-0.20443422
3	0xbf7316c4	-0.9495661
4	0xbdcec327	-0.10095816
5	0x3e8ac6b7	0.27104732
6	0xbb07f211	-0.0020743648
7	0x3e0dd209	0.13849653
8	0x3c8bffef	0.017089812
9	0x3e12a6fa	0.14321509
10	0xbe6e411a	-0.23267022
11	0xbbdb15d0	-0.00668595
12	0xbe88770d	-0.2665333
13	0x3e600a63	0.21878962
14	0xbdd81467	-0.105507664
15	0x3dcff744	0.10154584
16	0xbcbc2be4	-0.022970147
17	0x3efa6f23	0.48912916
18	0x3e4cf0c7	0.20013724
19	0x3f2e7162	0.6814176
20	0xbe950a1f	-0.29109284
21	0x3e965b22	0.29366404
22	0xbecdb5b6	-0.40177697
23	0x3f12ade2	0.57296574
24	0xbe555af3	-0.20835476
25	0xbe5d2336	-0.21595463
26	0xbe50149e	-0.20320365
27	0x3e01be68	0.1267029
28	0x3eef147d	0.4669532
29	0x3eada295	0.33913103
30	0x3f1ed965	0.6205047
31	0x3dce0570	0.10059631
32	0x3f301ef9	0.6879726
33	0x3ecb6ab6	0.3972985
34	0x3e8122ae	0.2522177
35	0x3de9827f	0.11401843
36	0x3ed6b26b	0.41932997
37	0xbe05eccc	-0.13078612
38	0x3eefe1e2	0.46852022
39	0xbdf56d67	-0.119837575
40	0x3c483a0e	0.012220873
41	0xbe3363cc	-0.17518538
42	0x3ea2ed91	0.31821874
43	0xbe0225f9	-0.12709798
44	0x3d191091	0.037369315
45	0xbe985920	-0.29755497
46	0x3e942b56	0.28939313
47	0x3d840cee	0.06447779
48	0xbdc4fe7c	-0.096188515
49	0xbd9d12ee	-0.07669626
50	0xbda91ec2	-0.0825782
51	0xbf7c0b4d	-0.98454744
52	0xbe91f82d	-0.28509656
53	0xbef5660d	-0.4792942
54	0xbe9b455e	-0.3032636
55	0xbe65db35	-0.22446902
56	0x3e166ad6	0.14689192
57	0x3daab431	0.0833515
58	0x3d8299fa	0.06377025
59	0x3d837d84	0.064204246
60	0x3e71309d	0.23553701
61	0x3eb6fc09	0.35739163
62	0xbc998578	-0.0187404
63	0x3df96cd8	0.121789634
64	0x3ebc44cd	0.3677124
65	0x3cf09dc3	0.029372102
66	0x3e3244ad	0.1740901
67	0x3dd04a84	0.10170463
68	0x3edd3950	0.43207788
69	0x3be8ec4c	0.007108247
70	0x3ea0f7e5	0.3143913
71	0x3e321f4e	0.17394754
72	0xbe9ae1f3	-0.3025051
73	0xbcb0216b	-0.02150031
74	0x3f2f6a2f	0.685214
75	0x3f0f6f94	0.5602963
76	0x3ea54dd0	0.3228593
77	0x3e2625ee	0.16225407
78	0x3ee6e119	0.4509361
79	0x3ec08c80	0.37607193
80	0x3edf3b51	0.43599942
81	0xbe1c0892	-0.15237644
82	0x3d3ffd5f	0.046872493
83	0xbd686a2a	-0.05674187
84	0x3dcb5e12	0.09930052
85	0xbdda9d4a	-0.10674532
86	0xbd3707b4	-0.04468508
87	0xbd0edd41	-0.034878973
88	0x3d014c81	0.0315671
89	0xbe1735b6	-0.14766583
90	0x3e6f2684	0.23354536
91	0xbed12f82	-0.40856558
92	0xbdc64234	-0.09680596
93	0xbf0a9597	-0.54134506
94	0xbda76751	-0.08174003
95	0xbe4dabdd	-0.20085092
96	0x3db5d347	0.088781886
97	0xbebac48b	-0.36478075
98	0x3e32de4b	0.1746761
99	0xbf2646d8	-0.6495185
100	0x3f747a1f	0.9549884
101	0x3e92a55d	0.28641787
102	0x3f114952	0.567525
103	0x3da26f2b	0.0793136
104	0x3ed7ef03	0.4217454
105	0x3a538fe1	0.0008070451
106	0x3e9e8893	0.30963573
107	0x3bdb4107	0.0066911015
108	0x3e94e4e9	0.29080895
109	0xbddf173f	-0.10893106
110	0x3e9e6b19	0.30941084
111	0x3e0fbc25	0.14036615
112	0xbc323516	-0.0108769145
113	0x3dcfc5d8	0.101451576
114	0x3edb3be0	0.42819118
115	0xbe88b457	-0.26700088
116	0x3eadadf0	0.33921766
117	0x390862dc	0.00013006799
118	0xbe3e08d7	-0.1855806
119	0xbf047ae1	-0.5175
120	0xbd4610f5	-0.048356015
121	0x3d2139eb	0.039361876
122	0xbc6148ce	-0.013750268
123	0x3e903d0a	0.2817157
124	0xbe454086	-0.19262895
125	0xbb82450f	-0.0039755176
126	0xbf0a3ec7	-0.5400204
127	0xbdac0e87	-0.08401208
128	0xbe8c9dec	-0.27464235
129	0x3cc06993	0.023487842
130	0xbe4b7430	-0.19868541
131	0xbdf2d4a3	-0.118569635
132	0xbe417e9d	-0.18895955
133	0xbeaf1d22	-0.34201914
134	0xbe78aba7	-0.2428423
135	0xbdecddaa	-0.115657166
136	0x3e7e671d	0.24844022
137	0xbe6b6824	-0.22988945
138	0xbe8102ef	-0.2519755
139	0xbde76147	-0.11297851
140	0xbeb27a93	-0.34859142
141	0xbe6399c2	-0.22226623
142	0xbebc32d9	-0.36757544
143	0x3e172fa7	0.14764272
144	0xbe2e8a5a	-0.17044964
145	0x3e073ba8	0.13206351
146	0x3dde8260	0.10864711
147	0xbd960bf7	-0.07326501
148	0x3e51ad2e	0.20476219
149	0xbf04ee45	-0.5192607
150	0xbe769257	-0.24079262
151	0xbcbcbb48	-0.023038521
152	0xbb08f9e9	-0.0020900911
153	0x3dfebf8d	0.12438879
154	0xbdf7ff49	-0.12109239
155	0x3ddb90ad	0.10720954
156	0xbe9a1bc1	-0.300993
157	0xbe189133	-0.14899139
158	0x3d371ffa	0.04470823
159	0x3d9dc5a2	0.07703711
160	0xbe8be480	-0.2732277
161	0xbe174e2b	-0.14775912
162	0x3e10d778	0.14144695
163	0x3e660c18	0.22465551
164	0xbe8649f5	-0.262283
165	0x3db6f6e6	0.08933811
166	0x3e11b1a2	0.14227918
167	0xbe94edb0	-0.2908759
168	0xbdedd269	-0.11612398
169	0xbce0043b	-0.027345767
170	0xbe176743	-0.14785485
171	0x3f93656b	1.1515325
172	0xbeb8264a	-0.35966712
173	0x3e9a5620	0.30143833
174	0xbea5ea09	-0.32405117
175	0x3de32eab	0.110928856
176	0xbdf1ce8b	-0.11806973
177	0x3ee7108a	0.45129806
178	0xbdfb5ac8	-0.122731745
179	0x3e0bccdb	0.13652365
180	0xbea887a2	-0.3291598
181	0x3f18ca33	0.5968353
182	0xbe1ae025	-0.15124567
183	0x3ecbb2d9	0.39784887
184	0x3e4103eb	0.18849151
185	0x3eeb1603	0.4591523
186	0xbd928982	-0.07155134
187	0x3f143f1b	0.5790879
188	0xbe22092a	-0.15823808
189	0x3f24638f	0.64214414
190	0xbea6df4a	-0.3259223
191	0x3ef4dd87	0.47825262
192	0xbe49d4a8	-0.19710028
193	0xbda64160	-0.08117938
194	0xbe319057	-0.17340218
195	0x3e5f347a	0.21797362
196	0x3e92cba0	0.2867098
197	0xbe9d2a94	-0.30696547
198	0xbcfa408c	-0.030548356
199	0x3e3e76e1	0.18600036
200	0xbdefb22b	-0.11703905
201	0x3e0f3352	0.13984421
202	0x3ebf64c4	0.37381566
203	0xbd12e412	-0.035862036
204	0xbe1b4a7f	-0.15165137
205	0x3ecffc30	0.4062209
206	0xbdc1c28e	-0.094609365
207	0xbdfd7328	-0.1237548
208	0xbdc189b8	-0.09450096
209	0x3ead25ee	0.33818
210	0xbe90d844	-0.28289998
211	0x3ec1de21	0.37864783
212	0xbd8ab164	-0.06772116
213	0x3e120d03	0.14262776
214	0x3e3c5ea8	0.18395483
215	0x3e9617f7	0.2931516
216	0xbebd6bc1	-0.36996272
217	0xbc88b3b7	-0.016687257
218	0x3d5087e4	0.050910845
219	0xbe5eadf4	-0.21746045
220	0x3d275132	0.04084892
221	0xbcc8f365	-0.024530122
222	0xbe258ef6	-0.16167817
223	0xbec9c46e	-0.39407676
224	0xbe4061f8	-0.18787372
225	0xbe8d7129	-0.27625397
226	0xbde56f59	-0.112028785
227	0x3e08899f	0.13333748
228	0xbdab116d	-0.08352933
229	0xbe3a6d3f	-0.18205737
230	0x3e9de33d	0.30837432
231	0x3ce90d17	0.028448625
232	0x3e06fb0f	0.13181709
233	0xbd6eb5ac	-0.058278725
234	0x3d368336	0.044558726
235	0xbe61848f	-0.22023223
236	0xbea7e463	-0.32791433
237	0x3d2981ab	0.041383427
238	0x3e8b7001	0.2723389
239	0x3d9ae631	0.07563437
240	0xbe2f133b	-0.1709718
241	0x3df76900	0.12080574
242	0x3e0e842a	0.13917604
243	0xbe9c0128	-0.30469632
244	0x3dc6c3c2	0.097053066
245	0xbe939706	-0.2882616
246	0x3d0db3b8	0.03459522
247	0xbeacdf7e	-0.3376426
248	0x3e154714	0.14577895
249	0xbf071bc6	-0.52776754
250	0xbd16b8bc	-0.03679727
251	0xbda3e41f	-0.08002495
252	0xbde5fada	-0.11229487
253	0xbebccbbe	-0.36874193
254	0xbdfbad8f	-0.12288963
255	0xbeca3ecf	-0.39501044

actor.0.bias f4 [64]
0	0x3db1c4e4	0.08680132
1	0xbe4804f4	-0.1953314
2	0x3d1a7e4f	0.037718114
3	0x3b12937c	0.002236574
4	0xbe118abb	-0.14213078
5	0xbda0b62f	-0.07847249
6	0x3d90cb7b	0.07070061
7	0xbdf4add4	-0.119472176
8	0xbe55f642	-0.20894721
9	0xbe98d853	-0.29852542
10	0xbdbd0f6f	-0.09231459
11	0xbdb24e05	-0.08706287
12	0x3e32ed89	0.17473425
13	0xbeb0eff1	-0.3455806
14	0x3ce3b16f	0.027794568
15	0xbe5afde6	-0.21385917
16	0xbe0181be	-0.12647149
17	0x3c16effb	0.009212489
18	0x3d27c821	0.040962342
19	0xbeae24e3	-0.34012517
20	0xbd0db2dd	-0.034594405
21	0xbe4f3b02	-0.20237353
22	0xbe7956aa	-0.24349466
23	0xbc4259f6	-0.011862269
24	0x3d92ba20	0.07164407
25	0xbc9fed06	-0.019522201
26	0xbe43207d	-0.19055362
27	0xbe9bef26	-0.30455893
28	0xbd35c388	-0.044375926
29	0xbe67bbd6	-0.22630247
30	0xbe165a87	-0.14682971
31	0xbeb5f790	-0.35540438
32	0x3d37246f	0.04471248
33	0xbe7498fa	-0.23886481
34	0xbe5723b7	-0.21009718
35	0xbce7a63b	-0.028277507
36	0xbe06f7d5	-0.13180478
37	0x3eb1f936	0.34760445
38	0x3dfdcb02	0.12392236
39	0xbc92853e	-0.0178858
40	0x3c3520ca	0.011055181
41	0xbf06001f	-0.52343935
42	0xbdc19737	-0.0945267
43	0xbde26fa9	-0.11056454
44	0xbddacf79	-0.106841035
45	0xbdeff7b0	-0.117171645
46	0xbec6790c	-0.38764226
47	0x3e4b80d5	0.19873364
48	0xbeb66350	-0.35622644
49	0xbcb3802c	-0.021911703
50	0xbdb244b1	-0.08704508
51	0xbd6cffa9	-0.057861004
52	0xbd893ff5	-0.06701652
53	0xbd90ab8c	-0.0706397
54	0xbe4c1861	-0.19931175
55	0xbe3ff615	-0.18746217
56	0x3d8db81f	0.06919884
57	0xbeaa4f84	-0.3326379
58	0xbe169d9d	-0.14708562
59	0xbd71f33f	-0.05906987
60	0xbdcd3d30	-0.10021436
61	0x3d2ba013	0.041900706
62	0xbe809abe	-0.2511806
63	0x3d417b6c	0.047236845

actor.2.weight f4 [32, 64]
0	0xbdfd773a	-0.12376256
1	0x3d15a07e	0.03653001
2	0x3ea5d2d0	0.323874
3	0x3e13f2e5	0.14448126
4	0xbe43988a	-0.19101158
5	0xbdf86463	-0.12128522
6	0xbc3770c0	-0.011196315
7	0xbeeb2b63	-0.4593154
8	0x3ce46d67	0.027884198
9	0x3e2130d6	0.15741286
10	0x3dcd8e46	0.10036902
11	0x3d460a6f	0.048349794
12	0x3e09af1f	0.1344571
13	0x3e9c9f7f	0.30590436
14	0xbe449f6a	-0.19201437
15	0xbda85dff	-0.08221053
16	0x3d64dcde	0.055874698
17	0xbea54fd9	-0.3228748
18	0x3e9d2f80	0.30700302
19	0xbe848d67	-0.2588913
20	0xbd542d66	-0.051801108
21	0xbc3218b0	-0.010870144
22	0x3b834d4b	0.004007017
23	0xbda86318	-0.08222026
24	0x3e53a2b0	0.20667529
25	0x3d87dba7	0.06633692
26	0xbde98509	-0.114023276
27	0xbe93719a	-0.2879761
28	0x3e731844	0.23739725
29	0x3e6eddfc	0.23326868
30	0x3e483e4f	0.19555019
31	0x3ea4a2e7	0.32155535
32	0xbe5eac94	-0.21745521
33	0x3d33d35e	0.043902747
34	0xbd7a6012	-0.061126776
35	0x3dc9dba1	0.09856344
36	0x3da908b8	0.08253616
37	0xbe2c3ed9	-0.1682085
38	0xbdc5b82b	-0.09654268
39	0x3e86d40b	0.2633365
40	0xbd27a850	-0.040932
41	0x3e109916	0.14120898
42	0x3e17e101	0.14831926
43	0xbe354323	-0.17701392
44	0xbc832409	-0.016008394
45	0xbd230209	-0.039796863
46	0xbebefdbd	-0.37302962
47	0x3e8e4a9b	0.27791294
48	0xbe468ad5	-0.19388898
49	0x3de6d4a6	0.11271028
50	0xbb1af871	-0.0023646618
51	0x3c304310	0.010758176
52	0xbd4f0f64	-0.050551787
53	0xbe3af55b	-0.18257658
54	0x3e884989	0.26618603
55	0x3d0dda92	0.034632273
56	0xbd9085a1	-0.07056738
57	0x3e003ae6	0.12522468
58	0xbe2d7ad2	-0.16941383
59	0xbd81c793	-0.06336894
60	0xbdc42760	-0.09577823
61	0xbdd98147	-0.10620361
62	0x3e857835	0.26068273
63	0x3cdaf3ed	0.026727641
64	0xbde908fd	-0.113786675
65	0xbe533c22	-0.20628408
66	0xbd547641	-0.05187059
67	0x3bbeb9b7	0.005820479
68	0xbd41b4fe	-0.04729175
69	0xbd22530d	-0.039629985
70	0xbd3a3e53	-0.045469593
71	0xbe83d18f	-0.25745818
72	0xbd9276f6	-0.07151596
73	0xbe9ac27a	-0.302265
74	0x3bc6725b	0.0060561127
75	0xbe8ace52	-0.27110535
76	0xbd58ebd7	-0.05295929
77	0x3e373e77	0.17894922
78	0x3e0b25f4	0.13588697
79	0x3d28a773	0.041175317
80	0x3d087c02	0.033321388
81	0xbee74cfd	-0.45175925
82	0xbe6d2626	-0.23159084
83	0x3d82480e	0.063613996
84	0x3e1d9c3e	0.15391633
85	0xbd0ec012	-0.03485114
86	0xbdd93f34	-0.10607758
87	0xbd29701c	-0.04136668
88	0xbe7471bd	-0.23871513
89	0xbddc4eb1	-0.10757197
90	0x3e29832f	0.16553949
91	0x3de80178	0.11328405
92	0x3c4af0a9	0.012386479
93	0x3dc2d7d7	0.095138244
94	0x3e189897	0.14901958
95	0x3e1462f5	0.14490874
96	0x3e9be59f	0.30448624
97	0x3e6cd75d	0.2312903
98	0x3dbe61c7	0.09295993
99	0x3d42d1b9	0.04756329
100	0x3d11f592	0.035634585
101	0xbe2f0c4c	-0.17094535
102	0xbd752779	-0.059852097
103	0x3d81b11a	0.063326076
104	0x3d17dea6	0.03707757
105	0xbe00c962	-0.12576821
106	0x3d374657	0.044744816
107	0x3d85358d	0.065043546
108	0x3e50e560	0.204
109	0x3e89d2dc	0.26918685
110	0x3a72e9e3	0.0009266419
111	0xbeb9ac2c	-0.3626417
112	0xbe3b2622	-0.18276265
113	0xbe4b0397	-0.19825588
114	0x3e2b04d7	0.16701065
115	0x3e409420	0.18806505
116	0xbda13fc6	-0.07873492
117	0xbeb56c80	-0.3543434
118	0xbd9dad53	-0.076990746
119	0xbe928901	-0.2862015
120	0xbe4f7fe1	-0.20263626
121	0xbeb7b965	-0.35883632
122	0xbdba22e8	-0.09088689
123	0xbe1154c8	-0.14192498
124	0xbd55b278	-0.052172154
125	0x3d65d6dd	0.056113113
126	0x3e259e05	0.16173561
127	0xbbdf7a9a	-0.006820035
128	0xbecda9d5	-0.40168634
129	0xbeb48a2a	-0.3526166
130	0x3e9d539a	0.30727845
131	0xbeb84930	-0.35993338
132	0xbd8545ec	-0.06507477
133	0x3dd6f972	0.10496797
134	0xbd8f6abc	-0.0700278
135	0x3e142caa	0.14470163
136	0x3daa5e3d	0.08318756
137	0xbe22e8b3	-0.1590908
138	0x3ae8d084	0.0017762338
139	0xbddd4ca7	-0.10805636
140	0xbd4bdc9b	-0.049770933
141	0x3cf4d9c7	0.029889
142	0x3dd1cf34	0.10244599
143	0x3c2fe7d2	0.010736423
144	0xbc3c9207	-0.011509425
145	0x3df8951c	0.12137815
146	0x3e2fe440	0.17176914
147	0xbd6a0dc2	-0.057142027
148	0x3ea73946	0.32660884
149	0xbeee1312	-0.46498924
150	0xbeaa3065	-0.33240047
151	0xbe15263b	-0.14565365
152	0xbe84d28a	-0.2594188
153	0x3c850108	0.016235843
154	0xbd433234	-0.0476553
155	0xbd986df8	-0.0744285
156	0xbeb060b6	-0.34448785
157	0x3e176435	0.1478432
158	0x3da47cc7	0.08031612
159	0xbea80c6d	-0.3282198
160	0xbd81dab1	-0.0634054
161	0xbc2747a3	-0.010209951
162	0xbe17fb60	-0.14841986
163	0xbe16d4f7	-0.14729677
164	0xbe8e1179	-0.27747706
165	0x3ef8b92d	0.48578778
166	0xbdf04527	-0.1173194
167	0x3d281f0c	0.041045234
168	0xbf1af503	-0.6053011
169	0xbed8dc23	-0.4235545
170	0x3de85286	0.11343865
171	0xbcf16f6c	-0.029472075
172	0xbe23f658	-0.16011941
173	0xbddaa6ac	-0.106763214
174	0xbdd6cb90	-0.10488045
175	0xbed2d70c	-0.41179693
176	0xbe571526	-0.21004161
177	0x3e35616c	0.17712945
178	0xbe898787	-0.26861212
179	0xbebba72a	-0.36650974
180	0xbdc69a75	-0.09697429
181	0xbde670c4	-0.11251977
182	0xbd158e23	-0.036512505
183	0x3e19d71e	0.15023467
184	0x3d8b62ac	0.068059295
185	0x3e432dab	0.1906039
186	0xbf3db3d9	-0.7410255
187	0x3d990210	0.074710965
188	0xbe1f9e4d	-0.1558773
189	0x3d77987f	0.060448166
190	0xbe50f87d	-0.20407291
191	0x3d13302f	0.035934623
192	0xbe5729fd	-0.21012111
193	0xbddd2158	-0.107973754
194	0xbd873726	-0.066023156
195	0xbd8e0be6	-0.06935863
196	0xbe9c745a	-0.3055752
197	0xbabcc0ee	-0.0014400759
198	0xbe914786	-0.2837488
199	0xbef3103c	-0.47473323
200	0x3e078148	0.1323291
201	0x3c7ca9e7	0.015421367
202	0xbdc04142	-0.09387447
203	0xbe252d30	-0.16130519
204	0x3b42344f	0.002963323
205	0xbe72c036	-0.23706135
206	0xbd80dff6	-0.06292717
207	0x3e1764f1	0.147846
208	0x3e1573c0	0.14594936
209	0x3dbea5b1	0.09308947
210	0x3d2cd6d1	0.042197052
211	0x3e1e194e	0.1543934
212	0x3c9d2e17	0.019187016
213	0x3db13fcc	0.086547464
214	0xbe8c2448	-0.2737143
215	0xbe9e7a1e	-0.30952543
216	0xbe09d07b	-0.13458435
217	0xbddfa01b	-0.109192096
218	0xbc1d8241	-0.0096135745
219	0x3cfbcc69	0.030737119
220	0x3e197521	0.14986087
221	0xbe0d5cfc	-0.13805002
222	0x3e17cc3a	0.14824
223	0x3d7a15ad	0.061055828
224	0xbe904788	-0.28179574
225	0x3db5ed93	0.08883204
226	0x3d9a12f0	0.07523143
227	0xbea0e6c7	-0.3142607
228	0x3ddb03b1	0.106940635
229	0xbf2d5af7	-0.67716926
230	0xbcc726d3	-0.024310505
231	0xbe245ff7	-0.16052233
232	0x3eed7b57	0.46383163
233	0x3dfe0a22	0.124042764
234	0xbeb95e92	-0.36204964
235	0xbe128afb	-0.1431083
236	0x3d5bdea5	0.053679127
237	0xbe27635a	-0.16346493
238	0xbdaec9d6	-0.08534591
239	0xbeb7ad19	-0.3587425
240	0x3e59fd2d	0.21287985
241	0xbea18efa	-0.31554395
242	0xbd35487c	-0.04425858
243	0xbe97d30d	-0.29653206
244	0xbe8f41e3	-0.27979955
245	0x3c40442b	0.0117350025
246	0x3e8060ae	0.2507376
247	0xbebf9f94	-0.37426436
248	0x3d43dddb	0.047819
249	0xbdbe7f5a	-0.09301634
250	0x3d9b7120	0.07589936
251	0x3db194d9	0.086709686
252	0x3cc6008b	0.02417018
253	0xbea0df91	-0.31420568
254	0xbd058c21	-0.03260434
255	0xbf18a24f	-0.59622663

actor.2.bias f4 [32]
0	0xbe502104	-0.20325094
1	0xbdbda067	-0.0925911
2	0xbdd8af5c	-0.10580322
3	0xbe0ba1b6	-0.13635907
4	0xbdaa674b	-0.08320483
5	0xbd9e42f8	-0.07727617
6	0x3d3cae8a	0.04606489
7	0xbe0aa742	-0.13540366
8	0xbcb3dc67	-0.021955682
9	0x3e349fd2	0.17639092
10	0xbe3d72b8	-0.18500793
11	0xbd7c055d	-0.061528552
12	0xbcb20738	-0.021731958
13	0xbd888c67	-0.066674046
14	0xbd5bd692	-0.053671427
15	0xbe604aa0	-0.21903467
16	0x3dee905f	0.1164863
17	0xbe0e7942	-0.13913444
18	0x3dc212d5	0.09476248
19	0xbe360dad	-0.17778654
20	0xbda8e17e	-0.08246134
21	0x3d9212a5	0.071324624
22	0xbe1cd7f1	-0.1531675
23	0xbde087e1	-0.10963417
24	0xbdd0bcee	-0.101922855
25	0x3c4c08bd	0.012453255
26	0xbe882ff0	-0.26599073
27	0xbe12ce18	-0.14336431
28	0xbd0299d7	-0.031884994
29	0xbd913f6a	-0.070921734
30	0x3d535339	0.05159304
31	0xbe164224	-0.14673668

actor.4.weight f4 [3, 32]
0	0x3c3bdd1a	0.011466289
1	0x3b868d69	0.004106213
2	0xbd9addd4	-0.075618416
3	0xbd49e493	-0.04929025
4	0x3c413a69	0.011793711
5	0xbbb5b42a	-0.005545159
6	0xbcbb6c7c	-0.022878878
7	0xbb893fb6	-0.004188503
8	0xbdb946ef	-0.09046733
9	0x3c28a82b	0.010294001
10	0x3c184fc3	0.00929636
11	0x3cc50552	0.024050388
12	0xbddf1253	-0.10892167
13	0x3b60c212	0.0034295362
14	0xbd0b7a06	-0.034051917
15	0xbd5356e6	-0.051596545
16	0x3c469497	0.0121203875
17	0xbcd42527	-0.025896622
18	0x3c237d95	0.009978672
19	0x3d58ff00	0.052977562
20	0x3d9c76ad	0.07639823
21	0x3db45182	0.08804609
22	0x3bda66d2	0.006665089
23	0xbd4a1762	-0.049338706
24	0xbadd1596	-0.0016867395
25	0x3bda02f3	0.0066531836
26	0x3d730630	0.059332073
27	0x3851f52b	5.0057813e-05
28	0xbdbced3e	-0.09224938
29	0x3dc277b5	0.094954886
30	0x3c544566	0.012955999
31	0x3d7eb71c	0.062186345
32	0xbb7787c6	-0.0037770136
33	0xbc86e90e	-0.016468551
34	0x3d36352b	0.0444843
35	0xbce2bd50	-0.027678162
36	0x3c890e8b	0.016730567
37	0x3b9fd307	0.0048774513
38	0xbce4b4e4	-0.027918287
39	0xbce7ad2f	-0.028280823
40	0xbb9ebabe	-0.0048440387
41	0x3c9f46ef	0.019443003
42	0xbbfbc1ca	-0.0076830136
43	0x3d56d9f7	0.05245396
44	0xbc4fc697	-0.012681625
45	0xbbebfe6f	-0.0072019617
46	0x3d000186	0.031251453
47	0x3c038222	0.008026632
48	0x3beef9f3	0.00729298
49	0xbd4ba93c	-0.04972194
50	0x3c32d5b0	0.010915205
51	0x3ca4e0b2	0.020126674
52	0x3c8f6482	0.01750398
53	0x3be300e2	0.0069275955
54	0x3bc475f6	0.0059955074
55	0x3b88da95	0.0041764476
56	0xbcb19566	-0.021677684
57	0xbb099084	-0.002099068
58	0x3c83c196	0.01608352
59	0xbc881f5c	-0.016616516
60	0xbbda8c8e	-0.0066695875
61	0xbba05146	-0.004892501
62	0x3d141eff	0.036162373
63	0xbd292ba2	-0.041301377
64	0xbcf45e46	-0.02983011
65	0xbba27d9b	-0.004958821
66	0xbce6dc61	-0.028181257
67	0x3bc78265	0.0060885423
68	0x3c477ba4	0.012175474
69	0x3c61b855	0.013776858
70	0x3bc37bfc	0.005965708
71	0x3baafc40	0.005218059
72	0x3c9af2f5	0.018914679
73	0xbd4b30c7	-0.049607065
74	0x3d039ef3	0.032134008
75	0xbdae60fe	-0.085145935
76	0x3a4ad9a4	0.00077381195
77	0xbadbdd35	-0.0016774299
78	0x3c4697b6	0.012121132
79	0xbbf2c215	-0.0074083903
80	0x3c3e18b9	0.011602574
81	0xbc1a178a	-0.009405026
82	0x3b43eb20	0.0029894784
83	0x3d751303	0.059832584
84	0xbbec4a05	-0.0072109723
85	0x3d2e2ba3	0.042522084
86	0xbc656240	-0.014000475
87	0x3d1f4fe8	0.038894564
88	0x3c878e18	0.016547248
89	0xbba34408	-0.004982475
90	0x3cd4696a	0.025929172
91	0x3c3ba611	0.011453168
92	0xbbc1dce4	-0.005916225
93	0xbc3879ff	-0.011259555
94	0xbd2ed61b	-0.042684656
95	0xbc9c1eb6	-0.019057613

actor.4.bias f4 [3]
0	0xbd6d0faf	-0.057876285
1	0x3e827648	0.25480866
2	0x3e1189cf	0.14212726

critic.0.weight f4 [64, 24]
0	0x3ece7a12	0.40327507
1	0xbe0e1306	-0.13874444
2	0xbd98222c	-0.07428393
3	0x3e3cdf97	0.18444668
4	0x3f53a74d	0.82677156
5	0x3f863a5b	1.0486559
6	0xbe9425b2	-0.2893501
7	0xbd07d425	-0.0331613
8	0xbeb7bfe0	-0.35888577
9	0xbee5d2f1	-0.44887498
10	0xbda7e5fe	-0.081981644
11	0xbe86991f	-0.26288697
12	0xbec51060	-0.38489056
13	0xbead9e56	-0.33909863
14	0xbdd999fa	-0.10625072
15	0xbf1937db	-0.59850854
16	0xbb8a1b98	-0.004214715
17	0xbf034f71	-0.5129309
18	0x3c37324c	0.011181425
19	0xbeae49a0	-0.34040546
20	0xbdcd02c0	-0.1001029
21	0xbf2acda7	-0.6672005
22	0xbe2be4a8	-0.16786444
23	0xbec752e7	-0.38930437
24	0xbdd5706b	-0.10421833
25	0x3e7e20cc	0.24817199
26	0xbd374817	-0.044746485
27	0xbf72b8d8	-0.948133
28	0xbf7609ca	-0.96108687
29	0xbf08da30	-0.5345793
30	0xbeeb0edd	-0.45909777
31	0x3ea67c76	0.3251683
32	0xbe94231b	-0.28933033
33	0x3f522955	0.8209432
34	0x3e7eb160	0.2487235
35	0x3e68307d	0.22674747
36	0x3eaf381f	0.34222504
37	0x3eacfccb	0.33786616
38	0x3d38099a	0.04493103
39	0x3e4b29f2	0.1984022
40	0xbd4abf93	-0.049499106
41	0x3f30dede	0.6909007
42	0x3f17e3d9	0.5933204
43	0x3edd46c1	0.43218043
44	0x3e3636d0	0.17794347
45	0x3e82485c	0.2544583
46	0x3e93f82b	0.28900275
47	0x3e5041cf	0.20337604
48	0xbece3f0c	-0.40282476
49	0xbe1598c5	-0.14609058
50	0xbe8c7b48	-0.27437806
51	0xbe9fcd53	-0.31211337
52	0xbe4f1065	-0.20221098
53	0x3e698861	0.2280593
54	0xbf187b2e	-0.5956296
55	0x3e8d1f4d	0.27562943
56	0xbe359f49	-0.17736544
57	0xbd61be72	-0.055113263
58	0x3df6d2d3	0.1205193
59	0x3e151a46	0.14560804
60	0x3db07d85	0.08617691
61	0xbdac43ac	-0.08411345
62	0x3e891daf	0.2678046
63	0xbddb9faa	-0.10723813
64	0xbda56b2d	-0.08077083
65	0x3da6eb56	0.081503555
66	0xbe48946f	-0.19587873
67	0xbe589d45	-0.21153744
68	0x3e29ced9	0.16582812
69	0x3d1e7161	0.038682345
70	0xbcf5d9d7	-0.0300111
71	0x3dadc0df	0.08484053
72	0x3e537c6c	0.20652932
73	0xbe17edf1	-0.14836861
74	0xbda62b49	-0.08113725
75	0x3f3ea01f	0.74463075
76	0x3fba0cd0	1.453516
77	0xbee6650f	-0.44998977
78	0x3f7549b3	0.9581558
79	0x3f39d430	0.725894
80	0x3ea57bd2	0.3232103
81	0x3f6632f9	0.8992153
82	0x3ec54542	0.38529402
83	0x3f843554	1.0328774
84	0xbd7c2d56	-0.061566673
85	0x3f837b70	1.0272045
86	0xbe9d5031	-0.30725244
87	0x3f7204fd	0.9453886
88	0xbda30f92	-0.07961954
89	0x3f66b468	0.9011903
90	0x3af58e3f	0.0018734409
91	0x3f561030	0.8361845
92	0xbea092c0	-0.3136196
93	0x3f40682f	0.7515897
94	0xbd7dc786	-0.06195786
95	0x3f660642	0.898533
96	0xbe9b5742	-0.3034001
97	0x3e097554	0.13423663
98	0x3cee4c3d	0.029089088
99	0x3e81a5fa	0.25321943
100	0xbff3385b	-1.9001573
101	0xbf3320df	-0.6997203
102	0xbfd73293	-1.6812309
103	0xbf406b76	-0.7516397
104	0xbf5e9f09	-0.8696142
105	0xbf0f429d	-0.5596102
106	0xbf30f303	-0.69120806
107	0xbf11e8f7	-0.569961
108	0xbea7af2f	-0.32750842
109	0xbec4ffe5	-0.38476482
110	0xbf006f41	-0.5016976
111	0xbed4b6ca	-0.41545707
112	0xbeb39f91	-0.35082677
113	0xbe9c909c	-0.30579078
114	0xbe91059a	-0.28324586
115	0xbda8f7c3	-0.08250382
116	0xbea771d6	-0.32704037
117	0x3ec009e1	0.37507537
118	0xbe3e039e	-0.18556067
119	0x3d428274	0.04748769
120	0xbea425e7	-0.32060167
121	0xbe028eb6	-0.12749752
122	0x3ee05839	0.4381731
123	0xbe8f2128	-0.27954984
124	0x3f81106a	1.0083134
125	0xbf62c58b	-0.88582677
126	0xbc99371d	-0.018703038
127	0xbe9a580e	-0.30145305
128	0xbde0b76e	-0.109724864
129	0xbe8360c0	-0.25659752
130	0xbf535f85	-0.82567626
131	0x3e0d4472	0.13795641
132	0xbe371083	-0.17877392
133	0x3d0ecc0d	0.034862567
134	0xbf1be9da	-0.60903704
135	0xbcf80699	-0.030276584
136	0xbf0bd786	-0.5462574
137	0x3c82ce4e	0.015967514
138	0xbed0f5e3	-0.40812597
139	0xbb904e4e	-0.004403866
140	0xbf351a31	-0.7074309
141	0xbe88f3e1	-0.26748565
142	0xbe24db84	-0.16099364
143	0xbea9f277	-0.33192798
144	0x3e4b3525	0.19844492
145	0xbd425b85	-0.04745056
146	0xbcd9e8d5	-0.02660028
147	0x3f14a57b	0.58065003
148	0x4006ec4b	2.1081722
149	0xbdb3dbbe	-0.08782147
150	0x3f81a840	1.0129471
151	0xbde65671	-0.11246956
152	0x3f29d050	0.66333485
153	0xbdb90d6e	-0.09035765
154	0x3ec1ade4	0.3782798
155	0x3ebc54f5	0.36783567
156	0x3e7d3d04	0.24730307
157	0x3e28a91c	0.1647076
158	0xbe334786	-0.17507753
159	0x3e1c6034	0.15271074
160	0x3c83d82f	0.016094295
161	0x3dfada40	0.12248659
162	0x3e215495	0.15754922
163	0x3e819cd7	0.25314972
164	0x3d548453	0.051884007
165	0xbc9eaa6e	-0.019368377
166	0xbeac7724	-0.33684647
167	0x3cc6bcfc	0.024260037
168	0xbe143239	-0.14472283
169	0xbe385a7e	-0.1800327
170	0x3e8232b9	0.25429323
171	0x3f1189f9	0.56851155
172	0x3f03a687	0.51425976
173	0xbdcf9324	-0.10135487
174	0x3e47130e	0.19440863
175	0x3e6069ce	0.21915361
176	0xbda04c40	-0.078270435
177	0x3ee3114c	0.44349134
178	0xbe65394c	-0.22385138
179	0x3f10d07d	0.5656813
180	0xbf1d9cd4	-0.61567426
181	0x3e89e6f3	0.26934013
182	0xbf24c586	-0.64363897
183	0x3ec8834e	0.39162678
184	0xbd2dace8	-0.042401224
185	0x3e8f1c51	0.2795129
186	0xbed671a8	-0.41883588
187	0x3e0e2848	0.13882554
188	0xbe8dccc0	-0.27695274
189	0x3e0be870	0.13662887
190	0xbeb2a0d3	-0.34888324
191	0xbe87b6a2	-0.26506525
192	0xbea289bd	-0.3174571
193	0xbe9e7559	-0.30948904
194	0xbf46d137	-0.77662987
195	0xbdfbe9d5	-0.12300459
196	0xbeb7da19	-0.35908583
197	0x3dead77e	0.11466883
198	0xbe90a617	-0.28251716
199	0x3e8c5096	0.27405232
200	0x3e110bd1	0.14164664
201	0x3dd86e12	0.10567869
202	0xbd4d45b6	-0.05011531
203	0x3b9d5202	0.004801036
204	0x3e64f720	0.22359896
205	0x3e4c2d7d	0.19939227
206	0x3c884aeb	0.016637286
207	0x3e7a2c13	0.24430875
208	0x3eed5f5f	0.46361825
209	0x3d3906c1	0.045172457
210	0x3d84d2e4	0.06485537
211	0xbe209130	-0.15680385
212	0xbd38e1af	-0.045137104
213	0xbea0c0a5	-0.31396976
214	0x3c4e6435	0.012597133
215	0xbe053062	-0.13006738
216	0xbe08b7b1	-0.13351323
217	0xbe0b1eff	-0.13586043
218	0x3f147f03	0.58006305
219	0xbebe5c37	-0.3717973
220	0xbdb03148	-0.0860315
221	0xbed351ad	-0.4127325
222	0x3d982eab	0.07430776
223	0xbecc479f	-0.39898393
224	0x3cc2d5fd	0.023783678
225	0xbe58fe21	-0.21190692
226	0x3e662b28	0.224774
227	0xbe9fc73d	-0.31206694
228	0x3e65d06b	0.22442786
229	0xbe353121	-0.17694522
230	0xbe244cab	-0.16044872
231	0xbe1d2668	-0.15346682
232	0x3dde0371	0.108405
233	0x3e245a9b	0.16050188
234	0xbdd86f3c	-0.10568091
235	0x3eed6e1d	0.46373072
236	0xbe1ef3f0	-0.15522742
237	0x3df8fe4c	0.12157878
238	0xbdc8a5fe	-0.097972855
239	0x3ee40cb3	0.4454094
240	0x3ef277a1	0.47356895
241	0xbe259431	-0.16169812
242	0xbea1add6	-0.3157794
243	0x3f5c980d	0.8616951
244	0xbedd9053	-0.43274173
245	0xbcd822a2	-0.026383702
246	0xbe9aacf3	-0.30210075
247	0xbe407f18	-0.18798482
248	0xbf05b641	-0.5223122
249	0xbdd6ca54	-0.1048781
250	0xbeb5d0c3	-0.35510835
251	0xbea8846d	-0.32913533
252	0xbc99cdcf	-0.018774895
253	0xbeba126b	-0.36342177
254	0x3c82f6f7	0.015986903
255	0xbe97c7f2	-0.29644734

critic.0.bias f4 [64]
0	0x3f20540f	0.62628263
1	0x3f5cdedf	0.86277574
2	0xbeac8bfb	-0.33700547
3	0xbd009a10	-0.031396925
4	0xbf7ae972	-0.9801246
5	0x3ed50182	0.41602713
6	0x3f0b5506	0.5442661
7	0x3f1e4a20	0.61831856
8	0xbef214b2	-0.47281414
9	0xbf30ac13	-0.69012564
10	0x3e8fb0c7	0.28064558
11	0xbe04a7fe	-0.12954709
12	0x3c761fe9	0.015022256
13	0x3f69913e	0.91237247
14	0x3d15a0dd	0.036530364
15	0x3f078279	0.5293346
16	0xbf9c4630	-1.220892
17	0x3e962fe3	0.2933341
18	0x3f147d82	0.5800401
19	0x3f07255a	0.5279137
20	0x3ec3a39c	0.38210762
21	0x3e830426	0.25589103
22	0x3e889f97	0.26684257
23	0x3ef9e149	0.4880469
24	0x3e9f6316	0.31130284
25	0x3f3e5f1c	0.74363875
26	0x3f0c7f6e	0.5488194
27	0xbe7efdb5	-0.24901469
28	0x3f1ee674	0.62070394
29	0x3ed542a2	0.416524
30	0xbfde6482	-1.7374423
31	0xbfac63ec	-1.3467994
32	0x3ea554b1	0.32291177
33	0x3e9cba3c	0.30610836
34	0xbf213a01	-0.6297913
35	0xbfca61a7	-1.5811051
36	0xbf87ca02	-1.0608523
37	0x3f307c3f	0.68939584
38	0x3ec8df60	0.39232922
39	0xbf833c7f	-1.0252837
40	0xbec986f0	-0.39360762
41	0x3ef42fb1	0.47692636
42	0x3ec9e8d1	0.39435437
43	0x3df9e907	0.122026496
44	0x3e6b208b	0.22961633
45	0xbf2efc55	-0.6835378
46	0xbeeab827	-0.45843622
47	0x3f4a2d1a	0.7897507
48	0x3f198d0e	0.5998086
49	0x3f560f11	0.8361674
50	0x3f332dac	0.69991565
51	0x3eb0413f	0.3442478
52	0x3f142f8e	0.5788506
53	0x3ef436f9	0.4769819
54	0xbf6455c4	-0.8919337
55	0xbec323da	-0.3811329
56	0x3ef55c85	0.4792215
57	0x3f267337	0.65019554
58	0x3e408d97	0.18804012
59	0x3f09072f	0.53526586
60	0x3e8a93de	0.2706594
61	0x3f136a51	0.575841
62	0x3f474ff6	0.77856386
63	0x3e31c473	0.17360096

critic.2.weight f4 [32, 64]
0	0x3cdd766e	0.02703401
1	0xbe7fd67e	-0.24984166
2	0x3ec722e9	0.38893822
3	0xbe574d3c	-0.21025556
4	0x3e272d61	0.16325904
5	0xbcabd1cb	-0.02097406
6	0xbced11b6	-0.02893911
7	0xbe95c77f	-0.29253766
8	0x3e9b53dd	0.3033742
9	0x3d81c2c7	0.06335979
10	0xbd1a4086	-0.03765919
11	0xbe9b6e08	-0.30357385
12	0x3ca9a800	0.020709991
13	0xbe556363	-0.20838694
14	0x3df454ff	0.11930274
15	0xbebbf342	-0.36709028
16	0xbe8847cd	-0.2661728
17	0xbebd5af9	-0.3698347
18	0xbec58b91	-0.38583043
19	0xbe4c9c26	-0.19981441
20	0x3e2d2c8b	0.16911523
21	0x3de00bf2	0.109397784
22	0x3d4ae1a6	0.0495316
23	0xbe87b97f	-0.2650871
24	0xbe718634	-0.2358635
25	0xbea28111	-0.31739095
26	0xbe2a947d	-0.16658206
27	0x3c1c9011	0.0095558325
28	0x3ca52367	0.020158483
29	0xbe8b5b0e	-0.27217907
30	0xbe30a1f7	-0.17249285
31	0x3e429a35	0.19004138
32	0xbe89d9cb	-0.26923975
33	0xbe8b631a	-0.27224046
34	0x3db98dfa	0.09060283
35	0xbd896634	-0.06708947
36	0xbddb3959	-0.107042976
37	0x3d5b5eb4	0.053557113
38	0xbe489f26	-0.1959196
39	0x3ccb5628	0.024821356
40	0xbdcd648b	-0.10028943
41	0x3d184ae0	0.03718078
42	0xbef3c362	-0.47610003
43	0xbebc2e61	-0.36754134
44	0x3e180d3c	0.14848799
45	0xbea80ea9	-0.32823685
46	0xbe1f70a5	-0.15570314
47	0x3e82e443	0.25564775
48	0xbc0776f7	-0.0082681095
49	0xbe7da64c	-0.24770468
50	0xbd0815b5	-0.033223826
51	0xbe14d11e	-0.14532897
52	0xbec1b76f	-0.3783526
53	0xbe315948	-0.17319214
54	0x3e81fb71	0.25387147
55	0x3e047a6f	0.1293733
56	0xbda5be4f	-0.08092939
57	0xbe75b761	-0.23995735
58	0xbcb498d2	-0.022045527
59	0xbdbdcc11	-0.09267438
60	0xbe826c80	-0.25473404
61	0x3e740b59	0.23832454
62	0xbdf7a7a6	-0.12092523
63	0x3e1ea401	0.1549225
64	0x3ef477bd	0.47747603
65	0xbe9b8d40	-0.30381203
66	0x3db430b4	0.08798352
67	0xbe9b3315	-0.3031241
68	0x3e927362	0.28603655
69	0x3daec563	0.08533742
70	0xbd6ffa36	-0.05858823
71	0xbe9dae40	-0.30797005
72	0xbefd361f	-0.49455354
73	0xbf556486	-0.8335651
74	0xbd88a45e	-0.066719756
75	0x3ed23d45	0.4106237
76	0xbe4635a6	-0.19356403
77	0x3eea7b65	0.45797268
78	0xbdd2ff6d	-0.10302625
79	0x3be8ac89	0.007100646
80	0x3ce93e04	0.028471954
81	0xbf5b1c18	-0.8558974
82	0x3c486fb2	0.0122336615
83	0x3ecaa427	0.39578363
84	0x3e81025f	0.25197122
85	0xbee3a438	-0.44461226
86	0x3eb4a65f	0.3528318
87	0xbfd0cd0e	-1.6312578
88	0x3f03c448	0.51471376
89	0x3df5d698	0.12003821
90	0xbeecf36a	-0.4627946
91	0xbf16fd82	-0.5898057
92	0xbe2ed628	-0.17073882
93	0x3e53ec72	0.20695665
94	0xbfa10109	-1.2578441
95	0x3ec9f2a0	0.3944292
96	0xbeef0af9	-0.4668806
97	0x3c866589	0.016405838
98	0x3f43ccba	0.7648426
99	0xbeaf2644	-0.34208882
100	0x3de411d1	0.11136211
101	0x3eb4f956	0.35346478
102	0xbd02fb1f	-0.03197777
103	0xbbdff362	-0.0068344334
104	0xbf0f571f	-0.5599231
105	0xbf2696fc	-0.65074134
106	0x3eb88e35	0.36045995
107	0x3e8c8801	0.27447513
108	0x3e2e5970	0.17026305
109	0x3f185c6d	0.5951603
110	0xbe0d4eb4	-0.13799554
111	0xbe5ac1a4	-0.2136293
112	0x3d312ee8	0.043257624
113	0xbe604347	-0.21900664
114	0xbd8116cf	-0.063031785
115	0x3d1bd4a8	0.0380446
116	0x3f056908	0.5211339
117	0x3d8cbc79	0.06871886
118	0xbfa83e5e	-1.3144033
119	0x3eac3768	0.33636022
120	0x3e91907b	0.28430542
121	0x3eec2942	0.46125227
122	0x3e4e3856	0.20138678
123	0x3e3ca6a8	0.1842295
124	0x3e09ded2	0.13463905
125	0xbe8137e2	-0.25237948
126	0x3e839da9	0.25706223
127	0x3e02f8e2	0.12790254
128	0x3ec1adab	0.3782781
129	0x3f01b2e2	0.5066358
130	0xbe2f2aae	-0.17106125
131	0xbe1d9540	-0.15388966
132	0xbf149824	-0.5804465
133	0x3e766e23	0.24065451
134	0x3e5ebb75	0.21751197
135	0xbe76d8f0	-0.24106193
136	0xbf04666c	-0.51718783
137	0xbdac600e	-0.084167585
138	0x3e62a8de	0.2213473
139	0x3c923379	0.01784681
140	0x3d68f9fb	0.056879025
141	0x3e440a25	0.19144495
142	0xbe5d6e29	-0.21624054
143	0xbdda2e52	-0.10653366
144	0xbf95ab77	-1.1692952
145	0x3eb3867e	0.35063547
146	0x3e2d1ddd	0.16905923
147	0x3e2d3a08	0.16916668
148	0x3c121a20	0.0089173615
149	0xbe9bf060	-0.3045683
150	0x3dd8d997	0.10588377
151	0x3db5a7bf	0.08869886
152	0x3dc05659	0.093914695
153	0x3ec0d1e0	0.37660122
154	0x3e8c7b35	0.2743775
155	0xbd8d3452	-0.06894745
156	0xbde847ff	-0.11341857
157	0x3e7b4d80	0.24541283
158	0xbfa2d1c7	-1.2720269
159	0xbfcb0548	-1.5860987
160	0x3d313ce7	0.04327097
161	0xbd2e9bac	-0.04262893
162	0xbf826144	-1.0185933
163	0xbfcc0d9e	-1.5941656
164	0xbf9b503d	-1.2133862
165	0x3f151939	0.5824161
166	0x3e952077	0.2912633
167	0xbf7b070a	-0.98057616
168	0x3e5e606c	0.2171647
169	0x3c5099de	0.012731997
170	0x3e7dfe29	0.24803986
171	0x3ec39b27	0.3820431
172	0x3ebe47ad	0.3716406
173	0xbf7df8af	-0.99207586
174	0xbe559bf7	-0.20860277
175	0x3e7b6946	0.24551877
176	0x3e482e48	0.19548905
177	0x3e725ed3	0.23668985
178	0x3d8a1ddf	0.06743979
179	0x3defde74	0.117123514
180	0x3ee461ad	0.4460577
181	0xbd98d8b5	-0.074632086
182	0xbf2509e4	-0.64468217
183	0xbe63dec4	-0.22252947
184	0x3ed22fc1	0.41052058
185	0x3e650950	0.22366834
186	0x3d8a5d55	0.06756083
187	0x3dcf6291	0.10126222
188	0xbe26a629	-0.16274323
189	0xbe3c2dfb	-0.18376915
190	0x3e606007	0.21911632
191	0xbe5ac5c5	-0.21364506
192	0xbc90b1b9	-0.01766287
193	0xbea52be5	-0.3226005
194	0x3ee19e71	0.44066194
195	0xbe824b3c	-0.25448024
196	0x3f09c072	0.53809273
197	0x3f518cef	0.8185567
198	0x3ee7cb89	0.45272473
199	0x3e7a4a91	0.24442507
200	0xbf5a9af3	-0.85392684
201	0xbde3152b	-0.11088022
202	0x3e8577ae	0.2606787
203	0xbec758c3	-0.38934907
204	0x3d827751	0.06370414
205	0x3eb1a511	0.34696248
206	0x3ec4df5a	0.38451654
207	0x3e97c4e3	0.296424
208	0xbe1e73f6	-0.15473923
209	0x3e8d4e6c	0.27598894
210	0xbe162b8f	-0.14665054
211	0x3c106665	0.008813475
212	0xbd58b90c	-0.05291085
213	0x3db2188d	0.08696089
214	0xbe32901c	-0.17437786
215	0x3e84f902	0.25971228
216	0xbd6820eb	-0.056672018
217	0x3efa2e28	0.4886334
218	0x3dfd7fce	0.123778924
219	0xbe7d6dd4	-0.24748927
220	0x3d4889a1	0.04895938
221	0xbee3b44e	-0.444735
222	0xbef32cdd	-0.47495165
223	0xbfaab28c	-1.3335738
224	0xbe87bbeb	-0.26510558
225	0x3ed2e244	0.41188252
226	0xbecb80d1	-0.39746717
227	0xbf9d99d3	-1.2312568
228	0xbfcfa762	-1.6222956
229	0xbebd9c68	-0.3703339
230	0x3e043b91	0.12913348
231	0xbebb1de7	-0.3654625
232	0xbd23cb20	-0.039988637
233	0xbe99bdc5	-0.30027595
234	0x3ee45cfc	0.4460219
235	0x3ec3c083	0.38232812
236	0xbe564e68	-0.20928347
237	0xbfb1e853	-1.3899025
238	0x3e1e05bd	0.15431876
239	0xbea170f9	-0.31531504
240	0x3e397a2e	0.18113014
241	0xbe2fa7f6	-0.17153916
242	0xbe36ccb2	-0.17851523
243	0x3e516b60	0.20451117
244	0x3e4f87f9	0.20266713
245	0x3e35ed30	0.17766261
246	0x3f18681a	0.59533846
247	0xbf2a4610	-0.66513157
248	0xbe17d02f	-0.1482551
249	0xbe5c60df	-0.21521328
250	0xbdc7b2a9	-0.097508736
251	0xbce07cc9	-0.027403252
252	0x3dab5639	0.08366055
253	0x3e2656a7	0.16243993
254	0x3d36d9ab	0.044641178
255	0x3d8a80e6	0.06762867

critic.2.bias f4 [32]
0	0xbe81b346	-0.25332087
1	0x3f04df3e	0.5190314
2	0x3f1f3c69	0.62201554
3	0x3f01fba2	0.50774586
4	0xbea95636	-0.33073586
5	0x3f2f98f2	0.6859275
6	0xbe9cf4d9	-0.30655554
7	0x3ecdaa3c	0.4016894
8	0xbf024b3e	-0.5089606
9	0x3f12eac2	0.5738946
10	0xbefa1dd3	-0.4885088
11	0x3edefd13	0.43552455
12	0x3f02f640	0.51157
13	0x3f1ff3c0	0.6248131
14	0xbe893555	-0.26798502
15	0x3f1472c9	0.5798765
16	0xbeaa3ca0	-0.33249378
17	0x3f167358	0.5876975
18	0xbdd5521f	-0.10416054
19	0xbea53bb0	-0.322721
20	0x3f2f4db3	0.68477935
21	0xbd8990dd	-0.067170836
22	0xbe98fbbc	-0.29879558
23	0x3ef231a0	0.47303486
24	0xbe60ba65	-0.21946104
25	0x3f2ac896	0.6671232
26	0xbcbf178c	-0.023326658
27	0x3f16ef3b	0.58958787
28	0x3ebafa86	0.3651926
29	0x3f33da6b	0.70255154
30	0x3eb2382b	0.34808478
31	0xbe12f09a	-0.14349595

critic.4.weight f4 [1, 32]
0	0xbf144e35	-0.57931834
1	0x3e7026d4	0.23452312
2	0x3ef0518d	0.46937218
3	0x3e936241	0.287859
4	0xbed52603	-0.41630563
5	0x3ea17560	0.31534863
6	0xbf71372f	-0.9422483
7	0x3ec7817b	0.38965973
8	0xbf579815	-0.84216434
9	0x3ea2d5af	0.31803653
10	0xbe6bb54f	-0.23018382
11	0x3ef13919	0.47113875
12	0x3f0b5561	0.5442715
13	0x3ecd7923	0.40131482
14	0xbf93c24a	-1.1543667
15	0x3ec2f736	0.38079232
16	0xbf4df3d4	-0.8045018
17	0x3edfc37d	0.43703833
18	0xbfb5164a	-1.4147427
19	0xbf9f23a0	-1.2432747
20	0x3ee4766a	0.44621593
21	0xbf36fb56	-0.7147726
22	0xbf536fd5	-0.8259252
23	0x3ecb165a	0.3966549
24	0xbf1d6d38	-0.6149478
25	0x3eb5bfee	0.35497993
26	0xbf374555	-0.7159017
27	0x3ed0d4b0	0.40787268
28	0x3eb7c51f	0.3589258
29	0x3ea75d97	0.3268859
30	0x3e837461	0.25674728
31	0xbf9c979b	-1.2233766
