logs/exp/21_11_02_11_52_02/model_100.pt (torch, 34660 bytes, 12 tensors)

log_std f4 [3]
000000 17 ff aa be 67 ca 75 be d5 bf 71 be
       -0.33397743 -0.24002992 -0.23608334

actor.0.weight f4 [64, 24]
000000 3e f3 ac be 2e d6 0c 3e 62 3e 53 3e 87 7b 7f bf
       -0.3377933 0.13753578 0.20629266 -0.9979786
000010 60 e4 3e 3d aa b8 26 bc 11 f0 ce 3c 79 8c 59 bd
       0.046604514 -0.010175863 0.025260957 -0.05311248
000020 40 ba 85 bb 6c d2 87 be ab 5d 25 3e 4e de 26 3c
       -0.0040810406 -0.26527727 0.16149013 0.0101848375
000030 51 d1 45 be 00 64 6e bc 73 c9 f5 bc a7 12 34 bc
       -0.19318129 -0.014550209 -0.030003285 -0.010990775
000040 08 d3 39 be 80 c8 ca be ee 00 40 3d 14 5d bd 3e
       -0.18146908 -0.39606094 0.046875887 0.36985075
000050 28 b3 43 be 07 af 63 bd 38 ca 1c bd 31 c5 2e 3d
       -0.19111311 -0.05558684 -0.03827879 0.042668525
000060 b8 71 d0 bd 9b d7 3f bd a6 db 37 3d 1d d4 04 3d
       -0.1017794 -0.046836477 0.044887207 0.03242885
000070 4e c6 55 3e 04 d8 1b 3e c9 4d f6 3e 4f 57 72 3e
       0.20876428 0.15219122 0.4810622 0.23666118
000080 02 b2 3e 3e ab 52 3d bd 9f fb 0a bc b1 25 48 3e
       0.18622592 -0.046221416 -0.008482843 0.19545628
000090 39 ed 07 be 57 b4 8d 3d 55 47 41 3d 1b c3 55 bc
       -0.13274087 0.06919163 0.04718717 -0.013047005
0000a0 29 fc 9b 3e 31 be d9 bd bd fc 19 be 0f 34 a9 bd
       0.3046582 -0.10631979 -0.15037818 -0.082618825
0000b0 89 dd 2e bd 8b 1b 4b 3c 8e ae c4 bd 4f ff 72 be
       -0.04269174 0.0123967035 -0.09603606 -0.23730205
0000c0 db 5a ca 3d 02 0c 8a bd d1 67 a4 3b d3 41 15 3f
       0.098806106 -0.067405716 0.0050172587 0.58303565
0000d0 02 26 41 3f f4 7f 65 3f dc 94 98 3e 26 a6 aa 3e
       0.7544862 0.89648366 0.2980107 0.33329886
0000e0 07 46 6d 3e 79 33 49 3e 2c 12 c8 bd ab 39 56 3e
       0.23171245 0.19648542 -0.09769091 0.20920436
0000f0 4a 07 2e 3e 1b 40 19 3e 55 b3 fa 3c e1 56 ae 3d
       0.16994968 0.1496586 0.03060309 0.085126646
000100 44 25 a2 3e 38 dd ce bd 83 e8 6c bd cf 8e 21 3f
       0.31669056 -0.10100788 -0.057838928 0.63108534
000110 5d dd 95 bb 89 d2 81 3e 85 7d 83 bc 50 52 5d 3e
       -0.0045735077 0.25355938 -0.016051063 0.21613431
000120 e2 93 00 bf fb c0 68 3d b6 80 c1 3d ed f9 8c be
       -0.5022565 0.056824666 0.09448378 -0.27534428
000130 b3 10 51 be 1b df e0 3d 4d 30 08 bf 92 e2 38 3e
       -0.20416526 0.10980054 -0.531987 0.1805518
000140 40 3a 7c be 69 a2 88 be 7a f8 2e 3d a6 de 93 be
       -0.24631596 -0.2668641 0.042717434 -0.28880805
000150 df 08 8d be d7 6b 2c 3e 06 0b 1b bd 24 45 6e 3e
       -0.2754583 0.16838013 -0.03785231 0.23268563
000160 31 5c ef bc 35 3b 6d 3d 70 b4 34 bd c9 ee 8b 3d
       -0.029218765 0.057917792 -0.04411739 0.06832654
000170 a0 fe f6 3b ba b4 a6 3e dc 2a 93 3e 4d 43 bb bc
       0.007537678 0.32559758 0.28743637 -0.02285924
000180 d8 ca 1f be a9 43 12 3d fc 19 83 3d bf fd d6 3d
       -0.15604722 0.035709057 0.064014405 0.10497617
000190 26 1c 30 3e e3 e2 03 3f 2d 65 3d bd a6 08 52 3e
       0.17198238 0.51518077 -0.046239067 0.20511112
0001a0 c6 6f 60 be 02 54 75 bc f9 d3 9e 3e df d1 5d 3e
       -0.21917638 -0.014973642 0.31021097 0.2166209
0001b0 9d b8 75 be 3b 0d 2f 3d ba 50 5d 3d 55 ce ed 3d
       -0.23996206 0.042737227 0.054032065 0.1161162
0001c0 c6 91 8b bd 7d 49 de bd 72 10 03 3d c6 16 18 3e
       -0.068149135 -0.108538605 0.031998105 0.14852437
0001d0 c2 34 91 bd 87 98 7f 3e 86 2c 7b 3e 8b 64 fb bd
       -0.07090141 0.24960528 0.24528703 -0.122750364
0001e0 10 90 31 be 0d b7 39 3b 75 03 1c bd 30 5f a1 be
       -0.17340112 0.0028337867 -0.038089234 -0.31517935
0001f0 87 c6 cd bd ed 78 08 3f dd 44 7f 3e 84 86 8f 3d
       -0.10047632 0.5330952 0.24928613 0.07008079
000200 0b e6 80 bd f6 e7 5c bd 1f a4 71 be 7e e2 9a 3c
       -0.06293877 -0.053932153 -0.23597763 0.018906828
000210 6f af 4b be b6 14 40 3e c7 6e ed 3d d0 19 ce 3d
       -0.19891141 0.187579 0.11593395 0.10063517
000220 d5 0c c4 be 71 d2 c0 3e 23 8f 40 be e3 7c b4 bd
       -0.3829104 0.37660554 -0.18804602 -0.08812883
000230 3e 56 8f be 86 eb e2 bc 40 f6 55 be e9 2d 8c be
       -0.27995485 -0.027700197 -0.20894718 -0.27378777
000240 51 e0 cd be f3 5f 3e bc ce 90 ed 3e 29 13 af bf
       -0.40210202 -0.011619556 0.4639954 -1.3677722
000250 1f 89 42 3e 10 c6 c1 3e 5c b2 53 3e 83 0c ce bd
       0.1899762 0.37846422 0.20673507 -0.1006098
000260 d3 9a a4 be 88 e9 86 b9 eb 59 19 be 4a 2d c7 be
       -0.32149372 -0.00025732466 -0.14975707 -0.3890174
000270 b2 84 2f bd 78 e5 cf be 29 47 fd 3d d9 d5 fc 3c
       -0.042851157 -0.40604758 0.12367088 0.03086369
000280 39 4d 98 3d 67 5c a8 bd d6 a4 ac 3d a1 84 8e 3e
       0.07436604 -0.08220749 0.084298775 0.27835563
000290 21 e6 ef bb fb c7 1d 3e ee ee fa bd 29 e8 eb bd
       -0.0073211347 0.15408318 -0.122526035 -0.115188904
0002a0 46 00 e3 bd 50 a5 88 3e c7 69 ee bd f0 7e a2 3f
       -0.110840365 0.26688623 -0.11641269 1.2694988
0002b0 c2 8b e9 3d 0f 5a c3 be d1 7d 41 be 0f de 5e be
       0.1140361 -0.38154647 -0.18895651 -0.21764396
0002c0 0d 63 1a 3e cd c5 3e bd 66 24 b3 bc c2 1f 5f bd
       0.15076847 -0.046575356 -0.021867942 -0.054473646
0002d0 ee af fc 3e 7b 80 c0 3d 17 fb ca 3c 76 b9 34 be
       0.49352974 0.09399506 0.024777932 -0.17648873
0002e0 77 3c 6e be 16 dc cf bd f3 c1 9b be d8 0d bf 3e
       -0.23265253 -0.101494 -0.3042141 0.3731525
0002f0 93 ea 44 be 55 25 83 bc e1 87 1b be 81 88 ea bd
       -0.19230108 -0.016009012 -0.15188552 -0.11451817
000300 45 1f f2 3e a9 f4 01 3e bf e8 e2 bc 78 4a 2e bf
       0.47289482 0.12690987 -0.027698873 -0.6808238
000310 8b 31 2c 3e 59 bf 6b 3e 18 70 23 bd 24 e8 cd bd
       0.16815774 0.23022212 -0.039901823 -0.10054043
000320 b5 71 19 be 25 c8 b5 3d 98 29 31 3d 3e 45 a4 bd
       -0.14984782 0.08876065 0.043252558 -0.080210194
000330 12 0d 65 bc 81 6b 70 3d de 44 10 be 88 c1 dc 3d
       -0.013980167 0.058696274 -0.14088771 0.10779101
000340 5a 6f 36 be 06 77 36 be d4 e6 97 be b6 3f 91 3d
       -0.17815915 -0.17818841 -0.29668295 0.0709223
000350 c9 98 2a be fe 8e 94 3e 4a 31 98 be 4a 78 71 be
       -0.16659845 0.29015344 -0.29725105 -0.23581043
000360 bc 87 7b be 8d 3c 0e 3d 6a 9f ce 3c 44 5f a6 be
       -0.24563497 0.034725714 0.025222499 -0.32494557
000370 a2 52 80 be 21 e9 20 3f 58 f2 12 bd 93 e6 87 3e
       -0.25063044 0.62855726 -0.03587565 0.26543102
000380 4d 68 e0 be 9a 89 4c 3e 23 4c a6 3d f2 2f 80 3e
       -0.43829575 0.19974366 0.08119991 0.2503658
000390 89 82 2d be 0c 05 4c 3e 8d 74 51 3c 97 d1 a4 3d
       -0.16944326 0.199238 0.0127841355 0.080477886
0003a0 95 0b 6b 3e d1 5d bb bd cf b0 20 be 98 01 63 be
       0.22953637 -0.091487534 -0.15692447 -0.22168577
0003b0 f4 32 26 be 92 6b 89 3e 0d 9c b0 3e 12 eb e9 3d
       -0.16230375 0.26839882 0.34494057 0.11421789
0003c0 bc a1 db be cb 11 9f 3e 90 9f 02 be 8d dd df 3e
       -0.4289683 0.31068262 -0.12756181 0.43723717
0003d0 6b 37 ac bb fa 6f 12 3e 5e 73 27 be a3 ff 17 bf
       -0.00525563 0.14300528 -0.16352603 -0.59374446
0003e0 9c a5 90 be 56 84 1a be 13 17 40 be 32 cb 53 be
       -0.2825135 -0.15089545 -0.18758802 -0.20682982
0003f0 32 18 18 3c 51 21 f9 3d a1 c7 c7 bd 1a 0a 4f be
       0.009283112 0.12164558 -0.09754873 -0.20218697

actor.0.bias f4 [64]
000000 ba 22 d6 be 86 53 5c bd 53 af 5b be 00 7a c8 3c
       -0.4182337 -0.05379059 -0.214536 0.024472237
000010 59 43 f0 be aa cd ba be 66 20 6e be dc b1 32 ba
       -0.46926382 -0.36485034 -0.23254547 -0.0006816664
000020 53 a8 f4 3d 34 49 5b be 75 7b c8 bd 25 5b a3 bd
       0.11946168 -0.21414644 -0.097891726 -0.07976369
000030 a5 84 6e be 32 83 e7 bd f0 7e c8 bd 41 4c 9a bd
       -0.23292787 -0.113043204 -0.097898364 -0.075340755
000040 7a d1 37 3e 3d dc 22 3d e8 34 1b 3c ed 9a f7 be
       0.17951003 0.039760817 0.009473063 -0.48360386
000050 f1 21 8b bd b1 98 57 bd 02 f5 3d be f4 d6 94 bd
       -0.06793583 -0.052635852 -0.18550494 -0.072675616
000060 47 34 5e be cd 34 a9 be 2c 3b b0 bd a5 9c 09 bf
       -0.2169963 -0.33048096 -0.08605036 -0.53754646
000070 f3 15 fb bd 47 03 5a bd f7 c9 95 be b7 fa 5d be
       -0.12260046 -0.05322578 -0.2925565 -0.21677671
000080 90 28 8d be d3 3c d1 3d 38 70 b0 be 81 f9 ab be
       -0.2757001 0.102166794 -0.34460616 -0.33588794
000090 0a 22 4a be 10 98 7d 3d c5 9a 88 be 96 7b 4c be
       -0.19739547 0.061912596 -0.2668058 -0.1996902
0000a0 29 8a 13 be 1b 8c fa be 03 ae dd bd 08 22 4d ba
       -0.14408173 -0.48935017 -0.10824206 -0.00078252004
0000b0 6a 62 1d be 7b bd 54 be 38 68 7e be b7 38 64 3d
       -0.15369573 -0.20775406 -0.24844444 0.05571815
0000c0 a1 d0 84 be 1b 1e 96 bd f5 2a af be 76 b1 49 bc
       -0.2594042 -0.07329961 -0.3421246 -0.012310376
0000d0 b7 f2 8a be 84 99 47 be b2 b3 6b bd b6 68 a6 bd
       -0.27138302 -0.19492155 -0.057544418 -0.08125441
0000e0 be a5 c5 be 4c 87 d3 be 50 9c c7 3d f9 b8 c4 bd
       -0.38603014 -0.4131416 0.09746611 -0.09605593
0000f0 47 12 33 be fc 2f 6d be eb a3 d2 3d d7 e7 17 be
       -0.17487441 -0.23162836 0.10285171 -0.14834534

actor.2.weight f4 [32, 64]
000000 52 6d d5 3e 97 7f c1 3c 03 a5 4f 3d 4b 98 33 3e
       0.41684967 0.02362041 0.050694477 0.17538564
000010 86 f7 68 3d 9f 07 f7 3b f9 84 05 be c8 08 23 be
       0.05687668 0.0075387503 -0.13039006 -0.15921319
000020 ae 95 a0 bd 69 57 98 3c 11 69 a9 3e d2 13 4a bd
       -0.07841049 0.018596368 0.33087972 -0.04933531
000030 1f 74 1e 3e 5a 20 43 3d bd e8 0a be 8d 72 b8 bd
       0.15473984 0.047638275 -0.13565345 -0.09006224
000040 d8 a3 2c be 0a fb fc 3d a1 7d 77 be 4a 33 73 be
       -0.16859376 0.123525694 -0.24169017 -0.23750034
000050 4c a8 e8 3d 7e 8c 0b bc 29 73 f1 3c c5 1c 8c 3d
       0.11360225 -0.008517383 0.029473858 0.06841425
000060 cf e4 79 be f6 01 92 bc 34 ce bd be d3 08 2d 3e
       -0.2440369 -0.0178232 -0.37071383 0.16897897
000070 7f 09 ae 3d 6e 43 0b 3e a1 9a 55 3e 56 fb 06 be
       0.08497905 0.13599941 0.20859767 -0.13181815
000080 f1 14 66 be 65 6c bd be 9e 73 73 be 88 e5 9f be
       -0.22468926 -0.3699676 -0.23774573 -0.31229806
000090 42 cb 4a be e2 73 32 3d ea 85 0c 3e f1 e9 0a 3e
       -0.19804099 0.043567546 0.13722959 0.13565804
0000a0 2b 0b 84 3e b5 0c b9 3e d9 d9 f8 3e ec a1 26 3e
       0.2578977 0.36142507 0.48603705 0.16272706
0000b0 c3 49 4d bc 3f 95 9e 3e bf 9d 81 3e a5 ea 59 be
       -0.012529793 0.3097324 0.25315663 -0.21280916
0000c0 01 8a c0 bd 94 67 39 3e 24 77 6c be 7a 3b 82 be
       -0.09401322 0.18105918 -0.23092324 -0.25436002
0000d0 de 1e 06 3e 97 a8 f7 bd ad b3 07 be c6 cf 9b 3d
       0.13097712 -0.12092703 -0.13252135 0.07607989
0000e0 62 7a 31 3e 40 66 e2 3d eb e1 b6 bd 6a eb 4b 3d
       0.17331842 0.11054659 -0.08929809 0.049785055
0000f0 e1 a6 8d bd 73 13 87 be 62 55 83 3e 33 39 6e 3c
       -0.06916595 -0.26382026 0.2565108 0.014540005
000100 f5 30 06 3c 6d bf 9d 3b 33 88 e5 be 18 cc a3 be
       0.008190383 0.0048140795 -0.44830474 -0.3199165
000110 1a 83 45 3c 2a 44 44 3b c4 1c 2f 3e 60 23 a6 3d
       0.012055183 0.0029947856 0.17100817 0.08112216
000120 a8 d3 d0 3d a3 af 85 be 1e 4c 6e be 95 b8 71 be
       0.1019662 -0.26110563 -0.23271224 -0.23605569
000130 0f 45 af bd b3 f0 a4 3e 8f 4e 88 3c 1a 27 a2 bd
       -0.08558094 0.3221489 0.016639022 -0.07917614
000140 ee 06 19 3e c8 47 ac 3d 00 57 e0 3d 07 f1 4c 3e
       0.1494405 0.08412129 0.10954094 0.2001382
000150 25 52 9d be 39 2c b5 3d a4 18 df be c5 4d 58 bd
       -0.30726734 0.088463254 -0.43573487 -0.05280854
000160 6e 99 fc 3d 71 16 0a be e8 5c b3 3d 96 6b 8a 3d
       0.12333952 -0.13485123 0.08757955 0.06758802
000170 7a bb b6 be 4c 30 10 3e 6b 71 de 3c 2a 2c 2b bd
       -0.35689908 0.14080924 0.027153691 -0.041790165
000180 5b cc 49 bd b9 e0 47 be 4a 5e b2 be 25 d9 0b be
       -0.049267154 -0.19519319 -0.34837562 -0.13657053
000190 94 fc 99 bf 84 6b 01 be 1e 6b d2 bd 7d f1 6c 3c
       -1.2030206 -0.1263867 -0.10274337 0.014461872
0001a0 be ea 83 3e 00 4c 02 3c 1a 0b 11 3e 6e b7 02 be
       0.25765032 0.00795269 0.14164391 -0.12765285
0001b0 b4 a8 8b be 02 ab 0c bd c0 23 a3 be fc 6d cd be
       -0.27277148 -0.034342773 -0.31863213 -0.40122974
0001c0 5e eb 8d be 9d 4d 7f 3d bd a9 80 3e 20 c9 0b 3d
       -0.27718633 0.062329877 0.251295 0.034127355
0001d0 42 b4 53 be b3 ea ba be 39 b7 d2 3c 8d e2 3d 3e
       -0.20674232 -0.36507186 0.025722133 0.18543454
0001e0 5a db 62 3e 0a 3d 05 be 10 f0 84 3d 37 57 bf 3e
       0.22153988 -0.13011566 0.06491101 0.37371227
0001f0 20 bb f9 be ca 27 1c 3d e3 d1 8f 3d be 66 fc bd
       -0.48775578 0.038123883 0.070224546 -0.12324284
000200 a2 04 08 be 62 1a e0 3c 54 95 45 3d d5 c1 20 be
       -0.13283017 0.02735633 0.048238114 -0.15698941
000210 9e fd 88 bd d8 d3 ed bd 48 75 f9 3d 27 b8 b3 bd
       -0.06688999 -0.116126716 0.12180573 -0.08775359
000220 0f 58 a5 be 04 91 57 3d 01 0f a8 3e db f7 24 be
       -0.32293746 0.052628532 0.32823947 -0.16110174
000230 fc a6 df 3c c7 62 a1 3e b9 1f d2 3d 9c 6c 27 3e
       0.027301304 0.31520674 0.10259957 0.16350025
000240 98 68 a6 bc 23 ef 2b 3d 1a 8b 05 bf 82 60 9e bd
       -0.020313546 0.041976105 -0.5216538 -0.07733251
000250 36 88 dd 3d d6 fa 27 3e 1f b8 2e 3e 80 7e 9b 3d
       0.10816996 0.1640428 0.17062424 0.07592487
000260 71 e9 13 3e f5 08 57 be c3 a5 e9 bd ad fb 5e be
       0.1444452 -0.2099951 -0.1140857 -0.21775694
000270 8c 8d 70 3d 55 e2 92 bd 5e 17 69 be da 52 ed 3d
       0.05872874 -0.07172076 -0.2276282 0.11588068
000280 e7 bb 44 be 78 6b b1 be 0f 7a 01 be 88 73 6c 3d
       -0.19212304 -0.34652305 -0.12644218 0.057727367
000290 24 d6 88 3e 18 40 89 be f2 d7 62 3e 28 2e c0 3d
       0.26725876 -0.26806712 0.22152689 0.093838036
0002a0 f2 91 52 3e e0 0f 34 bd 8f b8 37 be f4 e7 c9 bd
       0.20563486 -0.043960452 -0.17941497 -0.09858695
0002b0 d4 12 f2 be cc 26 7f be 0f f4 3c be e1 3a 0c bf
       -0.4727999 -0.24917144 -0.18452476 -0.5477734
0002c0 0a 43 20 3e 57 58 06 bf b8 9d 06 bf cf 1b 3a be
       0.15650573 -0.52478546 -0.5258441 -0.1817467
0002d0 05 4a 3a be 73 93 ff be a1 b4 3a be 27 5b 67 3e
       -0.18192299 -0.49917182 -0.18232967 0.22593366
0002e0 e3 bf 0a be f6 c5 b0 be 1f c2 37 be fb 3b b2 be
       -0.13549761 -0.34526032 -0.17945145 -0.34811386
0002f0 92 6a a4 3d b8 c1 0c be 8e 89 07 bd 84 3f ae be
       0.08028139 -0.13745773 -0.033090167 -0.34032834
000300 9e 77 89 bd 62 7f 29 be 16 81 9c bd 7a 52 0e 3e
       -0.06712268 -0.16552499 -0.07641809 0.1389865
000310 fd 42 93 3e af b5 26 be 76 12 1b 3d af cd 56 be
       0.28762046 -0.16280244 0.037859403 -0.209769
000320 de 1c 9a 3d 48 93 46 bd ab 8f 37 be ee 8b 02 bf
       0.07525037 -0.048480302 -0.17925899 -0.50994766
000330 c0 9b cc bc 67 56 6c be 2a 73 86 be 40 4b db bd
       -0.024976611 -0.23079835 -0.26259738 -0.10707712
000340 0e a1 de bd 75 d5 9d bd ef 0d 07 3e 22 e7 d4 bd
       -0.108705625 -0.07706729 0.13188909 -0.103956476
000350 bd 2a 33 be 02 ec 43 be df 2a 84 be 2b 2c 0b bf
       -0.17496772 -0.19132999 -0.25813958 -0.5436427
000360 ac e1 a6 be e7 a0 d0 3d 87 2c aa bd ff 3d d7 be
       -0.3259405 0.1018694 -0.08309274 -0.42039487
000370 5d c0 8f be d3 b1 6a be b8 16 e9 3c 25 71 f6 bb
       -0.2807645 -0.22919397 0.028453216 -0.007520812
000380 67 a2 f4 3d 2f b1 8b 3e 6a 0d 0b bf 10 f6 68 3e
       0.11945038 0.27283618 -0.54317343 0.22750115
000390 ae 6f ea 3e cf 2d 3c bd df a6 9f be 88 38 00 3d
       0.4578833 -0.045942124 -0.31182 0.031303912
0003a0 d5 3c 3e be dc 5f af 3d b6 1f d6 bd d7 ad 00 be
       -0.18577893 0.085632056 -0.10455267 -0.12566315
0003b0 1d e8 2f be a0 71 a2 3d cd e8 e6 be d4 dc 3a 3d
       -0.17178388 0.079318285 -0.45099488 0.045620754
0003c0 e1 b5 a2 be 2d e0 7a 3e 29 26 00 be 0b c8 97 bc
       -0.31779388 0.24499579 -0.12514557 -0.018528005
0003d0 99 ed 0c be 70 49 0d be 4f a4 04 be 91 e2 15 3e
       -0.13762511 -0.13797545 -0.12953304 0.1463721
0003e0 f6 b0 c3 bd b5 d6 95 3e b3 39 95 bc e2 d0 8f be
       -0.09555237 0.2926537 -0.01821599 -0.28089052
0003f0 f7 85 02 bf 11 9a dc be 82 58 91 bd 49 48 d8 bb
       -0.50985664 -0.43086293 -0.0709696 -0.006600414

actor.2.bias f4 [32]
000000 0b ec e3 bd b6 1e c1 bd d2 61 29 be 12 88 96 bd
       -0.11129006 -0.09429686 -0.16541222 -0.07350172
000010 73 e4 ba 3d c9 5f 99 be 36 1a ad bd 16 af a7 bd
       0.091256045 -0.2995589 -0.08452265 -0.08187692
000020 12 24 f2 bd fd 97 91 bd 8b 6e cf 3c 65 9a 1a be
       -0.11823286 -0.071090676 0.025321266 -0.1509796
000030 32 ef bf bd ed b4 63 be b5 70 56 be 35 1d 3d be
       -0.09371795 -0.22236986 -0.20941432 -0.18468173
000040 42 64 24 be 26 34 e1 bd 46 e7 3e be ff f3 c9 bd
       -0.1605387 -0.10996275 -0.18642911 -0.09860992
000050 37 92 cc 3d be 4b 8d bd 46 e0 e4 bd e3 dd 95 bd
       0.09988826 -0.06899212 -0.11175589 -0.07317712
000060 b6 a5 07 be 5f c5 84 be 13 d2 29 be 3e 33 46 bb
       -0.13246807 -0.25931832 -0.16584043 -0.0030242945
000070 36 b6 46 be 56 71 1d bd f8 d0 fa ba 66 31 cf bd
       -0.19405445 -0.038438164 -0.0019135764 -0.10116844

actor.4.weight f4 [3, 32]
000000 59 99 aa bc c7 f3 ed 3d ef 1e 13 bd ff 06 64 3c
       -0.020825075 0.116187625 -0.035918172 0.013917684
000010 1b 10 57 bc c6 d6 59 3c 2b b1 a1 3c dd 96 ab 3b
       -0.013126398 0.013295835 0.0197378 0.00523649
000020 db ae 5b bc 1d 03 9b 3c 08 b8 ae bd eb 40 2a bd
       -0.013408388 0.018922383 -0.08531195 -0.041565817
000030 e7 85 e5 bc df 3e c9 3c 72 5d bd bc e3 a7 56 bc
       -0.028017951 0.024566112 -0.023115847 -0.013101551
000040 52 0c a5 bc 5e 47 b2 bc 8d f3 d6 bd 48 71 cc 3c
       -0.020147476 -0.021762546 -0.104956724 0.02495636
000050 7f f7 d6 3d 8c 75 83 bd d1 a4 68 bd 8a 47 3e 3d
       0.10496425 -0.06418905 -0.056797806 0.046454944
000060 9e 01 a1 3c 52 d6 fa 3b ec e8 d3 bb c4 e1 0a 3d
       0.019654091 0.0076549435 -0.0064669754 0.033906713
000070 8b b3 cf 3c 94 fd 88 bd 0a a5 b8 38 40 e3 87 bd
       0.025354167 -0.06688991 8.8045446e-05 -0.066351414
000080 c0 54 13 bd 74 c4 a4 39 12 54 55 bc 20 6d 1a 3c
       -0.035969496 0.00031426887 -0.013020532 0.0094254315
000090 60 73 87 3b 5e 8f 43 bc 5a ee 22 bd f6 b3 16 3c
       0.004133627 -0.011936037 -0.03977809 0.0091981795
0000a0 05 98 6b 3c 0e d2 0b bd ca 80 03 3c 91 46 e8 3c
       0.014379506 -0.03413587 0.008026311 0.028353961
0000b0 b2 38 62 3d 20 42 15 3d 7b b6 0f 3d 72 16 56 3d
       0.05522985 0.036440015 0.035086136 0.0522675
0000c0 b6 08 14 bd bc 0b 1c bd f0 b7 b7 3c 91 46 4e 3d
       -0.03614112 -0.03809713 0.022426575 0.050360266
0000d0 83 e6 5f bc 49 11 d3 bc 33 4b 3e bd 36 a3 7e bd
       -0.013665798 -0.025765078 -0.046458434 -0.06216737
0000e0 76 2a d5 3c b1 d7 0c bd 37 fb 64 3d db f5 5a 3d
       0.026021224 -0.034385387 0.05590364 0.053457122
0000f0 b1 a3 d6 bc ec b8 36 bc be f2 b7 3c 3a a1 bf 3c
       -0.026201101 -0.011152487 0.022454616 0.023392309
000100 d5 01 e8 bc 7e 4f b8 bc 39 00 85 3c 93 c7 b1 bd
       -0.028321186 -0.022498842 0.016235458 -0.08680644
000110 b6 56 0f bd 10 0c 48 3a f9 1a 3f bd 31 98 29 bd
       -0.034994803 0.0007631192 -0.046656583 -0.041404907
000120 d1 88 9e 3b a0 9b ae bc 7a af 17 bb e1 0c 2a 3d
       0.004838087 -0.021314442 -0.0023145364 0.04151619
000130 56 0b 28 3c 64 57 e1 3c d6 42 ea 3b 8f 6e cf 3c
       0.010256609 0.027507491 0.0071490807 0.025321273
000140 6f 79 40 3c 18 21 15 bc fc 8b 7e 3d f4 78 3b bd
       0.011747702 -0.009102128 0.06214522 -0.045769647
000150 67 e6 36 3d 61 c1 35 3d c6 39 9f bc f7 5c 97 3d
       0.044653323 0.044373874 -0.019436728 0.073907785
000160 42 b8 f1 3a bc 07 01 3d 9a 4f 99 bd 80 94 ab bd
       0.0018441754 0.031501517 -0.07485886 -0.083779335
000170 1a cb c9 bc 45 8f 17 bd c1 0e 57 3c 45 87 15 bb
       -0.02463298 -0.037001867 0.013126076 -0.0022816223

actor.4.bias f4 [3]
000000 b7 59 9f bd ad 8d be bd e4 52 13 bc
       -0.077807836 -0.09304366 -0.008991931

critic.0.weight f4 [64, 24]
000000 b1 47 4a 3f 32 54 5d bd 37 a3 b9 bd 56 a4 ba 3d
       0.7901564 -0.054035373 -0.09064334 0.09113376
000010 0f d2 8a 3f 5b b8 aa 3e 32 34 01 3f 03 9b d4 3e
       1.0845355 0.33343777 0.5047027 0.41524515
000020 c2 7c 6c 3f f1 41 d0 3e 01 dc 2f 3f 20 b0 0f 3f
       0.92377865 0.4067531 0.68695074 0.5612812
000030 45 c0 9b 3e f0 94 07 3f ef 25 d7 3e 1b cd cc 3e
       0.30420128 0.52961636 0.4202113 0.40000233
000040 b0 0a 7a bc cb d5 e2 3e 2a e7 d2 bd c3 07 1b 3e
       -0.015261337 0.44303736 -0.10297997 0.1513968
000050 6d 8c 18 bf b5 e3 10 be d8 fa a6 be da 77 62 bd
       -0.5958927 -0.14149363 -0.32613254 -0.05529008
000060 b6 4a 07 bf a4 44 99 3e 92 ab 31 3e 7b 7c af 3f
       -0.52848375 0.2993518 0.17350605 1.3709863
000070 ef b8 0d bf bd d7 1e c0 26 0e 56 bd e3 e3 b7 bf
       -0.5536031 -2.4819176 -0.052259587 -1.436642
000080 c5 f4 55 3e 53 8e 9f bf 7f 88 71 be 38 57 2f bf
       0.20894153 -1.2465309 -0.23587225 -0.6849246
000090 03 3c 20 3e 9c 52 85 bf af 12 30 3e 00 58 f2 be
       0.15647893 -1.0415835 0.17194627 -0.47332764
0000a0 5a 11 17 be 1d 4f 72 bf 8d 09 c2 3e e0 2a 5d bf
       -0.14752713 -0.9465197 0.37897912 -0.8639355
0000b0 94 fb a0 be 19 42 bb be ca ee 82 be 76 58 18 3f
       -0.3144194 -0.36573866 -0.25572807 0.5950998
0000c0 54 43 5c 3e e1 dc cf 3d 65 8f 27 3f 7c 6b db 3f
       0.21510059 0.10149551 0.6545318 1.7142177
0000d0 fa 7f 14 3f 3c fc 18 3f 52 c0 af 3e cc 87 9c be
       0.58007777 0.5975988 0.34326416 -0.30572355
0000e0 eb fc 74 3e 9b 9a 33 bf b7 db 92 3e 9e e6 6f bf
       0.23924606 -0.70157784 0.28683254 -0.9371127
0000f0 9a 46 6f 3e 3f d9 45 bf fb 58 25 3d b9 0d df be
       0.23366776 -0.77284616 0.04036806 -0.43565157
000100 38 b6 6a 3d ef 9b 60 bd 11 9b 87 3e 0e 02 ee ba
       0.057302684 -0.05483621 0.26485494 -0.0018158571
000110 99 dd 18 3c 68 af 8c 3e f5 3b 3d 3d 68 04 22 be
       0.009330177 0.27477574 0.046199758 -0.15821993
000120 eb 58 4e bf 4e cf c1 3d 03 31 04 bf cb ea 2c be
       -0.8060443 0.09463368 -0.51637286 -0.16886441
000130 54 6d 58 3f 23 73 18 bf 91 aa 98 3e eb a4 84 bf
       0.8454182 -0.59550685 0.29817632 -1.0362829
000140 cf 3a 66 bd 89 e7 92 be 40 1c 41 3e 48 89 f6 be
       -0.056208428 -0.28692272 0.18858433 -0.48151612
000150 fd 1f ad 3d 51 99 99 3e 49 fb f6 bb 61 51 c8 3e
       0.08453367 0.29999784 -0.0075372797 0.39124587
000160 0e cd d0 bd b8 e9 01 3e d8 5d 38 bd e5 1a 1b 3f
       -0.10195361 0.12686813 -0.04501137 0.6058791
000170 8b 57 11 bf 90 89 fc 3e 97 0a 68 be 01 70 98 3e
       -0.56774205 0.49323702 -0.2266029 0.29772952
000180 07 13 14 c0 9a c2 d0 3e a6 b5 94 be 3c 34 36 c0
       -2.3136613 0.4077347 -0.29044837 -2.8469381
000190 61 b5 30 bf 1c 3b 07 3f 71 17 88 bf 17 3b 64 3e
       -0.6902676 0.5282457 -1.0632154 0.22288166
0001a0 7c 57 3d bf d0 15 a3 3e c2 78 1e bf 2d 00 9a 3e
       -0.73961616 0.3185258 -0.6190301 0.3007826
0001b0 6d 4e cf be 21 54 05 3e 99 d6 10 be e1 a2 5d bd
       -0.40489522 0.13020374 -0.14144363 -0.05411041
0001c0 2d 08 9f 3e ee fb 53 bd 0d 92 f5 3e b0 db 3c bc
       0.31060925 -0.05175393 0.4796299 -0.011526987
0001d0 52 a4 03 3e 48 50 1b 3f 8a 1f 0c bd 25 1e 88 3d
       0.12855652 0.60669374 -0.034209765 0.066463746
0001e0 1d 8c 70 be 26 c5 58 3e 76 a4 f8 bb 73 63 01 3f
       -0.23490949 0.21168956 -0.0075879646 0.5054237
0001f0 be de 09 3f de dc f5 bf f2 3f 5b 3f 6d fd b6 bf
       0.538555 -1.9208028 0.8564445 -1.429609
000200 5b c3 bf 3e 1c 6b 41 bf fe a0 16 3d 8b ea f0 be
       0.37453732 -0.7555406 0.036774628 -0.47053942
000210 63 67 d3 be 90 5e ab 3e 5a ca 09 bd 47 35 ce 3e
       -0.41289815 0.33470583 -0.033640243 0.40275022
000220 3d 93 88 be 66 e2 a1 3e 21 be 8c 3e 56 92 ba 3e
       -0.26674834 0.3161804 0.27488807 0.3643977
000230 f6 e1 84 3e 0b f9 90 3e 98 30 87 3e bd aa fd 3e
       0.25953645 0.28315005 0.26404262 0.49544325
000240 ec 28 e7 3e 9b eb 11 3f ee 38 b2 bd 6a 44 c1 3e
       0.45148408 0.5700013 -0.08702265 0.37747508
000250 df 37 2c bf 19 8e c2 3e 63 88 d5 be 01 ca 34 bf
       -0.6727275 0.37999037 -0.41705617 -0.70620733
000260 a9 d7 8a be 08 c9 ac be 92 70 0c be e3 50 8e be
       -0.2711766 -0.33747125 -0.13714817 -0.27796087
000270 b5 27 a3 bd 3f 8b 83 be 47 b5 25 3e f0 5c 8a 3e
       -0.07966558 -0.25692174 0.16182433 0.2702403
000280 0c 49 5f 3e bf 05 fc bb ac c6 18 3e 0c bd ac 3e
       0.21805209 -0.0076911147 0.14919537 0.3373798
000290 f8 9a 1f bf db 8a a6 3d 40 5e 67 bf 5d 1e 3d be
       -0.6234584 0.08131953 -0.9037819 -0.18468614
0002a0 94 df 15 bf d4 ea b7 3d 0e 58 e6 be d5 41 0a bf
       -0.5854428 0.08980337 -0.44989055 -0.540067
0002b0 07 70 f8 be 14 c3 1a 40 b6 06 96 be f0 88 11 40
       -0.4852297 2.4181566 -0.29301995 2.273983
0002c0 c3 03 98 3d 1d 6f b6 3f ff ec 8a 3d b3 27 1a 3f
       0.074225925 1.4252659 0.06783485 0.60216826
0002d0 df 0c b3 3e 84 5c c4 be 1d 04 a2 3d 71 31 df be
       0.34970757 -0.38351834 0.07910941 -0.43592408
0002e0 28 e6 e1 3d 8b 62 7d be c9 b6 b9 3d 48 20 b9 bd
       0.11030227 -0.24744622 0.090680666 -0.0903936
0002f0 8a 19 d2 bd eb ec 00 3f b9 87 e0 be a2 20 e3 3e
       -0.102587774 0.5036151 -0.43853548 0.44360834
000300 56 5e 79 3e 69 50 e3 be e5 8b 10 be 9e 3b 97 3f
       0.24352393 -0.44397286 -0.14115866 1.1815069
000310 e6 34 88 40 73 30 04 40 dc 89 bd 3f 9a 75 d5 bd
       4.2564573 2.065457 1.4807696 -0.10422821
000320 56 97 fd 3e 09 d2 a4 bf ab 4b 01 bd e3 32 a1 bf
       0.49529523 -1.2876598 -0.031566303 -1.2593654
000330 d9 1d b3 bd 72 dd b6 bf a7 af d1 be d5 c5 8b bf
       -0.08745927 -1.428633 -0.40954325 -1.0919749
000340 46 43 8a 3c 2e 38 dc be 03 1e e5 3d 72 9a 3f bf
       0.016877782 -0.43011612 0.11187365 -0.7484504
000350 d9 18 e9 3e 24 90 5b bf 14 8e 38 3f c9 3f c6 bf
       0.4552677 -0.85766816 0.72091794 -1.5488216
000360 ab e9 50 bf 88 73 28 be 3d 63 12 bc bf 60 7b 3f
       -0.8160655 -0.16450322 -0.008934793 0.981945
000370 be 9b 17 40 49 f7 21 bf 8a 32 f1 3f b9 e3 eb be
       2.3688807 -0.6326795 1.8843548 -0.46072176
000380 cf cd cd 3f 0e 49 ec 3e 09 e5 81 3f 9b ed 1d 3e
       1.6078433 0.46149486 1.0148021 0.1542267
000390 50 60 cd 3e 66 1c 23 bd 3c 88 c0 3e df 19 19 be
       0.40112543 -0.039822005 0.3760394 -0.14951275
0003a0 4e 2e 56 3e c4 83 96 bd bb bc 8c 3e 6c 29 29 3d
       0.20916101 -0.07349351 0.2748774 0.04129927
0003b0 9a a5 d9 be 34 77 2a bd 4c 55 e4 be c9 7d 0d be
       -0.42509156 -0.041617587 -0.44596326 -0.13817514
0003c0 83 50 f7 bd 31 4e 44 3e 5e 75 d0 be ea cc e7 3d
       -0.12075903 0.19170453 -0.40714544 0.11318381
0003d0 9d 03 f5 bc 36 88 f1 be 36 64 1d be 9e cb 68 bf
       -0.02990895 -0.47174233 -0.15370259 -0.90935695
0003e0 cd 71 01 be 58 32 9c be b8 d9 47 be 53 2d 71 3d
       -0.12641068 -0.3050716 -0.19516647 0.058881115
0003f0 4e 89 b5 3d e2 3e f0 3e 93 c1 bf bc 6e 63 20 3f
       0.088640794 0.46922976 -0.023407733 0.6265172

critic.0.bias f4 [64]
000000 d2 43 a7 3e 50 70 86 3e 8d b3 2a bc 9a 56 05 be
       0.3266893 0.26257563 -0.010418785 -0.13021317
000010 b7 a9 66 bf b7 08 42 bf 50 43 2c 3f ea 25 cd be
       -0.90102714 -0.7579455 0.6729021 -0.4006799
000020 a8 f2 94 be 49 76 8d bf 8d 65 03 3f 51 10 09 bd
       -0.29091382 -1.1051723 0.5132683 -0.033462826
000030 ec 88 94 be c4 07 43 bc da 05 5d 3f d0 70 05 bf
       -0.29010713 -0.011903707 0.86337054 -0.52125263
000040 28 96 34 bf 63 04 01 3e ec 20 c0 3c be 4f ab 3d
       -0.7054162 0.1259933 0.023453198 0.08364819
000050 4c 4e c1 bd 6d 8e 11 3f 53 bd 87 be 77 bc 08 bf
       -0.09438762 0.5685795 -0.2651163 -0.53412575
000060 c7 b6 fd be 7c ce 46 bf a7 27 64 bf 25 51 92 bf
       -0.4955351 -0.7765882 -0.89123005 -1.1431013
000070 12 66 93 be 5d 14 7c bf 18 42 77 3f 2d 38 05 bf
       -0.2878881 -0.9846857 0.96585226 -0.5203884
000080 9f 12 03 bf 4e a7 ae bf 0c 4a 6b be 6e 6c 9e be
       -0.5120029 -1.3644807 -0.22977465 -0.309421
000090 f2 ca bd bf 45 09 2c bf a4 e1 50 bf db 91 a2 bf
       -1.4827559 -0.67201644 -0.815943 -1.2700762
0000a0 88 67 ad bd 20 d9 88 bf 46 6a f5 3e d0 71 9e 3d
       -0.08467013 -1.0691261 0.47932643 0.07736552
0000b0 3d 33 80 be 73 98 4f bf 7c 13 21 3e 7c 84 6d 3e
       -0.25039092 -0.81091994 0.15730089 0.2319507
0000c0 6c 2a 8d 3d e6 89 ad bd f9 e3 37 bf 88 43 32 bf
       0.06892857 -0.08473568 -0.71832234 -0.69634295
0000d0 af b3 43 bf f9 81 b3 be fa 45 22 3f f7 68 a9 3f
       -0.7644605 -0.350601 0.63388026 1.3235158
0000e0 56 02 74 be 40 f6 8d bf ee a3 ad be ab 79 59 3e
       -0.23829016 -1.1090775 -0.3391413 0.21237819
0000f0 ba 39 89 be 53 bd 10 be e7 c6 3b 3f a0 fa 1f bf
       -0.26801854 -0.14134721 0.73350376 -0.624918

critic.2.weight f4 [32, 64]
000000 a4 25 fa 3c 21 6a 64 3e e6 c1 11 be a9 58 90 be
       0.030535527 0.2230611 -0.14234123 -0.28192642
000010 83 d6 d6 be ad d0 11 be 32 92 30 3d cf bf 9a bc
       -0.41960534 -0.1423976 0.043108173 -0.01889029
000020 40 9e be be 77 46 dc 3e 45 5e 7c be 79 eb a9 bd
       -0.3723011 0.4302251 -0.24645336 -0.08296866
000030 67 fc e6 be 4f 3c de bc 7d 2c 05 bc 6c af 4d 3e
       -0.45114443 -0.027128367 -0.008128283 0.2008645
000040 01 20 9c be 76 04 ba 3d ee 9d 38 3e 68 1b 34 3d
       -0.30493167 0.09082882 0.18028995 0.04397145
000050 63 7e 45 3e 1d db 11 be 29 de bd 3e 8c 41 ce bb
       0.19286494 -0.14243741 0.37083557 -0.006294435
000060 46 97 3d 3e 38 0d 9d be 56 20 a6 3e 0f c9 3f 3b
       0.18514737 -0.30674148 0.32446545 0.0029264127
000070 21 72 3a 3e b8 d3 2c 3e 7b a8 83 bd 1a a9 9f be
       0.18207599 0.1687764 -0.064286195 -0.31183702
000080 58 bd 9a 3e 0d 0b c6 3d 91 64 22 bd d0 80 c4 bd
       0.30222583 0.096700765 -0.03964669 -0.095948815
000090 7d 5a ce bd d4 90 66 be 22 42 d6 be ab cf ac be
       -0.10075853 -0.22516185 -0.4184733 -0.33752188
0000a0 c1 76 6e bd 75 41 56 be da 02 ac 3d be be 3e 3e
       -0.05821872 -0.20923407 0.083989814 0.1862745
0000b0 45 dc b5 3e 41 2c c0 3d c6 69 f1 3e 3a 96 60 bc
       0.35519615 0.09383441 0.4715101 -0.013707692
0000c0 79 02 85 be 06 84 84 3d 4b b4 da bb 4c 48 6b 3e
       -0.2597845 0.06470494 -0.0066743246 0.22976798
0000d0 c4 ef 83 3e 30 85 c1 bd 3e 7d 6a bd d3 f3 9c 3d
       0.25768864 -0.094492316 -0.057248347 0.07663693
0000e0 87 c8 d7 bd a0 4c 55 3e 43 11 e5 3c 62 64 f5 bd
       -0.105362944 0.20830011 0.027962333 -0.11982037
0000f0 3e 00 91 3c 2c db c1 3d f9 85 a6 bd 78 4f f1 3d
       0.01770031 0.09465632 -0.08131022 0.117827356
000100 24 35 a1 be 9f 67 39 3f d3 b2 01 be a7 f6 20 bf
       -0.31485856 0.7242374 -0.12665872 -0.6287636
000110 f1 d0 76 3f 5a 84 6f 3e ea 3e 04 be 4e 5d a4 bc
       0.9641257 0.23390332 -0.12914625 -0.020064022
000120 df 2d 25 bf 88 3c 72 3d 5c b5 a7 be d6 aa 59 be
       -0.6452312 0.05913976 -0.32755554 -0.21256575
000130 db 95 33 bf e7 f3 70 3f 29 2d 6b bf c8 1b 59 bf
       -0.70150536 0.94122165 -0.91865784 -0.84808016
000140 a6 8f 7e bc ac 42 0d bf 58 0e 09 c0 c6 9c d4 bd
       -0.015537178 -0.5517986 -2.1415005 -0.10381465
000150 86 b6 f0 bd 82 36 62 3f 97 da 7e bf 06 52 85 3e
       -0.117535636 0.8836442 -0.9955229 0.2603914
000160 3f 6d 30 be 48 cc 75 3f 71 23 57 3f 65 39 96 3f
       -0.17229174 0.96014833 0.84038454 1.1736265
000170 be 74 30 bf c0 f7 35 3f 8b f5 b3 bf c4 9e 4c bf
       -0.68928134 0.7108116 -1.4059309 -0.7992976
000180 3c ce 93 be 24 14 8d 3f b4 96 32 3f 9f b1 8f bf
       -0.28868282 1.1021771 0.69761205 -1.1226081
000190 d5 70 41 3e 62 9a 15 bf 5e 79 11 3f 44 23 26 bf
       0.18890698 -0.58438694 0.56825817 -0.6489756
0001a0 28 82 12 bf 8e 69 69 be 77 2f 40 3f fa 28 bc bf
       -0.5722985 -0.22794172 0.75072426 -1.4700005
0001b0 d9 61 85 3e e3 89 ce 3d 90 c0 14 3f ca c9 65 bf
       0.26051214 0.100848936 0.5810633 -0.8976103
0001c0 29 c8 53 bf 74 58 d6 3e 77 23 ea 3e 8c 36 97 3e
       -0.82727295 0.4186436 0.45730183 0.29533803
0001d0 d8 1f 31 3f 28 3c 91 bf 75 95 24 bf 7b 73 82 bf
       0.69189215 -1.1346483 -0.64290553 -1.0191492
0001e0 16 bb 57 3f 0c 1b d8 3f 5e 63 16 bf ab 67 73 3d
       0.84269845 1.6883254 -0.5874537 0.059425037
0001f0 c9 35 b3 be d4 b1 99 3e d8 39 ac bd 3d b6 1c be
       -0.35001972 0.30018485 -0.0840947 -0.15303893
000200 d4 26 0f bf 73 8d dd 3f a9 4b d0 bc 6f 64 4d 3e
       -0.5591862 1.7308792 -0.025426703 0.20057844
000210 54 bc bd 3e 92 92 ce bd 07 c4 e4 3e ff 5f 80 3f
       0.37057745 -0.1008655 0.44680807 1.0029296
000220 14 76 0d bf 9b c6 b1 be b0 ee 16 3d 45 81 c2 bf
       -0.552583 -0.34721836 0.036848724 -1.51957
000230 7b 3b a1 bf d3 ef 21 3f c6 dd cb bd 93 a1 98 bf
       -1.2596277 0.6325657 -0.09954409 -1.1924309
000240 e1 3f 5b be 05 df 75 3d 99 ef c8 3e 70 5f d9 3d
       -0.21411087 0.06002714 0.39245299 0.106139064
000250 32 2c e3 be 15 bf 3f 3f 4a 28 9e be ce a8 3f bf
       -0.44369656 0.74900943 -0.30890113 -0.7486695
000260 dc 62 20 3e ef e9 f8 3e 93 35 6e c0 dd f3 04 bf
       0.15662712 0.48615977 -3.72202 -0.51934606
000270 ba 83 d3 be fd be 7c be 8d 52 86 3e ff ee 66 bf
       -0.41311437 -0.24682231 0.26234856 -0.9020843
000280 3b c6 a6 3d fa 2c b6 be c9 8f 22 3f 60 dd 4a 3f
       0.08143278 -0.3558119 0.6350065 0.7924404
000290 c0 f8 df 3d 1c 5d c6 be 25 ee 3d bf 74 72 f9 3e
       0.10936117 -0.38742912 -0.74191505 0.48720133
0002a0 58 83 15 bf ed 63 f0 be 6a 9d 9f bf af ba 1c 3f
       -0.5840354 -0.46951237 -1.2469914 0.61222357
0002b0 e8 77 e8 bc be e5 0c bf a1 8d 3a 3f db c7 df be
       -0.028377488 -0.5503806 0.7287236 -0.43707165
0002c0 23 db 2a be 6a b1 da be f2 79 43 3f 7d 7d 3b bf
       -0.16685157 -0.4271348 0.7635795 -0.73238355
0002d0 1b 91 21 3e 7b 8d 1d 3f 4b 19 d4 3d 3f 1c a5 3e
       0.1577801 0.6154401 0.10356387 0.32248113
0002e0 30 9f 91 3f 73 19 98 bf 63 84 9c bf 74 0a 67 3f
       1.1376705 -1.1882766 -1.2227901 0.90250325
0002f0 c9 ce 14 bf a3 03 e4 3e e0 cd 9a bf f7 19 ef be
       -0.5812803 0.44534025 -1.2094078 -0.46699497
000300 21 4e bb 3e b4 03 17 3e fc 4b 8e 3d b7 0b 19 be
       0.36583045 0.14747506 0.069480866 -0.14945875
000310 83 5d 83 3f 59 2c 93 bc cb 6b 46 3e bb b7 23 bf
       1.0262913 -0.017965483 0.19377057 -0.63952225
000320 11 98 4f bf b6 73 7d 3f 21 b7 33 3e a8 be 74 be
       -0.8109141 0.99004686 0.17550327 -0.23900855
000330 f7 69 a0 bf 43 18 86 3e 1c d6 34 3e 62 72 02 bf
       -1.2532338 0.26190385 0.17659801 -0.50955784
000340 f1 97 38 be a3 a4 18 bf d9 33 97 bd 3d cc d9 bd
       -0.18026711 -0.59626216 -0.07382936 -0.106346585
000350 46 db 85 3e bc da 9b 3e 16 66 bd ba 83 36 44 bf
       0.26143855 0.3044032 -0.001444998 -0.7664568
000360 dc a3 a6 bb 85 4f 74 be 39 42 da bf 01 5b b1 3e
       -0.0050854515 -0.2385846 -1.705146 0.34639743
000370 cd e2 61 be 69 7f 9e 3e 1a 1a 30 3e c9 98 9c 3e
       -0.22059174 0.3095658 0.17197457 0.30585316
000380 51 0b a3 3f b4 00 5a be 14 17 8b be 87 26 2b 3e
       1.2737828 -0.2128933 -0.27166045 0.16713916
000390 cc a1 4a be 5f a1 b2 be 0b 9b 50 3d 28 95 68 bf
       -0.19788283 -0.3488874 0.05092911 -0.90852594
0003a0 43 90 17 bb 61 0b d9 be bf df 6e bd 5b 39 6c 3e
       -0.0023126758 -0.42391494 -0.05831885 0.23068754
0003b0 4c b1 fe bd 57 30 a4 bf 8a 7f 11 3e b5 a0 05 bf
       -0.124361604 -1.2827252 0.14208809 -0.52198344
0003c0 83 a1 c4 be f1 1a 50 3e c7 bc 08 3f ad b1 0a bf
       -0.38404474 0.20322777 0.5341305 -0.5417736
0003d0 e3 1a 62 3e dc a4 3c bf 5b a7 5f 3e e7 41 1b 3e
       0.22080569 -0.73689055 0.21841185 0.15161858
0003e0 33 97 d9 be 45 7c 82 bf be af 07 bf aa 53 e8 bd
       -0.42498168 -1.0194174 -0.53002536 -0.11344083
0003f0 0b f8 26 bf 23 d0 c5 3d 96 2f 28 3e f8 57 b8 bf
       -0.65222234 0.096588396 0.16424403 -1.4401846

critic.2.bias f4 [32]
000000 35 05 21 3d ff 6c 32 bf 33 1c 89 3e bc 2b 3c 3d
       0.039311606 -0.69697565 0.26779327 0.045940146
000010 61 a6 a8 3d c3 5e c3 be c0 f3 dd bd b2 79 3e bd
       0.08234859 -0.38158235 -0.10837507 -0.046502776
000020 3a 8e 12 be a5 c1 d1 3c a0 90 8a be 0e 2a b5 bd
       -0.14312068 0.025605032 -0.27063465 -0.08845912
000030 55 cc eb be 01 75 73 bf da b9 ee be 53 00 5b bd
       -0.4605433 -0.9510041 -0.46626168 -0.053467106
000040 98 e2 b7 3d 5e 3f 9c bc ea 29 d0 3c 46 d0 a6 3e
       0.08978766 -0.019073185 0.025410611 0.32580775
000050 59 20 19 3e d4 da f6 bd c9 bf 14 bd 3d ca a9 bf
       0.14953746 -0.12053457 -0.036315713 -1.3264843
000060 2f 03 b5 be b5 4d f8 be 64 22 19 be 04 3f 09 bd
       -0.3535399 -0.48496786 -0.14954525 -0.033507362
000070 a5 7e 39 3e 50 78 35 be 5f a1 c6 3d 17 11 7f be
       0.18114717 -0.17721677 0.09698748 -0.24908863

critic.4.weight f4 [1, 32]
000000 f7 3a f6 3c 52 c9 02 40 c6 44 92 bf 86 c6 7b bf
       0.030057414 2.0435376 -1.1427238 -0.983498
000010 b3 b7 3e 3f e5 5c 4e bf 42 8d 7c bf f4 21 11 bf
       0.7449905 -0.80610496 -0.9865304 -0.56692433
000020 2f d4 89 bf c1 5c 51 3e f2 88 ba be 9c df 61 3f
       -1.0767878 0.20445539 -0.36432606 0.88231826
000030 b6 98 0d bf 73 42 b4 3f 81 94 8c bf b2 e0 40 bf
       -0.55311143 1.4082779 -1.098282 -0.7534286
000040 bf 75 ad 3e a0 32 f8 3e 56 97 64 bf ea b4 f2 3e
       0.33878896 0.48476124 -0.8929342 0.4740365
000050 75 df e4 be 0c 84 8c be 95 a9 56 3e d9 91 7b 3f
       -0.44701734 -0.27444494 0.20963128 0.9826942
000060 79 9b c7 be a8 9d 5c 3f 42 74 0c 3f 35 85 11 3e
       -0.38985804 0.86178064 0.54864895 0.1421097
000070 5e 7d 0b c0 9e 56 c8 be bb 1d dd 3e ac 9d 8c be
       -2.1795268 -0.39128584 0.43186745 -0.27464044
