logs/exp/model_25.pt (torch, 34660 bytes, 12 tensors)

log_std f4 [3]
000000 01 29 05 be d2 cb c1 bc ed a4 57 bd
       -0.13003923 -0.02365676 -0.05264752

actor.0.weight f4 [64, 24]
000000 f7 aa ae be 71 5c f0 3c 07 74 0c 3f c5 09 c0 bd
       -0.3411481 0.029340954 0.54864544 -0.093768634
000010 d3 e4 8f bd 1c 7f 11 be 71 2c f0 bd b1 4b 59 3d
       -0.07026067 -0.14208645 -0.117272265 0.0530507
000020 26 51 00 3e c7 5e df be 56 39 88 bd f2 19 8b be
       0.12530956 -0.43626997 -0.06651561 -0.27168232
000030 1b a1 d1 be a9 fd a6 bc fe df 85 be 96 fb 0f bf
       -0.40943226 -0.020384626 -0.26147455 -0.56243265
000040 47 49 d4 bd 1a 64 4b be 0b dc 29 3e f8 8e 1a bf
       -0.10365539 -0.19862404 0.16587846 -0.60374403
000050 0f 4c cd 3c fa f3 96 be 27 1f 19 be 9a 90 51 be
       0.025060682 -0.29483014 -0.1495329 -0.20465317
000060 a4 a6 cc b9 c2 af 99 3d b7 d3 f9 3d 40 fe d6 bd
       -0.0003903407 0.07504226 0.121985845 -0.10497713
000070 58 0f 99 be f9 77 b2 bc 08 7f 94 bd 61 38 b7 3d
       -0.2989452 -0.021785723 -0.07250792 0.089463
000080 33 a5 21 be 3d b7 c9 bd b2 4a 94 bd 78 48 5e be
       -0.15785675 -0.09849403 -0.072408095 -0.21707332
000090 e1 8b ca 3d 62 9a a0 be bf aa 1c 3e 6b 2a dd bd
       0.09889961 -0.31367785 0.1529951 -0.10799106
0000a0 08 06 15 bd b6 58 6b be c6 0a fa bd 87 28 29 be
       -0.036382705 -0.2298306 -0.12209086 -0.16519366
0000b0 cb f2 88 be 71 9f ba 3c c9 1b 78 3d 6d da 64 bd
       -0.26747736 0.022781106 0.060573373 -0.05587237
0000c0 76 85 e4 3d 88 67 30 be c1 c9 15 3e 69 71 2a be
       0.11158268 -0.17226994 0.14627744 -0.16644825
0000d0 5b c2 08 bd ff 45 1c 3e 57 55 ba 3c 32 f7 ae be
       -0.033388477 0.15261076 0.022745771 -0.3417297
0000e0 61 1f b4 3e f6 a4 de bd 74 58 f9 3d a7 a4 42 be
       0.3518019 -0.108713076 0.12175074 -0.19008122
0000f0 c9 d9 1e 3e ec c8 22 be 0f 61 c4 3e 62 ce ab be
       0.15512766 -0.15896958 0.383553 -0.33555895
000100 ab 11 a0 be 9f 6c c9 bc d0 e3 1a be 76 c1 0c 3e
       -0.3126348 -0.024587927 -0.15125966 0.13745674
000110 85 0d 8b 3c cc 9a be 3d 19 11 a1 bc c4 78 62 be
       0.01697422 0.09306869 -0.019661473 -0.22116381
000120 c4 d0 2b be 77 bf c1 3e e6 e0 30 bd 67 2e 26 3d
       -0.16778857 0.3784139 -0.04318323 0.040571596
000130 e3 d9 6b be a7 d9 bc bd 40 7a 69 be 56 e8 f3 be
       -0.23032336 -0.092212014 -0.22800541 -0.47638196
000140 43 dd 32 3d f0 e0 cd 3c 8c 78 64 be a1 b9 41 bd
       0.043668043 0.025131673 -0.2231161 -0.04729617
000150 5a 40 41 3d 5a 58 cb 3d be c6 aa 3d 9c 68 d3 be
       0.04718051 0.09928961 0.08338688 -0.41290748
000160 eb 85 f6 bc 34 93 22 be 21 01 03 3c 70 45 8c bd
       -0.030093154 -0.15876466 0.007995875 -0.06849182
000170 3a a8 85 3d eb e5 a1 be 7a 2a 08 be b0 01 4e bd
       0.06526227 -0.31620726 -0.13297454 -0.050294578
000180 24 58 36 be 4e a0 3b 3d a9 76 12 3e 9b 92 5c bf
       -0.1780706 0.045807175 0.14303078 -0.861612
000190 89 6e 0f 3f d0 d4 13 3f c7 1a 7e 3d b7 9c 44 bd
       0.5602804 0.577466 0.062037256 -0.048001017
0001a0 73 b6 99 bd c3 b1 61 bc 14 c4 42 bc 3a b1 1e be
       -0.075055026 -0.013775292 -0.011887569 -0.15497294
0001b0 bb d9 03 be cd 27 e3 bd f6 5c 81 be 59 81 cd bd
       -0.12876026 -0.11091576 -0.25266236 -0.10034437
0001c0 6d 24 22 be 02 f6 20 bd 0d c4 3c bd c1 46 64 3d
       -0.15834208 -0.03929711 -0.046085406 0.05573154
0001d0 9a 48 ff 3d b6 99 6a be b5 2e 8e 3d 58 74 36 be
       0.124650195 -0.22910199 0.069425024 -0.17817819
0001e0 b4 3d e1 be 1f e5 0f be 2a d0 dc 3d f9 43 7d bd
       -0.43992388 -0.14052247 0.10781892 -0.061832402
0001f0 6e 2d 10 bf e9 a7 3f 3e 3d 91 c5 bc 39 28 88 be
       -0.5631932 0.18716396 -0.024117107 -0.26593187
000200 f3 b5 87 bd 15 47 57 bd 7d c9 8c bd 33 4a 54 bc
       -0.06626501 -0.052558023 -0.06874368 -0.012957144
000210 a3 37 22 3d 40 f9 53 bc 8d 16 28 bb ac eb ad 3e
       0.03960384 -0.012937844 -0.0025648207 0.33968866
000220 b5 d1 9d bd c4 6e 3a 3e ae 8c 44 3e a4 59 13 bd
       -0.07706014 0.18206316 0.1919429 -0.03597416
000230 21 9d d7 bd ca 47 20 3d 8e 77 02 bd 63 71 2b 3e
       -0.10528017 0.039130963 -0.031852297 0.16742472
000240 9c 9c 1f 3e d1 b2 ed 3e 2d f4 a5 be 5b 0b ef be
       0.15587085 0.4642549 -0.32412854 -0.4668835
000250 fa 9f 8f 3e 4c 73 3c bd 5d e2 04 3f 0b 76 a9 be
       0.2805174 -0.046008393 0.519079 -0.33097872
000260 a9 a5 cf 3e 7b f3 15 be a0 1a 42 3e e6 59 83 bd
       0.40556076 -0.14643662 0.18955469 -0.06413631
000270 7f d8 47 3d 73 59 a7 bd 9d 13 ba 3e a4 e1 55 3e
       0.04879045 -0.08171358 0.3634309 0.20886856
000280 5c d9 98 be c8 ed 26 3e 23 f3 19 be 1d 4d d8 bd
       -0.29853332 0.16301644 -0.15034156 -0.10561583
000290 6c 7e fa bd cb 1b 54 3e 28 76 b8 bd 03 19 75 3d
       -0.12231144 0.20713727 -0.090069115 0.059838306
0002a0 37 62 07 3e e6 cc 20 bc 5f ec 12 bd d9 d3 89 bf
       0.1322106 -0.009814477 -0.035869952 -1.0767776
0002b0 ad 4e 1e 3d 2c 90 d4 bd d5 5b 9b be f5 8e 52 3e
       0.03864925 -0.10379061 -0.303435 0.20562346
0002c0 92 4e 22 3c 10 66 31 3e 6a 08 24 3e 0b 0f 91 3e
       0.009906428 0.1732409 0.16018835 0.2833179
0002d0 64 05 28 be c1 c5 ad bb fb 20 95 3c 94 13 64 3d
       -0.16408306 -0.005303115 0.018204203 0.055682734
0002e0 8a 8b b3 3e 53 4a 5d bd 0e b0 0a be 56 c8 dd bb
       0.35067397 -0.05402596 -0.13543722 -0.0067682667
0002f0 c0 70 7b be 8f 51 1c 3e f8 30 b7 be a2 37 a0 3e
       -0.2455473 0.15265487 -0.35779548 0.31292444
000300 9a 8e 0b 3e 11 3a 95 3d 5a 67 25 3e 90 ef c1 3e
       0.13628617 0.07286466 0.16152707 0.37878084
000310 eb 8f 1b 3f 0d 8e 3e 3e ed 98 1e 3e 5d 98 c1 3d
       0.60766476 0.18608876 0.15488024 0.09452889
000320 26 aa fa 3e 0a 1c 27 3e f8 69 e5 bd f7 9c 87 3e
       0.48957938 0.1631929 -0.112018526 0.26486942
000330 3a dc 2f 3e 5f 5d a6 3e d0 ee 15 be e6 df cf bc
       0.17173854 0.32493111 -0.14641881 -0.025375318
000340 2f bb 2e bd a1 c9 bb bd 6a b8 cb 3d d4 b0 1b be
       -0.04265898 -0.09169317 0.099472836 -0.15204173
000350 98 fd ff 3d 72 90 b7 bd f4 59 73 be 12 0d d3 bd
       0.12499541 -0.08963098 -0.23764783 -0.10305227
000360 60 f2 f2 3d c2 1b f0 3d 84 c4 27 3d 02 40 4e bf
       0.118626356 0.117240444 0.040958896 -0.8056642
000370 30 dc 66 be 6f 0b c6 be 8c 2a 1b bc 3c 4f e8 3d
       -0.22544932 -0.38680598 -0.009470593 0.11343238
000380 a3 6a cb bd f5 0b 13 be 2d d1 82 be 6b b1 f1 3d
       -0.09932449 -0.1436003 -0.25550213 0.11801418
000390 db 31 3d be 79 cd 0b 3e f2 54 8a be 1d 19 80 3e
       -0.1847605 0.136526 -0.27017933 0.2501916
0003a0 b5 88 71 be 5f a8 a0 be 85 24 1c be a6 73 07 3d
       -0.23587306 -0.31378457 -0.15248306 0.033069275
0003b0 10 ca 35 be a5 9e ef bc a7 d7 11 3e 80 5e 10 bd
       -0.17752862 -0.029250452 0.14242421 -0.035246372
0003c0 05 82 6c be aa 87 26 be d2 7b 60 be 10 f9 18 3e
       -0.23096474 -0.16262689 -0.21922234 0.1493876
0003d0 c4 c3 b4 be cb 0c 5e 3d 7a 2a 08 3e 4d c6 ab 3e
       -0.35305607 0.05421142 0.13297454 0.3354973
0003e0 42 6a 6d 3e ea aa 41 bd b8 0a e0 bd e8 0c b0 bd
       0.23185065 -0.047282137 -0.109395444 -0.08596212
0003f0 25 7e dd 3b 46 c1 c6 3d c0 ee d8 3d 30 ce a2 3d
       0.0067594224 0.09704833 0.10592413 0.079494834

actor.0.bias f4 [64]
000000 1a fb 2e 3e c5 c0 2a bd 18 9c bd bd 91 4d 1f bd
       0.17087975 -0.041687746 -0.09258288 -0.038892332
000010 44 33 c4 bc c7 18 c8 3d bd fc ac bd 80 37 56 3d
       -0.023950227 0.09770351 -0.084466435 0.052299023
000020 1e fc 9e be c1 3d 7e be 86 13 76 3d 96 a8 37 be
       -0.31051725 -0.24828245 0.060077213 -0.17935404
000030 67 14 98 bd d6 cd 76 3e 36 78 8c be 17 f5 4c 3d
       -0.074257664 0.24101958 -0.27435464 0.050038423
000040 e7 19 72 3c e9 9b 84 be b9 c7 35 3d 76 2d 2b be
       0.014776683 -0.259002 0.044379923 -0.1671656
000050 8b 13 ba 3d dc bf 60 be ab 29 af bc a6 16 0b bc
       0.09085759 -0.21948189 -0.021382174 -0.0084892865
000060 97 ee 6e be 96 0f ca be 7a 10 88 be 7f 9b 86 3e
       -0.23333202 -0.39465016 -0.2657507 0.2629051
000070 d7 05 70 be 18 1a 66 bc 83 78 a3 be 77 2c bc be
       -0.23439728 -0.014044307 -0.3192788 -0.36752674
000080 69 bb 1c be 70 52 69 be 63 0e 39 bd 25 c7 0d be
       -0.15305866 -0.22785354 -0.045179736 -0.13845499
000090 07 51 0a bf 75 92 aa 3d 71 04 46 be 8d d8 91 bd
       -0.5402989 0.08328716 -0.19337632 -0.07121382
0000a0 89 67 28 bd d1 5a 1f be 81 aa 00 be 3c 1d 46 3e
       -0.041114364 -0.15561987 -0.12565042 0.1934709
0000b0 46 f6 e4 bd 36 a9 94 3e 41 00 00 be 75 2b 6c be
       -0.111797854 0.29035348 -0.12500097 -0.23063453
0000c0 44 2b a0 3b 27 c5 a6 be 73 b4 bb bc 73 fe 39 be
       0.00488797 -0.3257229 -0.022913193 -0.18163471
0000d0 85 c1 aa be 91 3c bc bd b3 b7 e4 bd 4c da 0e bd
       -0.3335077 -0.091912396 -0.1116785 -0.034876153
0000e0 68 ba 07 bd c6 ac fa 3d 95 82 2e bc 13 86 9e be
       -0.033136755 0.12239985 -0.01065125 -0.30961666
0000f0 2b 80 34 be d0 5f 95 3d af 8e 18 3e 95 11 1d bd
       -0.17627017 0.072936654 0.1489818 -0.038346846

actor.2.weight f4 [32, 64]
000000 d5 61 81 bc 4b f3 14 bd 2b 52 92 be db e3 d2 bd
       -0.01579372 -0.036364835 -0.28578314 -0.10297366
000010 44 6e 65 3d a6 1d 11 be 4b 6c 9c be 2c 17 8e bd
       0.05601336 -0.14171466 -0.3055137 -0.069380134
000020 cd 2b 61 be 5d 92 af be ea 99 96 bd 85 82 ab be
       -0.21989365 -0.34291354 -0.073535755 -0.33498016
000030 30 0d 48 bd 3c 72 87 be 85 50 ae be 9d 9d 44 be
       -0.0488407 -0.2645434 -0.34045807 -0.1920075
000040 6a 32 cc be bf 77 f8 3e 09 ee ac be b7 d2 81 be
       -0.39882213 0.4852886 -0.33775356 -0.25356075
000050 05 9d 0a 3e 6f b8 66 3d e6 d6 2c 3d 30 6c ec bd
       0.1353646 0.056328233 0.04219713 -0.11544073
000060 2b b0 e4 3d e2 74 8d 3d b6 b7 61 3e c8 de da be
       0.11166414 0.06907059 0.22042736 -0.42748094
000070 5e be 96 bd 9e 66 00 be 2f bd ad be d7 58 2c be
       -0.073605284 -0.12539145 -0.33933398 -0.16830765
000080 05 8d c4 be f2 20 03 3e ce ae b8 bd ff 2c 9a 3d
       -0.3838884 0.12805536 -0.09017716 0.075281136
000090 40 67 08 bc 82 1c 6f be ec b7 d9 bd 32 17 b3 3d
       -0.008325398 -0.23350719 -0.106307834 0.087446585
0000a0 35 e0 7a 3c 6d 57 1c 3e 09 e2 03 3d 03 de 15 be
       0.015312244 0.15267725 0.032197986 -0.14635472
0000b0 75 1b 2d be 08 d0 61 be 4a c4 2b 3e 97 07 94 be
       -0.16905005 -0.22052014 0.16774097 -0.2891204
0000c0 03 6e 9b bd cb 1a 21 be 40 1d b8 be 7b ea a9 3e
       -0.075893424 -0.15732877 -0.35959816 0.33186707
0000d0 7c ab c7 bd 60 4c 86 bd a2 db 99 bd 96 01 77 3c
       -0.09749505 -0.06557536 -0.07512595 0.015076062
0000e0 f2 33 55 3e 05 52 53 be 2e 1a dc 3d 2b 62 7b 3e
       0.20820597 -0.20636757 0.10747181 0.24549167
0000f0 91 95 3e 3e 25 b2 a7 be 4a 77 b6 be 6d d9 8f 3e
       0.18611743 -0.327531 -0.35637885 0.2809557
000100 16 a9 c5 be 53 35 8e 3d f5 0a 24 be e0 a5 31 3d
       -0.38605565 0.069437645 -0.16019805 0.04337108
000110 a2 22 e8 bd af bd f4 bd 03 ce 8a be 14 76 3b be
       -0.11334731 -0.11950242 -0.271103 -0.18306762
000120 ed e4 e7 3d 5c 42 9e 3d f6 7c 07 3e f9 a5 63 3e
       0.11322961 0.07727501 0.13231263 0.22231282
000130 a4 1c 14 be 51 ac ae be e1 07 8a 3d 6f 63 f4 be
       -0.1446405 -0.34115842 0.06739784 -0.47732112
000140 f6 be 38 be f5 29 71 3e 0c 98 18 3e 90 7f 5a 3b
       -0.18041596 0.23551162 0.14901751 0.0033340193
000150 48 c6 81 be 62 fe 67 3c 10 b0 2f be d0 c9 23 be
       -0.2534659 0.014159771 -0.17157006 -0.15994954
000160 57 e6 87 bd 1d bf 01 3e c5 86 29 3e 1e 88 8a be
       -0.06635731 0.1267056 0.16555317 -0.27056974
000170 fa 78 57 be 4a 65 fd be 6f eb cd bc e8 1d 6c be
       -0.21042243 -0.4949134 -0.025136678 -0.23058283
000180 e3 a6 cd bc dc b1 53 3e ad f3 a9 3b 5e aa 0c 3e
       -0.025103992 0.20673317 0.005186519 0.13736865
000190 3a 50 33 3e b5 63 52 3d 47 4a a3 3e e3 6a 1c be
       0.17511073 0.05136462 0.31892607 -0.15275149
0001a0 f5 d1 44 be e6 a0 9c be 52 1c 4c 3e c0 83 37 be
       -0.19220717 -0.30591506 0.19932678 -0.17921352
0001b0 45 9e e8 bb 3d 78 27 be 8f aa 8b 3c b8 54 c3 3c
       -0.0070989453 -0.16354461 0.017049102 0.023844108
0001c0 f5 20 f1 3d 60 65 98 3d 1e a8 3f be 27 98 ed be
       0.11773864 0.07441211 -0.18716475 -0.46405146
0001d0 29 64 fe 3c a4 19 1f 3e 0e f5 79 3d d5 e9 05 be
       0.03105362 0.15537125 0.061024718 -0.13077481
0001e0 a3 67 5f be 81 b7 88 3d 13 13 fd bc 2d b0 a4 bd
       -0.21816878 0.066756256 -0.030892884 -0.08041415
0001f0 65 ad b7 3d 5d 3f 51 be 8c 3b 80 be 5a 83 73 3c
       0.08968619 -0.20434327 -0.2504543 0.01486286
000200 99 ab fa be 24 4b 0e be 13 5b 85 3d 65 85 ed bd
       -0.48959044 -0.13895851 0.06511512 -0.115977086
000210 25 00 8a be 38 8e 55 3e 53 4e 96 bd ff 96 63 3c
       -0.26953235 0.20855033 -0.07339158 0.013890981
000220 54 38 41 be ac ac 3b be 96 1e f4 bd 79 36 b8 be
       -0.18869144 -0.18327588 -0.11919896 -0.3597906
000230 ef 7b 05 3e 23 07 76 be 49 be 5c be 75 6e 8a be
       0.13035558 -0.2402616 -0.21556963 -0.27037397
000240 0c a0 c5 bd 59 f1 10 3d c8 a9 9f 3d db c0 98 bd
       -0.09649667 0.035386417 0.07796055 -0.07458659
000250 d3 d3 4e be b3 6b 95 3e 18 c3 38 be 83 a2 a4 bd
       -0.20197992 0.2918373 -0.18043172 -0.08038809
000260 a6 ea b9 be 65 25 74 3b ca 6d 30 bd 38 39 d1 3d
       -0.36311835 0.0037253734 -0.043073453 0.10215992
000270 ef ad 07 be 9c b6 b7 bd 99 26 32 be 4f 10 1d be
       -0.13249944 -0.08970377 -0.17397536 -0.15338252
000280 8b a8 fb 3c bc c1 9e bd 1f b3 df 3c a2 ad de bd
       0.030720016 -0.07751796 0.027307091 -0.108729616
000290 e6 7b ec 3d 40 a2 b0 3d e2 b8 57 3d bb 8a 0a be
       0.11547069 0.08624697 0.052666552 -0.13529484
0002a0 ef 0c 2e bd fb 5c a0 bd 19 bf 5c bd d2 98 2f 3e
       -0.042492803 -0.078302346 -0.053893182 0.1714814
0002b0 30 bc ef be 8a 30 29 bc cf 4a 39 3d 6e 27 6c 3e
       -0.46823263 -0.010326514 0.04523736 0.23061916
0002c0 8e bc 49 3e 91 c2 36 bd 06 68 da bd b1 08 f0 3e
       0.19700834 -0.044619147 -0.10664372 0.4688163
0002d0 3c 50 40 bd b0 3d 6c be f5 86 5b 3d 33 e6 b9 bd
       -0.046951517 -0.23070407 0.053595502 -0.0907711
0002e0 a4 cb 9f 3e 46 e0 41 be 23 99 1e be da 17 04 3e
       0.31210053 -0.1893321 -0.15488105 0.12899724
0002f0 6e dc 42 3e de 16 2d bd c9 fd ec 3d 2c 67 bb be
       0.190294 -0.042258136 0.11571843 -0.3660215
000300 cc f9 49 bd 88 5f db bd f6 87 9c 3d d8 9c 99 bd
       -0.04931049 -0.107115805 0.0764312 -0.07500619
000310 e2 ce 58 3d 76 33 c7 3d 2a cb b6 3e 08 5f 84 3d
       0.052931674 0.09726612 0.35701877 0.06463438
000320 58 ab 89 3e 57 ac 05 bf fe f7 69 be 3b d1 d7 bc
       0.26888537 -0.52216095 -0.22848508 -0.026344886
000330 d7 b5 8f be 38 58 ea be 2d d2 de bd f3 d9 86 be
       -0.2806842 -0.4577043 -0.108799316 -0.26338157
000340 de b9 87 bd 1f f2 d8 bd 6c 24 94 be cf 06 96 be
       -0.06627248 -0.10593056 -0.28934038 -0.2930207
000350 83 6a d8 be 40 4b 28 be f7 e0 12 be bd 3a dd 3c
       -0.42268762 -0.16434956 -0.1434363 0.027005548
000360 ab cc 8b 3e a7 19 8e 3e 29 37 77 3e 20 32 3a 3e
       0.27304587 0.27753946 0.24142136 0.18183184
000370 ca 4e 93 ba 9b 6e 86 be 23 08 86 be a7 4b 5e be
       -0.0011238691 -0.2625626 -0.26178083 -0.21708547
000380 06 05 95 3e 78 f2 1c be 97 92 58 be 93 a5 23 be
       0.29105395 -0.1532687 -0.2114967 -0.1598113
000390 da e3 ff bc 37 44 04 bf 63 d6 78 be b5 28 f1 3d
       -0.031236578 -0.5166659 -0.24300532 0.117753424
0003a0 b4 13 27 be 63 06 09 3d fb 64 4f 3d 10 61 39 3e
       -0.1631611 0.033453356 0.05063341 0.18103433
0003b0 51 4b 91 be ad 43 7e 3d 39 8c 46 3e 95 62 09 be
       -0.28377774 0.06207626 0.19389428 -0.13416512
0003c0 56 25 80 3c a0 92 36 be 62 31 0e be ce 42 c7 be
       0.015642803 -0.1782937 -0.13886026 -0.38918155
0003d0 9c c8 c8 3c 26 f0 79 be 36 ac 77 3d 85 a6 a7 bd
       0.02450972 -0.24408016 0.060466968 -0.08186058
0003e0 ef 69 9b 3e 2c 66 3f 3e 8a 58 dd 3d a7 0f 88 bc
       0.30354258 0.18691319 0.10807903 -0.016609026
0003f0 88 f2 1f 3e fb 5e ca 3d 16 c3 cb be a0 80 08 bc
       0.15619862 0.09881397 -0.39797276 -0.008331448

actor.2.bias f4 [32]
000000 46 79 30 be 9b 86 f5 bd 95 8a 12 be d5 72 2f be
       -0.17233762 -0.119885646 -0.14310677 -0.17133649
000010 60 ec ce bd 53 bb 06 bc d8 3f 20 be d2 a5 2b 3d
       -0.10103679 -0.0082233725 -0.15649354 0.041906185
000020 69 56 11 3d 4f 7a aa bc ed f2 3a bd 01 f1 22 be
       0.035482798 -0.020810274 -0.04564183 -0.15912248
000030 aa cf 0a be a3 ba d2 3d 41 e0 89 bd fb d6 f4 bc
       -0.1355578 0.102895044 -0.06732226 -0.029887667
000040 de 40 25 bc 89 a7 0c be f8 d6 d3 bd bd d1 9a bd
       -0.010086266 -0.13735785 -0.103437364 -0.07559536
000050 50 b8 55 be 79 ea 1d be 17 54 00 be e1 06 07 3d
       -0.20871091 -0.15421475 -0.12532078 0.032965545
000060 d3 98 fb bd 5c 97 97 bd df f5 57 be c7 a8 49 bd
       -0.12285008 -0.074019164 -0.21089886 -0.049233224
000070 35 6e 60 bd 68 f6 e9 bd 9c b7 13 be 9e 43 3e bd
       -0.0547926 -0.114239514 -0.1442551 -0.046451204

actor.4.weight f4 [3, 32]
000000 6e 1b d7 3b f7 41 de ba 37 ba 14 bd 2a 97 9b 3d
       0.006564549 -0.0016956915 -0.0363104 0.07597192
000010 dd fb 30 bd ca e5 0b 3d 3c a7 d3 3d f8 ed 50 bc
       -0.043208946 0.03415469 0.10334632 -0.012752049
000020 37 c8 50 bb a4 ef 11 3c 53 c1 02 bd 03 92 9a 3c
       -0.0031857619 0.008907232 -0.03192265 0.018868452
000030 c0 5e c4 bb 1f 6e 76 bb 60 5a 09 bc be a5 eb 3c
       -0.0059927404 -0.0037602258 -0.0083833635 0.028765555
000040 5f 6f 1e bd 46 e8 29 bb 30 f9 88 3c 91 95 6b 3b
       -0.03868043 -0.00259258 0.016720384 0.0035947303
000050 6c 96 5e 3d 10 5c d7 3b a1 22 13 be d1 c3 a0 bd
       0.054342672 0.006572254 -0.14368679 -0.07849849
000060 5d 50 2e 3c ed c5 20 3d 3c 08 25 3d c5 76 22 b9
       0.010639277 0.039251257 0.040291056 -0.00015493769
000070 67 87 40 bc f4 df 50 3c ec 64 a0 3c c4 3d 01 bd
       -0.011751032 0.012748707 0.019579373 -0.031553045
000080 7a 03 8f 3d 3e c2 fe 3c e0 69 4f bd de 23 10 bd
       0.06983085 0.031098481 -0.05063808 -0.035190456
000090 b9 bd 4d 3a bc eb 42 3d 64 01 26 3d 7b 8b d6 3c
       0.00078484 0.047588095 0.04052867 0.026189556
0000a0 79 a9 7c bc 7d 6d 00 bd 4d eb 1d bb 26 b8 07 3b
       -0.015421265 -0.031354416 -0.002409655 0.0020709126
0000b0 31 ac 56 3d e1 74 10 bd 63 55 13 bd 1c 2b db 3c
       0.05241031 -0.035267714 -0.035970103 0.026753955
0000c0 80 99 31 bb e7 bb 70 bc b1 9d eb 3c ac 86 85 bc
       -0.002709955 -0.014693237 0.028761717 -0.016299568
0000d0 86 0a b6 3b 6a d9 c4 bb 81 1f b1 bc ce c3 88 3c
       0.0055554537 -0.006007363 -0.021621468 0.01669493
0000e0 0d c1 07 ba e8 2d c3 bb c4 b1 3a bd c4 d7 32 3d
       -0.0005178608 -0.0059564 -0.045579687 0.0436628
0000f0 d5 b9 cb 3c 4b a2 d2 3a 27 a1 1c 3d 46 36 81 bd
       0.024868885 0.0016070096 0.038239624 -0.0630918
000100 4f 23 d4 bd 3c e6 c8 bc 07 17 00 3c c4 1c 8b 3c
       -0.10358297 -0.024523847 0.00781799 0.01698149
000110 43 50 33 bd c5 4f 87 bd 56 16 18 3d f6 f6 a2 bc
       -0.043777715 -0.06607012 0.037130676 -0.01989315
000120 14 5b f8 3c 91 e5 a9 3c 92 2d 7f bd 50 20 7e 3a
       0.030316867 0.020739349 -0.06229932 0.0009694146
000130 0a d4 c8 3c 67 e4 88 bb 23 f8 98 3b 95 00 38 bc
       0.02451517 -0.0041776183 0.004668252 -0.0112306075
000140 a3 e6 8d 3c 1e a0 fe 3b db 1c 42 bc 73 d8 4b bb
       0.01732189 0.0077705523 -0.0118477 -0.0031104356
000150 2b 99 fd ba d5 46 07 3d 56 72 20 3c 76 8a 0c 3d
       -0.0019348016 0.033026535 0.009792885 0.034311734
000160 66 fd c7 bb f0 fa 9a bc c6 5d 22 3c f2 93 c9 bc
       -0.0061032055 -0.018918484 0.009910053 -0.024606679
000170 3c 4e 0b bb bf d3 1e bc 83 6a e3 bc bd 8a 30 3d
       -0.0021256348 -0.009694039 -0.02776075 0.04310106

actor.4.bias f4 [3]
000000 04 f0 f9 3d fb 7b a0 bd 8a 81 3f 3e
       0.122039825 -0.078361474 0.18701759

critic.0.weight f4 [64, 24]
000000 7f 07 bf be 3a 6c 42 3c 1d 22 4d bf f9 b1 71 bd
       -0.37310407 0.011866624 -0.8013018 -0.05900762
000010 9b 3c 79 3e be c7 2e 3f 4d a3 fc 3d ab 1a d3 3e
       0.24339525 0.6827353 0.12335835 0.41231284
000020 6e 76 3d be c6 b5 ac 3e 41 97 f6 3d 4a 0c c2 3e
       -0.18502209 0.33732432 0.12040568 0.379
000030 37 39 fb 3d 91 20 da 3e 87 2a 1d 3e 78 56 a3 bd
       0.12266772 0.4260297 0.15348254 -0.07975477
000040 a7 1c 60 3e 0c 48 99 3e 5a a9 46 be 33 dc a6 be
       0.2188593 0.2993778 -0.1940054 -0.32589874
000050 17 3c 0c bd 67 b8 13 be 41 13 78 3e fe 20 8f be
       -0.034236994 -0.14425813 0.24226095 -0.2795486
000060 3a f9 af be 4c 9a ec bc 2c 6e b5 3e 0e 2d c3 be
       -0.34369832 -0.028882168 0.35435617 -0.38120311
000070 5b 91 7e 3f a1 c0 2b bf 45 ec f6 3e 8b 2b 6e bf
       0.99440545 -0.67090803 0.48227134 -0.9303519
000080 b6 a8 28 3f 0f 05 3f bf b4 3a 37 3f 71 94 75 bf
       0.6588243 -0.74617094 0.7157395 -0.9592963
000090 04 22 32 3f 49 0d 18 bf 4b 81 ec 3e d3 7e 7f bf
       0.69583154 -0.5939527 0.46192393 -0.99802893
0000a0 41 d4 8a 3a 0b 3b fb be 2d 65 cb 3d 30 7c 10 bf
       0.0010591821 -0.49068484 0.09931407 -0.56439495
0000b0 b2 91 98 3e ee 1a 15 bf d7 42 70 be 73 8d 1f bf
       0.29798657 -0.58244216 -0.23462997 -0.6232521
0000c0 19 4c a0 be ed bd 9c 3d 72 89 c4 bc 21 25 96 be
       -0.31308058 0.07653413 -0.02399132 -0.29325202
0000d0 38 d4 95 bf 48 0e c1 be 13 f4 63 bd 97 09 7d 3e
       -1.1705389 -0.37706208 -0.05565269 0.2471069
0000e0 c0 68 9f 3e db 90 04 3f c7 2d 00 3f 2e bc 10 3f
       0.31134605 0.5178353 0.5006985 0.5653714
0000f0 01 0a 2d bc 3b c7 6a 3f 47 dd cb 3e 00 62 e9 3e
       -0.010561467 0.9171025 0.3981726 0.4558258
000100 c6 26 78 3e 21 a6 de 3e 70 79 a8 3e b4 d4 1d 3f
       0.24233541 0.4348612 0.3290515 0.61652684
000110 91 f3 0b 3d 2c bb 02 3f 26 bf c0 3e 79 2a c4 3e
       0.03416783 0.5106685 0.37645835 0.38313654
000120 19 77 bc 3e cc 3a 35 3c df 01 0f be 30 a4 77 be
       0.36809614 0.011061382 -0.13965558 -0.24183726
000130 86 30 ee be 60 2a 42 bf 0d bb 5d 3f 16 0c 59 bf
       -0.46521395 -0.7584591 0.8661354 -0.84784067
000140 6a 53 8a 3f f6 c2 3a bf 4b 55 5c 3f 88 35 a1 be
       1.0806706 -0.72953737 0.86067647 -0.31486154
000150 94 f7 2b 3f 8f e8 0f bf 19 eb b4 3e 95 64 ad be
       0.6717465 -0.5621423 0.35335615 -0.338658
000160 0d fd e8 3e 30 77 f0 bc da ac 5f 3e 50 83 4d be
       0.45505562 -0.029353708 0.21843281 -0.20069623
000170 40 52 0c be 0f 7b 8f be 5c b4 06 3f c8 e0 6e bd
       -0.13703251 -0.28023574 0.52618957 -0.058319837
000180 1c 81 08 bf 93 e4 52 be e1 0e 52 bf b3 4f 3b bc
       -0.53322005 -0.20595007 -0.82053953 -0.011432576
000190 92 53 98 bd bf 48 7e 3f 21 62 78 3e 2f ed 9a 3f
       -0.07437815 0.9932975 0.24256183 1.2103633
0001a0 66 84 36 3e 2b 28 75 3f 48 86 88 3e a8 83 88 3f
       0.17823943 0.95764416 0.26664948 1.0665178
0001b0 cc 4e 06 3f b2 9f 2e 3f 8d 1e 48 3f 34 dd 56 3f
       0.52463984 0.68212426 0.78171617 0.8393128
0001c0 7e c6 33 3f b3 30 98 3e 63 15 8f 3e 8c a5 2b 3f
       0.7022475 0.29724655 0.27946004 0.6704948
0001d0 2d 1b 50 3f 2a c7 17 3f 03 19 20 3f 6d 13 7a 3e
       0.81291467 0.59288275 0.62538165 0.24421473
0001e0 45 e8 62 3e ef 37 55 be ca 60 22 3b d3 5f b2 3e
       0.22158916 -0.20822118 0.002477693 0.34838733
0001f0 48 61 b8 bf 85 48 21 3d 74 88 ed be f3 3d 7f 3d
       -1.4404688 0.0393758 -0.46393168 0.06231494
000200 90 3b a3 bd 47 3d 92 be d5 69 81 be 23 ab b8 3e
       -0.07970345 -0.28562376 -0.25276056 0.36068067
000210 75 4a af be 2d 18 b4 3e 2e 0c 74 3b 7c aa 8f 3e
       -0.34236494 0.35174695 0.0037238705 0.28059757
000220 52 cd aa bd fe e0 91 3e 83 ae 8a bc 1e 27 75 3e
       -0.08339943 0.28491968 -0.016928917 0.23940703
000230 2c 7a c7 3e 12 43 21 3d b7 e7 87 3e 73 8f 8f 3e
       0.38960397 0.039370604 0.26543972 0.2803913
000240 d5 7d ba 3e 81 47 0b 3e da 66 01 bf 8e bd a6 bd
       0.36424127 0.13601495 -0.50547564 -0.081416234
000250 7e f7 f9 3c e6 e2 3a 3f 9c 47 32 bf 54 59 4a 3e
       0.030513521 0.7300247 -0.6964052 0.19760638
000260 bb 7a f1 be 55 66 8b bd 8f 58 1c bf ed 48 8b be
       -0.47163948 -0.06806628 -0.6107263 -0.27204075
000270 48 16 61 be 1e 05 93 be ae 65 81 be ed 62 fa be
       -0.21981156 -0.28714842 -0.25272888 -0.489036
000280 ea 66 38 be b0 18 d4 be bc 9b 40 be 19 00 bb be
       -0.18008009 -0.41425085 -0.18809408 -0.36523512
000290 b1 b4 bf bd f6 b6 00 bf bc 53 af be d3 5f f3 be
       -0.09360636 -0.50279176 -0.34243572 -0.47534046
0002a0 3d 78 cc 3d c5 62 82 3e 13 63 00 bf 15 29 b4 be
       0.09983871 0.2546598 -0.50151175 -0.35187593
0002b0 09 2e 8d bf eb 63 9c be ea 05 72 be 12 1d 70 bf
       -1.1029674 -0.3054498 -0.23635069 -0.9379436
0002c0 e1 b8 83 bc 2b b9 38 bf c5 17 1a 3f d3 98 6d bf
       -0.016079368 -0.72157544 0.6019252 -0.92811316
0002d0 1f a1 88 3e a7 0c 5b bf 50 f1 5b 3e fc 8c bd bd
       0.26685426 -0.8556618 0.21478772 -0.09255406
0002e0 c6 f3 b9 3e a9 42 0d bf 41 16 de 3e 71 72 9c be
       0.36318797 -0.5517984 0.43376353 -0.30556062
0002f0 11 55 aa 3e 7a 07 57 bd c6 a5 de 3d cb 70 63 bd
       0.33268026 -0.052497365 0.108714625 -0.05552749
000300 bb 5e 25 bf df 2e f1 bd dd 98 84 3e 21 e1 82 bf
       -0.6459767 -0.11776518 0.25897875 -1.0224954
000310 8e 5d 09 bf 17 f6 4d c0 27 ae a3 3e bc f0 a9 bf
       -0.5365838 -3.2181451 0.31968805 -1.3276591
000320 b5 0b 08 3f bf 31 e5 be 79 01 30 3f 1c bf a3 bd
       0.53142864 -0.44764516 0.6875225 -0.079954356
000330 95 84 00 3e a1 e5 66 3e 19 d6 bc 3e 06 79 f6 3e
       0.12550576 0.22548534 0.36882094 0.4813921
000340 d5 99 9a 3d 12 e9 fc 3d 4d df bf bc 7e d4 ea 3d
       0.075488724 0.12349142 -0.023421908 0.11466311
000350 5c 95 e6 3d 9f 3a 7f 3e 44 8a 3a 3d 8a 5e f0 3e
       0.11258957 0.24924706 0.045542017 0.46947128
000360 56 46 2f 3e 54 1d 51 be b0 ad 57 3d d5 d1 37 be
       0.17116675 -0.20421344 0.052655876 -0.17951138
000370 37 84 e2 bd af ae 1c 3f 69 89 4b bf 0e 97 bf 3d
       -0.11060374 0.61204046 -0.79506546 0.09354983
000380 48 cb ac be 92 f3 c9 bd b1 07 ed be 97 3f 5e 3e
       -0.3374884 -0.098609105 -0.4629493 0.21703945
000390 78 bc e0 be 9a bd db 3c a4 20 9f be 84 9a a1 be
       -0.4389379 0.026823808 -0.3107959 -0.315632
0003a0 d4 28 87 3c 96 5f e2 be 38 18 14 be 55 91 5c be
       0.01649896 -0.4421355 -0.14462364 -0.21539815
0003b0 05 73 88 be d1 8e 01 be 54 3b 7a bd dd c9 88 bd
       -0.26650253 -0.12652136 -0.061091736 -0.06679127
0003c0 78 b4 d0 3e 5b a7 18 be c6 6b a3 be 02 ff c2 3e
       0.40762687 -0.14907591 -0.31918162 0.3808518
0003d0 08 a1 08 3f 97 84 4c 3f ed 36 59 bd 0f 9c 29 bd
       0.53370714 0.79889816 -0.053030897 -0.041408595
0003e0 de 73 a8 be c4 3b 69 be 49 43 7f be aa 40 c8 bd
       -0.329009 -0.22776705 -0.24928011 -0.09777959
0003f0 7c cc ad be 06 78 93 be 7c be 4f be 13 39 98 be
       -0.33945072 -0.28802508 -0.20287508 -0.29731044

critic.0.bias f4 [64]
000000 85 23 f5 be 4e 1a b5 be 7b d2 80 3e fb f0 29 3e
       -0.47878662 -0.3537163 0.25160584 0.16595833
000010 1e 61 55 be c5 a3 a2 3e 91 d5 53 be ea 40 d6 3e
       -0.20837829 0.3176557 -0.20686938 0.418464
000020 30 31 c0 3e 73 d0 5e 3e 89 61 d0 3e ba 63 d9 be
       0.37537527 0.21759205 0.40699413 -0.42458898
000030 b0 4c a2 3e bf 9d 4b 3e 57 34 3b 3e d5 59 81 be
       0.31699133 0.19884394 0.18281685 -0.2526385
000040 f1 66 ee 3e fa 2a 4c 3e a5 45 93 be 18 3b 77 bf
       0.46562913 0.1993827 -0.28764072 -0.96574545
000050 c6 c8 11 bf 2b 9d 4c bf 6b 22 ec 3e c1 a7 38 3d
       -0.5694698 -0.7992732 0.4612001 0.045081858
000060 90 14 be be 78 93 26 3c 22 d2 fa bc 22 ad 4a bf
       -0.37125063 0.010166995 -0.030617777 -0.7917043
000070 d1 69 49 bf b0 75 3d bf 32 5e 2a bf 29 84 43 3e
       -0.7867709 -0.740077 -0.6654998 0.19093384
000080 a4 ea 39 be e0 b7 14 3e 73 22 bd 3e 35 b6 eb be
       -0.18155915 0.14523268 0.36940345 -0.4603745
000090 42 eb 9a bf 3b 9a 54 3e 5e 8d 9c 3c 2d 61 0a 3f
       -1.2103045 0.20761959 0.019110378 0.5405453
0000a0 93 1c a8 3e 3b b8 4a bf a2 7b e4 be 18 07 bf 3d
       0.328343 -0.79187363 -0.44625574 0.09327525
0000b0 ba 97 a4 3e 78 f8 5f 3e fa 1d 21 be 41 18 2f 3d
       0.32147008 0.21872127 -0.15734091 0.04274774
0000c0 53 ee 84 bf 18 92 8a 3d 38 4b 21 be 39 80 f6 be
       -1.0385231 0.067661464 -0.1575135 -0.481447
0000d0 51 97 90 3e 90 ae 55 3e 99 99 b4 bd c6 0d 0f 3e
       0.28240445 0.20867372 -0.08818359 0.13970098
0000e0 2d 15 e5 3e 41 0f c4 3e 7e c2 95 3e cf dd 72 3e
       0.44742718 0.38292888 0.29249948 0.23717426
0000f0 2c 6c 37 bf ed 4f 25 3e 0f b4 b3 3d 76 33 82 bf
       -0.7164943 0.1614377 0.08774578 -1.0171955

critic.2.weight f4 [32, 64]
000000 37 43 24 be 7a 52 c2 bd 19 b9 10 bd 70 f0 5d be
       -0.16041265 -0.094883874 -0.035332773 -0.21673751
000010 c0 ee d6 bc 04 5b 16 3e b9 42 82 be 23 58 c4 be
       -0.026236892 0.14683157 -0.2544153 -0.38348493
000020 90 64 85 3e a9 fc 18 be 0a 7a a2 be 37 33 cf bd
       0.26053286 -0.14940132 -0.31733733 -0.1011719
000030 73 92 c6 be a6 f8 af be 17 a5 13 bf c9 3c 39 3e
       -0.38783607 -0.3436939 -0.5767378 0.18089594
000040 f6 46 08 bf a1 2c ac be 43 0e 19 be 09 cd 35 be
       -0.5323328 -0.336278 -0.14946847 -0.17753996
000050 fe 91 3a 3e 99 fe 55 3e fd 5c 14 bf 5d cd ab 3d
       0.18219754 0.20897903 -0.5795439 0.08388779
000060 5d 21 8a be ff 89 88 be 83 e6 8a be 95 95 ce bd
       -0.2697858 -0.26667783 -0.2712899 -0.10087124
000070 9c 9d af 3c 50 a5 b3 3d 40 da 2c 3d 1e d0 a5 be
       0.021437459 0.08771765 0.042200327 -0.32385343
000080 33 a6 32 bd 91 bd be be c5 6c dd be 2e 84 ab bc
       -0.04361553 -0.37254003 -0.43247047 -0.020937052
000090 ac a0 b5 bc 35 c9 64 bd 69 e9 b1 be 22 7e c8 be
       -0.02217134 -0.05585595 -0.3474839 -0.39158732
0000a0 82 5b 49 be 2f 3e 7a 3e b8 81 b9 be 38 1d b3 be
       -0.19663814 0.24437784 -0.3623178 -0.3498323
0000b0 af d7 a8 3d c4 bf ef 3c 72 5b 73 3e 93 3c 17 be
       0.082442634 0.029266246 0.23765352 -0.14769201
0000c0 4f 6d d8 3d b4 5f cc be 3e dd c3 bd 9c 4f 1d bc
       0.10567724 -0.39916766 -0.09563683 -0.0096015
0000d0 a0 5f b1 be 41 f5 f9 bd 0f dc 91 be ba db b9 3c
       -0.3464327 -0.122049816 -0.28488204 0.022687782
0000e0 56 d8 33 be 01 5a 9a bc d6 cb fc bd f6 e0 dc bd
       -0.17562994 -0.018841745 -0.12343566 -0.107850954
0000f0 01 b5 db 3c e6 38 d4 bd 28 73 4e be fc 57 a2 3e
       0.026819708 -0.10362415 -0.20161116 0.31707752
000100 be 41 01 bf 25 e2 91 3e 2d 3b 11 3e 36 57 e2 be
       -0.5049094 0.28492847 0.1418273 -0.44207162
000110 fa 4b d6 be b6 75 cf bf 3c d6 3b bf e9 f2 b7 bf
       -0.4185484 -1.6207798 -0.7337377 -1.4371005
000120 ff 8f c3 3e 18 64 ed 3d 37 5d 6d be 31 b8 97 bc
       0.38195798 0.11591357 -0.2318009 -0.018520446
000130 be 9a 0d bf 7b 1e a8 be 7d 34 da be 2f a8 f9 be
       -0.5531424 -0.32835755 -0.4261817 -0.48761126
000140 27 49 08 bf fd 01 b4 bb 94 e3 86 3d cc a5 fc 3d
       -0.5323662 -0.005493401 0.06586376 0.12336311
000150 de 6c 0d 3f a5 d4 8e 3e 9e 20 35 bf 71 68 e6 3e
       0.55244243 0.2789661 -0.70752895 0.45001557
000160 10 c4 c9 3d ab a8 7f bf e6 1f 73 bf 0b 47 8f 3e
       0.09851849 -0.9986674 -0.9497055 0.2798389
000170 92 d9 48 3f 11 85 e1 be 84 be 3f 3e d6 08 46 bf
       0.78456986 -0.44046834 0.1872502 -0.7735723
000180 cf 01 ad 3d f6 4e d7 3b 1d d6 85 bf b9 0a 57 3e
       0.084476106 0.006570692 -1.0455967 0.21000184
000190 31 3b 68 be 15 68 4c bf 53 e8 25 3d 8b ee c3 be
       -0.2267883 -0.79846317 0.040504765 -0.3826793
0001a0 06 f3 5e be b6 cc 13 3f 1c dd 92 bf 9d d2 a2 3e
       -0.21772394 0.5773424 -1.1473727 0.3180131
0001b0 8b 2f 2c 3e 63 d2 e7 be 18 08 1e bd a4 56 44 3f
       0.16815011 -0.452777 -0.038581938 0.76694703
0001c0 b2 14 b1 bb c6 d5 ec be f3 e5 ba 3e 5b d8 ed 3e
       -0.0054040784 -0.46256846 0.36503562 0.4645413
0001d0 36 9f a5 bd e8 0e 2c be 7f 9d a7 3f b3 13 a9 bf
       -0.08087008 -0.16802561 1.3094939 -1.3209137
0001e0 fa 71 ac 3c 90 14 7a 3e 06 d4 ef 3c 81 ca de 3e
       0.021050442 0.24421906 0.029275905 0.43513873
0001f0 1c 00 2b bd 01 52 b0 be ff 9e d8 be 31 9e b8 3e
       -0.04174815 -0.34437564 -0.42308804 0.3605819
000200 f3 bd 3b be db 26 4b 3e 46 75 09 be ab 7f f0 3e
       -0.18334179 0.19839041 -0.13423643 0.46972403
000210 dd db 1a bf f6 9d e6 3c d8 d7 a1 be 1b c6 0e 3f
       -0.60491735 0.028151494 -0.31609988 0.55771035
000220 db 0e 01 bc 8c b7 ea bd 57 8f b1 3e 6d 77 b0 be
       -0.007877077 -0.1146079 0.34679672 -0.34466115
000230 61 20 bf 3b 8f 34 45 3e 10 8f b0 3d 60 ad a4 be
       0.0058327173 0.19258331 0.08621037 -0.32163525
000240 85 15 ff be 8f ce 04 be 40 99 ad 3e 1b af db be
       -0.49821106 -0.12969421 0.33905983 -0.42907032
000250 a3 5b 7c 3e af 73 ba be 0d 5d 7b 3e bb 49 95 3e
       0.24644332 -0.36416385 0.24547215 0.29157814
000260 1e f5 3c 3e 06 b1 64 be f1 be 68 be ca c5 0a bf
       0.1845288 -0.22333154 -0.22729088 -0.5420805
000270 f3 64 b1 be 43 98 70 bd 9d 84 50 3e 0f f0 d0 3e
       -0.3464733 -0.058738958 0.20363088 0.4080815
000280 b3 cb f5 3c c9 dc d4 3e b8 32 d0 3e b7 70 e2 bd
       0.030004358 0.41574696 0.40663695 -0.11056655
000290 00 21 93 3f 78 ff 89 3e 75 5a 0b 3e 70 67 92 3e
       1.1494446 0.2695272 0.13608725 0.28594542
0002a0 fc f5 81 3e b1 c2 bd be 2c 98 b6 3e 96 75 eb 3e
       0.25382984 -0.370626 0.35662973 0.45988148
0002b0 5a f0 12 3d 7c ca 76 3d 83 3d 76 bd 94 4d 2a bf
       0.03587375 0.060251698 -0.060117256 -0.66524625
0002c0 fe 6f 4d be fd 54 ce bd 25 2c 0a 3e 84 a2 32 be
       -0.20062253 -0.10074804 0.13493402 -0.17444807
0002d0 6d 45 9c bc f3 60 87 3e 4e 22 2b bf 13 35 7b 3e
       -0.019076074 0.26441154 -0.6684922 0.24531965
0002e0 7a 09 cf 3e c9 c1 43 be 77 bd 99 3e 27 55 df be
       0.40436918 -0.19116892 0.30027363 -0.43619654
0002f0 e6 ff bb 3e 3e 16 e9 3e f1 91 36 3d d7 19 40 bf
       0.36718673 0.45524782 0.044572774 -0.7503943
000300 3b 95 5c be 7e 55 8b bd 85 65 73 3e 37 8c 11 bf
       -0.21541302 -0.06803416 0.23769195 -0.56854576
000310 90 fe 83 bf d0 bd 09 bf c3 b3 73 3e 62 97 4d be
       -1.0312061 -0.53805256 0.23799042 -0.20077279
000320 a0 e4 77 3e 0f fc 51 be 34 41 96 bd 0e b3 6e 3e
       0.24208307 -0.20506309 -0.07336655 0.23310491
000330 f8 04 96 3e 01 43 48 3e 11 73 d7 bd 03 62 4b bf
       0.29300666 0.1955681 -0.10519994 -0.7944643
000340 eb ab 91 be ee 3f 98 3e f0 f2 57 3c d7 fe 95 bf
       -0.28451476 0.29736274 0.013180479 -1.1718396
000350 1c 6f ed be c9 52 42 bf d2 83 82 3e 55 c5 c3 3c
       -0.46373832 -0.7590757 0.25491196 0.023897806
000360 2c 85 15 3f 99 42 4d 3d 78 7f 86 bd 6f ed 70 bf
       0.5840633 0.05011234 -0.065672815 -0.94112295
000370 02 f6 28 bf f1 b0 b0 be 3c 3c 01 bd e2 a7 3e bd
       -0.6600038 -0.34509996 -0.031551585 -0.046546824
000380 1a 06 cd 3d c0 42 07 3f 8f 27 d6 3e 9a 04 f3 be
       0.100109294 0.5283623 0.41827056 -0.47464448
000390 71 77 8d be a4 0d 8c 3e 5f af 7a 3c 5b fd 02 bd
       -0.2763019 0.27354157 0.015300601 -0.0319799
0003a0 78 ae 46 be 18 26 4c bf 9a ef 62 be 55 d9 2f 3e
       -0.19402492 -0.79745626 -0.22161713 0.1717275
0003b0 28 7f ce 3e 1d 8e 2a be ae 49 26 3c 4f 60 7f be
       0.40331388 -0.16655774 0.010149403 -0.24939083
0003c0 92 48 79 bf e3 0b 98 bd f0 cf c4 3e 17 77 37 bf
       -0.9737636 -0.07424142 0.38439894 -0.7166609
0003d0 6b 2c af bd 7a d9 bc be eb c3 52 bf d9 20 84 be
       -0.08553394 -0.3688467 -0.823302 -0.2580631
0003e0 e5 7a 64 3e 38 29 61 bb 66 ad 62 bd ef 15 6e be
       0.22312506 -0.0034356844 -0.055341147 -0.23250555
0003f0 29 23 57 bf 2c 74 68 3e 27 3b 50 3e d9 a2 9c bf
       -0.84038025 0.22700566 0.20335065 -1.2237197

critic.2.bias f4 [32]
000000 5c fb af be 9f 79 02 be 66 9d 84 3e d0 f9 a3 3e
       -0.3437146 -0.12741707 0.25901335 0.3202653
000010 91 ed 93 3e 70 46 9a 3e a6 39 11 3e 41 41 b0 bd
       0.28892186 0.30131865 0.14182147 -0.08606196
000020 8d c8 ce 3e 34 9e 05 3f 01 38 6c bd 72 20 41 be
       0.40387383 0.52194524 -0.057670597 -0.18860033
000030 f9 41 db 3e c4 8d 8b 3e 40 78 c9 3e a2 15 4a 3e
       0.4282377 0.27256596 0.39349556 0.19734815
000040 ed b3 0f be c7 1a a8 3e be 4d 9b 3e f5 dc d2 3e
       -0.1403348 0.3283293 0.3033275 0.41184202
000050 f2 e4 f1 3e 56 cb 72 3e c9 b4 98 be 2d ec 3c be
       0.47244984 0.23710379 -0.29825428 -0.18449469
000060 30 b2 94 be 35 c7 53 3e ef 85 cf be 47 d8 ca 3e
       -0.29042196 0.2068146 -0.4053187 0.39618132
000070 ae 99 50 be 72 83 e2 bd 36 bf 6a bd 60 42 ee bd
       -0.20371124 -0.110602275 -0.05731126 -0.11633754

critic.4.weight f4 [1, 32]
000000 b9 9d a7 be f8 f3 63 bf 84 e1 85 3e 8f 55 cf 3e
       -0.3273752 -0.8904414 0.26148617 0.40494964
000010 25 fd b3 3e 50 21 02 3f e2 75 7d be af aa bf be
       0.3515407 0.5083208 -0.24752 -0.3743491
000020 ad 9a e3 3e 1c 26 12 3f 1a 0c 41 bf b9 5e e7 be
       0.44453946 0.570894 -0.7540909 -0.45189455
000030 c3 04 14 3f 20 b6 db 3e c9 6d a7 3e 96 15 aa 3e
       0.57819766 0.42912388 0.32700947 0.33219594
000040 71 12 a3 be 0a 84 c8 3e 9d 52 df 3e 27 64 a5 3e
       -0.31850007 0.39163238 0.43617716 0.32302973
000050 70 f8 ed 3e 5b c8 cb 3e 90 8e df be 58 69 9e be
       0.46478605 0.39801297 -0.43663454 -0.30939746
000060 97 65 24 bf cd b8 94 3e db 36 20 bf 49 1d f0 3e
       -0.64217514 0.29047242 -0.625837 0.46897343
000070 33 57 0e bf d4 f9 86 be 8a a5 e5 bf 11 f2 10 bf
       -0.55601805 -0.2636248 -1.7941144 -0.56619364
