logs/exp/model_56.pt (torch, 34660 bytes, 12 tensors)

log_std f4 [3]
00000000: d0b4 74be 75f3 bdbd c266 dfbd
-0.238971 -0.09274951 -0.10908271

actor.0.weight f4 [64, 24]
00000000: c24a b6be d356 023d 6dce 103f 0998 0cbe
00000010: be9c 5cbe 8f41 cbbe 1a2d 1bbe 036b 04be
00000020: 7c93 e63d de39 e2be db14 9ebd b352 53be
00000030: 9826 d8be 6e1d 443d 5c88 8dbe 1937 04bf
00000040: 57c1 f0bd a0ad 3abe edf5 1d3e 2ba1 1ebf
00000050: c0f7 943c 835a acbe f758 1abe b5f0 88be
00000060: 41f7 97bd 8d2a 743d 62cd d03d 0ab2 41bd
00000070: 8954 aebe 48bc fb3d ee23 b4bd 6ed7 303e
00000080: 41e3 11be ca32 adbd 7b7c 3bbd 8418 81be
00000090: 65db e33d d1ff c8be 3410 193e 4329 5fbe
000000a0: a2c4 83bd 8ab4 bcbe 0016 2dbe 2c9e a4be
000000b0: 1c26 a8be 54e2 13be 6ecd 51bc 69fd 69be
000000c0: aa2b 453d 98f3 56be 3d96 253e ff52 80be
000000d0: b655 3c3e 4bcd 5e3e 1d0d 7b3e e701 96be
000000e0: b403 103f 46d0 8cbd 7969 953e fef1 2abe
000000f0: 2cc3 943e 59eb 18be de34 f73e 7e23 b1be
00000100: d067 7abe e108 71bd 0d3e e3bd 9eb8 a33d
00000110: 6c56 0c3d f727 843c 3185 b9bc 5234 a1be
00000120: e77e c6be 11a6 6b3e 9f7e e4bc 34c2 fdbd
00000130: dd9d c6bd 0208 62bd 1fb6 d9bd 7867 e1be
00000140: a99c 0f3e 9b7f 5c3d be53 17be 8999 99bc
00000150: b200 c43d 2ff3 023e 89bf f63d 68cb c0be
00000160: ba21 84bb 684b e8bd d534 663c c108 5fbc
00000170: 3d94 693d 453e 80be 7c36 1fbe 312e c73c
00000180: 9f24 22be ffa5 4f3c f1a1 0b3e 7649 50bf
00000190: 4801 fb3e 0447 1e3f 6899 62bb 3377 84bd
000001a0: 0b6c f7bd 1bcc 5bbd efba 51bd 6dfb 50be
000001b0: 8f0e 2abe 0a1e 25be 3d65 96be 7a26 1bbe
000001c0: f014 55be 61ff b8bd d74b d1bd 7614 263c
000001d0: 4005 763d 4766 8abe f050 11bc 41ba 5fbe
000001e0: 3f27 ffbe 5848 10be 65c4 743d d095 64bd
000001f0: b0f8 f8be b12e c53e dca1 21bb d999 9ebd
00000200: 6369 b1bd 6c01 dc3d f68e f4bd 5828 d83d
00000210: 77b3 c2bc 017f 943d e26a 8fbd 20d1 cb3e
00000220: 9136 10be 2c96 633e 0b7a 0c3e a168 bebb
00000230: 6211 19be 0a3f 883d f22a 85bd 960e 483e
00000240: fdd9 983d 8c39 fe3e 700e 70be 4d82 e8be
00000250: 4bd1 db3e 48f1 a6bc d75b 2b3f 7ca5 89be
00000260: 6689 0c3f 40d5 8bbd ba9b a13e d220 d13c
00000270: eb08 103e fbef 673c 0da8 db3e c420 a03e
00000280: 1e90 89be debc 883e 7a0d 1abe 621b fcba
00000290: 8f0a 18be de0a 9e3e f749 0bbe 6288 233e
000002a0: 85b1 b93d 1c9e 653d d675 d8bd a076 97bf
000002b0: 2a3d 3dbd e9ed 44be 7848 b0be c98a d03d
000002c0: a4b8 4f3a db26 aa3d 5b70 263e 24a1 503e
000002d0: fd24 1dbe 12cb 8bbd 799c fa3c b85a 123c
000002e0: 3de6 b93e f8e2 afbd d15a f6bd 20ce c7bc
000002f0: e884 6bbe 8108 153e 6ca9 adbe efa9 a13e
00000300: fc01 0c3d fad4 423d 9424 bc3d 2230 d23e
00000310: afd3 193f ff0d 363e c16e 063e 35e0 ef3a
00000320: 92c1 e43e 510c a43c 8d01 1ebe 19f0 f63d
00000330: 5d32 ef3d 5cec 3d3e 742d 52be 72c7 23be
00000340: 67b5 dabd dc4a 63be c62a 543c f961 95be
00000350: f41a dd3c 2bac 6fbe bbd3 b0be 657b 83be
00000360: 7227 0a3e 7ba4 223e ec60 023d 2566 a3bf
00000370: 343f c8be d9e3 dbbe b803 23be 71e9 4b3d
00000380: f6c0 60be 6218 4abe 89a6 b1be 668c a53d
00000390: 74b1 86be 9f7c db3d 8db4 adbe f52f 6e3e
000003a0: db0d 99be df6d a5be 2bc5 51be 79e7 013d
000003b0: cfb5 5bbe 0f79 b0bc ddea fa3d d7c2 9bbc
000003c0: 916f 9fbe 7094 3ebe cf45 54be c9bf 0cbe
000003d0: 0b00 93be 0c36 4d3d 4504 583e 0852 a63e
000003e0: 04d4 9f3e e7da efbc 04f8 e1bc 49e4 6fbd
000003f0: ba81 c03d ab8c 043e b711 4b3e 5cb4 e93d
-0.3560391 0.031821083 0.5656498 -0.13729872 -0.21544167 -0.39698455 -0.15153924 -0.12931447
0.11258599 -0.44184774 -0.077188216 -0.20637016 -0.42216945 0.04787963 -0.27643096 -0.5164657
-0.11755627 -0.18230295 0.15425844 -0.6196467 0.018184543 -0.33662805 -0.15073 -0.26746145
-0.07420207 0.059610892 0.10195424 -0.047288932 -0.3404887 0.12291771 -0.087959155 0.1726968
-0.14246847 -0.08456953 -0.04577301 -0.25214016 0.111258306 -0.39257672 0.14947587 -0.21793084
-0.06433989 -0.3685649 -0.16902924 -0.32151926 -0.32841575 -0.14441806 -0.012805326 -0.22850575
0.048137344 -0.20991361 0.16170593 -0.2506332 0.18392071 0.21758 0.24516721 -0.29298326
0.5625565 -0.068756625 0.29182032 -0.16693875 0.29055154 -0.14933528 0.48282522 -0.3459739
-0.24453664 -0.05884636 -0.110958196 0.07994197 0.034262106 0.016132338 -0.022646518 -0.3148523
-0.38768694 0.23012568 -0.027892409 -0.12390557 -0.09698079 -0.055183418 -0.1063044 -0.44024253
0.14024605 0.05383263 -0.14778039 -0.01874997 0.09570445 0.1278808 0.12048251 -0.37655187
-0.004032341 -0.113425076 0.014050682 -0.013612927 0.057026137 -0.25047508 -0.15548128 0.024314018
-0.15834282 0.012673854 0.13635994 -0.8136209 0.49024415 0.6182711 -0.00345763 -0.06468048
-0.120811544 -0.053661447 -0.051203664 -0.20408411 -0.16607116 -0.1612474 -0.29374114 -0.15151396
-0.20808768 -0.09033085 -0.102195434 0.010136714 0.0600636 -0.27031156 -0.008869395 -0.21848394
-0.4983463 -0.14090097 0.05975761 -0.055806935 -0.48627234 0.38512185 -0.0024663126 -0.07744188
-0.08662679 0.10742459 -0.1194133 0.1055457 -0.023767216 0.072507866 -0.07002808 0.39807987
-0.14083315 0.22225255 0.1371843 -0.0058108126 -0.14948037 0.06652649 -0.06502332 0.19536814
0.07463453 0.4965328 -0.23443007 -0.45411912 0.42933115 -0.020378724 0.6693701 -0.26884067
0.54897153 -0.068277836 0.31564122 0.025528345 0.14065902 0.014156337 0.4290165 0.31274998
-0.26867765 0.26706594 -0.15044203 -0.0019234235 -0.14847778 0.30867666 -0.13602434 0.15969995
0.09067062 0.056058988 -0.105693504 -1.1833076 -0.04620091 -0.1923138 -0.3443029 0.10182721
0.0007923937 0.08308192 0.16253798 0.2037397 -0.15346141 -0.06825842 0.03059219 0.008932762
0.3630847 -0.08588213 -0.120290406 -0.02439028 -0.22999918 0.14554025 -0.3391832 0.31574962
0.03418158 0.04756639 0.09186664 0.41052347 0.6008863 0.17778777 0.13128187 0.0018301072
0.44678932 0.020025404 -0.15430279 0.12057514 0.11679528 0.18547195 -0.20525151 -0.15994051
-0.10679131 -0.22196525 0.012949651 -0.2917631 0.026990391 -0.2340552 -0.34536538 -0.2568008
0.1349161 0.15883057 0.031830713 -1.2765547 -0.3911072 -0.4294727 -0.15919387 0.049783174
-0.21948609 -0.19735864 -0.3469737 0.080834195 -0.2630726 0.10717129 -0.33926812 0.23260482
-0.29893383 -0.32310387 -0.2048537 0.03171489 -0.21456073 -0.0215421 0.12251828 -0.019013805
-0.31139806 -0.18611312 -0.20729755 -0.13745035 -0.2871097 0.05010037 0.21095379 0.3248446
0.31216443 -0.029279185 -0.027584083 -0.05856732 0.093997434 0.12944286 0.19830976 0.11411354

actor.0.bias f4 [64]
00000000: 3a3f 113e c716 80bd 731b 4abe e82d 0dbe
00000010: e28f 323d 3d77 3bbc 16b0 25be a7a1 35bb
00000020: 350a debe 3fcf a2be 2961 f9bc 94a3 68be
00000030: a449 f9bd ea65 213e c7b2 9fbe 8e4a 573c
00000040: 40be cd3d f763 6bbe 8085 ac3d 255c 35be
00000050: 9e18 053d af75 bcbe 0ebd 26be d5a4 28be
00000060: 5768 6cbe a82a e5be 11e2 14be 6e2a af3e
00000070: ca41 17be 5bdc acbd cdf2 b2be 62f8 c2be
00000080: 9b4d 59be 951e 9fbe bfa0 afbd 986a 53be
00000090: 0931 20bf 96b0 823d 64ae abbe eb20 f5bc
000000a0: 117a 0dbe e200 97be ff45 4cbe 4aff e33d
000000b0: 6d2e b6bd e37e d33d 344b 22be 9041 8bbe
000000c0: 953b b0bc 9dbb debe 1072 c4bd da60 92be
000000d0: 723b ebbe 605c 69bd b152 80be 0aec 6ebe
000000e0: 9da2 3d3e 5bc4 453c 4d34 113b 207e d8be
000000f0: 3f8e 93be c455 603d 79fd 5e3e fb72 03be
0.14184275 -0.062543444 -0.19737034 -0.13787043 0.04359425 -0.011442003 -0.16180453 -0.002771476
-0.43367162 -0.3179874 -0.030441837 -0.2271865 -0.12172249 0.15761533 -0.31191084 0.013140334
0.10046053 -0.22987352 0.084239006 -0.17710932 0.03249418 -0.36808535 -0.16283056 -0.16469128
-0.23086677 -0.44759107 -0.14539362 0.3421206 -0.1477119 -0.08440467 -0.34950867 -0.38080126
-0.2122101 -0.3107802 -0.08575582 -0.20646131 -0.6257482 0.06381337 -0.33531487 -0.029922923
-0.13816096 -0.2949286 -0.19948576 0.11132677 -0.08895574 0.10326936 -0.15849 -0.27198458
-0.021512786 -0.43502513 -0.09592068 -0.28589517 -0.4594379 -0.05697286 -0.2506309 -0.2333223
0.18519063 0.012070741 0.0022156418 -0.42283726 -0.28819463 0.054769292 0.2177638 -0.1283683

actor.2.weight f4 [32, 64]
00000000: c191 2dbe 7a81 afbd 4c42 b4be e619 f6bd
00000010: 4ac5 443e 89dd a1bd f1c2 c7be a347 84bd
00000020: e184 94be 8a28 c1be b4f2 ba3c 3ae4 b4be
00000030: 234d fb3c 66fb e6be 0e53 b3be a6a4 76be
00000040: bcce a4be 82d3 043f 3567 b4be 1061 b6be
00000050: bcce a13d 45c3 b03d 4e60 de3d 9b8e 6ebe
00000060: 4cb0 693e 1e7c d13d 2d6a 803e e153 05bf
00000070: 944a 30be de89 28bd 2aef a0be dd0f b0bd
00000080: 688c 9cbe 676e 993d e7b4 5cbc 5317 2d3e
00000090: dcf0 a33c 8bb8 b3be cda5 8dbc 0dc0 143e
000000a0: a069 5dbd 31f5 393e 191c 46bd 2829 a6be
000000b0: a71a adbd 4a83 cdbe 4080 b13d 900c 7cbe
000000c0: 0a1c 263e 33e2 39be 1214 cdbe 5845 a43e
000000d0: b2c9 83bd 7c62 613d 622b 42bd 6f7e 353d
000000e0: 7313 863e 79a8 82be 0054 573e abde 783e
000000f0: 410a 613e dcec b5be 1696 d8be 43b7 803e
00000100: cc23 37bf 6ff7 8a3e 3f1b c5bd 0fb1 12be
00000110: cd92 7ebd ba54 48be 5480 cbbe b75d cc3d
00000120: d199 bd3d 8bb7 4f3e c40c a1be 6939 ab3d
00000130: 29d9 18be 746a f1be 80e0 ff3c 1725 5fbf
00000140: dbd4 043d 474b 1b3e b9f8 e93d 8909 e5bd
00000150: cbdf 43be 542c 9dbd 4292 62bd 243d 6fbe
00000160: 3b62 43bd d991 5f3d 2652 673c e386 35be
00000170: 33a3 d6be 94a9 e9be 6b8a cebc 4fba 38be
00000180: c1c4 90bd a65c 513e 909b 85be c6af af3d
00000190: 5a68 b83d 7102 0cbd 72df 3a3e 38cb 99bd
000001a0: a165 3bbe ccf2 00be 3f67 083e efce 39be
000001b0: 83e0 0ebe 595c 4dbe bb1e a5bc 00e1 183e
000001c0: 0c1c af3d d932 923d ce96 7cbe 1a3c 37bf
000001d0: 926c 3c3d 883f 4ebd 7c89 38be 704d 48be
000001e0: 340f 85be 8441 1f3d 4456 43be 0e79 01be
000001f0: a335 6d3e cab6 5bbe 9466 8bbe 6653 f93c
00000200: 0d0b 08bf 36b0 13be 1a6e 2fba ff45 36be
00000210: 6f07 76be 828a 153e 452b 5ebe 7c3f 18bd
00000220: cfb2 08be 3107 41bd c88a 79bd 4038 edbe
00000230: df3b e63d 2220 74be c318 85be ff72 b7be
00000240: b580 28bd e691 0b3d 474a 053e 2c1f aebc
00000250: 29a8 85be 465d 893e 62a1 37be 5db5 0abe
00000260: 9a92 75be 52e4 78bd 1714 e0bc 583f 6c3e
00000270: 928d 02be a09f 83bd 29eb 903d 90c6 d9bd
00000280: 16a5 663c b26c 02be 535c 3ebd 0bc9 21be
00000290: b930 e13d 4115 4dbe 38fd 793c 8d06 37be
000002a0: de7b adbd d76c d5bc c637 33be b16b 883e
000002b0: e82c e1be 14d4 983d 4661 1c3e fab4 a53e
000002c0: 6da4 403e 7428 953c 32bd edbd 49e3 bd3e
000002d0: 50e0 52bd 08f3 b8bd cda0 fb3d 3049 35be
000002e0: c8ff 9e3e f704 3dbe fa2b 4e3d b086 673e
000002f0: 91f5 9c3e 49be 5bbd a990 4a3e cab3 b6be
00000300: f3ba 07be 6e18 0bbe 696a 04bd 16ab 6f3c
00000310: 9bea 883d a31c 833e abad bb3e ff0f ecba
00000320: e77a e83d a774 13bf e796 11be ece7 e1bd
00000330: bb33 99be 55cd 15bf c39d 81be 5b85 82be
00000340: 3e28 2d3e 1683 03bd e79e 19be 7ef2 9bbe
00000350: cb7a 0abf 1c92 01be 447d 103e 80cf bf3d
00000360: 3e49 ad3e f0cb b13e c0bf 913e 57d2 8d3e
00000370: 7bca 1a3e a018 bfbd 2e52 55be 7271 10be
00000380: 5ad8 6b3e b0f8 9cbe b140 09be 5a7a 3ebe
00000390: 43ad b0bc 5aef 5fbf 1420 90be a99b ae3e
000003a0: d9a7 80be 02f2 2a3d a118 8b3b aa74 833e
000003b0: 4eca d4be 0dc6 073e b696 953e daa1 96bd
000003c0: 8ba9 94bc 179f 8dbe 8407 56be 105e 5bbe
000003d0: b2f5 0b3e cd64 5cbe be09 60bd ca80 d9bd
000003e0: 10cf f43e 3b2b f13d e9d9 253e ca15 3e3d
000003f0: dbfc 7b3e 992b e73b a29e 72be 9c3f df3b
-0.16950132 -0.085696176 -0.3520683 -0.120166585 0.19215885 -0.079035826 -0.39015916 -0.06458976
-0.2900763 -0.3772624 0.022820808 -0.35330373 0.03067643 -0.45113677 -0.35024303 -0.24086246
-0.32188976 0.51885235 -0.3523499 -0.35620928 0.079007596 0.08630995 0.108582124 -0.23296587
0.22821158 0.102287516 0.25081006 -0.52081114 -0.1721595 -0.041147105 -0.31432468 -0.08596776
-0.3057587 0.07491761 -0.013470865 0.16903429 0.020012312 -0.35101733 -0.017290974 0.14526387
-0.05405581 0.1815994 -0.04836664 -0.32453275 -0.08452349 -0.40139228 0.0866704 -0.24614167
0.16221634 -0.18152694 -0.40054375 0.32084155 -0.06434955 0.055025563 -0.047404654 0.04431003
0.26186714 -0.2551916 0.21028137 0.24303691 0.21976568 -0.35532272 -0.42302006 0.25139818
-0.71538997 0.27141902 -0.096243374 -0.14325355 -0.06215172 -0.1956357 -0.39746344 0.09978812
0.09257854 0.2028486 -0.31455052 0.083605595 -0.1492659 -0.4715153 0.03123498 -0.8716597
0.032429557 0.15165435 0.11424393 -0.11183459 -0.19128339 -0.076744705 -0.055315264 -0.23363167
-0.0477011 0.05458245 0.014118707 -0.17727236 -0.41921386 -0.4563719 -0.025212487 -0.18039821
-0.07068778 0.20445499 -0.26095247 0.08578448 0.090042785 -0.034182016 0.182493 -0.07509464
-0.18300487 -0.1259262 0.13320635 -0.18145345 -0.13952832 -0.20054759 -0.020156255 0.1492958
0.085502714 0.07138605 -0.24666902 -0.7157608 0.04600198 -0.050353557 -0.18021196 -0.1956079
-0.25988162 0.03888084 -0.19075876 -0.12643835 0.23164992 -0.21456447 -0.27226698 0.030435275
-0.5314186 -0.14422688 -0.00066921266 -0.17800139 -0.24026273 0.14603618 -0.21696194 -0.03716992
-0.1334946 -0.047126 -0.060923368 -0.46331978 0.11241888 -0.23840383 -0.25995454 -0.35829923
-0.04113837 0.034074686 0.13016616 -0.021255098 -0.2610486 0.26828974 -0.17932656 -0.13545747
-0.23981705 -0.06076462 -0.02735333 0.23071039 -0.12749317 -0.064269304 0.07076103 -0.10633576
0.0140774455 -0.12736776 -0.046474766 -0.15799348 0.10995621 -0.20027639 0.015258126 -0.17873593
-0.084708914 -0.026052875 -0.17501745 0.26644662 -0.43979573 0.07462326 0.15271482 0.32364637
0.18812723 0.018207766 -0.11608352 0.37087467 -0.051483452 -0.090307295 0.1228653 -0.177037
0.3105452 -0.18458925 0.050334908 0.22609973 0.30656102 -0.053648267 0.19781746 -0.35684043
-0.13254909 -0.13583538 -0.032328043 0.014628192 0.066853724 0.25607786 0.36655936 -0.0018010138
0.11351567 -0.5759987 -0.14217721 -0.11030564 -0.2992228 -0.58516437 -0.25315675 -0.25492367
0.16909882 -0.032107435 -0.15002023 -0.30458444 -0.5409362 -0.12653393 0.14110285 0.09365749
0.33844942 0.34725904 0.28466606 0.2769954 0.15116303 -0.09330869 -0.2083213 -0.14105776
0.2303175 -0.30658484 -0.13403584 -0.18601361 -0.021566993 -0.87474597 -0.28149474 0.34103134
-0.25128058 0.041734703 0.0042448794 0.25674945 -0.41560596 0.13259144 0.29216546 -0.073550895
-0.01814725 -0.27660438 -0.20901304 -0.21422601 0.13667944 -0.21522827 -0.05469679 -0.10620268
0.47814226 0.11775824 0.16196407 0.0464075 0.24608175 0.007054758 -0.23693326 0.0068130028

actor.2.bias f4 [32]
00000000: e049 8cbe ad6b 30be e59e 4abe e64d 5abe
00000010: c0ec 37bd 4b6f fabc 1a6d 55be 7aa1 c03c
00000020: ed35 b53d 7188 1a3d bac7 84bd 75f6 8bbe
00000030: 5c35 1ebe a566 ee3d cc13 69bc 3dc2 e0bd
00000040: 3b82 31bc b362 1fbe 683d cebd 1946 dabd
00000050: 8fc2 69be 4fc3 cfbd 56de 08be 35f5 573d
00000060: f880 b9bd e5b8 b6bd f0da 57be 2a15 8bbe
00000070: 4631 b2bd c218 fdbd 525c 4cbe 6940 cbbc
-0.27400112 -0.17228575 -0.19787176 -0.21318778 -0.044903517 -0.030570647 -0.208424 0.023514498
0.08848176 0.037727777 -0.06483407 -0.2733647 -0.15450042 0.11640672 -0.014225911 -0.10974548
-0.010834272 -0.15564995 -0.10070306 -0.10657901 -0.22828124 -0.10144674 -0.13366064 0.052724082
-0.09057802 -0.089219846 -0.21079612 -0.27164584 -0.087008044 -0.12358238 -0.19957092 -0.024810987

actor.4.weight f4 [3, 32]
00000000: 1e5e b13b 7fa8 3cbd 2f3c b2bd 8cd0 853d
00000010: c1e9 bbbd 3896 983c 81dc 013e 6756 c0bb
00000020: 7a39 99bd 1e30 5e3b 9b0d debc 6339 ae3c
00000030: fb93 6dbd d90a 05bd f7a5 903c 9d79 053d
00000040: 739e 46bd f414 11bc 2585 8d3a 44ce ae39
00000050: e83e a13d c374 b8bc 3692 a8bd 9408 86bd
00000060: 7225 043c 1a93 283d 3c1f 9f3c 9901 f03b
00000070: 6d83 db3b c0cb 7b3d 8b8b 97bc f28a 4dbb
00000080: 4bff 713d 61aa b33c 7c2a 0fbc 4ed2 2ebb
00000090: be13 1f3d 56ee 403d bcd3 ffbb 2d65 313c
000000a0: 1244 76bd 95aa a73a 7711 12bd 125a 353c
000000b0: 5fd8 bfbd 22cf a13b 60e5 6c3c a4bb a13c
000000c0: 7342 8c3b 9e13 313c 3611 f93b b251 80bc
000000d0: 9bdb 3f3d 4909 bdbc 840d 293c 04e0 8e3d
000000e0: a506 99bb 0efd cb3c 0500 e3bc 6a92 0e3e
000000f0: 219f d0bc ce01 85bd 93c4 e93c 60bc 9dbd
00000100: 1b7b bfbd 4aa4 43bd 1e09 d83b 9177 8b3d
00000110: 340a aabc c710 28bd 2516 653d b58e 90bb
00000120: 0987 803d 4160 5c3b 3728 69bd ff60 55bc
00000130: ac36 ab3d fde1 78bb 62ce a43d caf2 8b3c
00000140: e3f8 86bc 5ef5 aa3c 660b cebb c6cc 81bc
00000150: b4e2 873b fefe 1b3d 626f ce3d d45f 373d
00000160: e803 69bb 41b9 ad3c 368f db3c 88ab 0ebd
00000170: a1de 75bb 03a5 b03d 78d2 9ebc 3578 c93c
0.005412831 -0.046059128 -0.08702885 0.06533918 -0.091754444 0.018626317 0.12681772 -0.005869675
-0.07481666 0.0033903192 -0.027106097 0.021267598 -0.058002453 -0.03248105 0.017657263 0.032586683
-0.048490953 -0.008855093 0.0010797126 0.00033341546 0.078733265 -0.022516614 -0.082310125 -0.06544605
0.008065568 0.041155912 0.019424073 0.007324409 0.006699017 0.061473608 -0.018499156 -0.0031363335
0.059081357 0.021931829 -0.008738156 -0.0026675644 0.038837187 0.047102295 -0.007807223 0.010827345
-0.06012351 0.0012791926 -0.035661187 0.011068838 -0.093674414 0.0049380222 0.014458984 0.019742794
0.0042803823 0.0108079 0.0076009287 -0.015663955 0.04684029 -0.023075717 0.010318164 0.06976321
-0.0046699815 0.02490094 -0.02770997 0.1392304 -0.025466504 -0.06494485 0.028536117 -0.07701945
-0.093496524 -0.0477641 0.0065928837 0.06809915 -0.020756818 -0.041031625 0.05592932 -0.0044115433
0.06275756 0.0033626708 -0.056923117 -0.013023614 0.08360037 -0.0037976496 0.08047177 0.017083544
-0.0164761 0.020868953 -0.00628798 -0.015844714 0.004146898 0.038084976 0.10079838 0.044769123
-0.0035555307 0.0212065 0.026801687 -0.034831554 -0.003751673 0.086252235 -0.019387469 0.024593452

actor.4.bias f4 [3]
00000000: 64f4 f63d 522d 8ebd 7e04 453e
0.120583326 -0.06942238 0.19239995

critic.0.weight f4 [64, 24]
00000000: 3cb2 e6be 0a94 673d f7b2 3fbf cd65 e5be
00000010: 058f a33c b4f7 973e 3fe7 50bd 12f6 723e
00000020: 6251 8dbe a31f 863e fe2c 9b3d 18dd b43e
00000030: 7107 d23d 01ac db3e fbd7 143e 7f47 6fbd
00000040: c38b 5e3e 82be aa3e b860 41be ee23 91be
00000050: a482 adbc 3142 c9bd 6db6 873e 50db 6fbe
00000060: 7400 a8be 0f37 1cbd e4e9 823e 2fc8 913e
00000070: 4dbd 453f 68e5 60bf 4ea6 b33e 6e87 94bf
00000080: 548b 1a3f ccea 67bf 1a2a 313f 6b85 89bf
00000090: dc5b 2f3f 7677 2dbf 65c4 ee3e 6f0d 87bf
000000a0: 0e48 9d3b 12f3 07bf 1e20 fd3d 5558 16bf
000000b0: bb90 a93e 055a 19bf 9cf8 4dbe e350 24bf
000000c0: c618 b4be 8a21 193e c4c9 23be 0914 07bf
000000d0: 3f76 c0bf f08c 90be 1bbd 9dbe e53d 933e
000000e0: 4647 253e af5c 063f 5ade cf3e 1fc8 0b3f
000000f0: 45a8 9cbd 7bb2 603f 0f8b ae3e fd61 cb3e
00000100: bce8 463e 8bb3 bc3e 1580 8a3e 8b4c 093f
00000110: 7c12 04bd 2759 dc3e 9019 9d3e b891 a03e
00000120: 89b3 b23e 3bab 733c 3b32 c7bc e5d7 8abe
00000130: 5e8c 20bf a4eb f1be 575a 423f debf 1ebf
00000140: 6d62 833f c1e8 13bf d8de 553f 425a 62be
00000150: a664 293f 862b 02bf f84e b13e be59 a2be
00000160: 788f e63e fe23 f9bc df72 513e f6ee 60be
00000170: 1916 23be c6d4 9cbe 4f09 fe3e 21d2 a8bd
00000180: 4d1c 3fbf bfe7 91bd 9141 37bf 87ec 14bf
00000190: a7ab 91be 4e45 5e3f ead4 c33c 3187 903f
000001a0: dca7 d83b 4bf0 6b3f d462 083e 88f0 883f
000001b0: 6442 d33e 62fa 353f e2cc 2b3f 5db2 603f
000001c0: 2fdc 183f 425f af3e 26f4 313e fac3 353f
000001d0: 616e 353f 6aba 1e3f 5b8b 063f 5cb2 813e
000001e0: 1629 d23e 2007 18be 04fb 03bd a4e8 a23e
000001f0: 414a d3bf 36d2 a43d 74a1 2fbf 6d63 a23d
00000200: a67d 8cbe 9518 86be 2666 cdbe e1f7 cf3e
00000210: 8c89 e8be 8879 d53e c818 c6bd 547e b23e
00000220: 2754 2bbe 747e ba3e 2fd9 ccbd 0e4e a23e
00000230: 6155 9f3e df62 013e b52b 463e 9edb c23e
00000240: a2c3 a73e 2f12 183e 989d e9be ac47 52bd
00000250: 8efa 1f3e 6094 833f 2aab 12bf 4059 d93e
00000260: 6d93 b9be 6c91 913d 5da3 04bf b684 4bbe
00000270: e965 13be 9eff 85be 3f33 42be 77d5 ffbe
00000280: 6dbc 01be 5b42 e7be dd2a 11be 0d4d d7be
00000290: ebc6 62bd 2e79 11bf 8274 a0be 225b 0bbf
000002a0: e74e af3d 70f1 a63e faf2 03bf 2df5 f3be
000002b0: c149 88bf 6acc 08be 4287 6ebe b8a6 4ebf
000002c0: 0062 8ebc 17a6 22bf 75ff 1c3f d4a6 60bf
000002d0: 9c46 903e a31d 55bf 379f 603e 176d bdbd
000002e0: b9de ba3e f774 0fbf ba3e d43e ce3f a7be
000002f0: 2fa6 963e fe73 9dbd a8a2 533d a302 9ebd
00000300: 34a9 69bf cdfb 77be cd90 a43e 8d7f 3abf
00000310: 3f87 61bf 68f4 50c0 3234 a4bc 529f a9bf
00000320: a120 a03e 5a39 cebe d680 063f f313 42bc
00000330: 463f d3bb fb5e 9d3e c88c 823e ad7f 143f
00000340: 9f95 02bd d9e5 733e b0fc 10be d47c 793e
00000350: abcc 02bc 9abb d23e 07e7 a0bd 8045 2c3f
00000360: c3d4 2b3e fd7f 28be ef52 b33d 2dc0 94bd
00000370: d4bc 4c3d 47f7 373f 1094 25bf 0449 313e
00000380: a32b 5bbe e44a 47bd 2877 b9be 704c 7a3e
00000390: ef2c b5be 580e 203d caae 77be b251 a2be
000003a0: 702d 993d 3257 e7be a220 c7bd 5ce1 6cbe
000003b0: bc54 69be 5cd8 14be 7dad 01bd b950 b3bd
000003c0: 2718 8e3e 3a66 27be 7730 b8be 442d a23e
000003d0: 68cb 4a3f b661 963f 9935 c83d ef16 573e
000003e0: d77c 86be 7634 8cbd 6992 67be 815d 8c3b
000003f0: 450f aebe ab79 69be a557 5dbe a29d 89be
-0.45057857 0.056537665 -0.74882454 -0.4480423 0.019965658 0.2968117 -0.051001783 0.23726681
-0.27601153 0.26196012 0.07576941 0.3532493 0.102553256 0.42904666 0.14535515 -0.058417793
0.21733002 0.3334847 -0.18884552 -0.28347725 -0.021180458 -0.09827078 0.26506367 -0.23423505
-0.32812846 -0.038138445 0.2556907 0.2847304 0.77241975 -0.87850046 0.35087818 -1.160383
0.6036885 -0.90592647 0.69204867 -1.0743841 0.6849954 -0.6776041 0.46634212 -1.0550975
0.0047998494 -0.5310527 0.123596415 -0.58728534 0.33118233 -0.59902984 -0.20114368 -0.64185923
-0.3517515 0.149542 -0.15994936 -0.52764946 -1.5036086 -0.28232527 -0.3080834 0.2875816
0.1614047 0.52485174 0.40599328 0.54602236 -0.07649282 0.8777234 0.34090468 0.39723197
0.19424719 0.3685573 0.27050844 0.5363242 -0.03224419 0.43036768 0.30683565 0.31361175
0.349026 0.0148723675 -0.024315944 -0.2711784 -0.62714183 -0.47250092 0.759191 -0.62011516
1.0264412 -0.5777703 0.8354316 -0.22104743 0.661692 -0.5084766 0.3463056 -0.31709093
0.45031333 -0.03041267 0.20453976 -0.21966156 -0.15926398 -0.30631083 0.49616477 -0.08243204
-0.7465256 -0.0712428 -0.7158442 -0.5817341 -0.28451273 0.868245 0.023905236 1.1291257
0.0066118073 0.9216353 0.1331895 1.0698404 0.4126159 0.7108518 0.671095 0.8777216
0.59710974 0.34252363 0.17378291 0.7100216 0.7087155 0.62003195 0.5255639 0.2533139
0.4104697 -0.14846468 -0.03222181 0.31818116 -1.6507035 0.08047907 -0.6860573 0.0792912
-0.27439612 -0.2619063 -0.40116996 0.40618804 -0.4541744 0.41694283 -0.096726954 0.34862006
-0.1673132 0.364246 -0.10002362 0.31700176 0.31119826 0.12635373 0.1935261 0.3805818
0.32766443 0.14850686 -0.45628047 -0.051337883 0.15622923 1.0279655 -0.57292426 0.42450905
-0.3624529 0.07107815 -0.5181177 -0.19874844 -0.14394344 -0.26171583 -0.18964861 -0.49967548
-0.12669535 -0.45167813 -0.14176507 -0.42050973 -0.055365484 -0.5682553 -0.31338888 -0.5443593
0.08559971 0.32606077 -0.5154263 -0.47647992 -1.0647508 -0.13359228 -0.23293784 -0.8072314
-0.017380714 -0.63534683 0.61327296 -0.8775456 0.2817887 -0.8324835 0.21935736 -0.09249323
0.3649805 -0.5603785 0.41454107 -0.32665867 0.29423663 -0.076881394 0.051668793 -0.07715347
-0.9127381 -0.24217148 0.32141724 -0.7285088 -0.88096994 -3.2649174 -0.02004442 -1.3251746
0.31274894 -0.4027813 0.5254034 -0.011845577 -0.0064467518 0.30736527 0.25498033 0.5800732
-0.03188097 0.23818149 -0.14158893 0.24364024 -0.007983367 0.41158754 -0.07856565 0.6729355
0.16780381 -0.16455074 0.08756053 -0.07263217 0.049984768 0.7186169 -0.6467905 0.1731301
-0.21403365 -0.048655406 -0.36223722 0.24443221 -0.35385844 0.03907618 -0.2418777 -0.31702954
0.0747937 -0.45183712 -0.09723021 -0.23132843 -0.2278623 -0.1453566 -0.031659592 -0.08755631
0.27752802 -0.1634759 -0.35974476 0.3167516 0.79216623 1.1748569 0.09775848 0.21004842
-0.2626712 -0.06845944 -0.22614445 0.0042836075 -0.33996025 -0.22800319 -0.21615465 -0.26878077

critic.0.bias f4 [64]
00000000: e125 16bf dcb2 debe bbe1 813e 01cc 473e
00000010: 153c ffbe 1bdb ae3e 19c0 13be b2ab ea3e
00000020: a8a3 1f3f e0e3 793e 7618 fb3e 53ec 08bf
00000030: cc4b fa3e 08b0 af3e 06a9 443e 7b0d 0bbf
00000040: 40d8 0d3f b39d 4c3e d645 12bf 5cb7 b5bf
00000050: 0acc 4dbf a8f0 78bf de3e e53e ba98 fd3d
00000060: 6456 1dbe b168 06be 3027 c73c c0d9 8abf
00000070: ff90 7bbf 4957 53bf 1653 52bf 298f 5a3e
00000080: 662d b0be 63b9 643e 5110 e03e 94fb 1fbf
00000090: 470b d2bf d374 8f3e bc58 b33d 95dc 1d3f
000000a0: ab30 cc3e d5c7 8abf 5da7 1abf 84f9 213e
000000b0: 0a94 f33e 4fc8 b83e ec71 22bd 6d7b 8bbd
000000c0: 1cbe a2bf a4c4 e9bd e6ac 94bd fb83 10bf
000000d0: 2a52 c83e ccf3 a43e 542b 00be 5e06 3b3e
000000e0: 28ae 1f3f e0ba 183f 0df6 ba3e 4f6b c73e
000000f0: 517c 66bf 25ab 7c3e b95c 113e 147a afbf
-0.5865155 -0.43495834 0.2536753 0.19511415 -0.49850526 0.3415154 -0.14428748 0.45834118
0.62359095 0.24403334 0.490421 -0.534856 0.48885953 0.3431399 0.19205102 -0.54317445
0.55408096 0.19982032 -0.5713781 -1.4196582 -0.80389464 -0.9724221 0.44774526 0.12382646
-0.15364987 -0.13125874 0.024310678 -1.0847702 -0.9826812 -0.8255506 -0.8215803 0.21343674
-0.34409636 0.22336344 0.43762448 -0.6249325 -1.6409692 0.28018817 0.08757159 0.61664706
0.3988088 -1.0842234 -0.60411626 0.15817839 0.47573882 0.36090323 -0.039659426 -0.06810651
-1.2714267 -0.11414459 -0.0725954 -0.56451386 0.39125186 0.32217252 -0.12516528 0.18264148
0.62375116 0.5966015 0.36515847 0.38949057 -0.9003344 0.24674661 0.14195527 -1.370913

critic.2.weight f4 [32, 64]
00000000: 8fd1 32be 0559 3cbe 8645 5b3c a299 4bbe
00000010: 1387 ad3c 1da1 963e b2a2 88be d4bb b1be
00000020: 9072 b63e be36 26be 7cc6 a6be 8a07 f5bd
00000030: c69f f1be e0b3 b3be f75f 15bf 111c 4d3e
00000040: 730c debe deff 89be ef91 2ebe 3381 06bf
00000050: 41a6 2f3e c165 4b3e f9c5 18bf 6e81 9c3d
00000060: 5216 97be 26c6 8ebe a0fa 0cbe 24b3 dfbd
00000070: bf24 87b9 0602 a33d 010b f03c b8b0 bbbe
00000080: e071 75bd a6cc c1be 2aaf e0be 51ce 17bd
00000090: 5de5 0ebe 7735 90bd 90f4 b7be ade1 b8be
000000a0: 6250 13be 4053 843d 2615 dabe ce5e babe
000000b0: 340a 8d3d ecce b43c 9a16 7c3e 2a6d f2bd
000000c0: 2a11 bd3d 2a6c d5be fb02 2fbe a205 b7bc
000000d0: 2be6 92be 28ba b0bd afb3 97be 7cbd 023e
000000e0: ceac babd df06 8c3d c7e1 fabd a799 28bb
000000f0: 29b0 333c 2fcf e1bd 83d0 80be 193c 2d3e
00000100: 5d25 3abf 3b49 be3e 9d37 d43d f70a bcbe
00000110: bc0b 72bf 272c 0fc0 f0ea 31bf 083d d4bf
00000120: 6f2d 5f3f 831f e13c 9f72 a1be 673e d0bd
00000130: 5cf5 cbbe db09 c3be 569e 07bf c5cf 47bf
00000140: aab1 16be ea8d fd3d a1d1 9ebd 046b de3d
00000150: d3dc 183f 3b69 9c3e fb30 72bf ea9d e03e
00000160: bd95 04bd 2200 aabf fa6c cfbf 0193 a23e
00000170: 50f8 503f e4ab 3bbf 54a8 983d ac8d 2bbf
00000180: 53f1 11bf e3e0 8ebe 2d9b bbbf fe90 e93d
00000190: c999 35bf d33b 85bf bedc 12bd a2dc bfbe
000001a0: a070 1fbf 6b87 3c3f e736 d7bf 701f 993d
000001b0: 9325 fa3d d9d4 1cbf bebc e63e 5cf8 653f
000001c0: f017 21bd 4fc4 64bf fbd8 ae3e efc6 e83e
000001d0: 74cf 133e 82f7 3ebe 2ba7 b43f 3cf4 29c0
000001e0: c10c b6bf d520 2c3f 5d7c 62be 6aa2 573f
000001f0: 5598 51bd c2c9 d5be eaac 0abf 77a1 fe3e
00000200: 9148 06be c12d 093f 6765 42be dfec ff3e
00000210: 1b79 edbe 694d cb3c f104 a6be b87c 063f
00000220: e877 7a3e 69da 0bbe b968 b13e f6d7 78be
00000230: 24d4 193e 752a 2d3e a39c 5e3d 3d5c c8be
00000240: 36f2 98be 43d6 dcbd dabf 843e b427 bdbe
00000250: 6fbe 2e3e 5c3d eebe 99c8 663e 4309 8a3e
00000260: 336a 833e 048a 77be d9f0 11be 5568 28bf
00000270: bb44 c3be 6d65 28bd 70ec 253e 74ea dc3e
00000280: 89d9 6c3c efbf c13e f11b c33e 0194 9ebd
00000290: 383c 8a3f e1fe 8f3e 1c28 c23d 7615 8f3e
000002a0: 48b1 8c3e 62b3 9ebe 52e6 c53e 3187 db3e
000002b0: 5bca 913d f383 cb3c 71ec d93d f36b 22bf
000002c0: b400 73be 5e3e 09be 9aa5 3b3e 1fea bcbd
000002d0: fda0 2a3c 28b1 8b3e 61f1 15bf 9abc 343e
000002e0: 45db ac3e a4e9 06bd 8d62 833e 4fd8 8bbe
000002f0: 20bb ac3e a2f2 e03e dd51 03bb d6a7 2abf
00000300: bab2 3cbe 9f48 4a3e cc49 103e 5f71 10bf
00000310: bb21 6bbf 6b68 1dbf 7879 593e 52a0 84be
00000320: 081c b43e fbe0 71be dfb8 99bd 7f2a c43e
00000330: e0d2 c63e 092e 043e 1f5a 1abe 2b10 6abf
00000340: 84c0 f0bd 8ad7 b83e b50f babd 69f4 a7bf
00000350: ae8e 0cbf 150d 5ebf a687 593e 9b4d a93c
00000360: 4619 2c3f 97ba 103d 59d0 bebc 8ac6 84bf
00000370: 982e 42bf b250 9ebe f6d6 e2bd 4d1c d8bd
00000380: d06b bd3d 4afc f63e 716d c03e d4ab cabe
00000390: ad09 c1be d80c 8d3e 6467 11bd 2b72 67bd
000003a0: f552 56be f48f 6bbf 0ff5 f7bd b20c 123e
000003b0: 21a6 df3e 0d0e 61be 4cf9 a73d ba1d 4abe
000003c0: 36f8 86bf c92d b3bd bea0 d33e 40e8 0fbf
000003d0: a3d8 30be b695 d7be 0ba4 2fbf e878 b9be
000003e0: a0b5 083e 5506 8a3d 7856 e2bd 3cb4 26be
000003f0: 30db 6ebf e0ac 5d3e 3065 223e 69a0 b3bf
-0.17462753 -0.18393333 0.013383275 -0.19882825 0.021182572 0.29419795 -0.26686627 -0.34713614
0.3563428 -0.1623182 -0.32573307 -0.119643286 -0.4719221 -0.3509817 -0.58349556 0.20030238
-0.43368873 -0.26953024 -0.17047857 -0.5254089 0.17153265 0.19863035 -0.5967708 0.07641874
-0.29509217 -0.2788555 -0.13767481 -0.1092284 -0.00025776585 0.0795937 0.029302122 -0.36658263
-0.059923053 -0.37851447 -0.4388364 -0.037061993 -0.13954683 -0.070414476 -0.35928774 -0.36109677
-0.14386132 0.06461191 -0.4259426 -0.36400455 0.06886712 0.022071324 0.24617997 -0.11837228
0.092317894 -0.41684085 -0.1709098 -0.022341553 -0.2869123 -0.086292565 -0.29629275 0.12767595
-0.09114991 0.06837248 -0.12250095 -0.002572635 0.010967293 -0.11025845 -0.25159082 0.16917457
-0.7271326 0.37165245 0.1036217 -0.36727116 -0.94549155 -2.2370698 -0.6949911 -1.6581125
0.871787 0.027480846 -0.3153276 -0.10168152 -0.39835632 -0.38093457 -0.52975976 -0.78051406
-0.14716211 0.123805836 -0.07754827 0.10860255 0.5971195 0.30549034 -0.9460599 0.4387048
-0.032369364 -1.328129 -1.6205132 0.3175278 0.81628895 -0.7330916 0.07453981 -0.6701305
-0.57008857 -0.2790595 -1.4656731 0.11404608 -0.7093778 -1.0408882 -0.035855047 -0.37473017
-0.6228123 0.7364413 -1.681363 0.07476699 0.12214198 -0.6126228 0.45065874 0.8983209
-0.03932947 -0.89362043 0.34149918 0.45464274 0.14434606 -0.18649104 1.4113516 -2.655532
-1.4222642 0.672376 -0.22117753 0.842322 -0.051170666 -0.41755491 -0.54170096 0.49732563
-0.1311362 0.5358544 -0.18983994 0.49985406 -0.4638146 0.024817185 -0.32425645 0.52534056
0.24459803 -0.13657536 0.3465021 -0.24301133 0.15022331 0.16910727 0.0543486 -0.39132872
-0.29872292 -0.10783055 0.2592762 -0.36944354 0.17064832 -0.46531188 0.2253746 0.2696019
0.2566696 -0.24173743 -0.14252032 -0.657842 -0.38138375 -0.041112352 0.16203475 0.43147624
0.014456161 0.37841746 0.38107255 -0.07743073 1.0799627 0.28124145 0.094803065 0.2794606
0.27479005 -0.30996233 0.38652283 0.4287658 0.07118674 0.024843192 0.10640801 -0.6344597
-0.23730737 -0.13402697 0.1832489 -0.092243426 0.010414359 0.27283597 -0.5857144 0.17650071
0.3376104 -0.03293766 0.25661126 -0.27313468 0.33736515 0.43935114 -0.0020037808 -0.6666235
-0.18427554 0.19754265 0.14090651 -0.5642299 -0.91848344 -0.61487454 0.21237743 -0.25903565
0.35177636 -0.2362098 -0.075059645 0.38313672 0.3883276 0.12908186 -0.15073441 -0.9143092
-0.117554694 0.36101943 -0.09085027 -1.3121463 -0.5490521 -0.8673871 0.21243152 0.020666888
0.67226064 0.035334196 -0.023292707 -1.0373089 -0.75852346 -0.3092094 -0.11076157 -0.10552273
0.09249079 0.48239356 0.37583497 -0.3958422 -0.37702695 0.27548862 -0.03549899 -0.056505363
-0.20930083 -0.9201653 -0.12107288 0.14262655 0.43681434 -0.21978016 0.082018465 -0.19737902
-1.0544498 -0.08748967 0.41333574 -0.5621376 -0.1727014 -0.42106408 -0.68609685 -0.36225057
0.13350534 0.06739489 -0.11051649 -0.16279691 -0.93303204 0.21647978 0.15858912 -1.4033328

critic.2.bias f4 [32]
00000000: 6cc0 a7be ff71 b23d 1a8c c33e bd50 dd3e
00000010: 93f3 d73e d474 b83e 54c8 873d 480a 63be
00000020: 9ca8 053f 1559 273f 7409 3bbe 6c0a 80be
00000030: 84f6 093f 3a2e d03e 2e00 063f 053b b63e
00000040: 3460 60be b6ca d83e 216f dc3e 7fbf 0d3f
00000050: 7a3b 1b3f dd01 c33e a6ae 98be b9b1 3fbe
00000060: a38b 94be 6e64 7c3e b5ea a1be a09e e73e
00000070: fbf9 52be 73c7 e8bd 5048 babd 4b92 63be
-0.32763994 0.08713149 0.38192827 0.4322566 0.4217802 0.36026633 0.066300064 -0.2217189
0.522104 0.65370303 -0.18265325 -0.2500795 0.5389178 0.40660268 0.52344024 0.35591903
-0.21911699 0.42342156 0.43053535 0.55370325 0.6063763 0.3808736 -0.29820746 -0.1872014
-0.29012784 0.24647686 -0.3162438 0.4523821 -0.20603172 -0.11366167 -0.09095824 -0.22223775

critic.4.weight f4 [1, 32]
00000000: 061d dcbe 940d cabf ec0d 473e c9f2 d03e
00000010: 5d80 ae3e c4e1 013f a0a7 80be ba6e e4be
00000020: e993 d93e 5a91 133f 0404 85bf c7db debe
00000030: cb5c 1f3f 17c1 d63e 4bde a63e a8fd a23e
00000040: a70f b2be 21b5 d13e 1046 ca3e 56d6 b93e
00000050: 6c81 ee3e 9ef7 ff3e 48e8 0abf a9ff d3be
00000060: eaed 3ebf fc29 713e 159a 6abf 5578 da3e
00000070: 65e9 80bf d7ae bdbe ba3f f1bf 053d 42bf
-0.42990893 -1.5785394 0.19438905 0.4081023 0.34082308 0.50735116 -0.25127888 -0.44615728
0.4249566 0.57643664 -1.039185 -0.43527052 0.62250966 0.4194419 0.3259147 0.3183415
-0.34777567 0.40958503 0.39506578 0.36296338 0.46583116 0.49993604 -0.54260683 -0.4140599
-0.7458178 0.23551172 -0.9164136 0.4266993 -1.0071226 -0.37047455 -1.8847573 -0.7587436
