logs/exp/model_72.pt (torch, 34660 bytes, 12 tensors)

log_std f4 [3]
-0.2877695 -0.09199245 -0.13146104
00000000: 8656 93be 8a66 bcbd b99d 06be

actor.0.weight f4 [64, 24]
-0.38316318 0.019489205 0.5310211 -0.32940096 -0.31970525 -0.39387703 -0.22278196 -0.12529814
0.0601678 -0.4358354 -0.11975551 -0.20751064 -0.45543242 0.04304745 -0.30380166 -0.5306828
-0.14192116 -0.21354376 0.13274549 -0.6705634 -0.0016524266 -0.40944389 -0.16698511 -0.35688856
-0.08113276 0.060281564 0.046113614 0.24626988 -0.37699556 0.27088287 -0.09936025 0.26598275
-0.13336916 -0.044949308 -0.025500506 -0.24841121 0.14096996 -0.40737742 0.18220572 -0.24566916
-0.02809147 -0.40610617 -0.13272892 -0.37030903 -0.29119176 -0.20247212 0.024510723 -0.29610443
-0.025403954 -0.183927 0.1418758 -0.39330453 0.07511201 0.31023407 0.1308356 -0.23602754
0.44902357 -0.038533103 0.18555951 -0.15083686 0.19835156 -0.13996983 0.39944273 -0.34285194
-0.32009086 -0.061657894 -0.1930395 0.06526885 -0.043531146 -0.0054791933 -0.10056418 -0.34403303
-0.42018813 0.22381215 -0.0048403773 -0.12989187 0.0053251446 -0.091512084 -0.005425257 -0.45433095
0.23232858 0.052288022 -0.06635243 -0.013012433 0.16582586 0.13765797 0.18069215 -0.36322573
0.04787672 -0.096682854 0.05797499 0.006214099 0.092028074 -0.22867946 -0.12970099 0.047552966
-0.21257894 -0.0038975535 0.13619728 -1.0998683 0.49355027 0.8196327 -0.007900267 0.08480299
-0.12425246 0.03981869 -0.052942164 -0.14653689 -0.16122507 -0.12438377 -0.28847054 -0.13739303
-0.19610058 -0.09703371 -0.0890004 -0.024635712 0.07773184 -0.33150262 0.015481309 -0.3005527
-0.5215885 -0.14453569 0.104524486 -0.15858822 -0.2507291 0.6081836 0.1782511 0.11144051
0.039235752 0.25417405 -0.032530658 0.21793768 0.037868578 0.1501052 -0.022691192 0.4446036
-0.10074746 0.24022104 0.17470628 -0.011760031 -0.111678414 0.041813686 -0.025317047 0.157915
0.05771929 0.4493124 -0.23223455 -0.56758386 0.51266086 -0.09744825 0.752491 -0.3219022
0.6343002 -0.094326004 0.39657587 0.013688867 0.21126674 0.008598952 0.4958336 0.31380472
-0.20403276 0.27486837 -0.0864926 0.0139241265 -0.08326149 0.33400735 -0.070549294 0.19284366
0.06281702 0.058274735 -0.12586865 -1.4080003 -0.06533988 -0.13260823 -0.3554172 0.1509186
-0.007836491 0.11367807 0.15272425 0.22333582 -0.16330788 -0.05168453 0.020801784 0.027034052
0.35182336 -0.06309081 -0.13346952 0.004684463 -0.24566118 0.1813684 -0.35790634 0.3580433
0.012697344 0.07640396 0.025298377 0.41827527 0.6508433 0.19567047 0.17797504 -0.01786479
0.4849983 -0.025162851 -0.12188754 0.0648518 0.14742482 0.12780274 -0.17809188 -0.21675527
-0.08302957 -0.27657804 0.03244877 -0.34413305 0.043651074 -0.2836084 -0.3338055 -0.30657718
0.078265294 0.12385548 0.016295472 -1.1167929 -0.52899057 -0.4664892 -0.30520767 0.023833852
-0.3456859 -0.21482462 -0.4514262 0.069105916 -0.35620856 0.09698161 -0.42274386 0.22496466
-0.3785268 -0.32945946 -0.2795084 0.028725378 -0.28626233 -0.021840984 0.053546604 -0.016030874
-0.32691208 -0.21108954 -0.21857856 -0.19088705 -0.21293615 0.047573917 0.27150318 0.34056526
0.35725173 -0.0105905915 0.0057694316 -0.0417402 0.11636559 0.14182372 0.2128341 0.122025244
00000000: f72d c4be d3a7 9f3c 00f1 073f 3ea7 a8be
00000010: 68b0 a3be 40aa c9be f420 64be 284e 00be
00000020: 8372 763d d125 dfbe 6042 f5bd ab7d 54be
00000030: 702e e9be 8652 303d e48b 9bbe d4da 07bf
00000040: c853 11be 37ab 5abe 6fee 073e 0baa 2bbf
00000050: 3c96 d8ba a1a2 d1be 25fe 2abe 19ba b6be
00000060: ef28 a6bd cde9 763d a1e1 3c3d 2c2e 7c3e
00000070: 9005 c1be 29b1 8a3e 637d cbbd e42e 883e
00000080: ed91 08be c41c 38bd 70e6 d0bc 825f 7ebe
00000090: 6e5a 103e c693 d0be 2394 3a3e b290 7bbe
000000a0: 1520 e6bc 26ed cfbe 17ea 07be 2599 bdbe
000000b0: 1617 95be da54 4fbe b6ca c83c 009b 97be
000000c0: f41b d0bc 5c57 3cbe e447 113e 365f c9be
000000d0: 53d4 993d 00d7 9e3e c4f9 053e 34b1 71be
000000e0: 6be6 e53e e3d4 1dbd 5003 3e3e fa74 1abe
000000f0: ac1c 4b3e 4054 0fbe c283 cc3e 4a8a afbe
00000100: f3e2 a3be fd8c 7cbd 26ac 45be adab 853d
00000110: b74d 32bd ce8a b3bb 98f4 cdbd 1925 b0be
00000120: e622 d7be 032f 653e 079c 9ebb 6002 05be
00000130: 8d7e ae3b b06a bbbd 5bc6 b1bb 119e e8be
00000140: 8be7 6d3e f72b 563d c8e3 87bd 1a32 55bc
00000150: 41ce 293e 36f6 0c3e 5d07 393e b9f8 b9be
00000160: 611a 443d a901 c6bd 2f77 6d3d a49f cb3b
00000170: 3779 bc3d f32a 6abe 56d0 04be e6c6 423d
00000180: 4bae 59be 196e 7fbb 4d77 0b3e 7cc8 8cbf
00000190: 9fb2 fc3e 73d3 513f 1f70 01bc 31ad ad3d
000001a0: 1378 febd ec18 233d e2d9 58bd c40d 16be
000001b0: 2f18 25be ebbc febd 69b2 93be c2b0 0cbe
000001c0: 97ce 48be 9cb9 c6bd d745 b6bd d5d0 c9bc
000001d0: df31 9f3d b6ba a9be 51a5 7d3c 0be2 99be
000001e0: d386 05bf 2a01 14be ef10 d63d f364 22be
000001f0: 915f 80be ecb1 1b3f 7587 363e ec3a e43d
00000200: abb5 203d 1a23 823e de3e 05bd 0e2b 5f3e
00000210: 151c 1b3d 2db5 193e e1e2 b9bc 15a3 e33e
00000220: af54 cebd 81fc 753e 34e6 323e 25ad 40bc
00000230: a7b7 e4bd d444 2b3d b265 cfbc 78b4 213e
00000240: 106b 6c3d 460c e63e e5ce 6dbe 2d4d 11bf
00000250: be3d 033f f392 c7bd 40a3 403f 5dd0 a4be
00000260: 7f61 223f fe2d c1bd fe0b cb3e 4547 603c
00000270: 4f56 583e 9ee2 0c3c e7dd fd3e 03ab a03e
00000280: f7ed 50be 8cbb 8c3e 0823 b1bd 0522 643c
00000290: 0085 aabd 0303 ab3e 267c 90bd cf78 453e
000002a0: 36a6 803d 7db1 6e3d b6e3 00be 5b39 b4bf
000002b0: ead0 85bd 74ca 07be 3ef9 b5be 688a 1a3e
000002c0: a064 00bc 0cd0 e83d bf63 1c3e 25b2 643e
000002d0: 2e3a 27be 28b3 53bd 8168 aa3c 8476 dd3c
000002e0: 3122 b43e c135 81bd 3cac 08be 2080 993b
000002f0: 9b8e 7bbe a3b8 393e 803f b7be 7451 b73e
00000300: 8508 503c ae79 9c3d 8b3e cf3c 2d28 d63e
00000310: ab9d 263f d75d 483e 173f 363e 2e59 92bc
00000320: b251 f83e 5322 cebc 2da0 f9bd 05d1 843d
00000330: 88f6 163e b9de 023e b85d 36be 18f5 5dbe
00000340: 680b aabd a39b 8dbe 00e9 043d 3532 b0be
00000350: 78cb 323d 1f35 91be 8ee8 aabe aff7 9cbe
00000360: 8e49 a03d f1a7 fd3d 157e 853c 12f3 8ebf
00000370: ed6b 07bf acd7 eebe 2e44 9cbe 363f c33c
00000380: befd b0be fcfa 5bbe 5621 e7be 6787 8d3d
00000390: f860 b6be 4b9e c63d e271 d8be 235d 663e
000003a0: 44ce c1be e9ae a8be ba1b 8fbe 7c51 eb3c
000003b0: fa90 92be ddeb b2bc af53 5b3d 2e53 83bc
000003c0: 0561 a7be db27 58be 0fd3 5fbe e577 43be
000003d0: ef0b 5abe dedc 423d 7702 8b3e 925e ae3e
000003e0: b3e9 b63e 2984 2dbc 800d bd3b c6f7 2abd
000003f0: 1551 ee3d 3d3a 113e 2ff1 593e 5fe8 f93d

actor.0.bias f4 [64]
0.124941245 -0.06218568 -0.26088363 -0.14269574 -0.024202758 -0.045019828 -0.19286746 -0.033069752
-0.43432423 -0.36330125 -0.053010628 -0.24191985 -0.14690642 0.11088478 -0.25262403 0.012686552
0.1152167 -0.20400882 0.054565385 -0.2205638 -0.011269513 -0.41657147 -0.17860307 -0.2055228
-0.24098004 -0.455193 -0.15212396 0.35462773 -0.14884542 -0.14070979 -0.40457866 -0.41579956
-0.25503466 -0.341208 -0.08605222 -0.2228715 -0.65542144 0.069126084 -0.3748609 -0.07069561
-0.15951528 -0.29957262 -0.2011813 0.097704805 -0.100520745 0.07538812 -0.1922902 -0.29005077
-0.020302657 -0.4115148 -0.09932053 -0.30008292 -0.42816317 -0.08096647 -0.2675579 -0.24347402
0.07516283 -0.06492322 -0.051795635 -0.4710826 -0.39453343 0.03408601 0.18664315 -0.2059308
00000000: 32e1 ff3d 69b6 7ebd 8a92 85be d51e 12be
00000010: dd44 c6bc b666 38bd 0c7f 45be 2674 07bd
00000020: bf5f debe 9f02 babe ac21 59bd d6b9 77be
00000030: a36e 16be 8f17 e33d f057 81be 41db 4f3c
00000040: bcf6 eb3d b0e7 50be f47f 5f3d 7adb 61be
00000050: c3a3 38bc db48 d5be b9e3 36be 9274 52be
00000060: 79c3 76be 0f0f e9be 62c6 1bbe c491 b53e
00000070: ef6a 18be 3a16 10be ef24 cfbe aee3 d4be
00000080: e793 82be d1b2 aebe 253c b0bd 6d38 64be
00000090: b3c9 27bf fa91 8d3d c5ed bfbe dcc8 90bd
000000a0: f957 23be 9561 99be 7902 4ebe 7519 c83d
000000b0: d2dd cdbd 1665 9a3d b9e7 44be 8981 94be
000000c0: c251 a6bc 11b2 d2be 9068 cbbd 78a4 99be
000000d0: 3438 dbbe c0d1 a5bd 59fd 88be 4151 79be
000000e0: f8ee 993d 77f6 84bd a927 54bd bd31 f1be
000000f0: 4900 cabe c69d 0b3d 621f 3f3e 86df 52be

actor.2.weight f4 [32, 64]
-0.17108643 -0.08759042 -0.354281 -0.1185262 0.18401688 -0.08262932 -0.38138768 -0.06154345
-0.29213622 -0.37383705 0.023785647 -0.34565046 0.023224402 -0.44960195 -0.34926748 -0.23311476
-0.32448366 0.51691455 -0.35313013 -0.33927947 0.07918728 0.089305386 0.1125921 -0.23733447
0.22370137 0.099423565 0.2503118 -0.5202764 -0.16590047 -0.04017708 -0.3140639 -0.08712637
-0.3069825 0.07472203 -0.011641816 0.16986622 0.019922702 -0.35105473 -0.015057573 0.14194247
-0.055722803 0.17859091 -0.05352348 -0.32459795 -0.0759175 -0.40320906 0.081547946 -0.2479858
0.16537301 -0.18406092 -0.4010568 0.3224422 -0.061484553 0.061605725 -0.042558085 0.043598253
0.26159066 -0.25209078 0.21031712 0.24336104 0.21484795 -0.35693318 -0.42153326 0.2534988
-1.0335562 0.45177296 -0.063423365 -0.15755215 -0.10850641 -0.20050055 -0.37397206 0.15585527
0.1845967 0.11966211 -0.43869567 -0.06317419 -0.05368495 -0.50053924 0.068527445 -1.1113657
-0.019161094 0.23900013 0.18040669 -0.18150148 -0.17232949 -0.064418085 -0.028080994 -0.20119543
-0.0659061 -0.005090862 -0.009911986 -0.18212873 -0.43310356 -0.4269457 -0.02388147 -0.18500502
-0.10579766 0.23128378 -0.3205977 0.0651474 0.06025043 -0.07350406 0.091320515 -0.042195443
-0.18308954 -0.06413773 0.12436698 -0.09183312 -0.16340922 -0.09162008 0.03256433 0.24813722
0.039930906 0.08670037 -0.22055362 -0.7202634 0.033718113 -0.14296469 -0.20128523 -0.20943034
-0.26806232 0.0382486 -0.21808828 -0.095117606 0.27817357 -0.23870654 -0.21544996 0.04063556
-0.63986534 -0.13552454 -0.027570734 -0.16668744 -0.2593367 0.042926088 -0.21413325 -0.007328606
-0.10224789 -0.092830196 -0.047434796 -0.43639863 0.067048945 -0.2958969 -0.25552672 -0.32480642
-0.06821056 0.090044044 0.13122888 -0.06421951 -0.29715142 0.22779994 -0.15678287 -0.11967197
-0.25666618 -0.15761745 -0.03610254 0.22092943 -0.13269173 -0.060530733 0.035113458 -0.12653917
0.027470252 -0.116138905 -0.032151278 -0.15030837 0.107736774 -0.23122273 -0.0066359513 -0.15735191
-0.13676177 -0.005627751 -0.22558643 0.25305688 -0.4349667 0.07635557 0.10406031 0.3187915
0.1677722 0.008376416 -0.08509014 0.3359708 -0.036373418 -0.10981382 0.097657576 -0.14837036
0.29731214 -0.22333421 0.05723582 0.22175156 0.28416634 -0.068876214 0.21174943 -0.3775305
-0.29694754 -0.1113523 0.012595173 0.04372504 0.10171432 0.31921256 0.36388388 0.14563264
0.060023416 -0.5051576 -0.10879053 -0.16338065 -0.23007615 -0.5485624 -0.35931423 -0.2462568
0.14923684 -0.034157444 -0.08794889 -0.25780046 -0.48158717 -0.051432163 0.2644448 0.05278178
0.38283134 0.3812362 0.34451583 0.26367906 0.20611767 -0.055310346 -0.18272877 -0.07984225
0.296363 -0.35069275 -0.08750602 -0.11594276 0.029857218 -0.9631088 -0.09593446 0.3201856
-0.21492405 0.056103453 0.04568868 0.2822077 -0.30649313 0.14347574 0.3574369 0.013010435
0.027278755 -0.26205438 -0.27916697 -0.15991007 0.20140237 -0.18523632 -0.006617427 -0.053204887
0.5146281 0.116253205 0.18394147 0.11876689 0.33392066 0.03420453 -0.20125617 0.030562636
00000000: 4831 2fbe 9b62 b3bd 5264 b5be ddbd f2bd
00000010: ec6e 3c3e 9039 a9bd 3f45 c3be fc14 7cbd
00000020: e192 95be 9267 bfbe 1eda c23c 19f9 b0be
00000030: 1a41 be3c 3a32 e6be 30d3 b2be a3b5 6ebe
00000040: b922 a6be 8354 043f 79cd b4be 0ab6 adbe
00000050: f12c a23d bee5 b63d b096 e63d cf07 73be
00000060: f911 653e 959e cb3d de28 803e d630 05bf
00000070: d0e1 29be b990 24bd fccc a0be 4f6f b2bd
00000080: cf2c 9dbe dd07 993d 51bd 3ebc 69f1 2d3e
00000090: ef34 a33c 72bd b3be 0ab4 76bc 5e59 113e
000000a0: 983d 64bd 89e0 363e 703b 5bbd b431 a6be
000000b0: a27a 9bbd 6b71 cebe 9c02 a73d fdef 7dbe
000000c0: 8b57 293e 777a 3cbe 5157 cdbe 2517 a53e
000000d0: 3ad7 7bbd 4956 7c3d 6351 2ebd 1594 323d
000000e0: 36ef 853e 0b12 81be 5f5d 573e a333 793e
000000f0: 1a01 5c3e f2bf b6be 35d3 d7be 98ca 813e
00000100: 924b 84bf c94e e73e 1ce4 81bd 5a55 21be
00000110: 9c38 debd 0450 4dbe 4479 bfbe 8698 1f3e
00000120: eb06 3d3e 6911 f53d b89c e0be 7861 81bd
00000130: c0e4 5bbd 5723 00bf 1e58 8c3d 3b41 8ebf
00000140: baf7 9cbc 73bc 743e 88bc 383e 86db 39be
00000150: 2477 30be a1ed 83bd 1d0a e6bc 2d06 4ebe
00000160: c7f9 86bd 3fd1 a6bb e265 22bc f47f 3abe
00000170: c0bf ddbe a098 dabe 13a3 c3bc f571 3dbe
00000180: 72ac d8bd a8d5 6c3e 6225 a4be 006c 853d
00000190: 28c9 763d 4c89 96bd 4006 bb3d 21d5 2cbd
000001a0: d37b 3bbe a45a 83bd 1db4 fe3d 0113 bcbd
000001b0: bf54 27be 4fa3 bbbd 2d62 053d af17 7e3e
000001c0: 978e 233d f78f b13d cfd8 61be 2f63 38bf
000001d0: 011c 0a3d 5665 12be b71d 4ebe e874 56be
000001e0: 773f 89be 90aa 1c3d 8952 5fbe 05cd c2bd
000001f0: c46c 8e3e 7d6f 74be ea9e 5cbe 7971 263d
00000200: 37ce 23bf f2c6 0abe 05dc e1bc 1db0 2abe
00000210: c8c7 84be 44d3 2f3d bf45 5bbe ce24 f0bb
00000220: 5767 d1bd c21d bebd fd4a 42bd a46f dfbe
00000230: f550 893d cc7f 97be 66d4 82be 074d a6be
00000240: fab1 8bbd 0369 b83d dd60 063e 8585 83bd
00000250: 3b24 98be 6344 693e b08b 20be 9416 f5bd
00000260: c069 83be 7866 21be 42e0 13bd 533b 623e
00000270: 57e0 07be 13ef 77bd 21d3 0f3d 7c93 01be
00000280: 4b09 e13c 3cda edbd 0fb1 03bd 70ea 19be
00000290: 19a5 dc3d a7c5 6cbe 6572 d9bb dc20 21be
000002a0: 470b 0cbe ff68 b8bb 2100 67be ac90 813e
000002b0: f5b3 debe 4f60 9c3d 921d d53d a438 a33e
000002c0: 7acc 2b3e 3c3d 093c bd43 aebd 5d04 ac3e
000002d0: 4bfc 14bd 11e6 e0bd b200 c83d 66ee 17be
000002e0: 4c39 983e b9b1 64be 1b70 6a3d d712 633e
000002f0: 407e 913e f90e 8dbd d8d4 583e ad4b c1be
00000300: 8209 98be ad0c e4bd fc5b 4e3c 0719 333d
00000310: 994f d03d d46f a33e fd4e ba3e b920 153e
00000320: 1ddb 753d 0252 01bf 92cd debd 424d 27be
00000330: 1599 6bbe 966e 0cbf 09f8 b7be be2a 7cbe
00000340: 8bd1 183e ade8 0bbd 8c1e b4bd 6cfe 83be
00000350: 9892 f6be 88aa 52bd 4f65 873e b531 583d
00000360: 7802 c43e 6431 c33e 6164 b03e f100 873e
00000370: 8310 533e 1a8d 62bd 401d 3bbe 5584 a3bd
00000380: e4bc 973e 008e b3be 5b36 b3bd 6673 edbd
00000390: 2097 f43c 4c8e 76bf 4979 c4bd 5eef a33e
000003a0: 0d15 5cbe bccc 653d 0e24 3b3d 877d 903e
000003b0: abec 9cbe 4eeb 123e f801 b73e b829 553c
000003c0: b277 df3c fe2b 86be f9ee 8ebe 77bf 23be
000003d0: 6c3c 4e3e 97ae 3dbe 00d7 d8bb 5eed 59bd
000003e0: abbe 033f 2916 ee3d 275b 3c3e 0e3c f33d
000003f0: a6f7 aa3e 0d1a 0c3d 1916 4ebe 7e5e fa3c

actor.2.bias f4 [32]
-0.27009177 -0.14768021 -0.20831272 -0.28334412 -0.02862223 -0.0039286315 -0.2396614 0.058181353
0.10943964 0.037600048 -0.050308328 -0.2927954 -0.1630929 0.08094366 -0.037781566 -0.1372018
-6.5353735e-05 -0.17160386 -0.08974212 -0.12037582 -0.24378416 -0.08935452 -0.120920405 0.058401577
-0.08455565 -0.13495561 -0.20552331 -0.28464118 -0.20733768 -0.13917367 -0.1835109 -0.04481979
00000000: 7849 8abe 7b39 17be ee4f 55be 7b12 91be
00000010: 2b79 eabc c0bb 80bb cc69 75be 924f 6e3d
00000020: e421 e03d 8202 1a3d 1b10 4ebd 47e9 95be
00000030: d301 27be cac5 a53d d8c0 1abd a17e 0cbe
00000040: 850e 89b8 ecb8 2fbe b7ca b7bd 9987 f6bd
00000050: 8ea2 79be 81ff b6bd 1ea5 f7bd 7e36 6f3d
00000060: 832b adbd ce31 0abe b474 52be 7dbc 91be
00000070: 5450 54be 8b83 0ebe 48ea 3bbe f594 37bd

actor.4.weight f4 [3, 32]
0.021006443 -0.044045445 -0.07567219 0.058588386 -0.07788683 0.01599358 0.09102956 -0.019788278
-0.07258626 0.010630266 -0.0015733216 0.038133834 -0.04771474 0.003115084 0.030727236 0.007501907
-0.039345954 -0.0012126814 -0.0018685707 -0.00976398 0.08641496 -0.013269782 -0.09977219 -0.08443792
0.00078940723 0.017406566 0.035053622 0.0030338392 0.062048815 0.063733645 0.010076767 0.005920823
0.06367255 0.048117675 -0.031017061 -0.009412205 0.020069392 0.02206203 -0.009828747 0.0065022907
-0.06265455 0.0110407155 -0.030474106 0.030835927 -0.09812781 -0.0031770873 0.018560922 0.080747
0.011375287 0.025072468 -0.0014849992 0.012051233 0.040939566 -0.021877984 0.044832747 0.054541968
0.010197925 0.03641823 -0.020945722 0.17496453 -0.040409844 -0.09079065 0.03024622 -0.077457584
-0.04954239 -0.0602294 -0.0055353795 0.06889837 -0.0059197424 -0.03619192 0.05141716 -0.045391537
0.0869534 0.0103440685 -0.043351088 -0.06082994 0.09700824 0.0044483137 0.06689873 0.040450595
0.03996792 0.017741837 -0.052936368 -0.024850497 -0.0075461715 0.040673114 0.0681579 0.010474329
0.006832924 0.05069829 0.06707787 -0.039446082 -0.08646872 0.115887545 -0.016363697 0.00024487605
00000000: b415 ac3c ff68 34bd 05fa 9abd 60fa 6f3d
00000010: 2183 9fbd f804 833c b56d ba3d 071b a2bc
00000020: 1ba8 94bd 912a 2e3c ea37 ceba 3932 1c3d
00000030: 8870 43bd 7026 4c3b afb7 fb3c 8fd2 f53b
00000040: 3929 21bd d6f2 9eba d4ea f4ba 1af9 1fbc
00000050: 54fa b03d 8069 59bc 5d55 ccbd caed acbd
00000060: 39f0 4e3a 3798 8e3c 6394 0f3d 60d3 463b
00000070: e626 7e3d c986 823d 0619 253c 7703 c23b
00000080: c166 823d 0a17 453d 7e17 febc a635 1abc
00000090: 9168 a43c 6ebb b43c c108 21bc 2b11 d53b
000000a0: 0751 80bd 1ee4 343c d5a4 f9bc a09b fc3c
000000b0: 3cf7 c8bd ae36 50bb 130d 983c af5e a53d
000000c0: 695f 3a3c c764 cd3c 4ea4 c2ba 8972 453c
000000d0: 3fb0 273d 7539 b3bc 8ba2 373d 6667 5f3d
000000e0: 3315 273c 482b 153d 5d96 abbc e729 333e
000000f0: cb84 25bd 73f0 b9bd ecc6 f73c 15a2 9ebd
00000100: f6ec 4abd 1ab3 76bd 2162 b5bb 971a 8d3d
00000110: 66fa c1bb fb3d 14bd cd9a 523d 7aec 39bd
00000120: a014 b23d 2b7a 293c e990 31bd d128 79bd
00000130: 42ac c63d 29c3 913b 3402 893d 86af 253d
00000140: 67b5 233d 5457 913c ced3 58bd 4593 cbbc
00000150: e045 f7bb da98 263d 5e96 8b3d 859c 2b3c
00000160: b9e6 df3b 03a9 4f3d 1f60 893d 3792 21bd
00000170: 8316 b1bd 7356 ed3d 290d 86bc b562 8039

actor.4.bias f4 [3]
0.10501858 -0.073670655 0.15005763
00000000: fb13 d73d a4e0 96bd b5a8 193e

critic.0.weight f4 [64, 24]
-0.41435248 0.017586356 -0.76910186 -0.75752294 0.079224624 0.032159194 -0.05225286 0.10945259
-0.2872005 0.18602559 0.061545722 0.30383232 0.08497606 0.39689273 0.12248496 -0.07933634
0.18745713 0.31929117 -0.22582075 -0.2936386 -0.063594274 -0.106425695 0.21982594 -0.24168026
-0.28208873 -0.058428407 0.28340027 0.37611282 0.2546284 -1.176143 0.039210837 -1.3637266
0.40840355 -1.0430684 0.54484296 -1.1687016 0.55639315 -0.7431554 0.34114546 -1.1028354
-0.116083525 -0.5639972 -8.0634956e-05 -0.6125195 0.19784608 -0.62362564 -0.33844352 -0.66530305
-0.45292705 0.11721114 -0.21751311 -0.4963733 -1.4568248 -0.13019161 -0.29095295 0.4255828
0.1466949 0.62542945 0.3794826 0.6178863 -0.10862324 0.92881906 0.30534312 0.43269596
0.15753378 0.39165828 0.23460668 0.5487661 -0.06554045 0.43574867 0.27762508 0.31564116
0.31334135 -0.016149113 0.0049674073 -0.443654 -0.69750947 -0.31342724 0.7033839 -0.48112214
0.98116106 -0.48000833 0.8008657 -0.15689115 0.64306885 -0.46872288 0.3448046 -0.2951033
0.46176845 -0.023732318 0.23144561 -0.22203821 -0.114674784 -0.31119418 0.55401504 -0.08826703
-0.6898428 -0.1978368 -0.63219774 -0.6755742 -0.17600302 1.1340295 0.121459045 1.3930638
0.056761164 1.1485071 0.15098827 1.2690432 0.4059522 0.8901215 0.64554155 1.0414739
0.5566812 0.4926131 0.122807495 0.846769 0.65084106 0.7439205 0.46463537 0.3656596
0.3639655 -0.13568844 -0.058302768 0.121810585 -1.8417962 0.005946457 -0.8188109 0.085095465
-0.35376972 -0.17200957 -0.44672015 0.54419833 -0.462285 0.5884202 -0.084371395 0.52023435
-0.14714245 0.5111887 -0.06571451 0.44173506 0.35868418 0.22763966 0.25724244 0.4651172
0.20163895 0.16227248 -0.4836252 -0.19432963 -0.122456044 0.91702235 -0.8480123 0.35027874
-0.60258 0.008270574 -0.7223689 -0.26483774 -0.31737328 -0.33515462 -0.3367389 -0.579669
-0.2512588 -0.5359361 -0.24790712 -0.50710016 -0.14665413 -0.6555555 -0.39288384 -0.6308757
0.043842133 0.29473853 -0.50060076 -0.32227546 -1.1818082 -0.29803044 -0.3553952 -0.94206536
-0.12816863 -0.7390258 0.5145078 -0.9609319 0.19403443 -0.9069992 0.1446221 -0.16542706
0.30601695 -0.6359851 0.37371415 -0.40660614 0.27275112 -0.15877391 0.05043648 -0.15534522
-1.08378 -0.1442597 0.16326815 -1.311269 -1.1329627 -3.7752216 -0.18438388 -1.807079
0.17900042 -0.8350442 0.41668326 -0.39023554 -0.09209311 -0.013328347 0.20463917 0.33612195
-0.07274544 0.060888562 -0.1756835 0.13741869 -0.023012087 0.39074627 -0.08619382 0.7194991
0.016446065 -0.13992211 -0.08849155 -0.3120787 -0.027310725 0.62981427 -0.7019573 0.061209884
-0.24743465 -0.16195978 -0.37881854 0.13715228 -0.35695636 -0.058602463 -0.23749755 -0.405451
0.082382925 -0.5319112 -0.08835742 -0.3029632 -0.2208447 -0.2100517 -0.030290127 -0.14689942
0.13695125 -0.07472965 -0.41933253 -0.054753415 0.7695524 1.2013288 0.057975754 0.19040515
-0.3083275 -0.11986216 -0.26966953 -0.07014989 -0.37574276 -0.3164171 -0.24168012 -0.36256382
00000000: 0226 d4be 4311 903c dce3 44bf 06ed 41bf
00000010: 8540 a23d 5cb9 033d 1807 56bd ae28 e03d
00000020: f20b 93be 7e7d 3e3e 5e17 7c3d e98f 9b3e
00000030: ee07 ae3d 8635 cb3e 65d9 fa3d 177b a2bd
00000040: c3f4 3f3e 227a a33e 8e3d 67be cc57 96be
00000050: b73d 82bd b7f5 d9bd 0d1a 613e 087b 77be
00000060: ef6d 90be a052 6fbd d719 913e dc91 c03e
00000070: a75e 823e db8b 96bf 8b9b 203d 988e aebf
00000080: 451a d13e 4483 85bf d47a 0b3f 0498 95bf
00000090: c86f 0e3f 6f3f 3ebf 9eaa ae3e b629 8dbf
000000a0: 33bd edbd 1f62 10bf 901a a9b8 14ce 1cbf
000000b0: 2a98 4a3e eea5 1fbf 7848 adbe 4d51 2abf
000000c0: 0ee6 e7be 650c f03d c2bb 5ebe a424 febe
000000d0: 3c79 babf f350 05be c9f7 94be fde5 d93e
000000e0: 3037 163e 251c 203f 8b4b c23e cc2d 1e3f
000000f0: dc75 debd 16c7 6d3f ef55 9c3e 538a dd3e
00000100: 8950 213e 6f87 c83e bc3c 703e ef7b 0c3f
00000110: 123a 86bd 731a df3e e024 8e3e b89b a13e
00000120: 476e a03e 254b 84bc a2c5 a23b 9e26 e3be
00000130: fb8f 32bf 8979 a0be f810 343f a455 f6be
00000140: 5f2d 7b3f a7c3 f5be 8905 4d3f 13a8 20be
00000150: 29a0 243f 72fc efbe 3b8a b03e c817 97be
00000160: ea6c ec3e 476a c2bc 1400 6d3e fc5d 63be
00000170: 9dda eabd d854 9fbe eed3 0d3f 58c5 b4bd
00000180: 8a99 30bf bb95 4abe b6d7 21bf 6ef2 2cbf
00000190: 233a 34be e127 913f 85bf f83d ea4f b23f
000001a0: 657e 683d 4802 933f ab9c 1a3e 0270 a23f
000001b0: f7d8 cf3e 01df 633f 3642 253f 044f 853f
000001c0: a982 0e3f c937 fc3e 7f82 fb3d dac5 583f
000001d0: 859d 263f 9371 3e3f b0e4 ed3e bc37 bb3e
000001e0: b059 ba3e e9f1 0abe e2ce 6ebd d477 f93d
000001f0: fabf ebbf 7fda c23b 979d 51bf 8846 ae3d
00000200: 4e21 b5be 4723 30be 81b8 e4be 9550 0b3f
00000210: 9fb0 ecbe b5a2 163f e9ca acbd 142e 053f
00000220: 83ac 16be 43dd 023f 5495 86bd 192b e23e
00000230: 74a5 b73e 5f1a 693e 48b5 833e d723 ee3e
00000240: 717a 4e3e c22a 263e b99d f7be 59fe 46be
00000250: 3cca fabd fac1 6a3f 5617 59bf bc57 b33e
00000260: af42 1abf 4d81 073c 2bed 38bf d098 87be
00000270: c07e a2be 6399 abbe 0b69 acbe 3065 14bf
00000280: fea4 80be 1c33 09bf 5ddb 7dbe 51d1 01bf
00000290: 802c 16be 7cd2 27bf 1228 c9be 1281 21bf
000002a0: cf93 333d f8e7 963e 5f27 00bf 4a01 a5be
000002b0: 7e45 97bf 7297 98be 5cf6 b5be 322b 71bf
000002c0: a33e 03be cb30 3dbf c8b6 033f a2ff 75bf
000002d0: f6b0 463e 1931 68bf d117 143e b665 29be
000002e0: 41ae 9c3e ebcf 22bf 7657 bf3e ae2e d0be
000002f0: 09a6 8b3e a195 22be 7c96 4e3d d112 1fbe
00000300: 4eb9 8abf d1b8 13be c42f 273e aad7 a7bf
00000310: ec04 91bf 3b9d 71c0 21cf 3cbe 5d4e e7bf
00000320: e34b 373e 75c5 55bf 8257 d53e f4cc c7be
00000330: 509b bcbd 245f 5abc ee8c 513e 2d18 ac3e
00000340: 90fb 94bd 4966 793d 60e6 33be 7cb7 0c3e
00000350: d883 bcbc e50f c83e 6386 b0bd 1831 383f
00000360: e6b9 863c be47 0fbe 0f3b b5bd c8c8 9fbe
00000370: beba dfbc 823b 213f 79b3 33bf 37b7 7a3d
00000380: 825f 7dbe c9d8 25be 81f4 c1be a671 0c3e
00000390: fcc2 b6be 2309 70bd 8f32 73be 4697 cfbe
000003a0: 61b8 a83d 552b 08bf bcf4 b4bd fe1d 9bbe
000003b0: 1d25 62be cb17 57be 0023 f8bc cd6c 16be
000003c0: f33c 0c3e dc0b 99bd c1b2 d6be 1e45 60bd
000003d0: 6301 453f 24c5 993f fc77 6d3d 91f9 423e
000003e0: 1add 9dbe 4b7a f5bd 2012 8abe bfaa 8fbd
000003f0: 5b61 c0be 6c01 a2be fe7a 77be f7a1 b9be

critic.0.bias f4 [64]
-0.60665333 -0.43814704 0.20186603 0.209623 -0.45571885 0.3441946 -0.115435526 0.45793903
0.6750218 0.23002422 0.52193576 -0.5152732 0.593753 0.3443654 0.17667302 -0.5533149
0.74921167 0.19296944 -0.7228687 -1.535556 -0.87418705 -1.0200613 0.4564332 0.22318459
-0.043423094 -0.21590325 0.072065935 -1.1573938 -1.2921885 -0.9074111 -0.88900816 0.21420959
-0.412348 0.23659773 0.4394324 -0.6809332 -2.2662034 0.3458458 0.08713224 0.627755
0.3985193 -1.2093763 -0.74649405 0.15724468 0.5096665 0.35106972 -0.2273791 -0.16932558
-1.3782033 -0.17297609 -0.17532764 -0.71887934 0.34854573 0.32609186 -0.25496578 0.18221939
0.58138686 0.5569392 0.3183501 0.42358357 -0.9814881 0.2559952 0.17434716 -1.9281691
00000000: a24d 1bbf cf54 e0be f8b5 4e3e 69a7 563e
00000010: fb53 e9be 463a b03e 7669 ecbd fc76 ea3e
00000020: 3bce 2c3f 788b 6b3e 959d 053f f2e8 03bf
00000030: 3200 183f a950 b03e c6e9 343e 0ca6 0dbf
00000040: 56cc 3f3f c899 453e ec0d 39bf 198d c4bf
00000050: b9ca 5fbf 5e91 82bf 9db1 e93e 808a 643e
00000060: 6adc 31bd be15 5dbe 4e97 933d 7b25 94bf
00000070: 6f66 a5bf 184c 68bf 0a96 63bf c259 5b3e
00000080: 471f d3be ad46 723e 49fd e03e a351 2ebf
00000090: 7a09 11c0 b312 b13e 6372 b23d 8db4 203f
000000a0: b90a cc3e d8cc 9abf 3c1a 3fbf c004 213e
000000b0: 8179 023f 69bf b33e 11d6 68be af63 2dbe
000000c0: f768 b0bf a520 31be 1789 33be 7a08 38bf
000000d0: 9674 b23e 83f5 a63e e08a 82be b897 3a3e
000000e0: c5d5 143f 9193 0e3f c9fe a23e f2df d83e
000000f0: ce42 7bbf ce11 833e 1088 323e 3fce f6bf

critic.2.weight f4 [32, 64]
-0.21140379 -0.14259928 -0.107419536 -0.46526507 -0.22339223 0.34265947 -0.19158497 -0.38146633
0.56146973 -0.08755313 -0.2794497 -0.020328693 -0.5979134 -0.33455816 -0.55419385 0.034339808
-0.4215026 -0.4185057 -0.12145925 -0.6257042 0.21215907 0.25042787 -0.5187024 0.12002689
-0.1554784 -0.2519855 -0.16047695 -0.058841746 0.0568151 0.12911569 0.09774608 -0.6105794
-0.1526036 -0.30471042 -0.40440902 0.053242784 -1.1228029 -0.052010566 -0.28423396 -0.57207817
-0.2848336 0.056513287 -0.63812405 -0.20476104 0.25722677 0.04886998 -0.20661105 -0.11521826
0.1746536 -0.45072648 0.13552064 0.01746721 -0.35879055 -0.27602184 -0.24965073 0.014971495
-0.15604751 -0.16162413 0.0018926273 -0.08692549 0.10453758 -0.071054846 -0.40073234 -0.5678262
-0.7430156 0.29653907 0.10012876 -0.31525224 -0.95378435 -2.0665636 -0.78043985 -1.7077706
0.6657145 -0.035087895 -0.38652578 -0.3411676 -0.4411133 -0.35086396 -0.5668637 -0.82218635
-0.22556262 0.15481934 -0.07567489 0.09833453 0.4327861 0.15425605 -1.0362611 0.3386227
-0.28869274 -1.335007 -1.8334105 0.14857987 0.71477944 -1.2549673 0.017823609 -0.6880896
-0.56923383 -0.3287678 -1.5296901 -0.029144704 -1.0132099 -1.0820369 -0.15671799 -0.28524777
-0.6222696 0.712165 -1.7276417 -0.050618377 -0.19376177 -0.60737294 0.43031895 0.75172174
-0.18763469 -0.90893716 0.17528012 0.2975353 0.1543066 -0.1346681 1.1901642 -2.6747184
-1.5004948 0.7612946 -0.26681364 0.85076106 -0.2259644 -0.52313983 -0.6028095 0.48605493
-0.13823864 0.5764897 -0.20112617 0.48270658 -0.42750996 -0.044196043 -0.32903603 0.49621698
0.2766448 -0.178023 0.33481193 -0.23585878 0.18165204 0.14081939 0.029042536 -0.38283888
-0.39896995 -0.1736168 0.27207908 -0.3075206 0.19113588 -0.4658336 0.22072652 0.23044455
0.24704102 -0.31130168 -0.22437166 -0.658269 -0.46637174 -0.17932051 0.18258722 0.4460828
0.013181469 0.32711688 0.34891513 -0.04875313 0.8905388 0.2597214 0.026231546 0.2677237
0.2513021 -0.26652703 0.43268386 0.375045 -0.070273206 -0.008997802 0.010449353 -0.6306089
-0.1765871 -0.122487575 0.13130921 -0.4230252 -0.06463994 0.26036903 -0.68016094 0.1535154
0.32809266 -0.3000046 0.1913487 -0.3609041 0.39030543 0.42334878 -0.016539225 -0.6424722
-0.26320845 0.040983066 0.054031085 -0.6138346 -0.9303465 -0.65122795 0.19663028 -0.31718937
0.49384728 -0.2526427 -0.08092566 0.45114896 0.4007092 0.090656154 -0.1742314 -0.9664778
-0.1202958 0.28060564 0.010313222 -1.3530607 -0.58849514 -0.9105244 0.20555069 -0.04787143
0.6357706 0.054155957 -0.045712158 -1.0781726 -1.062608 -0.30644295 -0.14925577 -0.17064047
0.018405167 0.41374928 0.3390093 -0.34047297 -0.8595865 0.34376225 -0.09274652 -0.08062027
-0.3271072 -0.95655763 -0.106899194 0.046565376 0.1795272 -0.2588912 -0.10089376 -0.21219848
-1.0893382 -0.14414415 0.28199014 -1.3154665 -0.2736768 -0.42379165 -0.813441 -0.56124306
0.074433416 -0.2720531 -0.18843046 -0.17819177 -0.971439 0.2403402 0.0042705555 -1.5478776
00000000: 3c7a 58be 8c05 12be c6fe dbbd 3937 eebe
00000010: efc0 64be 1071 af3e da2e 44be 8e4f c3be
00000020: 7bbc 0f3f 0e4f b3bd 0814 8fbe 5c88 a6bc
00000030: da10 19bf 354b abbe a6df 0dbf e6a7 0c3d
00000040: 30cf d7be 6146 d6be a1bf f8bd 272e 20bf
00000050: 3a40 593e 1538 803e aec9 04bf a8d0 f53d
00000060: bb35 1fbe 3e04 81be 1254 24be 0b04 71bd
00000070: f3b6 683d e736 043e 192f c83d ee4e 1cbf
00000080: 1e44 1cbe 0103 9cbe b30e cfbe 1b15 5a3d
00000090: 01b8 8fbf 0809 55bd 1d87 91be b773 12bf
000000a0: b6d5 91be 7a7a 673d 195c 23bf e1ac 51be
000000b0: 3ab3 833e e32b 483d d991 53be 8df7 ebbd
000000c0: 65d8 323e 9fc5 e6be ecc5 0a3e 6517 8f3c
000000d0: 65b3 b7be bc52 8dbe 71a4 7fbe 004b 753c
000000e0: ebca 1fbe cc80 25be 0912 f83a fe05 b2bd
000000f0: cc17 d63d 3485 91bd ca2c cdbe 0f5d 11bf
00000100: 4536 3ebf f8d3 973e 4f10 cd3d be68 a1be
00000110: 362b 74bf 9442 04c0 e8ca 47bf 3a98 dabf
00000120: 446c 2a3f 53b8 0fbd b5e6 c5be 85ad aebe
00000130: 9ad9 e1be 71a4 b3be fb1d 11bf ce7a 52bf
00000140: e3f9 66be f688 1e3e 70fb 9abd 9d63 c93d
00000150: 2496 dd3e 4cf5 1d3e 34a4 84bf f45f ad3e
00000160: 89cf 93be 82e1 aabf 32ad eabf 5225 183e
00000170: c9fb 363f c5a2 a0bf d102 923c a426 30bf
00000180: 4fb9 11bf 4154 a8be e3cc c3bf e0c0 eebc
00000190: ddb0 81bf 2f80 8abf ae7a 20be ff0b 92be
000001a0: 0f4d 1fbf 7250 363f 5d23 ddbf 3755 4fbd
000001b0: 7c69 46be cb7c 1bbf c452 dc3e d670 403f
000001c0: 4f23 40be 1bb0 68bf a27c 333e 8c56 983e
000001d0: 8d02 1e3e 6fe6 09be 4d57 983f 962e 2bc0
000001e0: 3710 c0bf 34e4 423f cc9b 88be 7acb 593f
000001f0: 3663 67be 7eec 05bf b951 1abf 31dc f83e
00000200: 6e8e 0dbe d494 133f 05f4 4dbe 5125 f73e
00000210: 96e2 dabe e906 35bd 6977 a8be 2710 fe3e
00000220: 63a4 8d3e a94b 36be 786c ab3e f784 71be
00000230: fe02 3a3e f532 103e 9dea ed3c 7503 c4be
00000240: ca45 ccbe 9ac8 31be f34d 8b3e 5773 9dbe
00000250: 20b9 433e be81 eebe 2206 623e a8f9 6b3e
00000260: 52f8 7c3e ef62 9fbe afc1 65be 5184 28bf
00000270: 47c8 eebe cc9f 37be 25f8 3a3e f764 e43e
00000280: 17f7 573c dd7b a73e 01a5 b23e 5db1 47bd
00000290: 5afa 633f 34fa 843e 8ae3 d63c 1513 893e
000002a0: abaa 803e 3b76 88be bd88 dd3e e605 c03e
000002b0: 66eb 8fbd 846b 13bc c333 2b3c 966f 21bf
000002c0: 40d3 34be c4da fabd ec75 063e c296 d8be
000002d0: f261 84bd 174f 853e 071f 2ebf 2433 1d3e
000002e0: c3fb a73e 349a 99be eaf0 433e 6cc8 b8be
000002f0: 1dd6 c73e 2cc1 d83e 457d 87bc 0f79 24bf
00000300: 42c3 86be dcdd 273d b34f 5d3d 4424 1dbf
00000310: 302b 6ebf e0b6 26bf 7359 493e a566 a2be
00000320: 8dd9 fc3e 625a 81be 5abc a5bd fffc e63e
00000330: c229 cd3e efa9 b93d b769 32be 176b 77bf
00000340: a55d f6bd 8bab 8f3e caf8 283c 1831 adbf
00000350: 9ea7 16bf 2118 69bf e17b 523e d514 44bd
00000360: ddc1 223f a3d2 5d3d ac3c 3bbd 8f01 8abf
00000370: 8a03 88bf 17e6 9cbe 81d6 18be 60bc 2ebe
00000380: 6fc6 963c f2d6 d33e a192 ad3e 7952 aebe
00000390: dc0d 5cbf 9b01 b03e e3f1 bdbd 3d1c a5bd
000003a0: 987a a7be f6e0 74bf f7ed dabd 56bb 3e3d
000003b0: fad5 373e 638d 84be 63a1 cebd 8f4a 59be
000003c0: 6f6f 8bbf 869a 13be 0361 903e 3561 a8bf
000003d0: 5e1f 8cbe 38fb d8be ab3d 50bf a0ad 0fbf
000003e0: 8c70 983d 8b4a 8bbe eaf3 40be e777 36be
000003f0: 3ab0 78bf be1b 763e 04f0 8b3b da20 c6bf

critic.2.bias f4 [32]
-0.41909912 0.09904684 0.3966429 0.47390217 0.46049258 0.3892873 -0.06819812 -0.31351557
0.55461043 0.72076243 -0.20632182 -0.3477112 0.5538517 0.43269864 0.5592062 0.3864739
-0.35524723 0.49147892 0.46014875 0.5971874 0.66408956 0.4404778 -0.299236 -0.544388
-0.2911747 0.26461795 -0.3156275 0.48512888 -0.108974636 -0.11392542 -0.09946228 -0.2342676
00000000: 2994 d6be 12d9 ca3d c714 cb3e 4ea3 f23e
00000010: afc5 eb3e aa50 c73e 75ab 8bbd 1d85 a0be
00000020: f3fa 0d3f e383 383f 0746 53be 3407 b2be
00000030: 3ac9 0d3f ad8a dd3e 2328 0f3f e8df c53e
00000040: f7e2 b5be 20a3 fb3e 9e98 eb3e 46e1 183f
00000050: c601 2a3f 4e86 e13e 7635 99be 035d 0bbf
00000060: da14 95be 017c 873e ed99 a1be d062 f83e
00000070: 182e dfbd bb51 e9bd e1b2 cbbd d9e3 6fbe

critic.4.weight f4 [1, 32]
-0.45292714 -1.5374402 0.16026138 0.49097958 0.42887273 0.5004609 -0.4477831 -0.8973344
0.450913 0.6024321 -1.0176107 -1.305309 0.59314114 0.40901977 0.36785364 0.3644083
-0.8200754 0.52449703 0.3658109 0.50765806 0.5031917 0.59012586 -0.5750161 -1.0748833
-0.77774847 0.30411625 -0.83249146 0.4492999 -0.9897304 -0.4032603 -1.901291 -0.7984359
00000000: 11e6 e7be d7ca c4bf 8f1b 243e ad61 fb3e
00000010: 3595 db3e 351e 003f d443 e5be b5b7 65bf
00000020: 12de e63e fd38 1a3f 1141 82bf 5e14 a7bf
00000030: 19d8 173f 0a6b d13e 5057 bc3e ba93 ba3e
00000040: 76f0 51bf 7045 063f 914b bb3e e1f5 013f
00000050: 2cd1 003f 7d12 173f 4134 13bf c795 89bf
00000060: 861a 47bf 20b5 9b3e 291e 55bf a30a e63e
00000070: f95e 7dbf 2278 cebe 815d f3bf 4c66 4cbf
