logs/exp/model_64.pt (torch, 34660 bytes, 12 tensors)

log_std f4 [3]
00000000: 0229 8cbe 998b abbd facd 00be
-0.27375036 -0.083762355 -0.12578574

actor.0.weight f4 [64, 24]
00000000: 8081 b9be affa 1c3c 2877 0f3f 3525 92be
00000010: 3aee 93be ddd0 b0be 9952 52be 638f 8cbd
00000020: c33e 8f3d 476f c4be c40c e7bd 7678 26be
00000030: c47c e6be f534 a63d 7c5b 99be 29a6 febe
00000040: 4d0a 0dbe c924 3bbe 9216 0c3e 1744 24bf
00000050: 192c 313b 7f64 c3be 274e 26be 341f a9be
00000060: a80e 30bd 35ee 753d 1aa9 c93d d68b 693e
00000070: 4db9 acbe fcbe 5a3e 20ac abbd bda8 713e
00000080: 4aea 0cbe bb43 6bbd 7683 1bbd 84ca 80be
00000090: ba1a ff3d e5fd cfbe eb9a 283e 8f30 78be
000000a0: fd7a 37bd 501d cdbe b74d 17be b9b1 b9be
000000b0: 989c 9bbe 1a3a 44be 8b2d 6e3c 4d8e 8fbe
000000c0: d966 b9bc e52e 4dbe f52d 093e fc0f d9be
000000d0: 62aa 0b3e b47b b53e 8feb 3f3e 15e8 50be
000000e0: 97a9 fe3e f105 8dbc b0ef 663e af98 0cbe
000000f0: ec54 6d3e a6e4 06be e57e db3e 8b24 adbe
00000100: 1e6a 95be ee28 71bd caef 28be 80bd 883d
00000110: 44fa 75bc 8ba0 94bb b456 8ebd 0837 afbe
00000120: 94cf d4be 6465 5f3e bf80 1ebc 847c 01be
00000130: 6c9c 00bd 075a 9bbd a6c0 2bbd cbde e6be
00000140: b808 4d3e a7a0 4c3d c105 bdbd ef7b 8dbc
00000150: 437c 153e 9773 073e f412 2b3e 621c bdbe
00000160: f8d6 253d 3282 d3bd 366b 663d 30b1 56ba
00000170: fe4f c23d 82cb 71be 30fc f9bd 356f 243d
00000180: 5e08 32be ee13 b93c ba68 3b3e 6cf6 7ebf
00000190: ea3b fa3e 73f8 4a3f 05b3 37bc 4bc5 8b3d
000001a0: 3afa 03be 0de1 043d d261 75bd 6fff 16be
000001b0: 7c5c 2fbe 1cf1 f8bd eebc 99be 74ad 05be
000001c0: b8b9 56be ad56 b1bd eef9 d6bd 5473 3dbc
000001d0: 4eac 743d 4bb8 a1be 7ef3 a1bb 70dc 90be
000001e0: 4ac6 07bf 41f5 e1bd 9aee a23d 25af 05be
000001f0: cc54 e5be c69c 163f dc32 833c 2e64 bf3d
00000200: d2ab a9bd 4025 753e f8b0 fbbd 10a7 503e
00000210: 469e f5bc 7737 0a3e 49e1 98bd 5511 db3e
00000220: 6465 10be a502 633e 7ca3 123e 3d28 04bd
00000230: adc5 0bbe 9bce a03c 9bb0 36bd 4c21 0a3e
00000240: 40dd cf3d 54c7 f13e ab5a 4abe 0ba0 e2be
00000250: 8e5b 073f 3fa3 4bbe 08cd 453f 3ba7 d3be
00000260: 9402 293f 86a0 25be 093a da3e 69bb 01bd
00000270: f70e 763e a639 adbc c443 053f 3e6b 973e
00000280: a485 3ebe 86bf 873e ba04 9bbd 70fd 263c
00000290: 9d37 a4bd c1f5 aa3e 8f12 96bd 02cc 483e
000002a0: f126 753d 8ffe 853d 70d9 06be 586b a2bf
000002b0: d098 7abc b109 0fbe 607b aabe 0a49 0c3e
000002c0: df26 653b 7402 ce3d 4ee3 233e 5f46 573e
000002d0: 5568 21be bb87 88bd 69c7 d83c 2aa6 213c
000002e0: cb4b b73e c23e aabd c24f 01be e2aa 91bc
000002f0: 9e05 73be 79c3 203e ac5f b2be ee23 aa3e
00000300: 1753 c13c 5361 7c3d 1b64 6a3d a161 e43e
00000310: 9d28 143f 49bb 243e bd71 ca3d 4198 2cbd
00000320: bca1 d43e 2a8a 21bd 46eb 39be 7282 663d
00000330: de3d c33d a762 fa3d b5e0 64be 70cb 61be
00000340: 437a fbbd 82c9 8ebe a1ca f5ba 0a92 b0be
00000350: b994 723c 6654 90be 75f6 b6be 3c5c 9abe
00000360: 8b7a cd3d 5049 fa3d ea6b 673c b145 97bf
00000370: 28f3 d8be 02f9 0dbf 9b22 50be 2527 49bd
00000380: 6577 86be 7cb3 8bbe 1442 c5be 57ce bf3c
00000390: 2a14 9abe 622f 7b3d 176b bfbe c06a 4a3e
000003a0: 2228 abbe 0c63 b3be fb0f 74be e2ff 563c
000003b0: 4b22 7dbe 8222 07bd 4363 b93d 892c c3bc
000003c0: efb1 a0be 5d82 55be 7631 52be b14a 25be
000003d0: cf86 66be 90cf acbd 9b60 873e 3052 893e
000003e0: f8b9 b43e 9ca8 4ebd cc6b 613b afe2 86bd
000003f0: db94 ec3d c6a2 013e 6e2d 5a3e 17e2 e43d
-0.36231613 0.009581252 0.56041193 -0.28544012 -0.2889269 -0.3453435 -0.20539321 -0.06863286
0.06994393 -0.38366148 -0.11281732 -0.1625689 -0.45017064 0.081155695 -0.2995261 -0.49736145
-0.1377346 -0.18275751 0.13680485 -0.64166397 0.002703434 -0.3816261 -0.1624075 -0.3303162
-0.042982727 0.060041625 0.09846707 0.2280725 -0.33735123 0.21361917 -0.083824396 0.23599525
-0.13761249 -0.05743764 -0.037967168 -0.25154507 0.124562696 -0.40623394 0.16465347 -0.24237274
-0.044795025 -0.40061426 -0.1477574 -0.36268404 -0.3039291 -0.19162789 0.0145372255 -0.28038254
-0.02263205 -0.2003742 0.13396437 -0.42395008 0.13639215 0.3544594 0.18742202 -0.20401032
0.49738762 -0.017214747 0.22552371 -0.13730119 0.23176926 -0.1317316 0.4287025 -0.33816943
-0.29182523 -0.058876924 -0.16497722 0.06676769 -0.015013281 -0.00453574 -0.06950131 -0.34221673
-0.4156462 0.21816021 -0.00967425 -0.12645155 -0.031399176 -0.07585531 -0.04193177 -0.45091853
0.20022857 0.049957898 -0.09229613 -0.01727101 0.14598183 0.13227688 0.16706449 -0.36935717
0.040488213 -0.10327567 0.056254588 -0.0008189855 0.094879135 -0.23612788 -0.12206304 0.040145118
-0.17386004 0.022592511 0.18301669 -0.9959476 0.48873836 0.79285353 -0.011212115 0.0682474
-0.12888423 0.032441188 -0.05990774 -0.14745878 -0.17125124 -0.12155363 -0.30026954 -0.13054448
-0.20969284 -0.0865911 -0.10496889 -0.011563141 0.059734635 -0.31585917 -0.0049423566 -0.2829318
-0.5303694 -0.110331066 0.07955666 -0.13055094 -0.44791257 0.5883297 0.016015463 0.0934528
-0.08284725 0.23939991 -0.122896135 0.2037623 -0.029982697 0.1349772 -0.07464845 0.4278666
-0.14101177 0.22168978 0.14320177 -0.032264937 -0.13649626 0.019629767 -0.044602018 0.13489264
0.10149622 0.47222388 -0.1976115 -0.44262728 0.52874076 -0.19886492 0.7726598 -0.41338524
0.6601956 -0.16174516 0.42622402 -0.03167287 0.24029146 -0.021145653 0.5205653 0.29574007
-0.18605667 0.26513308 -0.07569261 0.01019226 -0.0801842 0.3339062 -0.073277585 0.19609073
0.05985159 0.06542694 -0.13168883 -1.2689009 -0.015295222 -0.1396854 -0.33297253 0.13699737
0.0034965796 0.10059062 0.16004679 0.21022938 -0.15762456 -0.066665135 0.026462274 0.009866277
0.35800013 -0.08312751 -0.12628081 -0.017781679 -0.23732612 0.15699567 -0.34838617 0.33230537
0.02359919 0.061616253 0.057224374 0.44605735 0.5787447 0.16087069 0.09884975 -0.04213739
0.41529644 -0.039438404 -0.18156156 0.056276746 0.095332846 0.12225848 -0.22351344 -0.22050261
-0.12279179 -0.27888113 -0.0018752405 -0.3448642 0.014805966 -0.2818939 -0.35734907 -0.30148494
0.10033139 0.122210145 0.01412485 -1.1818143 -0.42373013 -0.5545808 -0.20325701 -0.049109597
-0.26262966 -0.27285373 -0.38526976 0.02341382 -0.3009351 0.061324485 -0.3738639 0.19767284
-0.33429056 -0.35036504 -0.23834221 0.013122531 -0.24720113 -0.032991894 0.09052136 -0.023824947
-0.31385753 -0.20850511 -0.2052668 -0.16141774 -0.22512363 -0.08438027 0.26440892 0.26820517
0.35298133 -0.050453767 0.0034396527 -0.06586205 0.115518294 0.1265975 0.21306393 0.11175936

actor.0.bias f4 [64]
00000000: fe4c 053e 49b6 d3bc 2ecc 81be e43b 1fbe
00000010: 8920 a6bb 9f5f 75bd 0dbc 1fbe 4eab fabc
00000020: 7f7d dcbe 0ab6 abbe 894d 20bd db87 6ebe
00000030: 1bfc 05be 77fd f83d f08a 91be ed77 1e3c
00000040: f649 073e 5a26 33be bd71 a03d b75d 45be
00000050: d5c9 80bb 1f0a c9be 7901 34be c4f3 38be
00000060: eef9 79be 0b08 eabe 72f3 2fbe 63f7 bc3e
00000070: 93f3 21be 9417 d8bd c8f9 b0be 7abb c1be
00000080: 648a 63be 6de0 a7be 8c90 bbbd 6d8b 5abe
00000090: 9438 28bf 79c1 513d 43b2 aebe 11e6 3cbd
000000a0: 53f9 1ebe 79dc 98be 991f 56be 8bf1 ec3d
000000b0: f954 e2bd 82e3 be3d 73c8 27be e825 8cbe
000000c0: 98ea 26bd 0fc0 d0be 2fb5 c4bd 9c4c 99be
000000d0: fd4a e3be fc2c abbd 0ca3 86be 1fc1 64be
000000e0: 395a e83d f185 0cbd af50 fdbc 1c4a efbe
000000f0: d3cc afbe bbff 833c ec75 5b3e 508b 32be
0.13017651 -0.025843756 -0.2535109 -0.1555019 -0.0050697965 -0.059905645 -0.1559908 -0.030599263
-0.43064496 -0.33537322 -0.039136443 -0.23294012 -0.13084452 0.121577196 -0.28426313 0.009672147
0.13211808 -0.17495099 0.07834194 -0.1927403 -0.0039303103 -0.39265534 -0.17578687 -0.18061739
-0.24411747 -0.4570926 -0.17182711 0.3690749 -0.15815572 -0.10551372 -0.34565568 -0.37838346
-0.2222076 -0.3278841 -0.091584295 -0.21342249 -0.6571133 0.0512099 -0.34120378 -0.046117846
-0.15524797 -0.29855707 -0.20910491 0.11569508 -0.110513635 0.093207374 -0.16385059 -0.2737267
-0.04075107 -0.4077153 -0.096048705 -0.2994126 -0.4439315 -0.083581895 -0.2629627 -0.22339295
0.113453336 -0.034307424 -0.030922262 -0.46736228 -0.34335956 0.016113153 0.21431702 -0.17435956

actor.2.weight f4 [32, 64]
00000000: 361f 2abe 40e6 b1bd 7e00 b5be 2650 f7bd
00000010: 3c84 403e 37d8 a6bd 8b31 c7be 29ca 7ebd
00000020: c9b3 95be 9ee9 bdbe 0b83 d33c d5a5 b2be
00000030: 1ee5 d93c 7ba0 e5be d491 b2be 1ef0 71be
00000040: 34c8 a5be 8e2a 043f 4390 b4be 649b aebe
00000050: e910 a33d 52e1 b43d 1564 e23d de3a 72be
00000060: 124b 663e 22a6 ce3d f3a8 803e 347f 05bf
00000070: 1337 2dbe 9cb8 32bd 1bf4 9fbe eb30 b0bd
00000080: 044f 9dbe 2ad1 993d b182 3cbc ab0e 2f3e
00000090: 40bd ae3c d517 b3be 4c98 73bc 04e3 113e
000000a0: d468 61bd 3aa3 373e d444 55bd 2931 a6be
000000b0: fcb5 96bd 2544 cebe 036e a93d f49a 7dbe
000000c0: bbe8 2b3e 3ed8 3abe 5dd6 ccbe da87 a33e
000000d0: 9a6f 82bd fc11 833d 4591 2dbd 9db0 313d
000000e0: f337 863e 222f 81be e37f 583e bb12 7c3e
000000f0: 4e2a 5d3e 3a3d b6be 008f d8be f7c6 803e
00000100: 1748 52bf 56f2 c43e 9a31 51bd ae01 37be
00000110: 92cd dbbd f2d7 57be fec6 fabe 3892 193e
00000120: df40 0d3e dc30 483e e060 c3be 6fe7 abbd
00000130: b03a b3bd 5f3b e7be da6b 9e3d c092 87bf
00000140: d6fb ab3c 32b2 fb3d 258a 393e dd8e 41be
00000150: 2061 13be 3b3d e0bd 68bd 45bd 4fdf 6dbe
00000160: 6744 74bd 3733 27bd 3ac5 a9bc d378 09be
00000170: 5aa1 e4be a12b fcbe 0b5b 1e3c b4dc 59be
00000180: 80fe f4bd 83a1 6e3e e366 a8be 4f22 b43d
00000190: 2c2a 4d3d 23ce 6fbd 8307 053e 739d bdbd
000001a0: c717 21be 4752 c8bd 966a f83d 9663 50bd
000001b0: 4af5 adbd 7cdc d5bd 9130 203d 3ed2 7b3e
000001c0: 6bb4 103d afae fd3d 1cc7 3ebe de60 49bf
000001d0: 1105 3a3d 207b e6bd f41f 41be 066f 67be
000001e0: 5994 91be 1679 003d a1be 68be 5555 84bd
000001f0: 5c8a 913e 8d40 7dbe 42ac 58be 816c 373c
00000200: a0d3 15bf 10a6 05be cc6b afbb e0db 3bbe
00000210: e42c 85be 0704 983d 9d00 63be 3c74 2ebd
00000220: 11eb d1bd f51d 73bd 90f6 44bd 8a35 e6be
00000230: 26a2 be3d 564f 85be 5204 80be 5417 acbe
00000240: 2af0 58bd d699 283d d191 113e f64c 39bd
00000250: 4cb0 89be b6e1 833e a84e 32be 5bde cabd
00000260: 84fa 79be b577 17be 7450 32bd 7b0b 843e
00000270: 0f4b 11be e808 6fbd 46cf ba3d 9a10 edbd
00000280: 2216 a63c 456f fbbd d911 39bd 972b 2cbe
00000290: 1dd4 d53d a354 56be 38b0 e4bc b222 31be
000002a0: 6cde dabd dc12 70bb b51d 5fbe db08 973e
000002b0: bfec efbe 3645 023e 23c1 0f3e 56b9 ad3e
000002c0: 1c6c 1c3e 5d24 9b3c 66af 0ebd a387 b53e
000002d0: 5611 3fbd 866d c5bd 8dfe e23d 1d5e 30be
000002e0: 76b7 973e 8ce2 4ebe 4e5c 773d 3f86 6e3e
000002f0: 3b48 9e3e ec32 92bd c670 603e 589d babe
00000300: 8ee4 6abe b9a5 02be 74e7 e7bb a853 f03c
00000310: 41b2 ee3d 0c68 a63e 471c b53e 4dd4 133e
00000320: 00cc 7c3d e123 e9be 51b6 2dbe d14e 32be
00000330: 6159 8dbe 0e08 0fbf 9d76 acbe 571e 8cbe
00000340: 86f2 303e 04cd 82bc a6bf 25be e9e4 7abe
00000350: 7227 ffbe 3d0d 01bd cf7a 463e e20a a83b
00000360: fe50 bf3e b90b b53e c943 a33e ed44 9b3e
00000370: 8f29 423e 56bb 43bc 097f 08be c15e 96bd
00000380: e9a2 983e c0be b6be 0e28 d9bd 8bad 57be
00000390: be42 4e3c 7bc6 75bf a01c 13be e7da ad3e
000003a0: a7a4 83be 2610 803d ffc5 df3c 5ebb 963e
000003b0: 2583 b3be 139f f83d 079e b03e 3ef7 32bb
000003c0: 59da 073c f4a5 80be 5e43 99be 8685 2ebe
000003d0: f019 313e 8ff6 54be 5aa1 a6bc d66f 8bbd
000003e0: ca54 023f a95e 043e 3edd 2f3e a49a b83d
000003f0: b22f a23e c51e dc3c 5784 4cbe fdfe ea3c
-0.16613469 -0.08686495 -0.35351938 -0.12075834 0.18800443 -0.081467085 -0.38904986 -0.062204514
-0.29238728 -0.37092298 0.025819322 -0.34892145 0.02659851 -0.44849 -0.34876883 -0.23626754
-0.32379305 0.51627433 -0.35266313 -0.3410293 0.0796221 0.08832039 0.110542454 -0.23655269
0.22489575 0.10090281 0.25128898 -0.5214722 -0.1691554 -0.04363309 -0.31240925 -0.0860308
-0.30724347 0.07510598 -0.011505769 0.17095439 0.021330476 -0.3497912 -0.014867853 0.14246756
-0.055031613 0.1793336 -0.052067593 -0.3245938 -0.073589295 -0.40286365 0.08272936 -0.24766141
0.16787998 -0.18246552 -0.40007296 0.31939584 -0.063689426 0.063999146 -0.042374868 0.043381322
0.2621456 -0.25231272 0.21142535 0.2461652 0.21598169 -0.35593587 -0.422966 0.25151798
-0.8214125 0.38466138 -0.051072694 -0.17871734 -0.10732569 -0.2107847 -0.48979944 0.14997184
0.13794278 0.19549888 -0.38159847 -0.08393752 -0.08751428 -0.45162484 0.07735415 -1.059166
0.020994108 0.122898474 0.18119104 -0.18902154 -0.14392519 -0.10949179 -0.048276335 -0.23229717
-0.059635546 -0.040820327 -0.020723928 -0.13424997 -0.4465435 -0.49252036 0.009665261 -0.21275598
-0.119626045 0.233038 -0.32890996 0.08795606 0.050089046 -0.058546197 0.12991147 -0.09258547
-0.15731727 -0.09781318 0.12129705 -0.050876223 -0.08494051 -0.10442445 0.039108817 0.2459192
0.03532831 0.12386834 -0.18630642 -0.7866343 0.045414988 -0.11253953 -0.18859845 -0.22600946
-0.28433493 0.031365477 -0.22728969 -0.06461588 0.28425872 -0.24731655 -0.21159461 0.011195303
-0.5852604 -0.13051629 -0.0053534266 -0.18345594 -0.2601081 0.07422643 -0.22168203 -0.04259132
-0.102499135 -0.05935474 -0.048086703 -0.44962722 0.09308271 -0.2603709 -0.25003296 -0.33611548
-0.052963413 0.041162334 0.14215781 -0.04523941 -0.26892316 0.2575814 -0.17412817 -0.09905692
-0.2441197 -0.14791758 -0.043533757 0.2579001 -0.14188789 -0.058358103 0.091215655 -0.11575432
0.020274226 -0.12277082 -0.045183036 -0.16813503 0.10440848 -0.20930724 -0.027916059 -0.17298391
-0.10686955 -0.0036632335 -0.21788676 0.29498944 -0.4686031 0.12721714 0.1403852 0.33930463
0.15275615 0.018938238 -0.03483524 0.35455045 -0.046647392 -0.096400306 0.11083708 -0.17223401
0.29632157 -0.20203608 0.060390763 0.23293398 0.30914482 -0.07138619 0.2191802 -0.3644817
-0.22938749 -0.1275853 -0.007077152 0.029336765 0.11655093 0.32501256 0.35373136 0.14436455
0.061717987 -0.45535186 -0.1696408 -0.17412879 -0.27607253 -0.55871665 -0.33684245 -0.27366897
0.17280015 -0.0159669 -0.1618639 -0.24501385 -0.49834782 -0.031506766 0.19382785 0.0051282505
0.3736648 0.35360506 0.31887653 0.30326024 0.18961166 -0.01194652 -0.1332971 -0.073422916
0.2981179 -0.35692406 -0.10603343 -0.21062295 0.012589155 -0.9600598 -0.14366388 0.33956072
-0.25711557 0.0625308 0.027316092 0.29439825 -0.35060993 0.12139716 0.34495565 -0.0027308012
0.008291804 -0.25126612 -0.2993421 -0.17043123 0.1729505 -0.2079718 -0.02034061 -0.068084404
0.5091063 0.12926735 0.17174241 0.0901387 0.31677014 0.02687014 -0.19972359 0.028686041

actor.2.bias f4 [32]
00000000: b496 8abe c258 0fbe 3ef1 47be 8eea 83be
00000010: 1544 19bd 0ec9 6cbc 7c0f 63be 3812 493d
00000020: 1fd0 a73d 75cd 3b3d a875 56bd 8c07 8dbe
00000030: 05d3 43be 966b b73d 5f3a 94bc 7174 09be
00000040: 4e3f 0abc 564c 2dbe c313 a1bd fad0 c8bd
00000050: 7329 7ebe 7512 aabd ed0b febd d01b 623d
00000060: 31f6 83bd 56ab 01be 509a 52be 5e5b 89be
00000070: 2e07 e2bd 3c08 fabd 0aef 2fbe bfc5 1fbd
-0.27068102 -0.13998702 -0.1952562 -0.2576489 -0.037418444 -0.014452232 -0.22173876 0.04908964
0.08193993 0.045850236 -0.0523583 -0.2754482 -0.19123466 0.08956067 -0.01809424 -0.13423325
-0.008437945 -0.16923651 -0.078650974 -0.09805484 -0.24820499 -0.08304302 -0.124046184 0.055202305
-0.06443442 -0.12663016 -0.20566678 -0.2682752 -0.11036526 -0.12208602 -0.1718103 -0.039006945

actor.4.weight f4 [3, 32]
00000000: 9d46 793c 5e1a 2dbd e3f0 abbd 24f4 7c3d
00000010: 3d6e bcbd ef08 423c 78e6 fa3d 0369 39bc
00000020: eb57 8dbd 4412 e6bb 02b5 4cbc 9ca1 1b3d
00000030: 5b85 42bd 8e5d 29bb 7e65 043d 3b68 a93c
00000040: e46f 05bd 8c18 273c 22a2 fb3b 6980 3a39
00000050: b37d e33d 0274 d1bc 9577 d9bd c7ac 81bd
00000060: d244 133b 0a90 183c a2c4 9c3c 156c 23bc
00000070: 2ba2 723c ffc6 683d 733c 0cbc fb6b 1a3c
00000080: 4f32 613d 685d ad3c 2bb5 d2bc 3a4d ffbb
00000090: 00af 293d d85d 1a3d 6d82 a4bc 698b 6f3c
000000a0: 5bca 85bd f684 193c 75e6 a9bb 38c7 8e3c
000000b0: 7d7b c5bd bce5 2e3b 1790 b73c 886c 573d
000000c0: d3ee e939 258c 893c 95d9 94bb 37f8 60bb
000000d0: 66f3 fc3c d018 d9bc 6828 bb3c cf62 8f3d
000000e0: da0b a3ba 6f42 793d 9290 66bc 1cf3 0d3e
000000f0: 465f febc e048 c7bd 8289 443c 31a8 92bd
00000100: 2458 96bd 634b 7bbd 5c0f 9b3c a240 673d
00000110: e9ca 7cbc a043 bdbc 17d0 2b3d 55e1 f8bc
00000120: 5f1d 993d f681 8739 0851 42bd 285a 3cbd
00000130: 07da c43d d8b0 053c 26eb 8b3d c9a7 0a3d
00000140: e02d b13c 4be8 0ebb 23ca 4cbd a74a ffbc
00000150: a424 5dbc 3155 3d3d 76cc 6c3d e2ad c4bb
00000160: 206d b7bc 71b2 f03c 482a 663d 5e1c 0bbd
00000170: 0fdb 25bd 2379 b63d a3dd 30bc 1591 f6bb
0.015214589 -0.042261474 -0.08395555 0.06175627 -0.09200714 0.01184295 0.1225099 -0.011316541
-0.06901535 -0.0070212204 -0.0124943275 0.03799592 -0.04749046 -0.0025843116 0.032323353 0.020679584
-0.03257741 0.0101987235 0.00767924 0.00017786179 0.111079596 -0.025568012 -0.106185116 -0.06331783
0.002247144 0.009311685 0.01913673 -0.009974499 0.014809172 0.056830402 -0.008559334 0.009425159
0.05497962 0.021162704 -0.025721153 -0.0077911885 0.04142666 0.037687153 -0.020081723 0.01462064
-0.06532737 0.009370079 -0.0051849433 0.01742898 -0.09642694 0.0026687225 0.022407575 0.052593738
0.0004461916 0.016790459 -0.0045425394 -0.0034327635 0.03087778 -0.02650109 0.022846416 0.07001268
-0.0012439445 0.06085437 -0.014072554 0.1386227 -0.03105129 -0.09730697 0.011995675 -0.07160986
-0.0734103 -0.06135119 0.018928222 0.056458123 -0.015429237 -0.023103535 0.041946497 -0.030380884
0.07476305 0.00025846035 -0.04744056 -0.045984417 0.09611898 0.008159839 0.068319604 0.03385142
0.02162832 -0.0021805938 -0.04999746 -0.031163527 -0.013497505 0.046223823 0.057812177 -0.0060021738
-0.022390902 0.029381962 0.056192666 -0.0339626 -0.040492114 0.08909824 -0.01079503 -0.0075246193

actor.4.bias f4 [3]
00000000: 8421 e33d 88ad 85bd 1638 313e
0.11090377 -0.06527239 0.17306551

critic.0.weight f4 [64, 24]
00000000: 4832 e9be 1310 6f3d f81f 3cbf e585 15bf
00000010: 648f b9bc b0d7 f23d 5b36 ddbd 791b 243e
00000020: 6363 a1be ea46 623e 53cf 363d 2b02 a93e
00000030: 53c1 973d 537c d53e 1aaf ef3d 4a93 82bd
00000040: fc56 403e 36cb a93e a2a8 60be 2f63 91be
00000050: c90f 52bd 2a6c cabd cbff 723e 104f 71be
00000060: b1b0 b7be d6b7 39bd 558a 6e3e 7384 7d3e
00000070: 91cc 1a3f 35ac 44bf 80aa 823e 9042 91bf
00000080: c7fc 0b3f 8868 66bf c064 263f 7d47 89bf
00000090: dc38 253f b391 2dbf d7ff d83e b591 87bf
000000a0: ad20 0dbd 7e23 09bf 99ae ac3d 253f 18bf
000000b0: db26 933e 04be 1cbf 7209 7bbe afa4 28bf
000000c0: c7ad cabe 6950 d33d b366 49be 25bb 07bf
000000d0: a2f3 bebf 66da 7dbe 7d1a 9dbe 6b18 a83e
000000e0: 42b7 1c3e 9ffb 0f3f 76b3 c93e 85c4 143f
000000f0: 007c b8bd ab33 693f 8701 a73e 2177 db3e
00000100: 92f4 373e b0ce cb3e e982 833e 6d3d 103f
00000110: 1787 34bd 2da7 e93e c250 983e 1829 ae3e
00000120: cd2a a53e 633e 92bc cb10 09bd bfa6 d4be
00000130: 48ec 06bf 8b95 b2be 05a7 4e3f 6d31 09bf
00000140: 676c 853f 7616 07bf a3b6 563f 06db 45be
00000150: 1dfa 293f c171 fcbe cadb b23e 3d3b 9ebe
00000160: 4558 e63e e652 eebc 768e 4f3e e1d3 62be
00000170: 53b4 24be decb 9dbe eb57 fc3e d018 adbd
00000180: 4cf8 47bf d1db d4bd 539f 23bf 220c 21bf
00000190: 1cd1 a4be fa9e 603f 7a6d 073c 7257 943f
000001a0: ea60 37bb f9c5 753f dcad fc3d 655a 8e3f
000001b0: f75a cc3e 36b8 403f f851 273f a2a0 6a3f
000001c0: 5d98 133f a58a c03e 6890 1b3e cd9f 3c3f
000001d0: 46f9 2f3f 59c2 233f e6a6 013f 1162 883e
000001e0: 3167 b83e bfbc babd 50ef 11bd bde1 683e
000001f0: ef55 debf d395 edbc 97bb 3dbf b29f ddbb
00000200: ec31 9ebe 0e74 9dbe bd84 dbbe 438a c73e
00000210: 3832 ecbe 99a9 dc3e 8f10 c8bd 67ce ba3e
00000220: 17b0 30be 3aeb b83e fc33 d3bd 2baa 973e
00000230: 9c14 9f3e cd37 b23d e2c6 4c3e 4c74 a83e
00000240: f908 9c3e e5cc 0d3e cb54 e6be 74f5 fbbc
00000250: 8b3a 1f3e 34f6 8f3f 7df8 16bf 266f 003f
00000260: c929 c8be cde4 fa3d 2f3d 0dbf b7ce 2abe
00000270: 9e45 36be fc05 79be bd71 63be 31a0 fabe
00000280: 1214 21be f54a e4be 95b7 2fbe fb35 d5be
00000290: 2621 afbd 2e64 10bf 9185 b0be 41e6 09bf
000002a0: 1021 6d3d e87d 9a3e 2b00 05bf bbd5 e9be
000002b0: e55c 86bf b777 05be 4c45 7cbe 887b 4dbf
000002c0: a727 36bd 1aad 22bf 8070 153f 43cd 61bf
000002d0: 0e9d 813e 2d80 57bf 3278 463e e06e d7bd
000002e0: cc09 b03e e13a 13bf a4d9 cb3e eb5f afbe
000002f0: 8ba6 903e 8548 bcbd ab82 383d e4ec b4bd
00000300: 2e51 7bbf 9fb8 40be 9c98 883e cc89 90bf
00000310: 8d2e 8bbf dcf6 6bc0 7417 f2bd 05e6 dbbf
00000320: 59e1 853e 6080 3cbf 8d52 003f a8fb 92be
00000330: 6702 19bc 13ed be3d 2157 903e 3166 e23e
00000340: b449 2cbb 9c35 253e f336 ecbd 72b6 673e
00000350: 21f6 c63c 58b6 eb3e f185 44bd 8929 453f
00000360: 5960 0b3e b543 04be 7e1b 923d c6e7 fd3c
00000370: 815f 983d a2b3 4a3f 4a38 1fbf 84b5 693e
00000380: 406b 47be d372 41bc 5a51 b3be d1df 883e
00000390: d24a b1be 1ba8 613d c2a8 75be 33de 9bbe
000003a0: be50 913d 1e26 e1be d22e dabd e920 5ebe
000003b0: 4504 7bbe 2472 03be a080 6ebd cacd 89bd
000003c0: eb40 973e c969 0dbe 710e abbe 4572 923e
000003d0: f9ab 4b3f 8159 893f 02e2 9b3d 1a5b 1d3e
000003e0: ca79 96be 640f e4bd 0f01 84be 1885 0fbd
000003f0: 0c7e bcbe 5396 86be b325 76be 8691 97be
-0.45546174 0.05836494 -0.7348628 -0.5840743 -0.022651382 0.118575454 -0.10801383 0.16026105
-0.3152114 0.22097364 0.044631314 0.33009467 0.074099205 0.41696414 0.1170332 -0.063757494
0.18783182 0.3316285 -0.21939328 -0.28395984 -0.051284585 -0.09883912 0.2373039 -0.23565316
-0.35876992 -0.045341335 0.23294957 0.24757557 0.60468394 -0.7682527 0.25520706 -1.1348438
0.5468258 -0.9000325 0.6499748 -1.0724941 0.64539886 -0.67800444 0.4238269 -1.0591341
-0.03445499 -0.5356978 0.08431739 -0.5947135 0.28740582 -0.6122744 -0.24515322 -0.6587629
-0.39585707 0.103180714 -0.19668083 -0.53019935 -1.4918101 -0.24790344 -0.3068427 0.3283113
0.15304282 0.5624332 0.3939473 0.58112365 -0.09008026 0.91094464 0.32618353 0.42864326
0.1796439 0.39806128 0.25685814 0.5634373 -0.044074144 0.45635357 0.29749113 0.34015727
0.32259217 -0.017852014 -0.03346328 -0.41533467 -0.52704287 -0.34879717 0.807236 -0.5359104
1.0423707 -0.5276865 0.8387243 -0.19321832 0.6639727 -0.49305537 0.3493331 -0.3090457
0.4498922 -0.029092263 0.20269188 -0.22151138 -0.16084413 -0.308196 0.49285826 -0.08451998
-0.78113246 -0.10393489 -0.63914984 -0.6290914 -0.32190788 0.8774258 0.008265847 1.1589186
-0.002798135 0.9600521 0.123378485 1.1121336 0.3991315 0.75281084 0.6535945 0.91651356
0.5765436 0.37605777 0.15191805 0.73681337 0.68739736 0.63968426 0.5064529 0.2663732
0.3601623 -0.09118032 -0.035628617 0.22742362 -1.7369975 -0.029002106 -0.74114364 -0.006763422
-0.30897462 -0.30752605 -0.4287471 0.38972673 -0.46132064 0.43098143 -0.09768783 0.36485597
-0.17254673 0.36116964 -0.103126496 0.29622015 0.3107041 0.087020494 0.19997743 0.32901227
0.30475596 0.13847692 -0.44986567 -0.03075669 0.15549676 1.124701 -0.58972913 0.501696
-0.3909438 0.122506715 -0.55171484 -0.16680418 -0.17799994 -0.24318689 -0.22211356 -0.4895034
-0.15730312 -0.44588438 -0.17159875 -0.41642746 -0.085512444 -0.5640286 -0.34476903 -0.53866965
0.05789286 0.30174184 -0.5195338 -0.45670876 -1.0497099 -0.13033949 -0.2463581 -0.8026662
-0.04447141 -0.6354538 0.58374786 -0.8820383 0.25315136 -0.84179956 0.19381788 -0.105191946
0.34382474 -0.5751172 0.39814484 -0.34252867 0.28252062 -0.091935195 0.04504649 -0.08834246
-0.98170745 -0.18820427 0.26678932 -1.1292052 -1.0873581 -3.686942 -0.118208796 -1.7179571
0.2614849 -0.73633385 0.5012596 -0.28707623 -0.009338952 0.09322562 0.28191474 0.4421859
-0.0026289048 0.16133732 -0.11533918 0.22628191 0.024287285 0.46037555 -0.0479793 0.770165
0.13610972 -0.12916453 0.0713415 0.030994307 0.07440091 0.7918035 -0.62195265 0.22823149
-0.19474506 -0.011807161 -0.35023004 0.26733258 -0.34627396 0.05509196 -0.23990157 -0.30442962
0.070954785 -0.43974394 -0.106534615 -0.21692242 -0.24513347 -0.1283651 -0.058228135 -0.06728704
0.29541716 -0.13809885 -0.33409455 0.28602806 0.79559284 1.073044 0.07611467 0.15366784
-0.29389793 -0.11135748 -0.25782058 -0.035039037 -0.36814916 -0.26286563 -0.24037819 -0.29603213

critic.0.bias f4 [64]
00000000: 1be4 1dbf 3837 f1be 11c5 713e 966e 463e
00000010: dbbc 06bf 983e af3e 47bf 0dbe b611 e83e
00000020: 80c5 213f 729e 6a3e ccec 043f 1408 0bbf
00000030: 01ae 013f e720 b33e 9e20 513e 8e8a 0fbf
00000040: 09c2 213f 7820 3d3e 1198 1fbf d992 bdbf
00000050: fd5f 53bf 8f8e 7fbf 3f4a ea3e ed5f 013e
00000060: 4840 ddbd ee00 4fbe 9438 9b3d a34e 8ebf
00000070: a732 84bf 57a9 5fbf 9005 5cbf a9b8 213e
00000080: 740f d7be eaa3 643e e378 da3e 6983 2abf
00000090: 73ce fabf 2071 a93e 12a3 493d 9f5a 1e3f
000000a0: 9066 dd3e a341 91bf 2b22 3bbf 6289 193e
000000b0: f3e5 053f be89 b83e 4141 02be c606 adbd
000000c0: 1553 aabf 19b9 2cbe d3f7 b5bd f799 16bf
000000d0: 18ff bc3e 1855 a73e aadb 1abe 1e28 473e
000000e0: 580b 243f f787 203f e451 b83e 7cda ba3e
000000f0: b97b 73bf 7617 7c3e 24de ed3d fb7b d1bf
-0.61676186 -0.4711244 0.23610331 0.19378123 -0.5263192 0.34227443 -0.13842498 0.45326012
0.63191986 0.22912005 0.51923823 -0.543092 0.50656134 0.3498604 0.20422599 -0.5607079
0.631867 0.18469417 -0.6234141 -1.4810439 -0.8256834 -0.998269 0.4575977 0.12634249
-0.10803276 -0.20215198 0.07579151 -1.1117748 -1.0327958 -0.8736777 -0.8594599 0.15793099
-0.42003977 0.22328153 0.42670354 -0.66606766 -1.9594253 0.3309412 0.04922778 0.61857027
0.4324231 -1.1348156 -0.7309901 0.14993814 0.52304 0.3604259 -0.12720205 -0.084485576
-1.3306605 -0.16867484 -0.08885159 -0.5882868 0.3691337 0.3268211 -0.15122858 0.19448897
0.6407981 0.62707466 0.35999978 0.36494815 -0.9511066 0.24618325 0.116146356 -1.6365961

critic.2.weight f4 [32, 64]
00000000: 727b 77be 8c05 8abe 9ce0 143d e4ea 9ebe
00000010: 229b 42bd ed0a e63e fcc1 81be a04c 90be
00000020: 3347 293f 83a7 1ebe bb4c a4be 555e d0bd
00000030: d964 20bf 19b4 bdbe 4b57 19bf 5697 343e
00000040: acd5 8dbe f99c 86be a444 51be 5a9c 47bf
00000050: 9e70 293e 5886 4d3e a9d8 18bf 8378 ac3d
00000060: e7ad 83be 0f0b a4be 0b33 7bba 4cd4 cebd
00000070: 043d 21bc 898e bb3d 8641 1b3d 40b4 01bf
00000080: fc96 00be a62d b6be 3c13 dfbe e325 75bb
00000090: 58a6 60bf 67c6 ddbd 3d8e aebe 1a97 d7be
000000a0: 287e 0abe caf4 b2bd ad07 37bf 33d5 96be
000000b0: dcee 283e 0ded 133c cce5 f9bb aa16 b3bb
000000c0: 9e79 df3d 9fa8 ecbe a350 b0bc 8d49 08bd
000000d0: 7522 63be 73e2 f0bd 1348 99be effb 303e
000000e0: 3ce9 1abc 15cd 8d3c 15a3 cfbd d275 893d
000000f0: 78e2 fb3c fb74 d6bd a700 b2be a7ef d3be
00000100: 857f 2ebf d0ff 983e bade 093e f4d3 c5be
00000110: d153 65bf f85d 0fc0 e045 41bf c87f d7bf
00000120: fc6f 333f d70c a2bc f7e7 b4be 7102 96be
00000130: ed25 c8be cf89 d1be f3e8 10bf 9736 3cbf
00000140: 135c 27be f42c 013e e9e1 0fbd 20d4 ea3d
00000150: 3926 e73e c205 333e 0ce1 81bf b894 b63e
00000160: b49a 71be cfa1 a5bf 4bc5 cfbf 2410 2c3e
00000170: e33b 3e3f 0411 3abf 9349 8b3d 6823 3abf
00000180: bdbd ffbe 01f2 babe c9ca c0bf f6ea da3c
00000190: aca8 29bf 018b 83bf e5f1 12be ce45 ccbe
000001a0: 19a5 1abf 155e 3a3f 45ab d8bf 121c 7abd
000001b0: 8bc8 0fbe 2193 2cbf 198e e63e be7a 483f
000001c0: ab5e 26be c87c 55bf 7dc8 513e 0538 a23e
000001d0: 5bee d53d e6d9 81be 77e7 9a3f 1dfd 26c0
000001e0: d882 bfbf 8968 3e3f cf14 9ebe 10d4 553f
000001f0: f094 4dbe 1cca fbbe f5b8 21bf ca47 013f
00000200: d275 eebd b454 113f ef77 51be 1736 fd3e
00000210: 95a2 e1be 9ec1 4a3c 20ce aabe 25cf 013f
00000220: f4c1 8d3e 06d3 14be ea80 ae3e bff4 86be
00000230: 1a1e 223e a3b8 223e 5b97 3f3d 3ec4 c8be
00000240: a3c6 b9be cb51 0dbe ae8b 8a3e 09a4 b6be
00000250: e71d 173e 86f7 fabe 38cf 5a3e 99d3 8b3e
00000260: d19d 8b3e 3fec 84be 6ef2 31be a165 30bf
00000270: bd70 cbbe f27c a1bd 6ab1 2e3e 7284 e83e
00000280: 71e9 f13c 920c c03e 9b71 bc3e 1c56 6fbd
00000290: c955 5e3f f2ba 7c3e 1bcb a63d c0a9 8b3e
000002a0: f324 713e 0178 9ebe a1d9 b73e de39 df3e
000002b0: 19a4 0e3d 2611 633c 18b3 d93c 4045 23bf
000002c0: a50c 54be 32e7 e8bd f1af 1e3e 4e57 30be
000002d0: e920 94ba ce16 853e 74b1 0abf 6380 243e
000002e0: b2f4 a93e d279 21be cbb0 773e 7301 a4be
000002f0: bd7d b73e c175 dc3e e23e e83a 626e 32bf
00000300: 7c0b 47be 0232 443e 44fd ef3d 8492 12bf
00000310: 7c21 5abf cb7c 1abf 72b4 4c3e 62e3 90be
00000320: 80b7 ff3e 5e9c 6bbe 8ca3 a8bd 67c3 c43e
00000330: 619b cc3e 05da fe3d f164 19be 8e59 72bf
00000340: a76d 20be 6ddf ac3e 6d6a 33bd bb1f abbf
00000350: bc18 13bf d519 64bf f63e 503e 53c0 4c3d
00000360: 20af 363f 39c0 613d 22ff 8abc 5cc8 87bf
00000370: f488 47bf cc5f 90be fa57 05be 6057 e4bd
00000380: ca18 a33d c57b f43e 4614 bb3e 022f b7be
00000390: 9277 42bf 5226 873e d6be 86bc 3891 7ebd
000003a0: 93fd 8ebe 5d23 71bf 6273 40be 611b 103e
000003b0: ce62 c93e 25e1 60be 9e77 51bc 8df5 56be
000003c0: ff6f 89bf 68a5 b5bd 9e7e b43e c29e 22bf
000003d0: 9ac7 3dbe 271b dcbe 2c16 06bf 1a65 d0be
000003e0: ded7 053e 0d45 84bd 6b6f f6bd 35bd 38be
000003f0: 8117 74bf b82d 643e 858b e03d f9d3 c3bf
-0.24168184 -0.26957357 0.036347017 -0.31038582 -0.047511227 0.4493021 -0.2534331 -0.2818346
0.66124266 -0.15493588 -0.3208979 -0.101742424 -0.6265388 -0.37051466 -0.59898823 0.17635855
-0.2770208 -0.26291636 -0.2043634 -0.7797295 0.16546866 0.2007078 -0.597056 0.08421423
-0.25718614 -0.32039687 -0.0009582496 -0.10099086 -0.009841207 0.09158046 0.037904285 -0.50665665
-0.12557596 -0.35581702 -0.43569362 -0.0037406615 -0.8775382 -0.10828858 -0.34092894 -0.4210747
-0.13524687 -0.08738096 -0.7149609 -0.29459533 0.16497368 0.009028685 -0.007626271 -0.0054653483
0.109118685 -0.46222398 -0.021522826 -0.03327327 -0.22181113 -0.11761942 -0.299378 0.17283605
-0.0094550215 0.017309705 -0.10138527 0.067119256 0.030747637 -0.10471531 -0.34766123 -0.41393778
-0.6816333 0.2988267 0.1346387 -0.3863827 -0.8958102 -2.2401104 -0.75497246 -1.6835871
0.7009275 -0.019781513 -0.35333225 -0.29298738 -0.39091435 -0.40925452 -0.5660545 -0.735208
-0.16343717 0.12614805 -0.035127554 0.11466241 0.4514635 0.17482665 -1.0146804 0.35660338
-0.23594171 -1.2940005 -1.6232084 0.16803032 0.7431013 -0.72682214 0.068011425 -0.72710276
-0.49949446 -0.3651276 -1.5061885 0.026723366 -0.66273 -1.0276796 -0.14350088 -0.39897007
-0.6040817 0.7279981 -1.6927267 -0.061061926 -0.14041345 -0.67412 0.45030287 0.7831229
-0.1624705 -0.83393526 0.20486636 0.31683365 0.10445853 -0.25361556 1.2101887 -2.6091988
-1.4961805 0.7437826 -0.3087525 0.83526707 -0.20076346 -0.49177635 -0.6317285 0.50500166
-0.11643566 0.5676987 -0.20455907 0.4945533 -0.44069353 0.0123752635 -0.33360386 0.507067
0.27687037 -0.14533624 0.3408273 -0.263586 0.15831795 0.15890746 0.046775203 -0.3921222
-0.3628436 -0.13800733 0.27059692 -0.35672024 0.147575 -0.4901697 0.2136811 0.27309874
0.27268842 -0.2596149 -0.17377636 -0.68905073 -0.3973445 -0.078851596 0.17059866 0.45413548
0.029530259 0.3750959 0.36805424 -0.05843173 0.8684965 0.24680689 0.08144208 0.27277946
0.23549251 -0.3095093 0.35908225 0.43598837 0.034824464 0.013859069 0.026574656 -0.6377754
-0.20707949 -0.11372222 0.15496804 -0.17220804 -0.0011301312 0.2599396 -0.5417702 0.160646
0.331945 -0.15769127 0.24188535 -0.32032356 0.35838118 0.4305859 0.0017718936 -0.6969968
-0.19437975 0.19159701 0.117182285 -0.57254815 -0.85207343 -0.6034667 0.1999071 -0.2829848
0.49944687 -0.23008868 -0.08234319 0.3843033 0.39962295 0.12443928 -0.14979912 -0.946679
-0.15666829 0.3376421 -0.043802667 -1.3369058 -0.57459617 -0.89101917 0.20336518 0.049988102
0.7136097 0.05511496 -0.01696736 -1.060802 -0.7794335 -0.28198087 -0.13021842 -0.11149478
0.079637125 0.4775068 0.36538905 -0.35778052 -0.759637 0.26396424 -0.01644842 -0.06215021
-0.27927837 -0.94194585 -0.18794015 0.14072944 0.39333194 -0.21960886 -0.012784867 -0.20992108
-1.0737303 -0.08869439 0.3525285 -0.63523495 -0.18533173 -0.42989466 -0.5237758 -0.40702134
0.13070628 -0.06458483 -0.1203297 -0.18040927 -0.95348364 0.22283065 0.10964111 -1.5299064

critic.2.bias f4 [32]
00000000: c175 afbe fd8f 293d b79d c83e 561d e93e
00000010: 6d30 dd3e 34e7 cf3e 571a 8b3c 1096 73be
00000020: fd0f 0a3f 916a 323f 9cb3 3dbe 9180 7bbe
00000030: 5c03 0d3f 64de d93e ecdc 0b3f dd2b b73e
00000040: d991 80be dd15 ed3e 47b4 e13e 3cba 0f3f
00000050: 41fc 233f 37bf c23e 5436 99be 55e2 3dbe
00000060: 2b2e 95be 3f59 853e ec04 a6be cde5 f83e
00000070: 7e90 15be 4c61 e9bd 2cd7 c9bd fb0b 64be
-0.34269527 0.041397084 0.39182827 0.45530194 0.43201008 0.4060608 0.016980333 -0.23787713
0.53930646 0.6969386 -0.18525547 -0.24560763 0.5508325 0.42552483 0.54633975 0.35775653
-0.25111273 0.46305743 0.44082853 0.56143546 0.64056784 0.3803651 -0.29924262 -0.1854337
-0.29136786 0.26044652 -0.3242563 0.48612824 -0.146059 -0.11395511 -0.09855494 -0.22270195

critic.4.weight f4 [1, 32]
00000000: 44de e3be 4015 c3bf 0414 2b3e a02d d33e
00000010: 95d3 ba3e 71a5 f73e 9d06 80be d23c debe
00000020: 6585 d73e fb27 153f beab 82bf ac75 e6be
00000030: e029 1f3f 51c5 d83e 5cad b03e 8e1b ad3e
00000040: 0aa0 aabe 1d82 e43e e6dc c23e 8eea b13e
00000050: 2224 f43e 2614 fc3e ab56 10bf addd debe
00000060: af45 44bf b535 7b3e dce0 5dbf af25 df3e
00000070: e391 85bf 4cad c8be 7e85 f2bf 31b1 49bf
-0.44505513 -1.524086 0.16706854 0.41245747 0.3648955 0.4836841 -0.25005046 -0.43405777
0.4209396 0.5826413 -1.0208662 -0.45011652 0.6217327 0.4233804 0.34507263 0.33810085
-0.33325225 0.4463052 0.38059157 0.34749264 0.47683817 0.49234122 -0.56382245 -0.435285
-0.7666883 0.24532206 -0.86671233 0.43583438 -1.0435146 -0.39194715 -1.8946989 -0.78786
