logs/exp/model_2.pt (torch, 34660 bytes, 12 tensors)

log_std f4 [3]
00000000: b93f a2bc 330a e33b 64f9 cebc
-0.019805776 0.006928706 -0.025265403

actor.0.weight f4 [64, 24]
00000000: e1c0 62be b985 213c 749e ce3e 2fda 493c
00000010: 2f19 223e 9d81 0dbe 4a5f aa3d 7d1c 263e
00000020: a836 913e 0ecf 9ebe 6f96 953d 49ce 05be
00000030: 50a3 8fbe 0281 123e 8bd4 fbbd f8a0 b8be
00000040: 3f3b 283d 4438 0d3d 1a20 9f3e 5056 b0be
00000050: ea33 2f3e 50ee 48bc c58c 553a eaae cf3d
00000060: 6ef7 223c 11c2 893b f2c8 6e3e 5bba 62be
00000070: ec9a 17be 11b8 833d 8165 fbbb 3dc3 803e
00000080: 419e adbd af14 503d c57e d23b 99f4 81bd
00000090: a190 323e eb81 22be 6e56 6a3e 81b5 3c3d
000000a0: 9f4e ec3c 40e5 b5bd 6d2f 8abd 8a2a 20bd
000000b0: 68c0 60be 9f1a 103e 19e1 d03d 1285 603d
000000c0: af13 e93d 20dd 61be 4ec8 cf3d e182 b53d
000000d0: de55 a13d 4668 5c3e 0abb ba3c 639c 8bbe
000000e0: ef8a a43e ab8d 8ebd b525 a43d 1207 2fbe
000000f0: 75f1 da3d 36f0 17be eaa5 a73e f15e a6be
00000100: 421e bcbe f120 d3b9 7824 54be d6ed 323e
00000110: 0300 2cbd 24fa 0f3e dadf a1bd 5c01 27be
00000120: 0a78 5fbb 89b9 bc3e e910 bdbd 9bf4 39be
00000130: 9c23 4dbe 51e4 963d d15f 73be 105b b2be
00000140: 77af 963c 2e76 0c3e 17aa 85be 388d 5d3d
00000150: 61b2 3239 aec6 4a3e 35f6 243d c989 9ebe
00000160: 127e 9dbd 0e90 8abd 75bf 18bd eae6 6e3c
00000170: ee70 a13c 19ab 78be 37a7 33be c0f4 8e3c
00000180: 1e9f 2ebe ed5c d9ba 8bd8 1a3e c65d c0be
00000190: fa57 b73e a075 373e 0f9d 52bd da85 43be
000001a0: facd 27be f9df 94bd 4a43 abbd a1d7 36be
000001b0: 8315 3bbe e4fe dcbd c0f6 99be 0a7e 9ebd
000001c0: ff99 49be aef3 323c 7f87 a4bd 9150 073e
000001d0: 80aa bc3d 12e4 01be 9503 153d 0409 5abd
000001e0: 3dc7 b0be 33eb 69bd 05d6 653e 0f35 303e
000001f0: c4b5 d2be f80b 843e bc99 563e 0f60 02be
00000200: f03b c13d 3ef2 a33d 748a 3d3d 7c75 963d
00000210: 3e76 f93d 46b8 963c 9467 653d 763a a43e
00000220: b401 0bbd a18c fe3d e840 673e 1ee2 00be
00000230: a8f6 a0bd 95cf a2bd 0148 1abc bb45 c93c
00000240: db17 9c3e c1ad 5e3e fdcf d4bd 1675 6c3c
00000250: adde 0cbd 8cc1 aa3d d23a 823e edf4 72be
00000260: 6871 3e3e 86fe d4bd 536f 643c 6fdb 7fbd
00000270: d997 a1bd e809 d6bd f273 933e a465 323e
00000280: 6998 a8be 11f3 f63d 16f6 09be f61b 14be
00000290: 242b 83bd dfe4 323e 8c96 c53b 885d 093d
000002a0: 721d 2f3e 0934 11be be3a 66bd 21e6 e6be
000002b0: 4ad7 063c 6c41 14be df87 79be c854 3c3e
000002c0: 0dfc 8e3d e1b2 013e 65c7 5e3e 38dc 4b3e
000002d0: 75ea cbbd dadd f1bd fce7 b03d 5c95 9dbd
000002e0: ddb7 da3e c080 4abe e6da 4ebd 5dcf 1fbe
000002f0: 97b2 1dbe 8045 ccba d291 84be e28a 1e3e
00000300: dda7 7f3e bad8 d63d 3db1 723e d22f e63e
00000310: 5c30 773e d261 683d f83b 58bd 2749 8a3d
00000320: 4ad2 b33e 2918 243e ac27 57be 7b3e 913e
00000330: fc75 df3d 1125 b93e d8e1 37be 66f4 de3c
00000340: 6285 3dbd 9562 f8bb 4b73 fb3d 5a61 fbbc
00000350: 2cd5 2d3e d595 9e3d b30b 35be b515 e63d
00000360: 68e2 013e 81b3 d63c 987c c9bd d373 54be
00000370: ee91 65be c9c5 91be 2a85 ae3c c367 223e
00000380: 57a6 5fbd cf6c 0dbe 8378 45be 7b7b d93d
00000390: 635f d7bd 1c7a fe3d a4e8 36be 0ae6 7b3e
000003a0: fdb9 0abe 28cd 9cbe 34f5 3cbd 11fb 593d
000003b0: 4c2d 8bbd 4aef 2c3b d9e7 833e 4237 d53b
000003c0: 7a46 19be c64b 12be ac40 6cbe ea61 26bb
000003d0: 8e94 f1bd c6de 0ebe b31d 703e 9acb 343e
000003e0: 52fb 833e 06da 14be 6636 16be 7a94 15be
000003f0: be9d b8bd ca0c 693d 884c 33bd 30ad 483d
-0.2214389 0.009858542 0.40355265 0.012320085 0.1582992 -0.13818975 0.08318956 0.16221805
0.28362012 -0.31017345 0.073040836 -0.13066973 -0.28054285 0.14307025 -0.12296399 -0.3606031
0.041072126 0.034477487 0.3107918 -0.3444085 0.17109647 -0.012263849 0.00081462815 0.10140784
0.009946687 0.0042040427 0.23318842 -0.22141401 -0.14805192 0.06431592 -0.0076720123 0.25148955
-0.0847745 0.050800975 0.0064238035 -0.063454814 0.17437984 -0.15869872 0.22884533 0.046071533
0.028846083 -0.088816166 -0.06747327 -0.03910307 -0.21948397 0.14072655 0.10199184 0.054814406
0.113807075 -0.22057009 0.10145627 0.08862854 0.07877706 0.21524152 0.022794265 -0.2726775
0.32137248 -0.06960615 0.080150045 -0.17092541 0.106905855 -0.14837727 0.3274377 -0.3249431
-0.36741835 -0.000402696 -0.20717037 0.1747354 -0.0419922 0.14060265 -0.079040244 -0.16309112
-0.0034098648 0.36860302 -0.09231741 -0.18159716 -0.20033115 0.07367767 -0.2376702 -0.348351
0.018394215 0.13716957 -0.2610633 0.054089755 0.00017041854 0.19802353 0.040273864 -0.30964497
-0.07690062 -0.067657575 -0.037291963 0.014581421 0.01970717 -0.24284019 -0.17544256 0.01745069
-0.17052886 -0.001658348 0.15121667 -0.37571543 0.35809308 0.17915964 -0.051419314 -0.19094029
-0.16387168 -0.07269282 -0.08362444 -0.17855693 -0.18269925 -0.10790804 -0.30071068 -0.07738884
-0.19687651 0.010922356 -0.08033656 0.13214327 0.09212208 -0.12684658 0.03638037 -0.053231254
-0.34527007 -0.05710907 0.22444923 0.1720774 -0.411543 0.2579038 0.20957083 -0.12731956
0.0943526 0.080051884 0.046274617 0.07346627 0.12180756 0.018398415 0.056006983 0.32075852
-0.03393717 0.124291666 0.22583354 -0.12586257 -0.07859546 -0.079497494 -0.009416581 0.024569383
0.3048695 0.2174597 -0.10391233 0.014432212 -0.034392048 0.083376974 0.254355 -0.23726244
0.18597949 -0.10400109 0.013942557 -0.062465128 -0.07890291 -0.10451108 0.28799397 0.17421585
-0.3292878 0.1205808 -0.1347278 -0.14463791 -0.06404713 0.1747012 0.0060299095 0.033536464
0.17101076 -0.14180006 -0.056208365 -0.4509745 0.00823004 -0.14478081 -0.24368237 0.18391716
0.069816686 0.12665893 0.2175575 0.19908226 -0.099568285 -0.11809893 0.086379975 -0.07694504
0.42718402 -0.19775677 -0.050501727 -0.15606447 -0.15400158 -0.0015584677 -0.25892502 0.15482667
0.24966379 0.10490556 0.23700424 0.4495836 0.24139541 0.056733914 -0.052791566 0.06752234
0.35121375 0.16024841 -0.21011227 0.2836798 0.109111756 0.36161092 -0.17957246 0.027216148
-0.046269782 -0.0075801113 0.1227785 -0.03068607 0.1697585 0.07743422 -0.17680244 0.11234609
0.12684023 0.026208641 -0.098382175 -0.20747308 -0.22418949 -0.2847121 0.021303732 0.15859894
-0.054601993 -0.13811038 -0.19284253 0.10619255 -0.105162404 0.12425634 -0.17862183 0.24599472
-0.13547511 -0.30625272 -0.04613228 0.05321795 -0.06795749 0.0026387745 0.25762823 0.0065068314
-0.14968291 -0.14286718 -0.23071545 -0.0025387951 -0.11795913 -0.13952169 0.2344883 0.17655793
0.2577768 -0.14536294 -0.14669189 -0.1460742 -0.09014462 0.056896962 -0.043774158 0.04899329

actor.0.bias f4 [64]
00000000: b7bc 993d d2ac 8d3d a801 a1bd 9aad d1bc
00000010: da25 a43d 8e6d 583e 5a41 3ebc 60dd bd3d
00000020: bb49 36be c435 63be 03d6 eb3d 9d36 4dbe
00000030: ea22 76bc c1c5 7e3e 6578 50be 41e3 9e3d
00000040: 85da 2cbc a74f b4bd 0421 49bc cc55 15be
00000050: 83f6 493e 5fec bfbd 3663 ab3d 16cc bf3c
00000060: 4e60 5cbe 766f 79be fa9e 3bbe fe04 ba3d
00000070: 1632 1fbe 2619 173e 25ca cebd b530 4abe
00000080: 9563 0ebe 5695 2dbe 4635 8f3d 59dc 9ebd
00000090: 1f7f 94be 0402 073d 6898 dfbd 480f cdbd
000000a0: 2911 81bc 12d3 f9bd bd1a 44bd 5dbd 0c3e
000000b0: 81fe 79bd c543 413e 46cb ab3c 2704 bfbd
000000c0: 3baa 9c3d 7384 72be b23d 7f3d 2931 18be
000000d0: df1b 7dbe 480e 783d fb7e c9bd 398b e43b
000000e0: 44ef 3a3d a313 b43d 9704 f53c 7e7d 4ebe
000000f0: 3e22 ddbd e69c 6e3d c3fd 2a3e f95e 123c
0.075066976 0.069177285 -0.07861644 -0.025595475 0.08015032 0.21135542 -0.011612261 0.092707396
-0.17801563 -0.22188479 0.11515429 -0.20040365 -0.015022973 0.24880125 -0.20358427 0.07758189
-0.010550146 -0.08804255 -0.012275938 -0.1458351 0.19722943 -0.09371256 0.08368532 0.023412745
-0.21521112 -0.24358925 -0.18322363 0.090829834 -0.1554645 0.14755687 -0.1009715 -0.19745143
-0.13905175 -0.16951498 0.06992583 -0.07756872 -0.29003236 0.032960907 -0.10917741 -0.1001268
-0.015755253 -0.121984616 -0.047877062 0.13744111 -0.06103373 0.18873508 0.020970952 -0.09326964
0.076496564 -0.23683338 0.062314697 -0.14862503 -0.24717663 0.060560495 -0.09838673 0.0069746044
0.045638338 0.08792808 0.029909415 -0.20165059 -0.10797547 0.0582551 0.16698365 0.008933776

actor.2.weight f4 [32, 64]
00000000: 36e4 cb3b 953e 543e e11a 1fbe f714 2ebe
00000010: ad64 0a3c ad33 83be 260f 6ebe a1f1 443d
00000020: 0075 02be 49c8 eabd 31e7 14bc 933c 39be
00000030: 56d5 fa3d 0d75 02be 0506 8dbe 24e5 4bbd
00000040: b984 89be 0b22 f03e 0c6d 57be 45ae ffbb
00000050: 3c97 763e df90 673e 3ac5 663e e9d5 75bd
00000060: 3278 b4bc 996a a8bd df25 2b3e 7f25 1fbe
00000070: cf5e 02be 50c1 8cbd 0078 54be 7716 bebe
00000080: e52d a2be e400 6f3e cb66 ec3c b71a 423e
00000090: 06ac 453e 756f 94bd c586 7cbc 4020 5cbd
000000a0: 1adb f83d 57d0 143e cebf e83d e3e4 663d
000000b0: 5f97 11be 1a24 3ebd 907d ac3e 128c 76be
000000c0: 5acf 83bd a28d d1bd 74df a5bd 8f86 773e
000000d0: 06d9 1b3c 2553 bfbc 53dd 86bd 53b3 523e
000000e0: 4119 013d e90a 703d fc43 103d f5bc 573d
000000f0: e9a4 3e3d 43c2 56be 76e8 a0bd b824 c63e
00000100: 023b 4cbe 54e8 18bd 10d9 81bd 6cb7 9a3e
00000110: 2889 29bd 1943 cd3d 72a6 3fbe 9e1a 0abe
00000120: ea39 1a3d 3832 453e 3368 8b3e 8fda 583e
00000130: 7841 c0bd b2e6 983d f89a 303d a078 08bf
00000140: d8f8 7ebc 5c62 973e f279 963e 9af3 c83d
00000150: 7969 31be a052 273e 748b 21be 49ef c8bd
00000160: e435 a0bd 06e2 833e 2d43 893e b239 f8bc
00000170: 4030 c83a d73f debe 0bc0 4e3b 46c3 82bd
00000180: 30d5 69bd 02fa 083e 2276 993d 976b d53d
00000190: 4179 043c a6fe 88bc 1d4a 9a3e 9cdc f5bc
000001a0: 9a72 31be a9be 21be a87c 963e 2c21 02be
000001b0: ee47 8ebc b0be 51be 2f3c 493d 7d82 3b3e
000001c0: 5aca 0a3e c1c7 f03c f4f1 86bd 140b 80be
000001d0: 061d f93c 24e4 953e 1076 9a3d 01f3 91bd
000001e0: 68e1 dfbd 31ed 063d 4e97 1e3d 97b9 da3c
000001f0: 485c 033e 2583 44be d01b 5dbc 6763 b9bb
00000200: 6037 41be fdb8 38be fc9c c13d c55b ddbd
00000210: 9750 95be 884a 8b3e 41f5 cabd 1f6c 993d
00000220: 8570 f8bd b0eb e5bd 9842 95bd 3ce2 17be
00000230: 47fa 633e 9671 97be 5ec9 41be 6da7 0dbe
00000240: 12a6 43bd 728d be3c 804a 8a3d da51 4dbd
00000250: 8e36 16be 5b8e a03e 6a58 43be c102 46bb
00000260: 0f9e 9abe ac32 3cbd 3210 0bbc 3e78 f03d
00000270: 4f82 52bd e5ba 66bd c27b 17be d7d7 94bd
00000280: d386 883e 435c d2bd 514c 443d dd24 c9bd
00000290: c11b e5bd ff2b 283e 0c71 943d fd5e eeba
000002a0: 08a6 69bd 1947 593d 1622 05bd 6928 0f3d
000002b0: 4fd5 bdbe 4daa 17bd af96 4a3e 6c54 c13e
000002c0: de48 2f3e 870f 053e b08e 85bd cf68 cf3e
000002d0: 85e3 23bd 3833 bdbe 4e9d 14be e28f aebd
000002e0: 4af3 9b3e c75c ef3c bcd4 11be 3e7f 233e
000002f0: 7f1c f73d 659a fa3d bc0b cb3d e266 9abd
00000300: 0e63 933d d331 253c c2af 603e 6353 52bb
00000310: ca9d fd3d b6e1 66bd 8766 d53e 6b67 283e
00000320: 9443 9e3e e9a9 85be 74ff 82bd c964 953d
00000330: a3aa 3dbd 8391 18be 76af 263b 4edd 1fbe
00000340: 0adb bd3b be2f eabd a683 88bd 438a 47be
00000350: fb8a 5cbe a074 05bd c837 81bd fca0 403e
00000360: 42f8 9b3e 0de8 863e e156 f53d 39a1 593e
00000370: a09c 8d3c ddac 8bbe 1d4f 02be 8e77 2dbe
00000380: 6649 993e 7f11 28bc 99bf 783c 1530 aebb
00000390: ac2e 473e 5f95 a5be e25c 41be a46a 68bd
000003a0: 22f7 913b e340 c73d a925 203d 2e82 c43d
000003b0: d141 93be a707 1ebd 82be 8f3e 37fd b6bc
000003c0: bd5c 4e3e 933a a4bd fb41 4d3e 5008 69be
000003d0: 1e4c 4b3e 7948 b83d c3f1 603e 6649 2ebc
000003e0: 63f2 3b3e b4f9 173e 3906 513e 9d98 bf3d
000003f0: a2d2 223e 9c1f d83c 1d7a 9bbe f4bd b63c
0.006222273 0.20726998 -0.15537597 -0.17000185 0.008446855 -0.25625363 -0.23247966 0.048081998
-0.12739944 -0.114639826 -0.009088323 -0.18089513 0.12247722 -0.12739964 -0.27543655 -0.049779072
-0.26859072 0.46900973 -0.21037692 -0.007802757 0.24081129 0.22613858 0.22536173 -0.060018454
-0.02202997 -0.08223457 0.16713665 -0.15541647 -0.12731479 -0.06872809 -0.20748901 -0.37126514
-0.3167564 0.23340183 0.02885761 0.18955503 0.19303903 -0.07247821 -0.015412991 -0.053741693
0.12151165 0.145326 0.11364709 0.056370627 -0.142179 -0.046421148 0.33689547 -0.2407687
-0.064360335 -0.102320924 -0.08099261 0.24172424 0.009512192 -0.023355076 -0.06585183 0.2057622
0.031518225 0.058604155 0.035221085 0.052670438 0.04654399 -0.20972542 -0.078568384 0.3869989
-0.19944385 -0.03733094 -0.063402295 0.30218065 -0.041390568 0.100225635 -0.18715838 -0.13486716
0.037652887 0.19257438 0.27227935 0.21177123 -0.09387487 0.07465877 0.04311654 -0.5330906
-0.015562259 0.2956723 0.29389912 0.09812088 -0.17325391 0.16340113 -0.15775853 -0.09811265
-0.07822779 0.2575838 0.26809064 -0.030300949 0.0015273169 -0.4340808 0.0031547572 -0.06384902
-0.057088077 0.1337662 0.07493235 0.10420912 0.00808555 -0.016722988 0.3013467 -0.030012421
-0.17328873 -0.15795387 0.2939198 -0.12707967 -0.017368283 -0.20482898 0.04912966 0.18311496
0.13553753 0.029392125 -0.06589118 -0.25008452 0.030409347 0.2927562 0.0754205 -0.071264274
-0.10931665 0.032941047 0.038718514 0.026699824 0.12828171 -0.19190653 -0.013495401 -0.0056576016
-0.1886878 -0.18039317 0.094537705 -0.10808519 -0.29163048 0.272053 -0.0991006 0.074913256
-0.121308364 -0.112265944 -0.072880924 -0.14832395 0.22263442 -0.29578847 -0.18924472 -0.13833399
-0.0477658 0.023260806 0.06752491 -0.050126888 -0.14669248 0.3135861 -0.19076696 -0.0030214044
-0.30198714 -0.045946762 -0.008487748 0.117416844 -0.051393803 -0.05633058 -0.14793304 -0.07267731
0.26665363 -0.10271504 0.047924343 -0.09821484 -0.11186934 0.16423033 0.072481245 -0.0018186268
-0.057043105 0.05304632 -0.03250321 0.034950648 -0.37076804 -0.037027646 0.19784044 0.3775972
0.1711764 0.12994204 -0.06521356 0.4050965 -0.0400119 -0.3695314 -0.14513132 -0.08523537
0.30459052 0.029219044 -0.14241308 0.15966508 0.12065982 0.1223648 0.099143475 -0.075391546
0.071966276 0.01008268 0.21942046 -0.003209316 0.123836115 -0.0563676 0.41679785 0.16445701
0.30910933 -0.26106194 -0.0639638 0.07294614 -0.04630531 -0.14899258 0.0025434173 -0.15611765
0.0057939338 -0.11434887 -0.06665735 -0.19486336 -0.21537392 -0.032581925 -0.063094676 0.1881141
0.30462843 0.26348916 0.119794615 0.21252908 0.017286599 -0.27280322 -0.12725492 -0.16940138
0.2993881 -0.010258078 0.015182399 -0.0053157904 0.19451398 -0.32340524 -0.18883088 -0.056742325
0.0044545094 0.09729173 0.039098416 0.09595142 -0.2876115 -0.038581517 0.28075033 -0.02233754
0.20152564 -0.08018985 0.20044701 -0.22757077 0.19853255 0.08998198 0.21967225 -0.010637617
0.18354182 0.14841348 0.2041253 0.093552805 0.15900663 0.02638226 -0.30366603 0.022307374

actor.2.bias f4 [32]
00000000: d7b4 debc 9683 79bd 46e7 dfbd 4228 07be
00000010: db14 e6bc 993a 7d3d 37ae cdbd 4beb 9c3d
00000020: c3b8 163d 1a29 b03c f74c ae3d 9fa5 dcbd
00000030: a419 cfbd 109e ed3d 566b da3c c0cb 18bd
00000040: 6bf2 2f3d 39d9 eebd a143 bdbd df98 c3bd
00000050: fc52 0cbe 40f2 aebd 9adc 12bd a7b7 ac3d
00000060: a00e 85bd b693 243d 4023 0ebe 82c2 953d
00000070: a743 6abd 1f99 4cbd 680b 3f3a f4de 62bd
-0.02718584 -0.060916506 -0.10932784 -0.13198951 -0.028086117 0.06182346 -0.100429945 0.07662066
0.036797296 0.021503974 0.08510774 -0.10773777 -0.101123124 0.11602414 0.02666251 -0.037303686
0.042955797 -0.11662526 -0.09241415 -0.09550642 -0.13703531 -0.08542299 -0.035854913 0.084334664
-0.0649693 0.04017993 -0.13880634 0.0731249 -0.057193425 -0.049950715 0.00072877714 -0.055388406

actor.4.weight f4 [3, 32]
00000000: 23e2 93bb 6a5f beba 3b36 39bc fa1d bb3b
00000010: 0c15 78bc 3d70 3ebc bab6 913c a3d3 d0bb
00000020: fe54 1c3c 9570 59bb 4160 19bc 4dca 01bc
00000030: 770f 943a 7d39 3bbc fcea 523c f07e 4f3c
00000040: 0643 3c3d b612 bf3c 1dfb aa3b 4cfc 49bb
00000050: 4db3 83bc fdf8 d5bc 6ee9 223c 68a8 823b
00000060: be3a 09bc eb74 a63b b932 d83c 435b 4f3b
00000070: 0ddf 9abc b47e 9b3c a373 673c 749a a63b
00000080: 522c 5d3c 4b82 b3bb ccd3 17bc 8b7a 9f3c
00000090: 0851 bebc 6465 c63b f334 713b 1af4 e33a
000000a0: 7e3f bb3a 35b9 01bb 6599 843c d7a1 dcbb
000000b0: 734e 43bb f2d3 283b c1d9 25bc 1813 4e3c
000000c0: 57f8 383b d469 e6bb d81b 8f3c f2b3 8a3b
000000d0: 0141 02bc 0bd1 01bd 9d06 783b 8715 d13a
000000e0: ee91 c8bc 63d5 43bc 0dfd 34bc 4ca5 0fbc
000000f0: 7741 b43c 4d2a 7dbc 46c9 0bbc ecfd 71bc
00000100: a5ad dd3a 56b6 923b 0fa9 d53b 08e4 c6bb
00000110: 2fae 29bc 1884 c13c a812 963c 87b2 c33c
00000120: e21b e43b ae83 7c3b 1c0a 05bc b9a4 2cbc
00000130: 2a38 f43b db19 9b3c b991 c9bb 32fa 33bc
00000140: 868a b23c 5f37 c73c 77c7 d8ba 5dfc aabb
00000150: 08a1 37bc 82e1 70bc cc40 01bc bc54 2e3b
00000160: 239d af3c e4a6 fbbb ba88 5a3b d5e2 463c
00000170: 64d3 27bb 55e3 adba 28e0 3a3c ac65 25ba
-0.0045130416 -0.0014524285 -0.011304433 0.0057103606 -0.015141737 -0.011623439 0.017787326 -0.0063728853
0.009541748 -0.0033178676 -0.009361328 -0.007921767 0.0011296113 -0.0114272805 0.012873407 0.012664542
0.045962356 0.023324352 0.0052179233 -0.0030820547 -0.016076708 -0.026119703 0.009943349 0.0039873607
-0.008375822 0.0050798557 0.026391374 0.003164009 -0.018905187 0.018981315 0.014126691 0.00508433
0.013499336 -0.0054781786 -0.009266805 0.019467613 -0.023231998 0.006054567 0.0036805242 0.0017391474
0.001428589 -0.001979423 0.016186425 -0.00673316 -0.0029801398 0.0025761095 -0.010122717 0.0125777945
0.0028224194 -0.0070316587 0.017469332 0.004232877 -0.007950068 -0.0316935 0.0037845739 0.001595185
-0.024483647 -0.011952731 -0.01104666 -0.008767437 0.022003872 -0.01545198 -0.008531874 -0.014770012
0.0016912712 0.0044773025 0.0065203975 -0.006069664 -0.01035647 0.023622558 0.018319443 0.02388884
0.0069613317 0.0038530636 -0.008120086 -0.01053732 0.0074529843 0.018933227 -0.0061514047 -0.010984944
0.021794569 0.024318395 -0.0016538937 -0.0052180723 -0.011207826 -0.014702203 -0.007888984 0.0026600799
0.021437233 -0.007679807 0.0033345656 0.012139042 -0.0025608176 -0.0013266603 0.011405982 -0.0006309401

actor.4.bias f4 [3]
00000000: 59a0 273e 1932 b8bd 2d0a 2d3e
0.16369762 -0.0899393 0.16898413

critic.0.weight f4 [64, 24]
00000000: 5419 24be 110d 2dbd 0a52 a2be 6713 5bbe
00000010: 4af0 9ebd 8635 73bd be6f edbd 6565 88be
00000020: bde4 98be 0c93 b0bd 737b 9c3c 9637 e53d
00000030: 9269 fd3b f9bf 893e fc08 a83c d2dd 17be
00000040: 1aad 893d aae7 9c3e 381d b8be 5bba 82be
00000050: 63ce 51be a217 c5bc 366e a43d 43aa fabd
00000060: f14f 14be c207 dcbd da1d 023e b55c ecbe
00000070: 4bcd f13d 8dcc 143e 1e47 83be 9d60 29be
00000080: d4c3 443d b7ec 303c 865b 493e 4e83 68be
00000090: 0b8a 833e fcf0 be3d 3db0 9a3d f62f bfbe
000000a0: a359 aebe 5f5a 793d d195 4dbe 6f62 aebd
000000b0: fd5f 893d 37b7 10be 8a3a d0be 3de2 62be
000000c0: d8e4 40be 74c5 d43e 52c1 09bd 7799 00be
000000d0: b966 38bf fff8 61be 6423 3e3d c5b6 ae3d
000000e0: c062 953e c419 9e3e 343d f13e 887d bd3e
000000f0: 1f84 9fbc 06d4 383f c4ca da3e a9b4 883e
00000100: 1e33 9f3e 1a88 823e 5dae df3e 77a7 e63e
00000110: 0d2a 2a3e c883 b33e adb2 073f 0b67 713e
00000120: 35cf 8f3e 8fd5 8e3e b780 2ebd e890 94be
00000130: c945 2bbf 0e5f 13bc 2fc5 a73e 8e4a c5bd
00000140: 20ed f73e 3298 50be d02b c33e cb81 5a3d
00000150: 9a10 a23e 8cad 9cbe da18 c93d 3710 2dbe
00000160: de21 8d3e c553 943d b3e4 c33d 2e04 17be
00000170: ea96 6cbe 9413 89be ef18 e43e c954 91bd
00000180: ad45 43be 6359 85be d110 f33b 12be 89be
00000190: bcec bdbd a90a 0c3d 0b14 303e bd47 6f3e
000001a0: 9f12 113e bd19 043e 4954 3f3e e983 ba3e
000001b0: d098 c83e 8e86 c83d f017 193f 1ea4 bc3e
000001c0: 9145 f33e 4228 92bd dcab a33c 84e8 c63e
000001d0: 4639 073f 3b51 c03e 3fd7 a23e 5316 893d
000001e0: 4013 323e d680 33be ce1b 103d f3b1 94bc
000001f0: e60f 54be a345 84bd bcef 963e abdd 293d
00000200: 8262 b13e c00b aabe 6863 a8bc 8799 843e
00000210: ed20 67be dedf 543e d919 653d a77d f33d
00000220: 8300 96bd 9174 033e 6e51 00bd 468f dc3d
00000230: 4b4b ac3e 1e5c a1bd 6206 3a3e 367b 423e
00000240: 2fc9 8b3e 8946 89bd e420 c3bd b404 233e
00000250: ee05 413e bb9c 673e 1cbe bbbe ba0a 873d
00000260: 082c 1dbe fc5f 9abc 297b b0be e4f6 e8bd
00000270: 99fe 47bc d6cf 89bd 4033 cfbd b817 72be
00000280: ffa7 a4bd eb7e 12be 9349 09be 58b8 a1bd
00000290: 3051 acbd 75dc 4fbe bc9f c1be ac78 25be
000002a0: f66f de3d bc14 893e bb5c d7be 2f25 c3be
000002b0: df16 fabe 0fea 903e 7a43 0cbc 9f66 41be
000002c0: 9215 7c3c f130 83bd 8e04 0f3f 6a5b c8be
000002d0: ac1f 4c3e 6bfa d7be 3e1f 0b3e b0a0 7e3e
000002e0: 3d36 933e 749b 90be 51a9 ba3e 2629 cbbd
000002f0: 0106 863e e321 be3d 83f4 043d da47 283d
00000300: 9150 a5bd 4616 07be a6d4 1a3e e286 d8bc
00000310: bc99 b7bc a377 2ebf da07 123e d142 263e
00000320: f7be 173c 9097 933e 6a46 4e3e 7a95 923e
00000330: 9bb5 89be da4c c53e 3c62 a73d 3585 063f
00000340: 6d4e e8bd 8c41 d03d 0078 05be d5b0 833d
00000350: ae7d 8a3d 1e2b 493e 3487 583d 6060 e03e
00000360: c193 fb3d f902 9dbe 241c 36be 37a2 86be
00000370: 88f7 763e 55ad 103e 16e9 96be df83 25be
00000380: 2477 023e 50a2 8abe 6920 92bd 926d cb3d
00000390: 70d9 efbd 629f 67bd 9e01 45bd 8f47 c1be
000003a0: 96a7 6a3e 4426 fbbe 837d cc3c 15d1 81be
000003b0: 6bac 0cbe 1ed5 1fbe 4a0a fa3c c7aa b0bd
000003c0: ddef a83e ac35 36be fe71 c1be 7cd5 3a3e
000003d0: 5262 153f 8fdd c43e ca58 503e eac4 6bbe
000003e0: f878 a0bd 5023 9bbe fac7 31bd b915 e4bd
000003f0: d1cd 33be 9fd6 8abe 8207 97bd 4f30 88be
-0.16025287 -0.04224879 -0.31703216 -0.2139412 -0.07760675 -0.059377216 -0.11593579 -0.26639858
-0.29862013 -0.08621797 0.019101834 0.11192243 0.007733532 0.26904276 0.020512097 -0.14830711
0.0672247 0.30645496 -0.35959792 -0.25532803 -0.20488887 -0.02405912 0.080288336 -0.12239506
-0.1448362 -0.10743667 0.127067 -0.4616448 0.11806735 0.14531155 -0.25640196 -0.16540761
0.04803832 0.010798625 0.1966382 -0.22706339 0.25691256 0.09323308 0.07553146 -0.3734128
-0.34052762 0.0608772 -0.20076682 -0.085148685 0.067077614 -0.14132391 -0.40669662 -0.22156616
-0.18837297 0.41556895 -0.03363163 -0.12558542 -0.7203174 -0.2206764 0.04642047 0.08530954
0.29176903 0.30879033 0.47117007 0.37009835 -0.01947218 0.7219852 0.42732823 0.26700333
0.31093687 0.25494462 0.43687716 0.4504964 0.16617604 0.3506148 0.5300701 0.23574464
0.28087774 0.27897307 -0.04260322 -0.29016805 -0.6690336 -0.008994831 0.32767627 -0.09633361
0.484231 -0.20370558 0.38119364 0.053346436 0.3165329 -0.30601156 0.09819193 -0.16900717
0.275649 0.0724254 0.09565105 -0.14747688 -0.23104444 -0.2677275 0.44550273 -0.070962496
-0.19069548 -0.2604476 0.007417776 -0.26902825 -0.09273669 0.034189854 0.17195146 0.2336721
0.1416726 0.12900443 0.18684496 0.36428764 0.39179087 0.09791289 0.5980215 0.3684396
0.47514012 -0.07136585 0.01997941 0.3884927 0.5282177 0.37561974 0.31804845 0.06693711
0.17390156 -0.17529616 0.035182767 -0.018151259 -0.2070919 -0.06458595 0.29479778 0.041471165
0.34645468 -0.3321209 -0.020555213 0.25898382 -0.22571154 0.20788524 0.055932853 0.11889201
-0.07324316 0.12837435 -0.031327657 0.10769515 0.33651194 -0.07878898 0.18166497 0.18992314
0.27301928 -0.06702907 -0.09527758 0.15919763 0.18849918 0.22618382 -0.3666848 0.06593843
-0.15348828 -0.018844597 -0.34468964 -0.11375216 -0.012206697 -0.06729095 -0.10117197 -0.2364186
-0.08039855 -0.14306228 -0.13406973 -0.07896489 -0.08413923 -0.20298941 -0.3781718 -0.16159314
0.108611986 0.26773632 -0.42062935 -0.38114306 -0.48845574 0.28303573 -0.00856101 -0.18886803
0.015386002 -0.06405819 0.55866325 -0.39132243 0.19933957 -0.4218324 0.13586137 0.24865985
0.28752318 -0.282436 0.36457303 -0.09919958 0.26176456 0.09283807 0.032459747 0.041084148
-0.080720074 -0.1319209 0.15120181 -0.026431505 -0.022412173 -0.681513 0.14260808 0.16236426
0.009261838 0.2882657 0.20144048 0.28629667 -0.26896366 0.38535196 0.081730336 0.5254701
-0.113430835 0.10168752 -0.13034058 0.064302124 0.06762253 0.19645354 0.052863315 0.43823528
0.12284041 -0.3066633 -0.17784172 -0.26295635 0.24117863 0.14128621 -0.29474705 -0.16163586
0.12740761 -0.2707696 -0.07135088 0.09933008 -0.11711395 -0.056548484 -0.048097245 -0.37749907
0.22915491 -0.49052632 0.024962192 -0.2535483 -0.13737647 -0.15608642 0.030522484 -0.08626323
0.329955 -0.17793912 -0.37782282 0.182455 0.5835315 0.38450286 0.2034637 -0.23024336
-0.07835573 -0.3030038 -0.043403603 -0.11136956 -0.17558981 -0.27116868 -0.07374479 -0.26599357

critic.0.bias f4 [64]
00000000: b23c 45be e8e8 2abe 696f 063e 3c29 d83d
00000010: 5adf a13c 5673 163e e3a1 8dbd 7653 863e
00000020: 7de1 453e a9d4 313e 0fec a73e 08a1 57be
00000030: ed4c ac3e dc84 943d 6d2b 183e 09b1 13be
00000040: 1492 bc3e c021 2f3d 84c2 c4bc da8e b1be
00000050: 0bb5 703d a1a8 d5bd c014 b63e 656e a53d
00000060: 0e04 78be 8bb7 b83c 3ba2 9bbd 19da d3bd
00000070: fe6a bfbe b358 7bbe d046 67be bdd2 a23c
00000080: 92a7 4abd dd0c a53d cf11 a43e 6f5a 5fbe
00000090: ce2c 10be fca3 143e bb28 64bd 0396 d63e
000000a0: 0b79 9e3e 094b 94be 0886 99be 2234 933c
000000b0: b339 8d3e 08cb a93d 7d76 0f3e 1050 983d
000000c0: d5f3 a0be 0531 213e af89 35be 778c 89be
000000d0: 60d3 153e 3955 023e c3b8 a4be 0803 57be
000000e0: bace 7f3e 4c8c 993e 3454 653e 10db d63d
000000f0: 20f9 72be 3020 0b3e 68ee 143d 7000 c7be
-0.19261435 -0.16690409 0.13128437 0.1055474 0.019759823 0.14692435 -0.06915643 0.2623555
0.19324298 0.1736628 0.32797286 -0.21057522 0.3365244 0.072519034 0.14860316 -0.14423002
0.368302 0.042756796 -0.024018534 -0.346793 0.058766406 -0.10432554 0.35562706 0.08077697
-0.24220297 0.022548458 -0.075993024 -0.10344333 -0.37386316 -0.24545555 -0.22585607 0.019875878
-0.049476214 0.08059094 0.32044837 -0.21811841 -0.14079592 0.1451568 -0.055702906 0.41911325
0.30951723 -0.28963497 -0.2998507 0.017969195 0.27583084 0.08290678 0.14010043 0.07437146
-0.3143603 0.15741356 -0.17728303 -0.2686498 0.14631414 0.12727822 -0.32172212 -0.2099725
0.24981204 0.2998985 0.22395402 0.104910016 -0.23727846 0.13586497 0.036360174 -0.3886752

critic.2.weight f4 [32, 64]
00000000: d52b 4abd d151 adbc 1b50 3bbc 59fb 52be
00000010: 42f5 cc3b 182f 1e3e 2e5e 53be cb4b c0be
00000020: de2f 8b3e aa80 11be 070d 97be af51 15bd
00000030: aa77 c3be 1bb2 8bbe 491a 06bf 3a86 493e
00000040: e6f1 fdbe 9815 9ebe 13af 22bd 9001 5bbe
00000050: 776f 8e3e ed08 a33e b389 00bf e822 3c3e
00000060: 9c87 0dbe 1597 6dbe 76f9 82be ab13 693c
00000070: 8d73 063e d21c e93d da50 223e 1f70 a4be
00000080: 8b94 063d cef1 a5be 9283 c9be ca7e b63d
00000090: 6019 9fbc 6776 54bd 5b34 8abe 9c78 c3be
000000a0: 092c 2ebe 5fc1 5f3e 99a6 a3be 2a2e 9bbe
000000b0: 9eba d43d ed87 ba3d 892f 793e 71e4 13be
000000c0: 1038 5d3e 30a9 b8be a5e3 153c 7551 c53d
000000d0: b92b a1be cdf4 c3bd 2fa4 30be 864d 413d
000000e0: ef83 16be 7405 553c e318 fbbd 6714 acbd
000000f0: b9b0 073e 4f3f 3abd 15e1 45be ef20 c33e
00000100: c77d 13be d7da dbbd 2c7e 373d d857 6fbe
00000110: f2a3 353e 8c70 87bd 1c02 aebe 4b65 a1bd
00000120: 58af bb3d b4e3 1a3e 01f7 0ebe 92c8 2d3e
00000130: 9af4 0cbe bc1e 6ebe 47cb 093e ed59 71be
00000140: f296 a9be d68a d9bd 5b8e 723e 3fc8 37be
00000150: e9d6 183e c0f1 6e3d e7ea 153d 4e64 aa3e
00000160: 73b3 fdbd 7190 e0be 6dab a0be 6643 113a
00000170: 2204 8b3d 434b ddbd 7368 493e a6ba 1dbd
00000180: df17 a93e 292b 34be 8547 f7be 7f40 97bd
00000190: 5e22 f53d f885 47bd d7c8 86bd 1d65 aebe
000001a0: cc2e 92be 465d 703c e26a cdbc c8fc a73d
000001b0: 4653 b6bd a218 b4be 61cd d43d e13d 3c3d
000001c0: 39e5 6f3d 13fe 04be 22c2 2f3e b905 063e
000001d0: 9301 b6bd ecc9 f0bd 5ae6 f63e a090 dbbe
000001e0: 39be ca3d 2874 1a3e f342 bebe 597c 7e3e
000001f0: 2eef 5bbc 9d5c a2be abc5 28be fd0c 963e
00000200: bbe4 91bd a25d a83e 7d08 88be 9bdc d73e
00000210: eeb1 36be 245a d4bd 0e88 b8be 685a e83e
00000220: ae9e 3c3e 368e 30bd f957 c13e a8dc 2ebe
00000230: b108 c63b 2e48 083e 798e ad3d eedd b1be
00000240: f406 4abe 8ba4 31be 43e5 8f3e 4dfe c3bd
00000250: ee08 213e 35ed 1ebe 820a 433e 0025 663e
00000260: 21b6 c23d 4ddd abbd f2cc 90be fc8e 6fbe
00000270: 68d4 693d 948e 8c3e b783 85bc 4671 bd3e
00000280: 106c 0b3e 7c9e 8f3e 077f ba3e c509 833d
00000290: 88ce f13d 0afb 623e ac44 ca3d c942 5b3e
000002a0: 2011 263e 208f 91bd 0378 893d d1cd 8f3e
000002b0: 97f9 8c3d bcb5 c13d 9307 8bbb f60f aabe
000002c0: 2d5f d2bd fa42 09be 68ba 223e c71b 03bd
000002d0: fb1a 6cbd 8480 063e 1b17 89be 48fa 29bd
000002e0: fa5f 953d 4641 24be bcb4 603e 8548 96be
000002f0: 996b 823e 7deb 063f 6e48 10be beb7 a6be
00000300: 4bd0 07bd 25dd b33e 8ca0 233c 7e1e cabe
00000310: 8d00 90be 3df1 83be 2fcf 793e ec8e 603c
00000320: c00b 793e 8cd8 01be 9f53 60bd 3bcc 863e
00000330: 23db 7d3e 5533 7b3e 5da0 d2bd a93b 0abf
00000340: 0bc2 17be 0b2a 053e 3217 923e f577 7dbe
00000350: 7e9a a83d ce43 4a3d 921e a23e 7917 da3d
00000360: d1a1 a73e 454d b93d 72e7 fe3d 1639 4e3c
00000370: 8da6 03bd 053d 0cbe be45 1f3d 3eeb f53c
00000380: 06b6 2e3d c233 ea3e 934e ce3e 72d6 0bbe
00000390: aeb5 ef3d b192 a63e 07c5 4ebc cc1e 343e
000003a0: 61e5 64be 2ba6 2dbe 3639 803d 5a32 8b3d
000003b0: 96b6 af3e 3488 09be 0d96 553c 6971 25be
000003c0: 9088 d9be ac1b a2bd 8cfe 4c3e 9282 00be
000003d0: 5c89 e4bd b0fc 22be 173c f9be 058d 87be
000003e0: feac 993d eb9e ab3d 743c e0bd dc9d 1bbe
000003f0: a150 e1be 8596 8a3e afeb 943d be34 68be
-0.049358208 -0.021157177 -0.011432673 -0.20603694 0.006254823 0.15447652 -0.20641395 -0.37557825
0.27184957 -0.14209238 -0.29502127 -0.036454853 -0.38177234 -0.2728432 -0.5238386 0.1968011
-0.49598616 -0.3087585 -0.039717745 -0.21387315 0.27819416 0.31842747 -0.5021011 0.1837269
-0.13821262 -0.23202164 -0.2558095 0.014225881 0.13130017 0.1138245 0.15851155 -0.32116792
0.032856505 -0.32411045 -0.39358193 0.08910902 -0.01942128 -0.05187073 -0.2699307 -0.38177955
-0.17008986 0.21851109 -0.3196304 -0.30308658 0.10387157 0.09107957 0.2433454 -0.14442612
0.21603417 -0.3606658 0.009148513 0.09634677 -0.3147867 -0.095681764 -0.17250131 0.047193073
-0.14698766 0.013001788 -0.12260606 -0.08402329 0.13251008 -0.045470532 -0.19324143 0.38111064
-0.14403449 -0.107351 0.04479806 -0.23373353 0.17738321 -0.066132635 -0.33985984 -0.07880648
0.091643035 0.15125924 -0.13961412 0.16971043 -0.13765183 -0.23253912 0.1345645 -0.2356946
-0.33122975 -0.10622184 0.23687117 -0.17947482 0.14925732 0.05833602 0.036600973 0.3327965
-0.12387743 -0.438602 -0.31380787 0.0005541354 0.06787898 -0.10805371 0.1966875 -0.03850808
0.33026025 -0.1759459 -0.48296753 -0.073853485 0.11969446 -0.048711747 -0.06581276 -0.34061518
-0.28551328 0.014670676 -0.02507538 0.08202511 -0.08902602 -0.35175043 0.103907354 0.04595745
0.058568213 -0.12987547 0.171639 0.1308812 -0.08887019 -0.117572635 0.4822262 -0.42883778
0.09899563 0.15083373 -0.37160453 0.24852122 -0.013423724 -0.31711283 -0.16481654 0.29306784
-0.07123705 0.32883936 -0.26568976 0.42160496 -0.17841312 -0.103687555 -0.360413 0.45381474
0.18419906 -0.043104373 0.3776243 -0.17076361 0.0060435166 0.13308784 0.0847444 -0.3473963
-0.19729215 -0.17347924 0.281046 -0.095699884 0.15726063 -0.15520175 0.19046977 0.22475052
0.095073946 -0.08391819 -0.2828136 -0.23394388 0.057087332 0.27452528 -0.016298158 0.37000483
0.13615441 0.280506 0.3642504 0.06398348 0.11806971 0.22166076 0.09876379 0.21412195
0.1621747 -0.07107377 0.067123435 0.28086713 0.06883543 0.09458491 -0.0042428463 -0.33215302
-0.102720596 -0.13404456 0.15891421 -0.032008912 -0.057642918 0.13134962 -0.2677544 -0.041498452
0.07293697 -0.16040525 0.21943945 -0.29352203 0.25472715 0.52703077 -0.1409013 -0.3256206
-0.033157628 0.35129657 0.009987008 -0.3947639 -0.2812542 -0.25769988 0.2439544 0.01370595
0.24320889 -0.12680262 -0.054767247 0.2632769 0.24790625 0.245313 -0.10284493 -0.53997284
-0.14820115 0.1300432 0.28533322 -0.24752791 0.08232592 0.04938107 0.31663948 0.10649008
0.32740644 0.09047941 0.124464884 0.012586853 -0.032141257 -0.13695152 0.03888487 0.030019399
0.04265406 0.45742613 0.40294322 -0.13656023 0.117045745 0.32533792 -0.012620217 0.17589873
-0.22353126 -0.1695792 0.06260912 0.06796713 0.3431899 -0.13430864 0.013036263 -0.16156544
-0.42487 -0.07915434 0.20018977 -0.12549809 -0.11159012 -0.15916705 -0.48678657 -0.26474777
0.07503699 0.083799206 -0.109490305 -0.15196937 -0.44006827 0.27067962 0.072715156 -0.2267637

critic.2.bias f4 [32]
00000000: 34f1 abbe be69 5dbe 28f0 273e 7f1f 523e
00000010: fead 663e 6746 633e 0853 153e 175d 03be
00000020: 0372 8c3e 1493 863e d881 55bd 274a 1dbe
00000030: a865 843e 6151 d53d 3910 233e 5dcd bd3d
00000040: 0540 6ebe a0ba 513e bbef 853e ddf1 533e
00000050: 5c16 5c3e d19c f03d e0bd 94be 5801 47be
00000060: 45cf 8ebe 042f 113e 56e8 78be 8204 9e3e
00000070: f1ed 55be 17d7 d7bd 36b0 0bbe 905c 3ebd
-0.3358246 -0.21622369 0.16400206 0.20519827 0.2252731 0.22194825 0.14582455 -0.1282848
0.27430734 0.26284087 -0.05212578 -0.15360318 0.25858808 0.104159124 0.15924157 0.092676856
-0.23266609 0.20481348 0.26159462 0.20697732 0.21492904 0.1174866 -0.29051113 -0.19434106
-0.2789251 0.14178091 -0.24307379 0.30862814 -0.20891549 -0.10539072 -0.13641438 -0.046474993

critic.4.weight f4 [1, 32]
00000000: 1c13 88be 0b9d 73be 254a 393e 9dbb 353e
00000010: a9fb 3f3e ed74 b93e 6487 a4bb a1d8 b3bd
00000020: fc41 8d3e b149 7e3e f739 c5bd c55e ddbe
00000030: f7c4 bb3e 4608 a33e 7a04 043e 2606 de3d
00000040: d1f4 a2be d329 5b3e 4d91 c73e 1279 693d
00000050: 4739 363e 5d6c 773e 0f36 bebe 6359 a1be
00000060: 731f 18bf 24f8 4e3e 2d5a 39be 38f7 9e3e
00000070: 017c 02bf fb9f 64be 319a dbbe 6c65 29be
-0.2657708 -0.23790376 0.1809469 0.1774735 0.18748344 0.3622202 -0.0050210226 -0.08781553
0.27589405 0.24832799 -0.096301965 -0.43236366 0.3667371 0.3184225 0.12892333 0.108410165
-0.31827405 0.21402673 0.38978043 0.057000227 0.17795287 0.24162431 -0.37150618 -0.3151351
-0.5942299 0.20211846 -0.18100806 0.31047988 -0.50970465 -0.22326653 -0.42891076 -0.16542596
