logs/exp/model_43.pt (torch, 34660 bytes, 12 tensors)

log_std f4 [3]
00000000: 8a72 50be f9c2 9bbd 116a 97bd
-0.20356193 -0.076055475 -0.073932774

actor.0.weight f4 [64, 24]
00000000: 6b5a b3be 07bd 0a3d 042b 0b3f d908 71bd
00000010: 35c7 2ebe 1715 d0be 50d9 0dbe 8516 33be
00000020: dd4b f53d 8e53 0bbf 05d7 92bd b040 aabe
00000030: c51e d6be 250e 95bd f1b5 8bbe f471 20bf
00000040: d23a ebbd 952b 91be eb0e 203e 73ca 36bf
00000050: 552a 933c 3e80 dcbe b821 1cbe 8b9d b9be
00000060: ee93 32bd 22d3 843d 1ad7 263e 5785 29bd
00000070: 9f76 95be 0d10 693c bf7e 19bd 6bf7 d83d
00000080: 59f8 d2bd edc3 cfbd 7c5c 62bc fca9 69be
00000090: f28e 0d3e 25f5 adbe e72d 303e 7210 15be
000000a0: 1e8c 40bd 7ae4 91be 0722 20be 3a39 6dbe
000000b0: 7ba2 a4be 9849 5ebd 783c 23bc c9f3 0ebe
000000c0: 380a 1e3d 0dc5 44be b9dc 083e 9391 80be
000000d0: 4b15 003e 3588 5b3e 4f1c 393e a79e 98be
000000e0: a18b ff3e 76bd 9bbd 95ce 753e ff31 32be
000000f0: a2f0 783e 58ab 24be a4a0 e23e 9831 b8be
00000100: 4af1 8ebe d790 99bd 9edd 0cbe 66c9 813d
00000110: 1f39 743c b853 31ba f0a2 13bd 19fc a9be
00000120: 0aaa 8fbe c584 a73e f7e9 06bd 6c6d 03bd
00000130: 23aa e5bd 79e7 11bd f2b1 f4bd d695 dcbe
00000140: 3d8e 093e 840d 6b3d d90f 1cbe ce0f b6bc
00000150: cb8f c53d b8fe fb3d 77ba f23d 7a6f c4be
00000160: 3f32 08bc ac9d fbbd 0e65 253c ec89 d7bc
00000170: ec39 473d eae5 89be 5d30 2cbe a67d cdba
00000180: 9b03 06be c4fc 043d f3a8 163e 1186 56bf
00000190: 920e 0a3f bd99 363f cf5c 493d 38e1 7f3d
000001a0: 8575 99bd d1b1 823d 9cc5 22bc 4701 d0bd
000001b0: 71b8 04be dbef 97bd e14b 85be 7d24 9dbd
000001c0: 3197 33be 7b53 d9bc 21ad 91bd d0ed 7e3d
000001d0: 5044 ba3d 2c5b 69be b9c4 c93c b10f 3bbe
000001e0: 9786 fcbe 8420 01be ca58 973c c265 0bbd
000001f0: 3563 ecbe d7a6 a53e 1e29 153d 4aae 12be
00000200: d605 2abd c0b9 2b3d dafa 91bd 06b7 2d3d
00000210: 89d7 c73c 1b6d 323c b68f aabc 588d ae3e
00000220: e136 bcbd 55a8 2e3e c026 3d3e 31c5 59bd
00000230: c825 d4bd 744e bd3c b71f abbc c28c 1f3e
00000240: a232 fd3d 55cd f13e 28ef a1be 60cb c4be
00000250: 6055 c63e 4d4f b1bd 1e37 1f3f 5315 b1be
00000260: 01b1 003f ba58 0ebe 46ee 893e 998c 4abd
00000270: 9999 cc3d f106 8abd ceeb ca3e 124d 653e
00000280: e855 93be b2b0 303e eaca 21be c056 d2bd
00000290: 9aea 0dbe 4e99 523e 04ed e9bd 8769 583d
000002a0: 9955 b23d d063 173d bc35 d1bd 082b 8cbf
000002b0: 623e 70bd c9b1 4cbe 0389 b8be e08d d83d
000002c0: db2b 8cbc cd9b bb3d a915 173e d80a 5a3e
000002d0: afa6 2bbe 4bb7 82bd 6dd8 9c3c 02fc f43b
000002e0: fde8 b43e f746 c0bd 88c2 03be aafd 20bd
000002f0: ca4f 71be 4abd 003e 88d2 afbe 3017 953e
00000300: bd49 a63d ffc1 813d 7185 1b3e 5c30 d73e
00000310: 54a3 1f3f 23bf 2e3e 365e 2c3e 4c4d 673d
00000320: f820 f93e b2df e23d 6c73 f4bd 9bf9 603e
00000330: 1583 193e f79c 903e c8d4 31be 90b5 8cbd
00000340: 9716 a5bd 8fa8 0ebe 8e4b 3f3d 7b33 55be
00000350: 7490 703d 87ca 1ebe 6657 a1be 3d70 39be
00000360: 108e f93d cf53 f53d 49f3 053d 2fb5 96bf
00000370: d2b4 b6be 0500 06bf 6b0b 02be bf58 a4bc
00000380: baf1 4fbe c971 80be 5631 aebe bfa0 373d
00000390: 5773 8abe fa56 a43d 3c44 b5be 4305 573e
000003a0: 539f a4be 6c0b b0be cb0b 6fbe 3e94 2f3c
000003b0: 5796 7ebe fc6c 36bd d827 ab3d 2294 37bd
000003c0: 71c8 90be 9704 26be 281d 5ebe 3fb0 2abe
000003d0: 4228 bebe 1702 c7ba bc41 f63d d089 893e
000003e0: dfe7 673e 3c56 9fbd 3618 ddbd 791f cdbd
000003f0: 1bcb 9c3c 89f0 c43d 06ea 003e 20bd b43d
-0.3502992 0.033871677 0.5436251 -0.05884633 -0.17068179 -0.4064109 -0.1385243 -0.1748906
0.119773604 -0.5442437 -0.07169918 -0.33252478 -0.4182035 -0.072780885 -0.27287248 -0.6267388
-0.114858285 -0.28353563 0.15630691 -0.71402663 0.017964521 -0.4306659 -0.15247238 -0.36253008
-0.043598108 0.06485583 0.16292992 -0.04138693 -0.29192063 0.014225018 -0.03747439 0.10594066
-0.10301275 -0.10144792 -0.013815995 -0.2281875 0.1382406 -0.33976093 0.1720501 -0.14557055
-0.047008626 -0.28494626 -0.1563798 -0.23166361 -0.32155213 -0.054269403 -0.009963147 -0.13960184
0.038583964 -0.19215794 0.13365449 -0.25111064 0.12508123 0.21438678 0.18077205 -0.29808542
0.49911216 -0.07604496 0.24004586 -0.17401884 0.24310544 -0.16080987 0.44263184 -0.35975337
-0.27918464 -0.07498329 -0.13756415 0.06337242 0.014906197 -0.0006764489 -0.03604406 -0.33200148
-0.28059417 0.32718483 -0.03293797 -0.032086775 -0.11214092 -0.03562114 -0.11948003 -0.43083066
0.13433166 0.057385936 -0.1524042 -0.022224333 0.09646567 0.12304443 0.118519716 -0.383663
-0.008312761 -0.12285933 0.010094894 -0.026310883 0.048639223 -0.26933223 -0.16815324 -0.0015677705
-0.13087313 0.03246762 0.14712887 -0.8379832 0.5392848 0.71328336 0.049160775 0.062470645
-0.07493118 0.06381572 -0.009934809 -0.10156494 -0.12960984 -0.07418796 -0.26034454 -0.07672975
-0.17538144 -0.026529064 -0.071131 0.062238514 0.09095061 -0.22788686 0.024629937 -0.18267705
-0.49321434 -0.1261006 0.018474955 -0.03403259 -0.4616944 0.3235385 0.036416166 -0.14324299
-0.04150947 0.041925192 -0.07127924 0.042410873 0.024394767 0.010890271 -0.02082048 0.34092212
-0.09190155 0.17056401 0.18471813 -0.053166572 -0.10358769 0.023108698 -0.020889146 0.15581039
0.12363173 0.47226968 -0.31627774 -0.38436413 0.3873701 -0.086577035 0.6219348 -0.34586582
0.50270087 -0.13901034 0.269396 -0.04945049 0.09990234 -0.06739605 0.3963303 0.22392681
-0.2877648 0.17254904 -0.15800062 -0.102704525 -0.13859025 0.20566294 -0.1142216 0.052835014
0.08707733 0.036960423 -0.10215327 -1.0950632 -0.058653243 -0.19989695 -0.36042032 0.105739355
-0.017110756 0.09160576 0.14754356 0.21293199 -0.16762803 -0.063826166 0.019146169 0.0074763307
0.35334006 -0.093885355 -0.12867177 -0.039304413 -0.23565593 0.12572208 -0.3434031 0.29119253
0.08119533 0.0633583 0.15187623 0.42029083 0.62358594 0.170651 0.16832814 0.0564702
0.48657966 0.11077823 -0.119360775 0.21970217 0.1499141 0.28244755 -0.17366326 -0.06870568
-0.08060949 -0.13931488 0.046702914 -0.2082042 0.05873151 -0.15506946 -0.31511992 -0.18109222
0.121852994 0.11978876 0.032702718 -1.1774043 -0.3568483 -0.5234378 -0.12699668 -0.020061849
-0.20307055 -0.2508681 -0.34022015 0.044831034 -0.27041122 0.08024402 -0.3540362 0.20998101
-0.32152805 -0.34383714 -0.23344342 0.010716496 -0.24862038 -0.04453753 0.08357209 -0.044819005
-0.28277925 -0.16212688 -0.2169081 -0.16668795 -0.3714009 -0.0015183118 0.120242566 0.26862955
0.22647046 -0.0778012 -0.107956335 -0.100157686 0.019139817 0.09616191 0.12589273 0.08825135

actor.0.bias f4 [64]
00000000: b8cc 133e 25d8 c2bc 1f02 4dbe cbeb aebd
00000010: ef6b 553d bd83 34bc f496 dcbd 6864 573b
00000020: f56f c1be 5638 9dbe 004d e93b 55a0 58be
00000030: ffe0 eabd 366b 423e 8bba a0be b087 133d
00000040: ba40 2b3d 1258 80be 5b51 453d fc54 48be
00000050: 2fcb 253d 40db a5be c400 0cbe ade7 18be
00000060: 6d85 47be bd78 e1be a69f 79be 933e 9d3e
00000070: 386e 36be 8ed8 99bc cfa8 b2be 7251 aabe
00000080: c234 2fbe b21a 8cbe f645 c1bd 2038 30be
00000090: a80c 11bf 4bba 893d 6980 8fbe e7d0 fcbc
000000a0: 3c4b d5bd ec7a 77be 59c5 29be e1d6 ce3d
000000b0: 103d 07be cba2 073e ab22 0fbe 7f56 7bbe
000000c0: 2591 01bd 8900 c8be 3d9c 53bd 2e77 6fbe
000000d0: e013 dbbe 5985 8cbd dad7 60be 0fce f2bd
000000e0: 44e5 923d 4f7b 4a3d 4683 803d 8f3b c6be
000000f0: dca5 88be ff17 bc3d 1f2a 3a3e 3bdf 79bd
0.14433563 -0.023784706 -0.2002034 -0.08541068 0.052104887 -0.011017737 -0.107709795 0.0032866243
-0.3778073 -0.30707043 0.007119775 -0.21154912 -0.11468696 0.1898621 -0.3139232 0.036018074
0.041809775 -0.25067192 0.04817329 -0.19563669 0.040476974 -0.32393837 -0.13672167 -0.14932127
-0.19484492 -0.44037428 -0.24377307 0.30711803 -0.17815483 -0.01878002 -0.34894416 -0.33265263
-0.1710997 -0.27364117 -0.09437172 -0.1720891 -0.56659937 0.06724986 -0.28027657 -0.030861331
-0.104147404 -0.24167985 -0.16579188 0.10099579 -0.13206887 0.13245694 -0.13978069 -0.24544714
-0.03163256 -0.39062908 -0.051662672 -0.23385307 -0.427886 -0.068613715 -0.21957341 -0.11855709
0.07172635 0.049434002 0.062750384 -0.38717315 -0.2668904 0.091842644 0.1818013 -0.061003905

actor.2.weight f4 [32, 64]
00000000: d28a febd e12e e1bd 8fe6 8fbe a32c 13be
00000010: d26c b83c c5cb 24be 6bd2 b0be 2629 55bd
00000020: aac0 84be be4f a5be 417f 89bd 0dfa cbbe
00000030: 32c1 743c c427 abbe e697 9bbe 542b 80be
00000040: b1f7 b5be 70c4 d63e 874a 8abe bbf5 acbe
00000050: bdf9 293e 7985 673d 8bdf 983d 66c7 45be
00000060: ec18 e83d 9774 063d 27fe 223e 69b1 d3be
00000070: 94fc 1ebe f57b 14be 6aa7 90be f120 42be
00000080: 3c6d cdbe 7550 1c3e 65f6 a5bd 0a2a b53d
00000090: 9ee2 17bd ea93 85be 4dc2 cebd 37d9 663c
000000a0: 0924 4d3d 9582 3e3e b4b2 96bc c7d0 19be
000000b0: 93c0 41be c75b 8bbe 35ef 273e 021f 42be
000000c0: 2ebe 233b ac28 32be b83a b3be fec1 a23e
000000d0: ef3c 55bd 6359 29bd fcda 9dbd 9c09 f4bb
000000e0: 93f6 283e 4818 94be eaa8 ce3d c8f5 883e
000000f0: b964 983e b00f e4be df44 a5be 4ecd 603e
00000100: 03ad 0dbf 7276 c53c 6b17 e8bd 835a f3bd
00000110: 67b5 fdbd c7c1 33be 3d7e a9be 817a 8e3d
00000120: ff61 c23d bd99 813e c3d6 1bbe 8b51 833d
00000130: 1fa4 45be c86e e6be beb4 d83a de7d 40bf
00000140: 3bb9 23bb 408d 503e 1f11 d43d fb86 23bd
00000150: b9bd 4abe 7655 91bb 4c8f abbd 5f88 60be
00000160: 2b34 80bd 2fb1 4f3d da91 d13c 2737 0fbe
00000170: 4df9 d2be b51d e5be 5ae4 0e3d 4ba9 36be
00000180: f482 35bd 9bf4 523e 8e68 68be f064 9a3d
00000190: fa0d e03d 9b91 dcbc d2d8 813e 27f7 d4bd
000001a0: 1b9b 27be 6fae a3be d62a 493e 94f9 3fbe
000001b0: ccc9 afbd b38b 85be 1e81 c1bc bfb4 cf3d
000001c0: a9e5 263d 1277 d13d db9a 8ebe c45f 24bf
000001d0: a128 7e3d ced9 0e3d 4698 3bbe 695f 17be
000001e0: bbd4 82be 1d0e ad3d af8d 31be d0dc 33be
000001f0: 16d7 743e 826c 5ebe e472 8abe 5670 803d
00000200: 3a0f febe ce88 1bbe 2f07 efbc 414b 00be
00000210: 3088 77be b58e 4a3e 48a4 22be 0069 33bd
00000220: b68c 33be dcbe 04be 0281 41bd 2c5c e0be
00000230: 4457 ef3d 53c5 59be ada7 83be f31d a1be
00000240: 8c3d 9ebd f66e 383d 4750 d03d 1299 32bd
00000250: 1cfe 8fbe ae25 7c3e 3870 39be 071a 01be
00000260: bb96 84be b5a9 92ba b948 b0bc 6bd0 1e3e
00000270: 2382 06be 4c43 89bd 9a6e e0bc 0ce2 ecbd
00000280: 1764 e4bb 8815 0abe ba3b 1e3c fad8 17be
00000290: 9aeb 123e 2407 3bbe c7df 69bc 16a7 1ebe
000002a0: 86d3 bfbd e473 6abd 19e7 02be ef2e 563e
000002b0: fc17 d4be 4d16 f33c 5163 a33d a242 903e
000002c0: bb2d 593e 6b8b 1a3c a69a f7bd ad6c da3e
000002d0: b49a 58bd b0f5 55bd 0030 d93d 314d 39be
000002e0: 88ee a53e 214a 46be 3672 303d e96d 543e
000002f0: db26 8c3e 7a78 68bd 2258 223e df5a b9be
00000300: eeca f9bd 2864 bcbd 0a7b 72bc 2ac8 d1bb
00000310: 755a ef3d b34a 693e 53a9 bc3e 1087 ce3d
00000320: fbac 2b3e 71c0 08bf 61ac f9bd efd9 8dbd
00000330: 061c 96be 540c 13bf 4520 13be 3522 73be
00000340: d7ae 073e b8a7 5b3c ef82 13be f8b9 aebe
00000350: 63c9 07bf 86a0 05be a3b4 063e 0868 5f3c
00000360: 208c b13e 9a14 a33e 3aaa 883e 7893 833e
00000370: 0dcc 193e 165e 1fbe 5dba 47be 2182 aebd
00000380: d0d2 9a3e c43d 50be db80 1fbe 0d36 aabd
00000390: 1de4 a0bc 8110 41bf ef50 7cbe 988a ab3e
000003a0: 3569 73be a4da 453d 91c1 5d3b 226e 3a3e
000003b0: 69f1 abbe b7fb 133d 4353 903e 4e81 7cbd
000003c0: b829 843c bdb6 65be 1964 23be 41a8 6cbe
000003d0: 64fb 1e3e fce7 38be 8487 b7bd 9ede aebd
000003e0: 9b1d dd3e 524d de3d ec16 203e 4bdb c63c
000003f0: be4e 6d3e dc4b 47ba 8c5b 89be 0929 37bc
-0.124288216 -0.109952696 -0.2810559 -0.14372496 0.022512827 -0.16093357 -0.34535536 -0.052041195
-0.2592824 -0.322874 -0.06713725 -0.3983921 0.0149386395 -0.33428776 -0.30389327 -0.25033057
-0.35540536 0.41946745 -0.27009985 -0.33781227 0.16599174 0.056523774 0.074645124 -0.19314346
0.113328785 0.032826032 0.15917264 -0.4134629 -0.15526038 -0.14500411 -0.28252727 -0.18957879
-0.40122402 0.15265067 -0.08103637 0.08845909 -0.037081353 -0.26089412 -0.10095654 0.014089874
0.050083194 0.186045 -0.01839576 -0.15021048 -0.18921117 -0.27218458 0.16399844 -0.18957141
0.0024985182 -0.17398328 -0.35005736 0.3178863 -0.052060064 -0.04134501 -0.077077836 -0.0074474346
0.1650031 -0.28924775 0.100908116 0.26750016 0.29764345 -0.4454322 -0.32279107 0.21953318
-0.5534212 0.02410433 -0.113325916 -0.11882498 -0.123881154 -0.17554389 -0.33104125 0.069569595
0.094913475 0.25312606 -0.15218644 0.064120375 -0.19300888 -0.45006394 0.0016533358 -0.7519206
-0.0024982232 0.20366383 0.10354828 -0.03992365 -0.19798936 -0.0044352366 -0.08376941 -0.21927021
-0.0625995 0.050706085 0.025582243 -0.13985883 -0.41205826 -0.44749227 0.03488574 -0.17838018
-0.04431434 0.20601122 -0.22696134 0.075387836 0.10940166 -0.026924899 0.25360733 -0.10398703
-0.16367762 -0.3196902 0.19645247 -0.1874755 -0.085834116 -0.26083145 -0.023621138 0.101418965
0.040746365 0.10227789 -0.2785252 -0.64208627 0.062050465 0.034875683 -0.18319806 -0.1478249
-0.25552925 0.084499575 -0.17339204 -0.17564702 0.23910174 -0.2172108 -0.2704078 0.062714264
-0.49620992 -0.15188906 -0.02917823 -0.12528707 -0.24173045 0.19781001 -0.15882981 -0.043801308
-0.17534146 -0.12963432 -0.047242172 -0.43820322 0.116865665 -0.2126668 -0.25713864 -0.31468162
-0.07726583 0.045027696 0.10171562 -0.04360301 -0.28123558 0.24623749 -0.18109214 -0.12607585
-0.25896248 -0.0011189493 -0.021519052 0.15509193 -0.1313558 -0.06702289 -0.027396489 -0.115665525
-0.0069699395 -0.13484776 0.009657795 -0.14828864 0.14347687 -0.18264443 -0.014274544 -0.15493426
-0.09366517 -0.05723943 -0.1278347 0.20916341 -0.4142455 0.02967372 0.079779275 0.28175837
0.21208851 0.009432654 -0.12090044 0.42661038 -0.05288191 -0.05223626 0.106048584 -0.18095852
0.32408547 -0.19364215 0.04307767 0.20745052 0.27373394 -0.05675552 0.15853932 -0.36202142
-0.12196909 -0.09198791 -0.014799843 -0.0064020352 0.11687175 0.22782402 0.36847934 0.10084355
0.16765206 -0.5341864 -0.12191082 -0.06926333 -0.29318255 -0.57440686 -0.14367779 -0.23743518
0.1325029 0.0134066865 -0.14405416 -0.34126258 -0.53041667 -0.13049516 0.13154845 0.013635643
0.3467722 0.31851655 0.26692373 0.25698447 0.15019245 -0.15563235 -0.19504686 -0.08520914
0.30238962 -0.20336062 -0.15576498 -0.083110906 -0.019640023 -0.7541581 -0.24640249 0.33504176
-0.23770602 0.048304215 0.0033837298 0.18206075 -0.3358262 0.036128726 0.28188524 -0.061646752
0.016133174 -0.2243299 -0.15956153 -0.23111059 0.15525585 -0.18057245 -0.089613944 -0.085385546
0.4318665 0.108545914 0.15633744 0.024274489 0.23174569 -0.00076025515 -0.26827657 -0.011179217

actor.2.bias f4 [32]
00000000: 4b1a 34be a3d0 37be bc03 41be 0c7b 5abe
00000010: 4d8f 70bd 7316 8abd 9a5b 2fbe 8f19 a13c
00000020: dcfa ba3d 6082 503d 3de4 88bd ce36 7fbe
00000030: 8942 14be 4fea 073e 66e6 993b 13bd 55bd
00000040: 04bc da3b eee3 12be 7051 c1bd 02b5 debd
00000050: e6b6 5cbe 9ee9 c8bd 9742 01be fc75 ea3c
00000060: 9ff8 a7bd 018b b6bd 0946 59be 1eb6 36be
00000070: 2485 7abd b0f8 08be 6329 13be 6d6f 90bc
-0.17588155 -0.17950682 -0.18849081 -0.21336001 -0.058730412 -0.06742563 -0.17124787 0.019665508
0.09129879 0.050905585 -0.06684158 -0.2492325 -0.14478506 0.13272975 0.004696655 -0.05218227
0.0066752452 -0.14344761 -0.09439361 -0.10874368 -0.21554145 -0.09810184 -0.12623058 0.028620712
-0.082017176 -0.08913232 -0.21218123 -0.1784291 -0.06116213 -0.13376117 -0.14371257 -0.017631257

actor.4.weight f4 [3, 32]
00000000: eb8e 9fba 56ae 26bc 0bdc 8dbd 78f6 6a3d
00000010: d763 e6bd 0f99 843c e8f2 023e ff52 bfbc
00000020: f8dc 80bd bcb5 493c 178b 24bd 5ace e73c
00000030: 3bd6 19bd 0ae7 86bc d2e0 d2bb 2c29 183d
00000040: e8c5 51bd f41e 1a3c 3d52 b6bc e912 16bc
00000050: de17 973d 9828 ccbc 6de6 17be a8f7 9fbd
00000060: 3d25 ea3b 5f2d 013d e2e5 073d 55be 383c
00000070: 1846 02bd 3cb9 983d f510 94ba d8e6 b7bb
00000080: 55ce 9b3d 392f fb3b ee30 e9bc 8549 65bc
00000090: f579 553d 541a 583d 8b69 4f3d 043f 38bc
000000a0: 86cf edbc 623b 243b 8dcb 9ebc 224a f73b
000000b0: 5d0a 6dbd 7c23 873c 13a6 4e3c 3acc b4bc
000000c0: 20ad 3aba d062 f63b 02af f13b f82f e0ba
000000d0: 86ad 6e3c cefd 683b 14d7 0abd 67b3 163d
000000e0: f845 75bb 2bdf 203d cb5c 47bd 07bd fd3c
000000f0: ea28 04bc 2688 bcbc a56f 2d3c a179 80bd
00000100: 1e38 f7bd d36d 30bd f43d ab3b 7cbe bd3c
00000110: 7274 a6bb 8330 93bd c7b5 793d 4762 e5bc
00000120: a140 833d 0a03 47bc f158 91bd 5613 03bb
00000130: 4e46 483d ab13 e1bc 0290 5b3d fac0 273a
00000140: 1675 d9bc d4fa b03c 50f9 6abb e639 953c
00000150: a443 3a3d 2e69 903d ee81 543d a8a8 a03d
00000160: ebc2 313c 4d2b e33c e20b 3bbb f549 01bd
00000170: 5a1c f9bb 2e70 bf3c 6f2f 2fbd 0019 263c
-0.001217333 -0.010173401 -0.069267355 0.057363957 -0.11249512 0.016186265 0.12787974 -0.023355005
-0.062921464 0.012311395 -0.04017171 0.028296638 -0.03755782 -0.01646759 -0.006435492 0.03714864
-0.05121413 0.009406794 -0.022256011 -0.009159782 0.07377599 -0.0249217 -0.14833994 -0.078109086
0.0071455524 0.03153741 0.033178218 0.011275847 -0.031805128 0.07457206 -0.0011296557 -0.0056122355
0.07607714 0.0076655415 -0.028465714 -0.013994579 0.05211826 0.052759483 0.050637763 -0.011245493
-0.029029619 0.002505981 -0.01938417 0.007546679 -0.05787121 0.016496412 0.012612837 -0.022070039
-0.00071211345 0.0075191036 0.007375599 -0.001710414 0.014567738 0.003555167 -0.03389652 0.036792185
-0.0037425738 0.03927533 -0.04867248 0.030973924 -0.008066395 -0.02301414 0.0105857 -0.06273199
-0.120712504 -0.043073487 0.0052258912 0.02316212 -0.0050797993 -0.07186987 0.060964372 -0.028000964
0.06408811 -0.012146721 -0.07097042 -0.0020000539 0.048895173 -0.027475199 0.053604133 0.00063993
-0.026545089 0.02160398 -0.0035854168 0.018216085 0.045474663 0.070513114 0.051881723 0.078446686
0.010849695 0.027730608 -0.0028541018 -0.03156467 -0.0076022567 0.023368921 -0.042769846 0.010137796

actor.4.bias f4 [3]
00000000: 1128 023e 6a1c a7bd aba3 503e
0.12710597 -0.081597164 0.20374934

critic.0.weight f4 [64, 24]
00000000: 0cf5 d6be 22f0 393d 6811 43bf 250b a9be
00000010: 0040 a53d 9ceb b73e 4c0c 593d 8ec9 953e
00000020: 6e62 37be 595c 9a3e 649a 213e d040 c23e
00000030: 6461 303e 414a e33e 822d 523e fc92 57bd
00000040: 3b7a 893e 5db8 a93e 8793 17be 85a8 95be
00000050: 4924 ee3b 2983 e6bd bdc2 8e3e 5b97 81be
00000060: 8480 96be d02e 94bc 3846 aa3e 39a1 843e
00000070: b839 343f ef58 88bf 1d31 c93e 110e 94bf
00000080: 83b1 2c3f 7c7a 5dbf bcfe 423f e879 83bf
00000090: b4fd 3f3f 4fe6 21bf a7e4 053f 2b1f 82bf
000000a0: 22f3 4f3d 69a1 00bf b71c 1e3e 0e0d 12bf
000000b0: 8a12 b43e 2a34 17bf daeb 3fbe bac3 23bf
000000c0: fcf9 b3be 9820 e73d bd74 6cbd 2e81 07bf
000000d0: 98f0 b2bf 5e5b 8ebe 8dc0 7abe f9bd 9d3e
000000e0: 9893 433e 5f29 0d3f c057 d83e 49f3 123f
000000f0: 4395 83bd 287f 673f 9d84 b63e 8895 d93e
00000100: 8f05 5b3e 3bb1 cb3e a324 993e 6573 123f
00000110: 24a6 a53b e04d f13e 3de4 b23e c9d4 b63e
00000120: 5daa a93e 6f29 203d bb4e 66bd 1c1b 8bbe
00000130: c561 0bbf 4b10 f3be 3ea3 483f 011c 29bf
00000140: 9e50 823f 083c 1fbf 48a8 513f cb30 84be
00000150: 06f9 243f 3f62 09bf 1572 ab3e 6e4a abbe
00000160: a95f e53e c4a8 11bd 922a 5c3e 237b 58be
00000170: 6de7 0cbe 804d 93be 243c 073f dd49 62bd
00000180: b188 29bf 7e9d 07be 8dee 43bf d2b9 f4be
00000190: 4e18 fabd 943d 553f cc6d 373e d1b1 8e3f
000001a0: 2148 063e ba88 6a3f a70f 743e b5b4 883f
000001b0: 024d 013f 7ee3 353f aa1e 423f 816f 613f
000001c0: 26f0 2d3f fd88 b23e fd27 803e 8835 383f
000001d0: 2379 473f 3001 223f ca95 163f 4cfe 893e
000001e0: ab09 903e 494c ebbd 508b b7bc b059 423e
000001f0: fb08 d2bf 8261 093e 906e 28bf d8f4 333e
00000200: c250 7abe e121 27be e390 bfbe 18f0 f83e
00000210: 1f4c debe dd3e f13e 1e02 99bd 5238 c73e
00000220: 0bc2 12be 3760 ca3e 58a8 92bd 33f6 b03e
00000230: 55d4 ae3e 1e61 1a3e e011 653e eefd cd3e
00000240: 2b18 a83e de6e 003e 2ced eebe e648 4c3c
00000250: a9e0 083e 176d 693f 6a51 1abf 5b39 9d3e
00000260: aa12 cabe 4d14 b7bc ed7d 0cbf 35c2 89be
00000270: 1e81 2fbe ca0a a0be d6a0 5abe 5bc7 08bf
00000280: 332e 16be ab0a f2be 4c3b 20be 165d dcbe
00000290: 35db 7ebd 1fb9 11bf d4eb 9ebe 9acb 09bf
000002a0: 6f03 a73d 3011 9d3e f351 06bf c624 c9be
000002b0: 3003 7dbf 9a13 43be a2cc 22be 3616 5fbf
000002c0: f0d2 2b3d b775 31bf 5c0b 293f 489f 6cbf
000002d0: 7627 a73e b158 5dbf 3fba 873e 33dc e2bd
000002e0: 9039 d33e a9cf 10bf fb26 ef3e f14d a3be
000002f0: 4ed6 b43e 3269 73bd 0e93 f03d 7bad 51bd
00000300: c4cf 63bf 9752 85bd 77a5 663e 59d9 abbf
00000310: e23d 45bf 9943 50c0 4564 0f3e b418 adbf
00000320: c4e1 eb3e 7691 e7be 0837 2a3f 7e64 8fbd
00000330: f205 043e b771 7d3e 2122 c43e 8934 033f
00000340: e791 cd3d 3e24 2b3e b643 dbb9 e8e3 2b3e
00000350: d0b9 083e 9d3f a33e 90a7 813d 3ca0 0f3f
00000360: 5f99 303e 9040 33be ef81 8f3d f63b efbd
00000370: 8601 efbc 8ded 263f 6254 36bf 4bb2 023e
00000380: a4d3 86be e7a5 8cbd 2b61 ccbe a501 7b3e
00000390: 5ce2 c5be 5ab4 533d e816 89be 4dad 96be
000003a0: 8873 5a3d 3dfc d8be e42f e6bd 6778 4cbe
000003b0: b7eb 72be 233c e6bd 7f8f 09bd 7fd9 59bd
000003c0: 0b14 c53e 8cdd 1cbe a315 9bbe 7a51 bd3e
000003d0: c8d9 313f 1952 713f 5a84 183d 0bb7 763d
000003e0: 285f 95be a87a 20be 0627 75be 1371 35bd
000003f0: d097 b0be ece7 7dbe 8a41 5dbe 3607 89be
-0.4198383 0.045395024 -0.76198435 -0.33016315 0.08068848 0.35921943 0.052990243 0.29255337
-0.17908642 0.3014858 0.15781552 0.37940073 0.17224652 0.4439259 0.20525172 -0.05263041
0.26851067 0.3314847 -0.14802371 -0.29230133 0.007267509 -0.112554856 0.2788295 -0.25310788
-0.29394925 -0.018088728 0.33256698 0.25904253 0.7040057 -1.065214 0.39295283 -1.1566793
0.6745836 -0.8651502 0.76169944 -1.0271578 0.74996495 -0.6324205 0.5230202 -1.0165762
0.05076898 -0.5024629 0.15440641 -0.5705117 0.35170394 -0.5906397 -0.18742314 -0.6397053
-0.3515166 0.11285514 -0.057728518 -0.5293149 -1.3979673 -0.27804083 -0.24487515 0.30809
0.19099271 0.5514125 0.42254448 0.57402474 -0.06424954 0.904284 0.3564805 0.42496896
0.21388839 0.39783654 0.29910764 0.5720733 0.005055206 0.47129726 0.34939757 0.35709217
0.3313779 0.039102014 -0.056227427 -0.2716912 -0.5444606 -0.47473368 0.7837409 -0.66058356
1.0180852 -0.62200975 0.818974 -0.25818476 0.6444248 -0.53665537 0.33485475 -0.33455223
0.44799545 -0.035561338 0.21500614 -0.21140723 -0.13760157 -0.28770065 0.5282614 -0.055246223
-0.662242 -0.13243672 -0.76535875 -0.4779802 -0.12211667 0.83297086 0.17912978 1.1148015
0.13113452 0.9161488 0.23834096 1.0680147 0.5050813 0.7105025 0.7582804 0.88060766
0.6794456 0.3487014 0.2503051 0.7195668 0.77919215 0.6328306 0.5882231 0.26951826
0.28132376 -0.114891596 -0.022405297 0.18979526 -1.6408991 0.13416103 -0.65793705 0.17573869
-0.24444869 -0.16321518 -0.37415227 0.48620677 -0.4341745 0.47118273 -0.07471107 0.38910156
-0.14331834 0.3952653 -0.07161015 0.34562835 0.3414637 0.1507611 0.223701 0.40232795
0.3283094 0.12542292 -0.46665323 0.012468552 0.13366951 0.9118208 -0.6028048 0.3070782
-0.39467365 -0.022348547 -0.5487965 -0.2690598 -0.17139098 -0.3125823 -0.21350417 -0.5342919
-0.14666061 -0.47273764 -0.1564762 -0.4303977 -0.06222077 -0.569231 -0.31039298 -0.53826296
0.08154952 0.30677176 -0.52468795 -0.39285868 -0.9883299 -0.19050446 -0.15898374 -0.87143266
0.041949213 -0.69320244 0.6603296 -0.92430544 0.32647294 -0.8646346 0.26509282 -0.11077156
0.41254854 -0.56566864 0.46709427 -0.31895402 0.35319752 -0.059426494 0.117467985 -0.051190834
-0.889889 -0.065098934 0.22524057 -1.3425704 -0.7704755 -3.2541258 0.14003094 -1.3523164
0.46070683 -0.45228165 0.6649022 -0.07001589 0.12892893 0.2475041 0.38307288 0.5125204
0.10037594 0.16713044 -0.00041821384 0.16786158 0.13352132 0.3188447 0.06330788 0.56103873
0.17246006 -0.17505097 0.07007205 -0.116813585 -0.029175531 0.65206224 -0.7122251 0.12763326
-0.26333344 -0.06867581 -0.39917883 0.24512346 -0.3864926 0.05168567 -0.2677529 -0.29429093
0.053332835 -0.42379943 -0.11239603 -0.19967805 -0.2372273 -0.11241939 -0.033584114 -0.053185936
0.38491854 -0.15318888 -0.30289945 0.36976224 0.6947293 0.94265896 0.037235595 0.060233157
-0.2917416 -0.1567179 -0.23940668 -0.04429729 -0.34490824 -0.24795502 -0.21607032 -0.26763314

critic.0.bias f4 [64]
00000000: eeb4 08bf 396d c5be ef81 803e 01da 2c3e
00000010: 3dcf c7be cd23 af3e a3ff 4abe 5a63 ee3e
00000020: 7d80 e53e 4402 703e bfa6 e33e 95e2 fdbe
00000030: 9d09 c83e e0f7 8b3e 2671 293e 9b01 e3be
00000040: 00a6 f83e 8274 3c3e 9c65 a8be 968a a6bf
00000050: 50fc 2fbf bd20 65bf ff00 e03e f620 103e
00000060: b8db 97be 1def debc 99d4 10bd a08b 78bf
00000070: 0052 7abf d899 4bbf 323b 3dbf 23f7 653e
00000080: dee1 91be ed15 273e 03cc c93e 9649 06bf
00000090: 8160 b7bf 0a5b 7f3e 3fbe 893d 7f56 133f
000000a0: a7ab b13e 5b51 80bf 8d41 efbe 2a13 d13d
000000b0: 0c78 c03e 084c 983e 85f2 8abd b666 16bc
000000c0: b313 95bf 2ef6 9bbc 8e11 89bd 719d fbbe
000000d0: e2f5 ab3e c880 823e dae2 d8bc a7f3 533e
000000e0: 65cb 133f 3d80 e93e 63ec 9e3e d69a 9b3e
000000f0: 1f14 51bf 8458 4f3e a5c5 1f3e 8720 9cbf
-0.53401077 -0.38559893 0.2509913 0.16880037 -0.39025298 0.34207 -0.1982408 0.46560174
0.4482459 0.23438364 0.44463155 -0.4958693 0.39069834 0.2733755 0.16547069 -0.44337162
0.48564148 0.18403819 -0.32890022 -1.3011043 -0.68744373 -0.8950308 0.4375076 0.14075074
-0.2965982 -0.027213627 -0.035359 -0.9708805 -0.9778137 -0.7953162 -0.7391845 0.22457556
-0.28492635 0.16316958 0.3941346 -0.52456033 -1.4326326 0.24937072 0.0672574 0.5755386
0.34701273 -1.0024828 -0.467297 0.102087334 0.37591588 0.29745507 -0.06784538 -0.009179762
-1.1646637 -0.019038286 -0.066928014 -0.49143556 0.3358603 0.25488877 -0.026475359 0.20698415
0.5773223 0.4560565 0.31039724 0.30391568 -0.8167133 0.2024861 0.15602739 -1.2197427

critic.2.weight f4 [32, 64]
00000000: 51c2 23be 98cb cdbd 5bbe 15bd c922 61be
00000010: 8aeb d6bc 5915 193e 5f19 82be 9957 c6be
00000020: 7a96 833e ac85 18be 205b a2be 3725 cebd
00000030: 9b0f c7be 8be1 afbe 4498 13bf 2bb9 373e
00000040: a682 08bf 3446 adbe ff6b 18be 2bdf 3dbe
00000050: a5c2 3a3e 9d3a 563e bc58 14bf 9829 ac3d
00000060: 5136 8abe 3339 88be 3ce1 89be 4642 cebd
00000070: 0400 ac3c 9b5d b43d 543b 2f3d 0620 a7be
00000080: 927f 33bd e2cd bebe 6e54 ddbe 38b7 c9bc
00000090: a064 b3bc a1cf 61bd d6c8 b1be 082e cabe
000000a0: 01d5 49be 4d70 713e 3232 b8be c02c b3be
000000b0: ecea a63d 228e f13c 6dfe 6c3e c996 1cbe
000000c0: 0252 d93d cf64 ccbe 6667 ccbd 0db9 1abc
000000d0: 3d0b b3be b316 08be 7bc2 91be 9b8e ad3c
000000e0: 4721 35be 8f80 a1bc 7793 fcbd 45e8 dfbd
000000f0: 504f df3c 65d6 d3bd 353f 50be 140c a13e
00000100: 8fe2 1fbf 304c c93e 5006 803d 736e ccbe
00000110: 15d3 83bf e006 0ac0 3f00 3bbf eb77 d7bf
00000120: ea0f 4a3f 1cba 2f3d 1939 93be 8f88 dbbd
00000130: 1fb4 b7be c366 bfbe da46 07bf 2c63 2fbf
00000140: e01b 5fbe 7136 833d 522e 2bbd ca44 213e
00000150: 7801 0d3f 4ca7 883e 5b7b 6bbf 5cde d63e
00000160: d50a df3d d99d 96bf b46f c1bf 2d0d 8b3e
00000170: f1e2 563f 68f0 28bf e458 113e c616 2dbf
00000180: 1ae8 bdbe b0ea 45be cf29 aebf 0fa1 ff3d
00000190: 7d5b 1fbf e713 7cbf f5cd a93c 9c2c dabe
000001a0: 66bd 0ebf c331 463f 75df cebf 73ce fa3d
000001b0: 344a 1e3e 11ad 13bf 1af7 d83e b872 5f3f
000001c0: 1de2 1bbd 487b 3ebf 3a0c cd3e 3646 d43e
000001d0: 462d 083e 1453 70be af5d b23f a70d 1ec0
000001e0: d375 9dbf 47d5 223f bfa3 0abe fb59 493f
000001f0: 10da 79bd c5e5 d1be 527a 09bf eb41 063f
00000200: bb07 0dbe 18b8 d33e a50b 1abe e3be fa3e
00000210: 2d96 0dbf f66d e93c f820 a6be 88a0 0a3f
00000220: 90f6 4f3e d683 febd c929 b03e fe7b a9be
00000230: c852 b73d 72b7 423e dd81 8f3d 7de5 babe
00000240: cdd5 cdbe cf61 f7bd 69da 943e f9e3 bcbe
00000250: 5ea5 5f3e d81d d1be 1fd7 6e3e 1b74 8a3e
00000260: 3edd 5d3e 917f 59be a2e7 49be 1f69 19bf
00000270: 8afe a4be dbe6 59bd fb5f 523e 89bf eb3e
00000280: 7b90 4e3c af1a d73e a983 cf3e 6c20 d4bd
00000290: 6907 883f c46d 853e 7ab9 093e 10e7 903e
000002a0: 59e0 8a3e 2783 96be 2cc9 c43e d742 ed3e
000002b0: c2dc 973d ac42 643d 6e0a ff3d c770 16bf
000002c0: e3e5 41be fc50 0fbe bd28 673e a4b0 1ebe
000002d0: 2720 6e3d ff55 883e 4009 22bf 7fa5 483e
000002e0: 0fe0 bd3e 56d7 d9bd 9730 993e 7a5b 9bbe
000002f0: c6ff c13e c710 e43e 42a4 e43c 60df 2ebf
00000300: 1df3 1fbe ab39 a73c beb4 293e 2a4a 13bf
00000310: b72e 74bf 8862 16bf 93e9 5c3e 18c6 6bbe
00000320: 537d 8f3e e71b 60be 1543 9fbd daa1 8a3e
00000330: 3786 ad3e 9ca5 2a3e 1b7d 07be 718e 57bf
00000340: ff84 81be 7d4f 983e c2b6 cabd 7f91 9ebf
00000350: 430b fabe 3cc9 4bbf c18e 693e 1d59 4f3c
00000360: 746f 173f ce50 7a3d 5b10 b8bd 3099 79bf
00000370: ca5c 31bf a073 a9be af4f 50bd 5508 af3a
00000380: 8cd1 ef3d 0470 053f d8d3 ce3e fdde ebbe
00000390: 1bd8 a1be a6e3 7c3e 8c5f f23b ee72 73bd
000003a0: 3d7c 72be d800 5cbf 4532 61be b813 2b3e
000003b0: 5685 db3e ec66 38be ba6c 1e3d d5ed 55be
000003c0: e0d6 7bbf a6c2 82bd 2579 d93e dcd3 22bf
000003d0: 8acc 84bd 849c e2be ee15 43bf 8191 aabe
000003e0: cfa9 2e3e 99a0 83bc 643a 8fbd 3561 5abe
000003f0: 8ff8 5cbf ed89 653e a684 523e 77a8 a9bf
-0.15992095 -0.10048598 -0.03655849 -0.21985926 -0.02623536 0.1494955 -0.25409982 -0.38738707
0.25700742 -0.14894742 -0.31710148 -0.10065692 -0.38879094 -0.34351763 -0.57654214 0.1794173
-0.53324354 -0.33842623 -0.14884947 -0.18542163 0.18238313 0.20920797 -0.579479 0.08406371
-0.26994565 -0.2660614 -0.26929653 -0.100712344 0.020996101 0.08806916 0.04278119 -0.3264162
-0.043822832 -0.3726645 -0.43228477 -0.024623498 -0.021898568 -0.05512965 -0.34723538 -0.39488244
-0.19710161 0.23577996 -0.35975796 -0.3499508 0.081502765 0.02948672 0.2314393 -0.15291895
0.10611345 -0.3992066 -0.09980659 -0.009443534 -0.34969512 -0.13289909 -0.2846869 0.021186164
-0.17688476 -0.019714622 -0.12332814 -0.10932974 0.027259499 -0.10343627 -0.20336612 0.31454527
-0.62455076 0.3931594 0.06251204 -0.39928016 -1.0298792 -2.1566696 -0.7304725 -1.6833471
0.7893053 0.042902097 -0.287545 -0.10719406 -0.3587961 -0.37383088 -0.52842486 -0.685107
-0.21787977 0.06406868 -0.04179222 0.15748897 0.55080366 0.26690137 -0.919851 0.41966522
0.10890738 -1.1766921 -1.5112214 0.2715849 0.83940035 -0.6599183 0.14194065 -0.67612875
-0.37091142 -0.19327807 -1.3606509 0.12481891 -0.62248975 -0.9846787 0.02072809 -0.4261216
-0.5575775 0.7741968 -1.6161944 0.12246408 0.15457994 -0.57685953 0.42376024 0.8728442
-0.038057435 -0.7440686 0.4004839 0.41459817 0.1329852 -0.23469192 1.393484 -2.4695833
-1.2301582 0.63606685 -0.13539027 0.78652924 -0.060998976 -0.40995613 -0.5370227 0.5244433
-0.1377248 0.4135139 -0.15043505 0.4897376 -0.55307275 0.028494816 -0.32447028 0.541512
0.203089 -0.124274895 0.3440688 -0.3310241 0.08951336 0.19015291 0.07007191 -0.3650321
-0.4020218 -0.120792024 0.29072884 -0.3689268 0.21840426 -0.4084308 0.2332425 0.27041706
0.21666428 -0.21240069 -0.19717267 -0.5992603 -0.32225448 -0.053198677 0.20544426 0.46044567
0.012607689 0.42012545 0.40530136 -0.103577465 1.0627261 0.26060307 0.1344966 0.28301287
0.2712429 -0.29396936 0.38434732 0.46340057 0.07415153 0.055727646 0.12453161 -0.58765835
-0.18935351 -0.13995737 0.22574134 -0.1549707 0.05813613 0.2662811 -0.63295364 0.19594382
0.37085006 -0.10636775 0.29919884 -0.3034323 0.37890452 0.4454405 0.027910355 -0.68309593
-0.15620084 0.02041324 0.16572854 -0.5753504 -0.9538378 -0.58744097 0.21573476 -0.23024786
0.28025302 -0.21885644 -0.07776467 0.27076608 0.3389146 0.16664737 -0.13231318 -0.84201723
-0.2529678 0.29748145 -0.098981395 -1.2388152 -0.48836717 -0.79603934 0.22808363 0.012655524
0.5915444 0.061112218 -0.089874946 -0.9749937 -0.6928221 -0.33096027 -0.050857242 0.0013353924
0.1170989 0.5212405 0.40396 -0.46068564 -0.31610188 0.24696216 0.007396644 -0.059435777
-0.23680206 -0.8593879 -0.21991833 0.16706741 0.42875165 -0.18008012 0.03867791 -0.20891507
-0.9837475 -0.063847825 0.42475238 -0.6360452 -0.06484325 -0.44260037 -0.7620534 -0.33314136
0.17056964 -0.01606779 -0.06993559 -0.21326144 -0.8631677 0.22415896 0.20558414 -1.3254536

critic.2.bias f4 [32]
00000000: 2536 b0be f4f4 29bc 62f1 a23e 9e76 bb3e
00000010: f442 b03e 1150 aa3e 2359 e53d d300 02be
00000020: 662a e73e c152 133f 1093 0dbe 98dc 66be
00000030: cdb7 ee3e 68a4 aa3e 3f1c e53e 867e 903e
00000040: a2cb 3dbe a46c ba3e 427d b53e c189 fa3e
00000050: fb2f 073f 253e 913e a2b5 98be 2f97 3dbe
00000060: 610b 95be 65f4 4f3e 4091 b6be da4b d13e
00000070: 3125 49be 101a e7bd 2dff b4bd 40f0 43be
-0.3441631 -0.010373343 0.31824785 0.36613935 0.3442608 0.3326421 0.11198642 -0.12695627
0.45149535 0.5754815 -0.13825631 -0.22545087 0.46624604 0.33328557 0.44748113 0.2822153
-0.18534711 0.3641101 0.35447127 0.48933223 0.5280759 0.28367725 -0.29826075 -0.18514703
-0.29110244 0.20308073 -0.35657692 0.40878183 -0.19643094 -0.11284268 -0.088377334 -0.19134617

critic.4.weight f4 [1, 32]
00000000: f6e1 bbbe f9bf b7bf acd8 683e bdc9 ca3e
00000010: a622 af3e d300 093f dfd4 8bbe 0713 e7be
00000020: 2bc8 de3e 449b 133f 8d28 59bf e8b5 cdbe
00000030: c4c8 1c3f 4790 d93e f86f a53e 110c a83e
00000040: a80b abbe e9a4 c43e 397a dd3e e377 ab3e
00000050: 47b7 ed3e 070e df3e 98b2 f4be 7a42 b3be
00000060: b6ab 2ebf 63e2 893e f5e0 59bf 7be9 ef3e
00000070: 97e4 73bf 9229 9cbe 1ce3 ecbf c4c7 23bf
-0.36695832 -1.435546 0.22738904 0.3960704 0.34206122 0.5351688 -0.27310845 -0.45131704
0.4351209 0.5765879 -0.848275 -0.40177846 0.61243844 0.42492887 0.32311988 0.32821706
-0.3340733 0.38407066 0.4325731 0.33489904 0.46428892 0.4356539 -0.47792506 -0.35011655
-0.6823076 0.26930532 -0.8510888 0.4685782 -0.95270675 -0.30500466 -1.8506808 -0.63976693
