logs/exp/model_74.pt (torch, 34660 bytes, 12 tensors)

log_std f4 [3]
00000000: 8b33 99be b386 c5bd b2b9 0abe
-0.29922137 -0.096448325 -0.135474

actor.0.weight f4 [64, 24]
00000000: e8c8 c7be 9008 873c 99f2 043f 3ca8 c8be
00000010: 4991 a5be ce3f cdbe a94a 68be 88cf 0fbe
00000020: b18a 693d 7c41 e9be 4780 fabd 2664 69be
00000030: f44e eabe 11d5 bc3c 7890 9cbe 87d8 0cbf
00000040: 4f21 13be e4f2 6dbe 004d 063e 2249 30bf
00000050: 1696 52bb 6950 dabe 10b0 2cbe aad5 bebe
00000060: 973b 9fbd 7b9f 883d 0381 8f3d 53e4 863e
00000070: 5df9 b6be 06f3 9a3e 6cda adbd abe7 993e
00000080: 9aab febd 9d97 57bc 94a0 9abc 8ff2 62be
00000090: 44ba 153e 51f4 c4be 23ea 3e3e d62f 67be
000000a0: 6009 c9bc 0da7 c6be 5c05 05be 05cb b4be
000000b0: 3515 94be 0d07 3ebe fb3f d03c 900e 8fbe
000000c0: e372 a1bc 993a 3cbe 343c 1c3e 8140 b1be
000000d0: 39ca 873d ea95 9a3e 718a f53d 7757 76be
000000e0: 0a59 df3e 5d71 28bd 99b4 2f3e 2758 1cbe
000000f0: 9026 3c3e d5ce 10be 4dc5 c43e 8627 b0be
00000100: 0ad6 abbe 642f 80bd fff2 55be 7f3a 843d
00000110: 77fe 74bd a6d1 c2bb 1560 f0bd 204e b0be
00000120: 8ab3 d8be bc24 593e 016e e9ba d5d7 09be
00000130: 0999 1a3d f71f c0bd 2f64 d23c cecf e7be
00000140: aa93 853e 1d0e 673d 40a4 27bd 4754 f1bb
00000150: b607 413e 38dc 133e b764 4d3e cc29 b6be
00000160: 7355 853d b926 b6bd 5947 953d 4481 623c
00000170: be36 d83d 138c 62be a2ce efbd 64de 5f3d
00000180: 6bbd 5ebe 4a22 5fbc d2cd 123e ad83 88bf
00000190: 97c5 003f b4e5 553f ca7c 96bb fb61 ce3d
000001a0: e914 00be 8595 573d d2a5 62bd e424 0cbe
000001b0: c8e4 27be 19dc efbd 3613 95be 4fcb 06be
000001c0: 5c7e 4bbe 7bc4 bcbd 1f2b bbbd 7326 a5bc
000001d0: 5d63 9a3d 3c86 a7be 5524 593c 6494 97be
000001e0: 056b 02bf 1681 0abe be5c 033e 8764 ddbd
000001f0: 0de9 6ebe cccb 1f3f d0eb 4c3e 022d 063e
00000200: a669 803d ede9 8c3e f702 22bc 9324 743e
00000210: 9970 733d 2af8 2d3e c56d 0dbb 0d6d ed3e
00000220: 2b5b a5bd c78e 843e 2ce1 463e 2f2b cc3b
00000230: 5d95 bdbd 2b44 723d 2b7a d2bb f519 333e
00000240: 4f6a 6c3d 1d42 e13e a9f7 7fbe cb1c 1bbf
00000250: bb8d 023f 0f7f 83bd 237b 403f fb0f 97be
00000260: d444 233f 23df 96bd d729 ce3e 022e ec3c
00000270: 2b04 613e 5347 a73c e5a8 013f 7d9b a53e
00000280: d058 43be f90e 913e 3de4 91bd 1391 ac3c
00000290: 86dc 86bd 9516 ae3e 6a11 52bd 5578 4a3e
000002a0: 33db 653d 93f6 533d 743d 08be abfb afbf
000002b0: 5a70 8ebd 39e1 0abe e8e4 b6be 6ac6 193e
000002c0: 5e29 0abc 72dc e93d ce1c 1c3e 67f5 653e
000002d0: a374 27be e350 4ebd a6b3 a73c b74a e83c
000002e0: dde5 b33e dc07 7ebd b82e 09be dd08 a83b
000002f0: 2aaf 7bbe 3a7f 393e e203 b7be c3d7 b63e
00000300: bb44 843c 3170 993d 8eef 113d ba58 df3e
00000310: fc9b 273f 73a5 643e 4a11 393e 9206 463c
00000320: 4ff9 f83e 291d 8d39 5394 f9bd 57b6 ae3d
00000330: 0124 163e 694b 143e 73c2 37be 63d9 4ebe
00000340: 357b adbd 18d9 86be 93e9 f93c e606 aabe
00000350: aaae 2a3d e375 8bbe d9f9 abbe a39c 97be
00000360: 3f55 9a3d 4264 073e d7e6 ba3c 958e 8ebf
00000370: 799c 01bf f530 dfbe 58bb 90be c7e2 483d
00000380: bbe0 a7be ebe5 48be 7f8c e0be f72e a93d
00000390: c9cb b1be 79a8 d93d eb87 d5be abb9 6c3e
000003a0: 1455 c0be c7ce a6be bee6 8ebe 3121 f73c
000003b0: 0742 93be 82cf b3bc 1840 4f3d 7ccb 8fbc
000003c0: e2d2 a3be ca36 57be d811 5fbe 1d8c 33be
000003d0: eb45 5abe 7073 e83c 19ff 8a3e c5ed a83e
000003e0: 729a b63e 6717 8ebc 05f4 c63b 55b4 3dbd
000003f0: 302f f13d 8b9a 0d3e f0ac 5c3e dd41 f43d
-0.39020467 0.016483575 0.51932675 -0.39190853 -0.32337406 -0.40087742 -0.2268473 -0.1404401
0.057017032 -0.45557773 -0.12231498 -0.2279211 -0.4576336 0.023050817 -0.3057897 -0.55017895
-0.14368175 -0.23237187 0.1311531 -0.6886159 -0.0032132915 -0.42639473 -0.16864038 -0.37272388
-0.07775038 0.066710435 0.07007029 0.26346073 -0.35737124 0.30263537 -0.08488926 0.3005956
-0.12435074 -0.013158706 -0.018875398 -0.22162841 0.14621836 -0.3846765 0.18644004 -0.22576842
-0.024540603 -0.38799325 -0.12990326 -0.35311142 -0.2892243 -0.18557377 0.025421133 -0.27940798
-0.019708103 -0.18381728 0.1525734 -0.34619525 0.06630368 0.301925 0.11989296 -0.24056803
0.4362262 -0.041123737 0.17158736 -0.15268002 0.18374085 -0.141414 0.3843178 -0.34405154
-0.33561736 -0.06259039 -0.20893477 0.0645647 -0.05981299 -0.005945402 -0.11737076 -0.34434605
-0.42324477 0.2120542 -0.0017809273 -0.1346124 0.037743602 -0.09381097 0.025682537 -0.4527573
0.2608922 0.056409944 -0.040928125 -0.007364783 0.18850598 0.14439476 0.20057951 -0.35578763
0.06510439 -0.088941045 0.07288999 0.013824765 0.10557316 -0.22123747 -0.11709334 0.054655448
-0.21751945 -0.013619015 0.14336327 -1.0665184 0.503015 0.83553624 -0.0045925127 0.10077282
-0.12507977 0.052632827 -0.05533392 -0.13685948 -0.16395867 -0.11711902 -0.2911622 -0.13163494
-0.19872421 -0.09217163 -0.09139084 -0.020159936 0.07538483 -0.327196 0.013253291 -0.296054
-0.5094455 -0.13525805 0.12828347 -0.1081019 -0.2333109 0.62420344 0.2001183 0.13103107
0.06270151 0.2752222 -0.009888402 0.23842077 0.059433553 0.16989198 -0.002158032 0.46372262
-0.080740295 0.2589018 0.19421834 0.006230734 -0.092570044 0.05914704 -0.006423255 0.1749037
0.05771857 0.43995753 -0.24996819 -0.6059081 0.50997514 -0.06420719 0.7518789 -0.2950438
0.637769 -0.07366779 0.40266296 0.028830532 0.21974246 0.020419752 0.5064834 0.3234519
-0.19076848 0.28331736 -0.07123611 0.02106527 -0.0658503 0.34001604 -0.05128614 0.19772466
0.056117248 0.051748823 -0.13304693 -1.3748678 -0.06955023 -0.13562478 -0.35721517 0.15017095
-0.008432714 0.11419 0.15245363 0.22456895 -0.16353087 -0.05037011 0.020471405 0.02835594
0.3513631 -0.062019214 -0.13396728 0.0051280097 -0.24578539 0.1811494 -0.3574515 0.35711488
0.016146054 0.07492102 0.035628848 0.4362238 0.6547239 0.22328739 0.18073002 0.012086527
0.48627707 0.00026915342 -0.12186494 0.08530872 0.14662172 0.14481892 -0.1794527 -0.20200114
-0.084707655 -0.26337504 0.030506885 -0.33208388 0.04167048 -0.27238378 -0.33589056 -0.29611692
0.07535791 0.13221839 0.022815151 -1.1137263 -0.50629383 -0.4359204 -0.28267932 0.049044397
-0.32788643 -0.19618957 -0.4385719 0.08260911 -0.34725788 0.10627837 -0.4170526 0.23117702
-0.3756491 -0.32579634 -0.27910417 0.030167194 -0.28761312 -0.021949533 0.050598234 -0.017553084
-0.31996828 -0.21016994 -0.2178415 -0.17533918 -0.21315734 0.028375357 0.2714775 0.32993904
0.35664707 -0.017345143 0.00607157 -0.046314556 0.117765784 0.13828485 0.21550345 0.11926625

actor.0.bias f4 [64]
00000000: e620 023e d1b3 7bbd eefb 83be 19e2 0fbe
00000010: 4ea5 a9bc 3549 3bbd 518f 4abe 505e 1cbd
00000020: 5240 dfbe adde b9be 7397 49bd 725e 76be
00000030: 1dcd 17be a16d ee3d 4288 7cbe 9ac6 613c
00000040: d02d db3d 4625 60be 2f96 5b3d cb83 5fbe
00000050: 413a 34bc dd82 d5be 2015 35be c4d6 57be
00000060: 4eaf 72be da5c eabe a40c 16be 3fdd b23e
00000070: 8e27 17be 76f4 0fbe 8a81 cabe 65a1 d3be
00000080: 0c72 82be 21c0 adbe 8df6 b4bd 4e01 63be
00000090: 6116 27bf d397 8a3d 17b7 bebe cba2 94bd
000000a0: 0e6b 29be f93a 99be b2d0 4fbe 09ae c03d
000000b0: fd75 ccbd 1e7a 8c3d 380d 40be 95e8 93be
000000c0: 50ca 90bc 8b8d d5be 759d d8bd 0768 98be
000000d0: 4bc7 d7be fd6e 9ebd 7fea 88be b412 7dbe
000000e0: 104b bb3d f342 92bd 8747 39bd 7553 ebbe
000000f0: c10c c8be ba3c 0c3d 245d 3a3e 195f 5bbe
0.12707862 -0.061450783 -0.25778145 -0.14051093 -0.020708706 -0.045724113 -0.19781233 -0.03817588
-0.4360376 -0.363027 -0.0492167 -0.24059466 -0.14824338 0.11642004 -0.24661353 0.01378026
0.107020974 -0.21889219 0.053610023 -0.21827619 -0.011000217 -0.41701403 -0.1768384 -0.2107802
-0.23699686 -0.45773965 -0.1465326 0.34934422 -0.14761183 -0.14058098 -0.39551955 -0.41334072
-0.25477636 -0.33935645 -0.08836088 -0.22168466 -0.6526852 0.067672394 -0.3724906 -0.07257613
-0.16544744 -0.29927805 -0.20294455 0.094081946 -0.09983442 0.068592295 -0.18755043 -0.28888384
-0.017674595 -0.4170955 -0.105769075 -0.29766867 -0.42144236 -0.07736013 -0.26741406 -0.24714166
0.091451764 -0.07141676 -0.04523423 -0.4596211 -0.3907223 0.0342376 0.18199593 -0.21422996

actor.2.weight f4 [32, 64]
00000000: fd11 32be 7578 b9bd f4be b5be c4b9 f1bd
00000010: 8fcf 3a3e 9ac5 a7bd 11d7 c2be 2ece 7bbd
00000020: 9a56 96be f855 c1be d413 ca3c 7c56 b0be
00000030: 54e9 c83c 5c3b e6be 892f b3be e594 6dbe
00000040: 7e0d a6be 1412 043f a3b7 b4be b24c adbe
00000050: 9cc5 a13d d43f b63d 39e3 e73d b257 74be
00000060: 1fc4 653e ea99 cc3d de55 803e 1111 05bf
00000070: 7e72 29be f333 22bd 33c6 a0be 06c2 b2bd
00000080: 17cf 9cbe 1f0a 973d 90ff 37bc 7ee0 2e3e
00000090: 83d5 a53c 9f10 b4be e5e4 68bc b52a 113e
000000a0: ec16 63bd dfdd 373e e597 57bd 89de a5be
000000b0: 6e82 9abd 663d cebe ea9a a83d f6be 7dbe
000000c0: c961 2a3e e1f5 3ebe 8068 cebe 0190 a43e
000000d0: 117d 79bd 7d6d 7e3d 1392 2abd 87b5 333d
000000e0: e01c 863e fc11 81be b8b0 573e f403 7a3e
000000f0: bbb1 5c3e 4f83 b6be 63b1 d7be 7e12 823e
00000100: 0b61 84bf 392a c33e d866 6bbd 83d1 2cbe
00000110: 7a9d 33be 2896 63be 06e1 b7be c63a 213e
00000120: 6c76 2a3e 24a7 073e 48ac f4be 51ca 6abd
00000130: 39cc 98bd 7357 fcbe e5f1 813d 6ed7 91bf
00000140: 8a72 353c 7635 543e 60be 393e 5595 1fbe
00000150: 207a 2cbe 08a9 77bd b151 d3bc d987 30be
00000160: 7da8 cebd 8e6a 93bc 39e5 a5bc 358a 07be
00000170: 6dbc e3be dbcc d6be 1931 31bc 2dbd 46be
00000180: 3688 02be 5bb6 643e 0536 b1be 78ff 883d
00000190: 04cd 273d df98 9abd 4987 9c3d ce07 49bd
000001a0: ac0d 36be b028 e6bd fb03 003e aa56 37bd
000001b0: 3d13 33be 7072 9ebd 1048 0f3d 7df4 703e
000001c0: 0ee3 c4bb 0858 973d fe6d 78be b495 37bf
000001d0: 2299 293d 483e 4fbe 90b8 6abe 9a21 64be
000001e0: 28d4 8dbe 1eac 253d f119 7dbe 26e0 1cbe
000001f0: 4435 853e 967a 7cbe 9201 4cbe 2612 293d
00000200: f742 24bf 47f0 0bbe fc28 b8bc fb91 32be
00000210: 1a63 88be 2ac8 0e3d a345 5cbe c0a4 8638
00000220: 22bc d0bd 6cd1 c0bd e659 62bd 9b01 dfbe
00000230: 4e29 713d 8765 95be a318 81be 6fdb a7be
00000240: 6190 84bd 055c bb3d b2fa 063e b97c 60bd
00000250: a89a 95be a5a1 613e fb1d 21be 750f f2bd
00000260: d18b 8abe 1cb0 25be f2d0 1ebd 3a35 6e3e
00000270: 93ef 0ebe 5b5a 8abd 2a30 143d fef7 06be
00000280: 24d0 cc3c 52cb e3bd de6e 17bd 8494 16be
00000290: 77f4 d33d b609 64be 2e89 35bb 9fd2 23be
000002a0: 28e4 06be 88ea 5abc 8932 68be 7f44 843e
000002b0: bf9d d8be 2ef7 9f3d 9b1f d13d 4df6 a03e
000002c0: cffd 203e 17d7 663c d09d 99bd f828 a93e
000002d0: 81fa 10bd ec1a 02be 0a74 b53d b5d6 18be
000002e0: cc05 963e a21c 6abe 5fd0 343d 74df 4c3e
000002f0: 2cec 8d3e e79d 93bd fb3d 5c3e 4ae4 c2be
00000300: c077 9fbe b7bf 00be b71c 403c 7254 003d
00000310: 1da1 d13d db32 a43e dd39 b93e 78e6 2b3e
00000320: 7d54 163d 159a fbbe 7e9b e1bd b22c 2cbe
00000330: 8fca 71be 264a 0cbf 1d3a bebe c4ac 7abe
00000340: 799c 263e d80f 0abd 5e19 b9bd 26bd 79be
00000350: 40f3 f5be 608c 26bd c5a9 923e d046 4c3d
00000360: 3d4c c53e c602 c43e 00ef b03e c0da 8d3e
00000370: 8af3 4e3e 2955 4abd 0495 32be f02d 9dbd
00000380: e635 983e 1478 b4be 96f8 a9bd 6d29 ebbd
00000390: 1ad3 d93c bd07 7ebf 1140 a5bd b820 9f3e
000003a0: f269 61be 884a 383d a14d 433d d8bd 943e
000003b0: ea35 93be 4084 143e 7351 b83e 4d97 883c
000003c0: caeb da3c 5e77 83be dcd6 9bbe 37dd 20be
000003d0: e48f 5c3e dabc 3bbe cb0c a2bb 0004 39bd
000003e0: 1cd0 053f 5af0 e63d 089d 3d3e 7ff6 f93d
000003f0: 549e ac3e 24a1 ec3c 987a 43be 3313 013d
-0.17389674 -0.090561785 -0.35497248 -0.1180301 0.1824324 -0.081919864 -0.38054708 -0.061475925
-0.29362947 -0.377609 0.024667658 -0.34440982 0.024525322 -0.44967163 -0.34997204 -0.2320133
-0.3243217 0.51590085 -0.35296354 -0.33847576 0.07899019 0.08898893 0.11322636 -0.23861578
0.22438096 0.09990294 0.2506551 -0.51979166 -0.16547582 -0.039600324 -0.31401214 -0.08728413
-0.30626747 0.07374977 -0.011230364 0.17077824 0.020243412 -0.3516893 -0.014214729 0.14176448
-0.055441782 0.17955731 -0.052635092 -0.32396343 -0.07544409 -0.40281218 0.082326725 -0.24779877
0.16638865 -0.18648483 -0.40314102 0.32141116 -0.06091029 0.062116135 -0.041643213 0.04387429
0.26193905 -0.25209033 0.21063507 0.2441557 0.21552174 -0.35647056 -0.42127523 0.25404733
-1.0342115 0.3811815 -0.057471126 -0.16876797 -0.17540541 -0.22225249 -0.35913867 0.15745077
0.16646737 0.13247353 -0.4778769 -0.05732185 -0.074608274 -0.49285468 0.06344966 -1.1393869
0.0110746715 0.20723519 0.18139029 -0.1558431 -0.16843462 -0.060463935 -0.02579579 -0.17239322
-0.1009073 -0.017995145 -0.020250903 -0.13236316 -0.44479695 -0.41953167 -0.010814928 -0.19408102
-0.12747273 0.22335188 -0.34611526 0.06689352 0.040967003 -0.07548689 0.07642991 -0.04907971
-0.17778653 -0.11238229 0.12501518 -0.044760384 -0.17487808 -0.07736671 0.034980834 0.23530765
-0.0060085123 0.073898375 -0.24260709 -0.71712804 0.041405804 -0.20238602 -0.22921968 -0.22278443
-0.27700925 0.040447347 -0.24716927 -0.15319881 0.260172 -0.24656138 -0.19922474 0.041277073
-0.6416468 -0.13665877 -0.02248048 -0.174385 -0.26638108 0.03485886 -0.2151094 6.420305e-05
-0.101921335 -0.09414944 -0.055261515 -0.43555912 0.05887728 -0.29179022 -0.2521411 -0.32784602
-0.064728506 0.09148411 0.1318157 -0.054806445 -0.29219556 0.22034319 -0.15734093 -0.118193544
-0.27059796 -0.16180462 -0.038773485 0.23262492 -0.13958578 -0.06755515 0.036178745 -0.13180539
0.025001593 -0.11122765 -0.036970966 -0.14705092 0.10349362 -0.2226933 -0.0027700174 -0.15998314
-0.13172972 -0.013361581 -0.22675528 0.25833508 -0.4230785 0.07810818 0.102111064 0.31437913
0.1572182 0.014089367 -0.075008035 0.3303907 -0.03539515 -0.12705582 0.08860023 -0.14925654
0.29301298 -0.22862485 0.04414403 0.20007116 0.27719247 -0.07207852 0.21508019 -0.38064796
-0.3114605 -0.12573133 0.011725596 0.031330533 0.10235808 0.3207005 0.3617696 0.16787136
0.036701668 -0.49140993 -0.11015986 -0.16813925 -0.23612426 -0.5480064 -0.37153712 -0.24479967
0.16270627 -0.033706516 -0.090380415 -0.2438856 -0.48037148 -0.040661216 0.2864515 0.04987222
0.38534728 0.38283366 0.34557343 0.27705956 0.2021009 -0.04939762 -0.17439657 -0.076747775
0.2972862 -0.35247862 -0.08299367 -0.11482511 0.026589919 -0.9923056 -0.0806886 0.3107965
-0.22013071 0.044992954 0.047681455 0.2905109 -0.2875207 0.14503574 0.3599964 0.016673708
0.026723761 -0.25677007 -0.30437362 -0.15709387 0.21539265 -0.1833376 -0.0049453727 -0.04516983
0.52270675 0.11276312 0.18516934 0.122052185 0.33714545 0.028885432 -0.19089735 0.03151245

actor.2.bias f4 [32]
00000000: 1a86 8abe cd28 0cbe 1c12 52be 47e0 90be
00000010: 79f6 05bd 0124 3b3c bc25 79be a692 6e3d
00000020: 3915 e83d e920 2b3d 9665 55bd f601 95be
00000030: 80e7 23be c5fe a43d 655f 26bd 3a53 10be
00000040: 5c7a 55bb 92d1 2fbe 0578 afbd e5bb febd
00000050: fa92 77be 8f29 ccbd e3ab f8bd 11c0 613d
00000060: 8637 a9bd c6eb 07be 3118 53be a8a0 92be
00000070: 8ff1 4bbe f30f 0bbe fa93 40be 603c 48bd
-0.27055436 -0.1368744 -0.2051472 -0.2829611 -0.032705758 0.011422158 -0.24330801 0.058245324
0.11332173 0.041779432 -0.052098833 -0.2910306 -0.16006279 0.08056406 -0.04061832 -0.14094248
-0.0032574153 -0.17169788 -0.08567814 -0.12438182 -0.24177161 -0.09968864 -0.1214216 0.05511481
-0.082625434 -0.13273534 -0.20614697 -0.28638196 -0.19916366 -0.13580303 -0.18806449 -0.048885703

actor.4.weight f4 [3, 32]
00000000: c170 8b3c 59c6 52bd 7b89 a0bd 90b9 773d
00000010: dc3a a7bd 0f60 a93c 1003 b63d 8f92 9fbc
00000020: fb5e 99bd b4b3 1b3c fbdf 18bc 4d82 353d
00000030: 75ed 4bbd b885 9b3b 6330 df3c 7cf2 243b
00000040: b24b 2dbd bd79 26bc a595 a8bb 185c eebb
00000050: 2856 bb3d 9349 93bc 38fd d7bd 9eb4 b2bd
00000060: 31d6 e83b ca94 ae3c a0ee dd3c f4ab 843b
00000070: 35ce 643d f2ab 6c3d 71dd 643c 28d4 eeba
00000080: dc23 873d a8d3 3e3d de49 e6bc 853e 00ba
00000090: a072 f43b 7f0b 9a3c 4d0b b5bb 299c a23a
000000a0: 5370 84bd 4027 9f3c 198e b3bc 41ad 053d
000000b0: e6f3 d0bd 90a7 12bc a870 a23c 7787 a53d
000000c0: 9abe 203c dcf3 cf3c d398 35bc 081c 463c
000000d0: 89b6 043d ab4e b4bc 673a 403d 1b2d 323d
000000e0: 9a4e f53b 3cdb 0f3d e799 92bc 7d51 393e
000000f0: e093 0cbd 5140 b4bd 8e37 d13c f349 a3bd
00000100: db1c 47bd f443 75bd 66d2 39bb f8d9 923d
00000110: c8b8 deb6 48cb 1abd 27c5 4d3d cdbe 6dbd
00000120: 1a84 b53d 996e a53b a2e8 3ebd 89ea 6bbd
00000130: 2ad2 c73d 9f21 e9bb b58a 8c3d 1166 363d
00000140: 6882 103d 9dc8 b93c ad82 51bd 5e61 b0bc
00000150: 1bca 40bc 6db1 1f3d 33e4 873d 5dc4 d23c
00000160: f332 f43b 6879 3a3d 9bc1 9a3d 055c 4fbd
00000170: b653 91bd a2b9 fe3d 92d0 23bc ca17 6dbb
0.017021539 -0.05145869 -0.07838722 0.0604797 -0.081655234 0.020675687 0.08887303 -0.019479064
-0.07488819 0.009503294 -0.009330745 0.044313718 -0.049787004 0.004746165 0.027244752 0.0025168946
-0.042308517 -0.010160861 -0.005144792 -0.007274162 0.091472924 -0.017979419 -0.105463445 -0.08725856
0.0071056117 0.021311183 0.027091324 0.0040488187 0.055860717 0.057781167 0.013968811 -0.0018221186
0.065986365 0.04658857 -0.028111394 -0.00048921286 0.0074599534 0.01880431 -0.005525029 0.0012406158
-0.06466737 0.019427896 -0.021918343 0.03263593 -0.1020277 -0.008951083 0.01982911 0.080824785
0.009811068 0.025384836 -0.011083799 0.012091644 0.03240064 -0.022010168 0.046930697 0.043500047
0.0074861767 0.035121188 -0.017895652 0.18097492 -0.034320712 -0.0880133 0.025539186 -0.07973089
-0.048611503 -0.05987926 -0.0028354167 0.071704805 -6.637627e-06 -0.03779152 0.050236847 -0.05804329
0.08863087 0.0050485847 -0.046608575 -0.057596717 0.097568825 -0.0071146036 0.06862394 0.04453093
0.035280615 0.022678668 -0.051150013 -0.021530803 -0.011766936 0.038987566 0.066353224 0.025728399
0.0074523627 0.04552594 0.075564586 -0.050624866 -0.07096045 0.124377504 -0.0099984575 -0.003617751

actor.4.bias f4 [3]
00000000: 450b df3d 129b 9bbd b4c0 183e
0.10890821 -0.07597937 0.1491726

critic.0.weight f4 [64, 24]
00000000: c8c1 cdbe f093 9a3b 2ea3 47bf 88df 49bf
00000010: d834 a63d 5005 4f3d 0926 34bd a8e8 e63d
00000020: d75d 8dbe f056 3e3e 1e3d 943d a594 9a3e
00000030: c070 c33d 29b0 c93e 0e29 073e 9394 aabd
00000040: 94aa 483e ca01 a13e 4fdb 5fbe 5742 99be
00000050: d963 6bbd 7812 e7bd d06c 663e 4cb4 7ebe
00000060: c6a4 8cbe 6c02 84bd 35fe 683e db80 ca3e
00000070: f1fa e63d f8c7 adbf 75dd 2dbd 9d5d bebf
00000080: 75ad ba3e 49a9 90bf 7dee 043f 6016 9ebf
00000090: 7073 0a3f 62b7 4bbf 379a a93e c9a8 92bf
000000a0: 8994 fbbd 8c8d 19bf 505c adbb 1f9d 24bf
000000b0: b1f1 453e 9d6e 26bf 0486 afbe 8b57 30bf
000000c0: 13a0 edbe 0f4f ec3d c85b 78be 02ea 00bf
000000d0: 41f3 b8bf b785 04be e967 93be 534e d93e
000000e0: e817 0f3e d590 1e3f cc24 bd3e 50e6 1b3f
000000f0: 28e0 f6bd 1a8a 6a3f 8647 963e ed24 d53e
00000100: a05b 163e ae12 be3e 4ef6 673e 427a 063f
00000110: 446a 90bd e6db d13e 654f 8d3e f7d4 933e
00000120: 8fe3 973e 907f 00bd 407b cfbb 0b26 eabe
00000130: bd76 61bf 30c9 b9be 98d4 153f c30d 01bf
00000140: b833 683f 97fa fabe 7d89 3f3f ebbc 26be
00000150: 04c9 1a3f 489c f3be 8d90 a33e 063b 9dbe
00000160: e07a e63e d645 2dbd 6756 703e d798 7cbe
00000170: 44d9 c4bd f012 aebe 8e71 163f d390 f2bd
00000180: a194 27bf 38ae 62be d12b 2cbf ee74 40bf
00000190: a30b eabd 838c 903f c127 273e 4651 b03f
000001a0: 90cb 963d 3e1f 903f c50a 1d3e 1143 9f3f
000001b0: 5cea cb3e 5d40 5d3f b582 213f 1ef3 813f
000001c0: 6163 093f 6e88 ee3e 2413 cb3d 6cdb 513f
000001d0: 18c6 1f3f cc59 373f 1ee1 de3e ff9c ac3e
000001e0: 7276 aa3e 09ef ddbd 87c1 4bbd 9044 e53d
000001f0: a1c8 f8bf 5de7 13bd 175a 61bf 7c7b b03d
00000200: 676d c7be bd15 03be 2245 efbe 4f41 1c3f
00000210: a83b f2be cf02 283f 70f2 acbd 3a3c 133f
00000220: 992f 08be cdf3 0b3f d8cf 07bd 72f4 ea3e
00000230: 36e7 d23e ad51 6d3e 26e6 a93e 613e ed3e
00000240: 77ec 2a3e f72c 063e 63a3 04bf aae0 74be
00000250: 63fa 7ebe c5f4 503f fd13 79bf 715b 8c3e
00000260: c19b 35bf 20c4 4ebd c98e 4fbf 96b4 a1be
00000270: fd07 c8be f057 c4be 468e cbbe c3ae 20bf
00000280: 8e68 9abe 4ea5 15bf 650c 94be 7a86 0ebf
00000290: 7655 38be c7d4 34bf a8b8 d6be 24d1 2ebf
000002a0: e17f 3f3d 93de 8d3e a135 02bf 2348 afbe
000002b0: 8155 9ebf 4a0e c3be 5f37 cdbe 4852 81bf
000002c0: 45dd 28be 695a 4abf 5292 f73e 7efb 7fbf
000002d0: 3569 2b3e f569 70bf 8497 fc3d b6e9 48be
000002e0: 8482 953e 9773 2bbf e11a bd3e 1ff0 e3be
000002f0: 7633 8f3e 6402 4fbe a9c9 8e3d 9670 4ebe
00000300: 13ee 89bf 4741 02be 6fb1 383e 4656 a7bf
00000310: 6eca 99bf d3a4 78c0 586b 7dbe a5e5 f2bf
00000320: 4217 fe3d 1fcf 67bf dbd0 bc3e 270b e3be
00000330: 2c93 0dbe 0e30 65bd b8f2 233e b7ac 9a3e
00000340: a477 efbd 6ef1 0a3d ae53 60be bd43 f13d
00000350: 1451 88bd 4b2e c13e 205d 05be 8436 363f
00000360: 0ca4 183d 8f28 edbd 4017 42bd 08b4 04bf
00000370: d0c4 4ebd 06ea 213f 1012 3abf f115 833d
00000380: b948 8bbe 1aff 23be 48da cdbe 1c7f 0d3e
00000390: d7d1 c1be 550d 6dbd 20f7 83be 544b cfbe
000003a0: 8f67 813d 7f11 08bf b6a0 dabd db10 9bbe
000003b0: b841 74be dd59 57be 0cf2 41bd a612 17be
000003c0: 9e35 a73d 250e 8fbd 3ee4 e8be cc67 da3c
000003d0: 6caf 2f3f 50a6 9d3f d45e 5a3c 780d 473e
000003e0: 188c a6be 3522 03be 91ab 8bbe ea64 afbd
000003f0: 6894 bdbe 3aba acbe 6530 6bbe 387a c6be
-0.40186906 0.0047173426 -0.7798337 -0.78856707 0.08115548 0.050542176 -0.043981586 0.112748444
-0.27610657 0.18587852 0.0723822 0.30191532 0.0954299 0.39392212 0.13199255 -0.083291195
0.1959632 0.31446677 -0.21861003 -0.29933426 -0.05746827 -0.112828195 0.22502446 -0.24873465
-0.27469462 -0.064457744 0.22753222 0.39551434 0.11278332 -1.3576651 -0.042447526 -1.4872319
0.36460462 -1.1301662 0.51926404 -1.2350578 0.54082394 -0.79576695 0.3312547 -1.1457759
-0.1228419 -0.5998161 -0.0052905455 -0.6430225 0.19330479 -0.6501253 -0.34281933 -0.6888358
-0.4641119 0.11538517 -0.24253762 -0.5035707 -1.4449235 -0.12941633 -0.28790215 0.4244257
0.13973963 0.61939746 0.36942136 0.60898304 -0.12054473 0.91616976 0.29351443 0.41629735
0.1468339 0.37123626 0.22652552 0.525303 -0.070515186 0.40988082 0.27599636 0.28873417
0.296658 -0.031371653 -0.006331831 -0.4573215 -0.88071805 -0.36286306 0.5852752 -0.50411624
0.90703917 -0.4901931 0.74819165 -0.16283004 0.60462976 -0.4758017 0.3194622 -0.30709094
0.4501562 -0.04230293 0.2347046 -0.24667679 -0.09611753 -0.33998823 0.5876702 -0.11844029
-0.65461165 -0.22136772 -0.6725436 -0.7517842 -0.11428001 1.1292881 0.16323759 1.3774803
0.07363045 1.1259534 0.1533614 1.2442342 0.3982724 0.86426336 0.6309007 1.0152318
0.53667265 0.46588463 0.0991576 0.81975436 0.6241164 0.71621394 0.43531126 0.3371353
0.33293492 -0.10836608 -0.04974511 0.11194718 -1.9436227 -0.036109317 -0.8802809 0.08617303
-0.38950655 -0.12801261 -0.46732432 0.61037153 -0.4731114 0.65629286 -0.08444679 0.57513773
-0.13299407 0.54668885 -0.0331572 0.45889622 0.41192025 0.23175688 0.33183402 0.46336654
0.16691767 0.1310309 -0.5181181 -0.23913828 -0.24900202 0.8162349 -0.97296125 0.27413514
-0.70940787 -0.050480008 -0.8107725 -0.3158309 -0.39068595 -0.3834834 -0.39756984 -0.62766665
-0.30157894 -0.5845536 -0.28915706 -0.55673945 -0.18001351 -0.7063717 -0.41937757 -0.68287873
0.046752814 0.27708873 -0.5086308 -0.34234723 -1.2369844 -0.3809684 -0.40081307 -1.0103235
-0.16490658 -0.79044205 0.4835382 -0.9999312 0.16739352 -0.9391168 0.12333587 -0.19620404
0.29201138 -0.6697325 0.3693457 -0.44519135 0.2796895 -0.20215756 0.06972057 -0.20160136
-1.077578 -0.12720214 0.18036436 -1.3073204 -1.2014902 -3.88506 -0.2474798 -1.8976332
0.1240678 -0.90550417 0.36878094 -0.44344446 -0.13825673 -0.05595403 0.16010559 0.30209896
-0.116927415 0.03392165 -0.21906921 0.11780498 -0.066560894 0.3773063 -0.13023806 0.71176934
0.037265822 -0.115800016 -0.047385454 -0.51837206 -0.050480664 0.63247716 -0.7268381 0.06400669
-0.2720392 -0.16015282 -0.40205598 0.1381802 -0.37855408 -0.057874043 -0.2577448 -0.40487158
0.0631858 -0.53151697 -0.106751844 -0.30286297 -0.23853195 -0.21030374 -0.047349975 -0.14753208
0.081645235 -0.0698512 -0.45486635 0.026660822 0.6862705 1.231638 0.013328273 0.19438732
-0.32528758 -0.12806018 -0.27279332 -0.0856417 -0.37027287 -0.3373583 -0.2296768 -0.3876512

critic.0.bias f4 [64]
00000000: 984d 18bf 6c48 e4be 5bf7 463e 9eb3 523e
00000010: dc57 dbbe db7e b83e fff0 bdbd a542 ef3e
00000020: 19df 2e3f 7ae1 793e 1b0b 033f 7bd0 fbbe
00000030: a670 1b3f 6400 b23e 4de6 2a3e a903 0ebf
00000040: 7b6c 473f e434 3d3e 7a9f 3dbf dd60 c8bf
00000050: 5ba3 63bf 7e2d 83bf d840 f03e 960d 693e
00000060: 9fe4 89bd 1ba2 73be f0b9 373d f5a2 95bf
00000070: 4421 b8bf 9178 67bf 717d 65bf 0cbd 643e
00000080: 2217 cabe b1ef 753e c17d df3e 17fa 34bf
00000090: 2b3b 11c0 eb95 ad3e 2217 b33d 94cd 223f
000000a0: 29a6 cf3e 5087 9fbf d2a0 30bf 348d 1c3e
000000b0: 8803 f83e c918 b23e 288b 81be 4595 47be
000000c0: b36c b5bf c04d 31be 9cab 79be 7175 51bf
000000d0: 6f2d af3e 4958 b13e ea77 90be e1a4 4f3e
000000e0: 91d7 173f db3f 153f 427c 9c3e 0e04 e33e
000000f0: a865 7dbf 9a63 7e3e b7ae 2e3e c304 febf
-0.594934 -0.44586504 0.19430296 0.20576331 -0.4284047 0.36034283 -0.09274482 0.46730533
0.6830917 0.24402419 0.5118882 -0.49182495 0.6071876 0.34765923 0.16689415 -0.55474335
0.77899903 0.18477207 -0.74071467 -1.565456 -0.88921136 -1.0248258 0.46924472 0.22759089
-0.06733059 -0.23792307 0.04485506 -1.1690356 -1.4385152 -0.90418345 -0.89644533 0.2233774
-0.39470774 0.24017216 0.4365063 -0.70694107 -2.2692363 0.3390344 0.087446466 0.6359494
0.40556458 -1.2463169 -0.6899539 0.1528824 0.48440194 0.34784535 -0.2530148 -0.19490536
-1.4173797 -0.17314816 -0.2438187 -0.81819826 0.3421435 0.3463767 -0.28216487 0.2027774
0.59313303 0.5830056 0.3056355 0.4433903 -0.9898324 0.24842682 0.17058836 -1.9845203

critic.2.weight f4 [32, 64]
00000000: 8811 53be 76ea 46be fc91 d8bd 4935 edbe
00000010: 7552 63be 56c5 a13e 30be 5bbe 822e dabe
00000020: 82f1 023f f619 d7bd f44f 90be 9dfd 6cbd
00000030: 518e 17bf 8e8b b1be 00d9 11bf c6dd 1d3d
00000040: bad7 d6be 9682 d5be 73fb f4bd 5a79 1dbf
00000050: 91a6 383e 03ea 703e 1b64 0dbf 3945 c53d
00000060: 0c5d 1abe 2048 81be f19f 21be aacd 8fbd
00000070: 7339 e239 dbc3 ec3d affa cc3d 3743 1bbf
00000080: 3ecc 18be fb9c a1be 4b07 cfbe 3628 523d
00000090: 01a2 8ebf 2c0a 49bd d3b0 96be bd85 12bf
000000a0: 3638 91be 4ac9 873d 37dc 21bf 3b47 6dbe
000000b0: 87d3 7a3e f579 2a3d 3868 51be f489 eebd
000000c0: dd55 333e c550 e5be 4d97 123e 6b11 43bd
000000d0: c13d b7be 347b 97be fb50 94be bfd1 793c
000000e0: be7e 1fbe 7297 23be bec1 2abd a72d b3bd
000000f0: 7ec0 a73d d649 a1bd 996f cabe b693 0fbf
00000100: 4bc5 37bf f7e7 913e 3978 be3d 95a4 a7be
00000110: 91c7 76bf d44b 02c0 0d18 4bbf f4bd ddbf
00000120: f424 223f b989 1fbd e28c c2be 307a bdbe
00000130: 5ccf dcbe f69e b2be d2f4 10bf 4b95 51bf
00000140: 1768 27be 1681 123e bdbb a7bd 3c36 cf3d
00000150: d3d1 d43e c58e 173e b591 86bf cc87 a53e
00000160: d263 8cbe 78b4 a8bf 348b e7bf d20c 133e
00000170: d38b 303f b566 9cbf a8d5 233d 0a77 30bf
00000180: d0dc 0dbf 0e98 c3be 507f bebf f94e 45bd
00000190: 00fa 7bbf fa1f 88bf 1986 24be 3b17 a2be
000001a0: 0293 1ebf f4c5 363f 856d dbbf 4b8e d1bd
000001b0: df74 54be 9e14 1dbf 9684 de3e 2444 3f3f
000001c0: 8fcb 36be 64fb 62bf 038b 313e 80db 883e
000001d0: 2a34 153e 0aa7 43be 3ac2 953f f76c 2bc0
000001e0: f94b c4bf 7d6a 4b3f 3d72 a0be 3c9b 593f
000001f0: b6b5 6fbe eb66 07bf 7a75 20bf 7773 f93e
00000200: 23e4 16be 1a66 123f 3901 45be 8bb2 f43e
00000210: 4c4d dfbe 14c4 0bbd 0779 a6be 7359 fc3e
00000220: 9452 8d3e 1593 34be 5c08 ad3e d8af 72be
00000230: a7ff 2f3e e98b 113e bbb8 003d f47d c8be
00000240: 5a1d ccbe 47c8 2fbe f8a9 883e ccbe 9fbe
00000250: b4b7 413e 9439 f1be b41f 633e 864f 683e
00000260: f2d7 803e e2c3 9fbe 9c9a 82be 75dd 29bf
00000270: caa3 f7be f04d 3abe b732 363e ebd7 e03e
00000280: fd5f 893b 8af9 a43e fa99 b33e 9933 50bd
00000290: ed30 633f 7d39 863e c313 d93c 9ac0 883e
000002a0: 0aaf 823e 4ff2 8abe e631 e03e 0ab7 bb3e
000002b0: 60ca a2bd 1d4a fdbb 0db0 26bc 34d4 22bf
000002c0: 7be5 34be 7c4e 01be 37c1 073e d20e d7be
000002d0: d565 83bd 305c 853e 24d8 2dbf 2b9d 283e
000002e0: 4a2f aa3e f7c2 a0be db57 463e a2a1 b0be
000002f0: 9a9d c53e 00d8 d83e fb92 c3bc 82f7 27bf
00000300: a792 98be 00c8 023d ee38 973d d45f 1ebf
00000310: 949f 70bf 9046 23bf 75df 4c3e fccc a9be
00000320: 55b6 fe3e eecd 80be 1a3d a7bd 35a2 e53e
00000330: 49b0 bb3e 4fc8 be3d 03dd 2fbe 1b70 79bf
00000340: c112 d9bd adfe 933e b2b0 133b 3b42 aebf
00000350: cca7 18bf 73b7 6bbf f4da 513e b849 68bd
00000360: 0dcb 223f 729e 5b3d 3be1 d0bd 8b4c 8bbf
00000370: b773 8bbf ee21 9ebe c564 23be 76e3 36be
00000380: 6a6d cdbb 39a9 d03e 1647 ae3e 424e adbe
00000390: c967 57bf e436 b13e 6d3f bdbd 803d 9abd
000003a0: 2ccf a3be 1e29 77bf 98a2 ccbd 5530 0b3d
000003b0: 7fde 223e 5d84 82be 8a30 f3bd 3b8d 60be
000003c0: a9a8 8bbf d51e 2abe f85c 8e3e 12b1 aabf
000003d0: 9679 89be b9e8 d4be 63bc 4ebf 8d5c 03bf
000003e0: 4e08 a53d d292 90be 8914 3dbe b76c 0dbe
000003f0: c71c 7bbf 98f3 713e 8318 0cbc b84b c7bf
-0.20612156 -0.19425377 -0.10574719 -0.46329716 -0.22199424 0.31595868 -0.2145927 -0.42613608
0.5114976 -0.105029985 -0.28186 -0.057859052 -0.5920153 -0.34676784 -0.5697174 0.038541578
-0.4196146 -0.41701192 -0.11962023 -0.6151329 0.1803229 0.23526768 -0.55230874 0.09632344
-0.15074557 -0.2525034 -0.15783669 -0.07021649 0.00043148882 0.11560794 0.100087516 -0.60649437
-0.14921662 -0.3156508 -0.40435252 0.05130788 -1.114319 -0.049081966 -0.2943178 -0.5723532
-0.28363198 0.0663019 -0.63226646 -0.23171704 0.24494754 0.041620214 -0.20449913 -0.11647406
0.17513223 -0.44788185 0.14315529 -0.047624033 -0.35789302 -0.29586184 -0.28968033 0.015247761
-0.15575692 -0.1597574 -0.041688673 -0.08748942 0.08191012 -0.07875411 -0.39538267 -0.56084764
-0.7178542 0.28497288 0.093002744 -0.32742754 -0.96398264 -2.0358782 -0.79333574 -1.7323594
0.63337636 -0.038949702 -0.3799811 -0.37007284 -0.43126953 -0.34886903 -0.56623566 -0.8186843
-0.16348301 0.14307055 -0.08190105 0.10117766 0.41566333 0.14800556 -1.0513216 0.32330167
-0.27419907 -1.3180075 -1.8089356 0.1436036 0.68963355 -1.2218844 0.03999868 -0.6893164
-0.5541506 -0.38201946 -1.4882603 -0.048171017 -0.98428345 -1.0634758 -0.16066779 -0.31658348
-0.61943066 0.713958 -1.7142798 -0.10232218 -0.20747708 -0.61359584 0.4346053 0.7471335
-0.17851089 -0.8866484 0.17338185 0.26729965 0.1457068 -0.19106689 1.1699898 -2.6785257
-1.5335685 0.79459363 -0.31337157 0.85002494 -0.23409161 -0.52891415 -0.62679255 0.48720905
-0.14735465 0.57187045 -0.19238748 0.47792467 -0.4361366 -0.03412254 -0.32514212 0.49286994
0.27602065 -0.17634232 0.3379544 -0.23699892 0.17187367 0.14213528 0.031426173 -0.39158595
-0.39866143 -0.17166243 0.26692176 -0.31200254 0.18917733 -0.4711424 0.22180063 0.22686586
0.25164753 -0.31204134 -0.25508583 -0.6635354 -0.4836715 -0.18193793 0.17792784 0.43914732
0.004192351 0.32221633 0.35078412 -0.050830457 0.8874653 0.26215735 0.026498681 0.26709443
0.2552417 -0.27137992 0.4378807 0.36663085 -0.07948756 -0.0077297823 -0.01017381 -0.63605046
-0.17665665 -0.12627596 0.132573 -0.42003495 -0.06415907 0.26046896 -0.6790793 0.16466205
0.33239204 -0.31398746 0.19369452 -0.34498316 0.38596803 0.42352295 -0.023873797 -0.6561204
-0.29799387 0.031929016 0.07383905 -0.6186497 -0.93993497 -0.63779545 0.20007117 -0.33164203
0.49748483 -0.25157112 -0.08165951 0.44850317 0.36657932 0.093155496 -0.17174153 -0.97436684
-0.1059928 0.2890524 0.0022535739 -1.3613962 -0.5963104 -0.92076796 0.2049368 -0.05671093
0.6359108 0.053617902 -0.10199209 -1.0882734 -1.0894688 -0.3088526 -0.1595641 -0.17860207
-0.0062691467 0.40754107 0.3403861 -0.33848768 -0.8414274 0.3461219 -0.09240613 -0.075312614
-0.31993997 -0.96547115 -0.0999195 0.03398164 0.15905188 -0.2549161 -0.118744925 -0.21928875
-1.0910846 -0.16613324 0.27805305 -1.3335288 -0.26850575 -0.41583803 -0.80756205 -0.51313096
0.080582246 -0.28237015 -0.18464865 -0.13811003 -0.98090786 0.2362808 -0.008550766 -1.5569983

critic.2.bias f4 [32]
00000000: b4f5 d8be cb7e 903d a25d ce3e 75ec f73e
00000010: 03a5 ee3e 6611 ca3e 228d c8bd e5c1 b0be
00000020: ddcd 0e3f cfd0 383f d88d 54be 5eb0 b6be
00000030: ebe3 0e3f 0b55 e03e 2974 103f 95fa c93e
00000040: f531 babe f39b fe3e 99b1 ef3e 4adb 1a3f
00000050: 9a1e 2b3f 06ca e63e 4b28 99be 0ec7 0dbf
00000060: d305 95be 8da8 8a3e 5419 a4be 0808 fa3e
00000070: 0377 e6bd 2d4a e9bd 6391 cbbd ab40 70be
-0.42374957 0.07055434 0.4030581 0.4842259 0.4661027 0.394664 -0.09792544 -0.3452293
0.5578287 0.72193617 -0.20757234 -0.35681432 0.55816525 0.43814883 0.56427246 0.3944899
-0.3636624 0.49728355 0.46815184 0.6049086 0.6684357 0.45076007 -0.29913554 -0.5538186
-0.29106006 0.2708172 -0.32050574 0.48834252 -0.112531684 -0.11391101 -0.0993984 -0.23462169

critic.4.weight f4 [1, 32]
00000000: 6c78 ebbe 94a9 c4bf 1374 233e ba4c fa3e
00000010: 9628 dc3e 4340 003f b74d 02bf 52bf 80bf
00000020: 18c8 e63e 7835 1a3f 5515 83bf e436 ccbf
00000030: 4d9e 163f 7f61 d23e 640c bc3e 19e2 b93e
00000040: 850c 7dbf fa04 053f 180d bc3e a1c1 083f
00000050: 856b 003f d6e6 1b3f 5c0b 15bf 317a 85bf
00000060: 07ec 48bf c06d 973e 31ee 55bf 78c1 e23e
00000070: f3b5 7cbf 352f d2be dbef f3bf f8e7 4dbf
-0.45990312 -1.5364251 0.15962248 0.48886663 0.42999715 0.50098056 -0.50899833 -1.0058386
0.45074534 0.60237837 -1.0240885 -1.5954251 0.588353 0.4109001 0.36728203 0.3630531
-0.9884723 0.5196072 0.3672874 0.53420454 0.5016406 0.608991 -0.5822046 -1.0427915
-0.7848515 0.2957592 -0.83566576 0.4428823 -0.9871513 -0.4105164 -1.9057573 -0.8043208
