logs/exp/model_33.pt (torch, 34660 bytes, 12 tensors)

log_std f4 [3]
00000000: 7c9c 34be 3692 10bd 3b22 4bbd
-0.17637819 -0.035295688 -0.04959319

actor.0.weight f4 [64, 24]
00000000: 16a6 bebe c7f8 373d fbf2 023f dd87 d9bd
00000010: 755f 78bd 1c19 b0be 916f bebd 4fa7 efbd
00000020: 4321 143e a087 07bf b1a5 5abd a87f afbe
00000030: 85eb cdbe 4548 b1bd e51b 84be 1b8d 21bf
00000040: 8371 d0bd 0721 8bbe 65ce 293e efc2 2ebf
00000050: e4e9 c03c db46 c2be 7dd8 1bbe 3ecf 96be
00000060: 2394 03bd 4e8e 703d d7bb 383e cad5 35be
00000070: 23d0 85be da58 bdbb 7bcb 8ebc bda6 d83d
00000080: e394 d1bd df31 afbd b8c3 86bc 67e2 4fbe
00000090: 6e1f 0f3e f3cd 9dbe 7a5c 363e 94f3 e1bd
000000a0: 8e96 0cbd 19fa 7abe 3373 0cbe 054b 43be
000000b0: 308e 97be b752 53bc b700 b23c fb60 c7bd
000000c0: 4a38 bf3d 562e 34be 908c 003e bc22 cfbe
000000d0: 1133 113e b59c 3c3e 237b 443e 2786 a0be
000000e0: e883 023f 72ac b1bd 86de 833e 7242 3cbe
000000f0: cd67 8a3e f2cb 2bbe f783 f53e cb8a b8be
00000100: f1e9 6ebe 2176 86bd 74e6 aabd e7dc aa3d
00000110: f8c2 9e3d a4fb 043d 697a 103d eb8a 91be
00000120: d922 80be 79dc ab3e dd9f 52bc 2803 0d3e
00000130: 8355 32be 12d3 8abd 9c6c 2dbe f80d ebbe
00000140: 9119 c33d cb77 0b3d bb19 37be 624d 21bd
00000150: 4890 a33d cea7 e13d 81fe d83d f1a3 cabe
00000160: 5b5f 99bc ab41 09be 5f42 643a 1005 1abd
00000170: da2b 233d fd75 90be 4a9c 35be 9d54 8cbc
00000180: 66a1 21be 4f66 3a3d cf0b fd3d 1e08 55bf
00000190: f09b 0f3f 1a16 393f 3443 8e3d b2f7 863d
000001a0: 497d 7abd 500f 743d 8b6a 2f3b 49b0 dabd
000001b0: d377 edbd 5ef9 a1bd f4f3 79be 670e a3bd
000001c0: bc52 1fbe 7a87 dcbc 151d 43bd 300c 7d3d
000001d0: 4c45 f43d 8517 6abe b6d7 773d 2aa4 3abe
000001e0: c042 f9be c466 05be 8c20 cf3c e1f4 fdbd
000001f0: e6af e6be 2f90 b93e fb61 5d3d 836d e8bd
00000200: 6de3 aabc 15e2 853d b598 48bd 8847 833d
00000210: 6ad9 3c3d 4c8e fb3c 9cb3 0abb 36a0 b63e
00000220: faa5 9bbd df43 373e e223 4b3e 8086 5bbd
00000230: 52cc babd 0459 583c 27df 19bc 4b3a 0c3e
00000240: fe32 c03d 350e e83e bcc8 90be 2225 b7be
00000250: 8b65 af3e d112 723b 7e1f 113f 7ee7 8dbe
00000260: ea0c e73e 5cc6 babd 6491 633e 7dcc 65bc
00000270: 7704 803d 3b75 1bbd 82f1 b93e a638 7f3e
00000280: 0040 9fbe 9529 4d3e 332d 32be 498a 91bd
00000290: 4d41 1abe 94e2 763e a74f 00be acb6 bb3d
000002a0: 20ab f63d 2b00 0e3c ddcf a7bd 7fb5 7bbf
000002b0: 358e 1cbd 8462 00be fd80 bebe b707 383e
000002c0: 6a8f 21bd 0310 1e3e ec79 f33d e283 853e
000002d0: eade 49be 8993 edbc 6ceb 11bc b517 fc3c
000002e0: 3ec8 a83e 625e a5bd ec77 17be 5952 0cbd
000002f0: ca31 7fbe 812c ff3d 758f b4be d2c8 913e
00000300: f7ac bc3d 7a27 373d 9d27 4e3e 0e40 933e
00000310: 4437 213f 19ab 233e d632 2e3e 9827 a33d
00000320: 80e0 f83e 84ef 1a3e 1bba febd 0352 853e
00000330: b9d2 1b3e 8a63 a53e 9215 2dbe 3362 e7bc
00000340: 9eda 8cbd caf9 c4bd 6357 873d 0417 25be
00000350: b9c7 ac3d a028 d5bd 6afe 91be 0fb7 febd
00000360: 754b d23d 4097 0d3e 88d9 103d 808c 74bf
00000370: edd2 9dbe 8995 e1be 81cf a0bd 80a8 733d
00000380: 442d 21be 83fa 42be 18e2 98be 2a52 a93d
00000390: 2015 61be 7531 dd3d 38e8 99be 5c59 673e
000003a0: 614e 87be 04dd acbe c8af 33be ff20 0f3c
000003b0: ffee 44be ea7b 5cbd 2478 0a3e 285a 75bd
000003c0: dbbf 83be 93b6 1cbe 69ef 5dbe a6bc a3bc
000003d0: 9e8b bebe 08d0 93bd 42de 013e 5032 633e
000003e0: 664e 6e3e 742c cbbd 80fc d6bd 5886 e6bd
000003f0: 21f8 923c 4b53 b23d 34b9 f73d ee17 a53d
-0.3723609 0.044914987 0.5115201 -0.10621617 -0.06063791 -0.34394157 -0.09298623 -0.117018335
0.14465813 -0.5294132 -0.053380672 -0.3427708 -0.4021875 -0.086563624 -0.25802532 -0.63105935
-0.10177901 -0.27173635 0.1658264 -0.68266195 0.023549028 -0.37944683 -0.15219302 -0.29454988
-0.032123696 0.058729462 0.18040405 -0.17757335 -0.26135358 -0.005778414 -0.017431011 0.10578678
-0.10233476 -0.08554434 -0.016450748 -0.2030121 0.13976833 -0.3082119 0.17808715 -0.11032787
-0.034323268 -0.24509467 -0.1371582 -0.19071586 -0.29600668 -0.012898139 0.021728856 -0.097352944
0.09336908 -0.17595801 0.1255362 -0.40456188 0.14179637 0.18419154 0.19187598 -0.3135235
0.5098252 -0.086754695 0.2575571 -0.18384722 0.2703232 -0.16777018 0.47952244 -0.3604339
-0.23331429 -0.065655 -0.08344737 0.08342915 0.07752031 0.032466546 0.03527299 -0.28426298
-0.25026587 0.33566645 -0.012855497 0.13770735 -0.17415433 -0.0677854 -0.16935962 -0.45909095
0.09526361 0.03404979 -0.17880909 -0.03938044 0.07986504 0.11018334 0.10595418 -0.39578202
-0.018722227 -0.13403957 0.00087074 -0.037602484 0.039836742 -0.28215018 -0.17735401 -0.01713019
-0.15784225 0.045507725 0.12355768 -0.8321551 0.56097317 0.7229935 0.06946412 0.06590213
-0.061154637 0.059584916 0.0026766385 -0.10678155 -0.1159512 -0.07908891 -0.24409467 -0.079617314
-0.15558904 -0.026920069 -0.047635157 0.0617792 0.1192728 -0.22860534 0.060508452 -0.18226686
-0.4868374 -0.13027483 0.025284074 -0.124002226 -0.45056075 0.36242816 0.05404852 -0.11349013
-0.020860398 0.06537262 -0.048973758 0.06410128 0.04610578 0.0307075 -0.0021164184 0.35669106
-0.07600017 0.17896985 0.19837907 -0.053595066 -0.09121002 0.013204817 -0.009391583 0.13694112
0.09384726 0.4532334 -0.28278148 -0.35770518 0.3425716 0.0036937485 0.5668868 -0.27715677
0.4512704 -0.09119865 0.22223431 -0.014025805 0.062508516 -0.037953597 0.36317068 0.24923953
-0.31103516 0.20035394 -0.17400055 -0.07106454 -0.15063973 0.2410987 -0.12530385 0.09165701
0.12044358 0.008667032 -0.08193944 -0.98323816 -0.038221557 -0.1253758 -0.37207785 0.17971693
-0.03944341 0.15435795 0.11888489 0.2607718 -0.19713941 -0.029001014 -0.008906227 0.030773023
0.32965273 -0.08074643 -0.1479184 -0.03425822 -0.24921337 0.1245966 -0.352657 0.28473526
0.09212678 0.044715382 0.20132299 0.28759807 0.62974954 0.15983237 0.1701158 0.07966536
0.4860878 0.1513043 -0.124378406 0.26039132 0.15217103 0.32302505 -0.1690276 -0.028245067
-0.068776354 -0.09617956 0.066084646 -0.16122061 0.084365316 -0.10408139 -0.28514415 -0.124372594
0.102682985 0.13827229 0.035363704 -0.95526886 -0.30824986 -0.440594 -0.07852078 0.059486866
-0.15739924 -0.19040875 -0.29859996 0.08267625 -0.21980715 0.10800449 -0.3005998 0.22592682
-0.26426986 -0.33762372 -0.17547524 0.008735894 -0.19231795 -0.05382911 0.13522393 -0.059900433
-0.25732312 -0.15304022 -0.21673359 -0.019987416 -0.37215894 -0.07217413 0.12682441 0.22187161
0.23272094 -0.09920588 -0.10497379 -0.11256093 0.017940583 0.08707293 0.120958716 0.08061205

actor.0.bias f4 [64]
00000000: 5904 293e 89f6 7cbc e6c2 14be e85c 65bd
00000010: 5cbe 1e3b 9d62 b9bc c7da 07be 2728 b83c
00000020: 5377 adbe 926a 9abe c234 173d a0a3 46be
00000030: 9fef a9bd 3b21 623e 2175 8abe 5c0a 183d
00000040: 4aab 373c 25be 9abe 1c70 5d3d dad3 32be
00000050: 04e1 823d cae5 6ebe c0cc d8bd 3d42 cebd
00000060: 5139 66be 8f78 d7be 34f8 8abe 0ffa 923e
00000070: 1645 2cbe 6b7a d3bc 7c10 99be aa4b b8be
00000080: 054b 0bbe 0d7f 81be 56a6 76bd c828 12be
00000090: d2ce 11bf f183 923d 8f7f 70be 666e 5ebd
000000a0: e85e 89bd f76a 3bbe 0685 18be 38c5 083e
000000b0: cf4e e5bd 500a 5d3e a3af 15be c043 4bbe
000000c0: ea8f 90bc 52ba b4be 17c9 b4bc ea22 4fbe
000000d0: f699 c0be eccf 62bd d944 31be ac8d c3bd
000000e0: 9edc ce3c cb3b a03d aa7b 273d d6f6 a9be
000000f0: a567 1bbe d630 743d 33c4 2a3e 377c a4bd
0.16505565 -0.015439638 -0.14527473 -0.055996805 0.002422235 -0.02263003 -0.1326705 0.022480084
-0.338801 -0.30159432 0.03691555 -0.19398355 -0.08297657 0.22082989 -0.27042487 0.037119254
0.011210272 -0.30223194 0.054061994 -0.17463627 0.063905746 -0.23329845 -0.10585928 -0.10071228
-0.22482802 -0.42084166 -0.2714249 0.28706405 -0.16823229 -0.02581521 -0.2989539 -0.35995227
-0.13602836 -0.25292245 -0.060217224 -0.1427337 -0.5695621 0.07154072 -0.2348616 -0.054304503
-0.06707555 -0.18302523 -0.14894494 0.13356483 -0.11196672 0.21585965 -0.14617781 -0.19850063
-0.017646749 -0.352984 -0.022068543 -0.20228162 -0.37617463 -0.05537407 -0.1731142 -0.09548506
0.025251683 0.078239046 0.04088942 -0.33196133 -0.15176256 0.059616886 0.16676407 -0.080315046

actor.2.weight f4 [32, 64]
00000000: fb53 cebd ec16 b0bd c5dc 9bbe ef96 02be
00000010: 9842 f83c 5c12 03be 1353 a5be 7a1c 7cbd
00000020: c50a 70be 394c aabe 09b9 4ebd 2eda c0be
00000030: 0ad7 b4bc c53a 93be fa48 acbe c0c6 67be
00000040: 1737 babe 3a2e e93e 5565 92be a185 8ebe
00000050: 3238 093e 9121 663d fe44 733d b502 26be
00000060: 94f1 033e 7b56 8f3d 5e76 363e 3983 c5be
00000070: dfd3 05be 6b0c f1bd 4d8d 9ebe 0730 28be
00000080: 4a80 cabe 419c f63d 0d35 adbd f1a6 933d
00000090: 4569 cfb9 952f 8ebe 35bf d9bd 3bb5 3c3d
000000a0: 83ba f03c 0bff 333e 5632 be3c eeb0 09be
000000b0: da2c 41be 6b49 79be 2cb2 373e 3921 70be
000000c0: e143 7abd 9040 30be 71d7 c1be 15f3 a73e
000000d0: 1051 99bd cdac 31bd ec50 b9bd 7881 ddbb
000000e0: 913b 4f3e 29c4 80be 1533 fc3d 6564 8b3e
000000f0: d06a 723e 1d49 d5be 84e4 a6be fa87 853e
00000100: 5387 f7be f5af 6e3d aaa6 0bbe 0632 5abd
00000110: a042 01be d095 05be 5d5c 94be db27 26bd
00000120: e80e f83d 7886 553e 08a5 89bc 8add 1a3e
00000130: 63e4 10be 8fa9 cabe b0b0 0a3d 954c 1ebf
00000140: abe6 61bd 49f9 733e d86f 143e a7c0 7abd
00000150: 297b 6fbe b995 cc3b f8c8 febd d149 1dbe
00000160: ee6a 63bd 17fe ae3d 1de1 403c 6e0f 2abe
00000170: 27c4 c0be 91ea ebbe 4945 8c3c a4a2 35be
00000180: fb8f 16bd 4e01 5c3e 1950 0fbe dc68 d53d
00000190: 4d6a 2b3e 3b76 b83c 264f 933e 6f71 e1bd
000001a0: bf1f 30be 1a58 88be 4d93 763e 43fc 66be
000001b0: 66e7 8bbd 881a 6cbe 4da6 e23b c24f 5a3d
000001c0: 679e 913c 7c97 ea3d 61cc 73be 001f 05bf
000001d0: 736f 523d 51f0 613d 9862 1abe c205 07be
000001e0: 2cdd 73be 20c8 9b3d 90b4 19be 1799 01be
000001f0: 5477 1f3e 8354 85be edfa 83be 09b4 2e3d
00000200: fe47 03bf f1d9 4abe 1d6f febb b359 05be
00000210: 1be7 8bbe 96f0 443e e062 ebbd ab36 e8bc
00000220: 5df5 5bbe 0285 67be 1a54 85bd 0297 cfbe
00000230: ba79 ef3d 735b 6ebe 8ac7 69be 9719 89be
00000240: 0601 ddbd 7d4f 0abd e507 d43d d354 1dbd
00000250: e9ee 80be c043 9b3e 80ef 4abe ceb4 72be
00000260: 0013 9ebe a3a4 7fbc 15c9 28bd 603c 043e
00000270: 7dfa 10be 702c b2bd ac2c 93bc 32c9 19be
00000280: 30fc de3c 2e15 cfbd db20 303d 8b22 10be
00000290: 24a2 f83d 40a6 92bd 169a 203d 9268 37be
000002a0: 5fb1 a5bd f953 97bd 5d42 06be 390e 4e3e
000002b0: 218c f6be 393e e6bc 75a5 7e3d 6c63 8c3e
000002c0: 2e2c 813e 6a7d e1bc 0e85 d8bd e927 ed3e
000002d0: 9ed6 14bd 8231 b5bd e07e f13d 5fd7 1bbe
000002e0: e4f5 993e 7725 53be f257 4abd 9ccf 623e
000002f0: 858a 9d3e 1e24 7bbd fbdc 213e 0a73 c0be
00000300: 508c 0fbe ed82 11be 3c1b c13a 9cf3 a3bd
00000310: 263d 723d 0314 443e 8445 ae3e d6fa 893d
00000320: 67ed 563e 4671 0fbf df3b 28be 01a3 58bd
00000330: d900 a7be 970b 0ebf 9783 15be b44c 84be
00000340: 4c77 3d3d 893d e1bd 3f11 2abe fcad 99be
00000350: b46c 05bf 4de8 33be ff8e edbc b2f7 fcbc
00000360: afa5 9b3e 03cf b53e f8e2 7d3e 3a02 593e
00000370: 00f8 183d accc 5ebe 2bf3 6cbe f1dc 18be
00000380: 1cbf 8d3e 0d25 47be 327b 63be 0be0 f7bd
00000390: c77b cbbc 4993 2fbf b180 6ebe de64 353e
000003a0: c2b5 62be 99b9 d53c 5261 b03d 6119 623e
000003b0: fbce a1be 5907 f43d 2d3b 753e dde9 c6bd
000003c0: 716f 11bc 5a2a 62be d67b 33be d9cf cabe
000003d0: ed4f c43d f146 43be b9cf 42bb 9003 f4bd
000003e0: c37a c53e e74e 0a3e 84ab 193e 1f6a 383d
000003f0: dbe7 3c3e e15b 7e3d de81 a6be 6b4a 84bc
-0.10074612 -0.08598122 -0.3044187 -0.12752889 0.030305192 -0.12799972 -0.32289943 -0.061550595
-0.23441608 -0.33261278 -0.050469432 -0.37666458 -0.022075195 -0.28755775 -0.33649427 -0.22634411
-0.36370155 0.4554308 -0.28592935 -0.27836326 0.13400343 0.056184355 0.059391968 -0.1621197
0.12885123 0.06998917 0.17818591 -0.38576677 -0.13069104 -0.11769947 -0.3096718 -0.16424571
-0.39551002 0.12041522 -0.08457384 0.07209576 -0.0003956055 -0.27770677 -0.10632173 0.046071272
0.02938581 0.1757776 0.023217361 -0.134464 -0.18864766 -0.24344413 0.17939061 -0.23450173
-0.06109989 -0.17212129 -0.3785968 0.32802644 -0.074861646 -0.043377686 -0.09048638 -0.0067598186
0.20237567 -0.25149658 0.123144306 0.27225032 0.23673558 -0.41657344 -0.3259622 0.26080304
-0.48345432 0.058273274 -0.13637796 -0.053270362 -0.12623072 -0.1304543 -0.28976718 -0.040565353
0.12112218 0.20852077 -0.016802326 0.15123573 -0.14149623 -0.39582488 0.03385991 -0.61835605
-0.055151623 0.23825563 0.1449579 -0.061218884 -0.23386826 0.0062434343 -0.124406755 -0.1536019
-0.055521898 0.085445575 0.011772421 -0.16607448 -0.37649652 -0.46077397 0.017122881 -0.17737824
-0.036758404 0.21484873 -0.13995399 0.10420391 0.1673977 0.022517314 0.28771323 -0.11007964
-0.1719961 -0.26629716 0.24079628 -0.22557168 -0.06831245 -0.23056996 0.0069167973 0.05329872
0.017775727 0.114546746 -0.23808433 -0.5200043 0.051375818 0.055160824 -0.15076673 -0.1318579
-0.23814839 0.0760653 -0.15010285 -0.12656055 0.15572864 -0.2604104 -0.2577738 0.042652164
-0.51281726 -0.198097 -0.0077647106 -0.13022499 -0.27324757 0.19232401 -0.11493468 -0.02834638
-0.21480317 -0.22609332 -0.06510182 -0.40544897 0.116931394 -0.23277073 -0.22830024 -0.26777336
-0.10791211 -0.033767212 0.10353068 -0.038410973 -0.25182274 0.30325127 -0.19817924 -0.23701784
-0.3087387 -0.015603217 -0.04120739 0.12913656 -0.14158054 -0.08699882 -0.017965637 -0.15018156
0.027219862 -0.101114616 0.043000083 -0.14075677 0.12140301 -0.07160616 0.039209448 -0.17910984
-0.080904715 -0.073890634 -0.13111253 0.20122613 -0.48153785 -0.028105842 0.06216951 0.27419603
0.2522902 -0.027525622 -0.10572253 0.46319512 -0.036337487 -0.088473335 0.117917776 -0.15218876
0.30070412 -0.2061976 -0.049400277 0.22149509 0.30769745 -0.06131374 0.15806954 -0.37587768
-0.14018369 -0.142101 0.0014732848 -0.08005449 0.059140347 0.19148259 0.3403741 0.06737296
0.20989 -0.56032217 -0.16429089 -0.052889828 -0.32617834 -0.55486435 -0.14600979 -0.2583977
0.04625635 -0.10998065 -0.16608141 -0.30015552 -0.5211899 -0.17569084 -0.02899885 -0.03087983
0.30399844 0.355095 0.24793613 0.21192256 0.037345886 -0.21757764 -0.23139636 -0.14928032
0.27684867 -0.19447728 -0.22214964 -0.1210328 -0.024839295 -0.68584114 -0.2329128 0.17714259
-0.22139648 0.026089476 0.086123124 0.22079994 -0.31603226 0.11915464 0.23948355 -0.09712575
-0.008876667 -0.22086468 -0.17527708 -0.396117 0.09585557 -0.19070031 -0.0029725863 -0.11914742
0.38570222 0.13506661 0.15006834 0.04502308 0.18447821 0.06209934 -0.32520956 -0.016148767

actor.2.bias f4 [32]
00000000: 0a3b 3cbe 4975 32be 8faf 1bbe 1bdb 44be
00000010: 07b5 6abd 86d3 9abd 1a50 2cbe 5b87 093d
00000020: abe3 533d 9fe5 ab3c 4e58 87bd 3ff3 5abe
00000030: 669d 00be 7df1 1b3e 6f7d acbc 1eeb 37bd
00000040: a8bf 1e3c 446b 25be 6a68 cdbd 99e1 16be
00000050: cffc 51be f4b0 f8bd 72b8 01be 9f2e d73c
00000060: bc12 b2bd c9f5 dabd 532b 4ebe ff7e 2ebe
00000070: 613f b0bc 8212 e7bd 1310 27be bd6c 84bc
-0.18381897 -0.17427553 -0.15203689 -0.19224207 -0.057301547 -0.07559876 -0.16827431 0.03357635
0.051730793 0.020983515 -0.0660864 -0.21381854 -0.12560043 0.15228839 -0.021055905 -0.04490196
0.009689249 -0.161542 -0.10029681 -0.14734496 -0.20506595 -0.12143126 -0.12668017 0.026267348
-0.086949795 -0.10691411 -0.20133714 -0.17040633 -0.021514596 -0.11282827 -0.16314726 -0.016165132

actor.4.weight f4 [3, 32]
00000000: 3754 f63a 202b cb3a 686b 84bd 6ae3 7c3d
00000010: 3313 d7bd 8cb4 b33c 412d fa3d 3e37 5ebc
00000020: b441 0dbd 5a2b c7bc 3f84 17bd 7698 9e3d
00000030: 764a fabb 9a9b 00bb e7ad 86bb eaa8 043d
00000040: a75b 47bd 5002 483a 6216 203b efb6 023b
00000050: ef41 7c3d 522c 39bc 0c56 23be ca8d bcbd
00000060: dc99 b53b 2d96 fd3c 3ca2 0e3d 3f6a f5bc
00000070: 796e 01bc 2158 3c3d b376 0e3b eca4 2bbd
00000080: 06b9 a83d 2029 0e3d b987 99bd a420 36bd
00000090: 2b97 793c d3db 6a3d 798c 4c3d 5586 2abc
000000a0: e1df 26bd 0cfe 583b 5e35 8b3c 9be7 04bc
000000b0: 1e40 47bc 043b 20bd 630a e4ba 52ed 93bc
000000c0: 54f1 68bb b2e1 07bc 3112 69bb fc55 d43c
000000d0: 38e9 b2bb c394 cc3c cbc7 c3ba 341e 473d
000000e0: 7177 8abb c630 5c3d 1b3d 1ebd bae1 2f3c
000000f0: 0ac9 14bc 21e6 d5bc a889 f73c 048a 8bbd
00000100: 0dec 01be b005 cabc 7dbd 903c f28e 803d
00000110: 4553 2ebc 1756 a4bd 64ff bc3c 9fb6 2dbd
00000120: 47ff 683d 7f09 ad3b e5b4 06bd 4e9b dbbc
00000130: cb80 193d 4df5 ba3a 4ac5 b43c e97b 90bb
00000140: e77a 87bc 0171 453c a5a0 e6ba 96af 86bc
00000150: b8df a3b9 3746 863d 5cd4 c03c 93b7 023d
00000160: db8c 88bb fa30 cc38 1de8 0b3c 8915 cebd
00000170: baa1 27bd f0f1 a63c 990a 27bd 9d7f 3fbc
0.0018793409 0.0015500523 -0.064657986 0.061740316 -0.10501709 0.021936677 0.12215663 -0.013562975
-0.034486488 -0.024312664 -0.036991354 0.07743923 -0.007638271 -0.0019623996 -0.0041100862 0.03238765
-0.04867139 0.0007629739 0.0024427404 0.0019945463 0.061586317 -0.011302071 -0.15950793 -0.092067316
0.005542023 0.030955398 0.034822688 -0.029957889 -0.007899874 0.045982484 0.002173823 -0.04190533
0.082384154 0.03470719 -0.0749659 -0.044464722 0.015233795 0.057338547 0.049938653 -0.010408004
-0.04074085 0.0033110408 0.01699322 -0.00811186 -0.012161283 -0.03911878 -0.0017398115 -0.0180575
-0.0035544233 -0.008293556 -0.0035563821 0.025919907 -0.0054599307 0.024973279 -0.0014936862 0.04861279
-0.0042256643 0.05375745 -0.038632493 0.01073497 -0.009081135 -0.02611071 0.030217007 -0.06813434
-0.12687702 -0.024660915 0.01766848 0.06277265 -0.01063997 -0.08024233 0.023070998 -0.04241049
0.056884076 0.005280673 -0.03288736 -0.026807453 0.037476342 0.0014263779 0.022066731 -0.0044093025
-0.016538097 0.012050868 -0.0017595483 -0.016441148 -0.00031256466 0.06556361 0.02353876 0.03191335
-0.004167182 9.7366006e-05 0.008539227 -0.10062701 -0.04092572 0.020379037 -0.04078159 -0.01168814

actor.4.bias f4 [3]
00000000: f70e fe3d ea9c b7bd 92eb 543e
0.12405198 -0.08965476 0.20792988

critic.0.weight f4 [64, 24]
00000000: 5174 d4be e8f4 a23c 3e27 49bf 6fe0 66be
00000010: 305f b53d 54f7 eb3e 2d54 803c 3f61 ab3e
00000020: 3863 6dbe 66fe a33e d6a4 d73d c00e c63e
00000030: bc88 ff3d e1a7 e33e 51c6 293e 77e3 63bd
00000040: 5e3e 723e 3b2e a73e acda 30be eb49 98be
00000050: c35f 31bc 10da edbd b74f 883e 22f1 81be
00000060: 4f9c 96be 9bbc 65ba 5454 ad3e 9615 65bd
00000070: 5c35 433f d384 7fbf 6870 d23e 77d4 8ebf
00000080: f9c8 2a3f 8447 58bf 05bf 3e3f af78 82bf
00000090: c946 3a3f 211b 22bf abf5 ff3e 6fdb 82bf
000000a0: 724d 1f3d 5517 02bf 8b1d 133e 0cc3 13bf
000000b0: 071d b13e bc5d 18bf 3680 3cbe 41b3 23bf
000000c0: 219c b0be c6b8 ee3d adc7 a8bd 655f e9be
000000d0: 5f06 adbf 538d 74be fe59 59be db6c ab3e
000000e0: f253 533e fc63 123f efba dc3e 275a 183f
000000f0: e4ef 6dbd b815 6e3f f87e b73e b510 e83e
00000100: 0726 553e 0c93 d93e 7285 963e 0194 1a3f
00000110: a2e6 21bb 9979 003f fe54 ac3e 62d1 c33e
00000120: 76cd a33e e0a9 fabc f55f b2bd b573 32be
00000130: c2bf 04bf aa61 15bf 0cbc 4c3f 6ae1 43bf
00000140: 1519 833f 8099 34bf 9f61 513f 6c57 a6be
00000150: 29b0 233f 2e04 17bf 8710 a53e f923 c2be
00000160: d3f6 d93e caaa 99bd 6327 413e 06f4 7abe
00000170: c667 2dbe 132e a3be 1cf6 fa3e d1db b0bd
00000180: 17f1 1abf 9b4d 17be 85df 48bf 0e9f 8fbe
00000190: 68fc d1bd 9602 6d3f 18f1 523e ff2d 993f
000001a0: 9e64 223e acd4 7b3f 1eaf 883e 34da 8f3f
000001b0: 989d 093f c8b8 423f 6899 4b3f 6c20 6e3f
000001c0: 7d7e 363f 8572 cb3e c83f 913e e484 463f
000001d0: 3ea3 4f3f 2dc9 323f 660f 1e3f 10fb b03e
000001e0: eb32 953e f1bd f1bd 580f 3fbb 664d 8b3e
000001f0: bf05 cbbf bb86 133e e96e 18bf bab1 3a3e
00000200: a6e2 38be 8d00 1fbe e17f a1be e7f7 fd3e
00000210: 32a2 c1be bcfa f93e a69d bfbc 0d58 d33e
00000220: e680 d8bd d538 d63e 171a 1ebd 1297 c23e
00000230: f23e bc3e 1838 453e b2fb 763e 85af e53e
00000240: 44c9 a93e 53fa 173e a9d8 f8be e85d a83d
00000250: 77fb a13d 30d0 553f 4ba2 23bf b7a7 763e
00000260: ab10 d3be d54c 91bd c265 0dbf ed97 9bbe
00000270: 448a 28be 7c62 acbe bd29 4dbe 87f4 0cbf
00000280: 53ce 04be 15af f7be 4f88 0dbe 67aa e0be
00000290: 95ac 32bd 3dc2 13bf 134f 95be 7525 0cbf
000002a0: bf1a be3d 8b7f 8a3e da84 05bf 9213 8cbe
000002b0: 0b28 81bf 2213 61be 6d5d 2abe fd1f 68bf
000002c0: 3d57 293d 03c4 38bf 530b 293f ed38 71bf
000002d0: 4a8a a73e c24c 5fbf ce38 863e f0c9 e6bd
000002e0: be65 cb3e 6670 11bf f3c7 e53e c2f3 a1be
000002f0: b36e a83e e00f 65bd 2e01 b03d ef97 4dbd
00000300: 41c5 4bbf 0330 89bd 96c6 883e 6c8e a3bf
00000310: 2bea 32bf 80d0 4fc0 df52 433e 67f6 adbf
00000320: ba43 fb3e a287 efbe f720 303f 849c b8bd
00000330: 3ed3 193e 5fae 663e 13db ce3e eb96 fa3e
00000340: 3257 f43d c0fc 113e fdcc a43c 6eb8 133e
00000350: 383c 1d3e f3a7 953e dfc4 a53d a831 073f
00000360: c61a 2c3e a89a 38be 3da1 873d 3283 2abe
00000370: d167 9dbd 7599 143f 791d 41bf 5002 7c3d
00000380: 69a5 97be 31fb fcbd 8f49 d9be f6f8 4c3e
00000390: a587 cfbe baa0 773c af53 90be 48f0 a5be
000003a0: 51a5 293d 5dcb e5be 28f2 fabd 3106 62be
000003b0: 5352 7cbe 9dc7 05be de44 2ebd 4ad6 8ebd
000003c0: 7c38 ce3e 5371 1dbe faa9 96be b7cd cf3e
000003d0: 1a2d 213f 37e2 563f 9c06 6c3c 8948 83bc
000003e0: 1996 93be 9409 57be 1a9a 65be b28d aabd
000003f0: 82e6 a5be f372 8dbe e062 45be 5223 93be
-0.41494992 0.019892171 -0.78575504 -0.22546552 0.08856046 0.46087134 0.015665138 0.3347263
-0.2318238 0.32030028 0.10529487 0.38683128 0.12477252 0.4446402 0.16579558 -0.05563685
0.23656604 0.3265246 -0.17270917 -0.29743895 -0.010826054 -0.11613858 0.26623318 -0.25379282
-0.2941613 -0.0008763761 0.338534 -0.05592879 0.76253295 -0.9981205 0.41101384 -1.1158589
0.6671291 -0.84484124 0.7451022 -1.019308 0.7276426 -0.63322645 0.49992117 -1.0223216
0.038892217 -0.5081685 0.14366738 -0.5771949 0.3459246 -0.5951803 -0.18408284 -0.63945395
-0.34494117 0.116563365 -0.0824121 -0.45580593 -1.3517569 -0.23882036 -0.21225736 0.33481488
0.20637491 0.57183814 0.4311137 0.5951256 -0.058090106 0.9300189 0.35839057 0.45325246
0.20815288 0.42495 0.29398686 0.60382086 -0.0024704118 0.50185543 0.33658594 0.38245684
0.31992692 -0.03059858 -0.087097086 -0.17426951 -0.518551 -0.5835215 0.79974437 -0.7651583
1.024203 -0.7054672 0.8178958 -0.32488573 0.63940674 -0.5899075 0.32239172 -0.3791807
0.42571124 -0.075032786 0.18862681 -0.2450715 -0.16934118 -0.3187109 0.49015892 -0.08635677
-0.60524124 -0.14775698 -0.78466064 -0.28051037 -0.10253221 0.9258207 0.20599782 1.1967162
0.15858695 0.98371387 0.26696104 1.1238465 0.53756094 0.76063204 0.79530954 0.9301822
0.71286756 0.3973581 0.28368974 0.77546525 0.8110846 0.6983822 0.61742246 0.34566545
0.2914041 -0.118038066 -0.0029153433 0.27207488 -1.5861129 0.14406864 -0.59544235 0.1823186
-0.1805521 -0.15527554 -0.31542876 0.49603197 -0.37819058 0.48824108 -0.023390602 0.41278115
-0.105714604 0.41840234 -0.0385991 0.38005883 0.36766773 0.1925968 0.24119452 0.44860473
0.33161366 0.14841585 -0.486028 0.08221036 0.07909291 0.83520794 -0.63919514 0.24087416
-0.41223654 -0.07094733 -0.55233395 -0.30389348 -0.16458994 -0.33668888 -0.20035453 -0.5506062
-0.12969331 -0.48375764 -0.13821529 -0.43880007 -0.04362162 -0.5771826 -0.2916189 -0.54744655
0.09282445 0.27050433 -0.5215584 -0.2735868 -1.0090345 -0.21979955 -0.16637202 -0.9067381
0.041342963 -0.7217409 0.66032904 -0.94227487 0.32722694 -0.872265 0.26215214 -0.11268985
0.3972606 -0.5681213 0.44879112 -0.31631285 0.32896957 -0.055923343 0.08593975 -0.050193723
-0.7959786 -0.06698611 0.2671401 -1.2777839 -0.6988856 -3.2471008 0.19074582 -1.3590821
0.4907511 -0.46783167 0.688003 -0.09014228 0.15021989 0.22527455 0.40401515 0.48943266
0.11930694 0.14256573 0.020117277 0.14425823 0.15355003 0.29229698 0.08094191 0.52810144
0.16807088 -0.18027747 0.06622551 -0.1665161 -0.07685817 0.58046657 -0.75435597 0.061525643
-0.29618385 -0.123525985 -0.42438933 0.20016846 -0.40533176 0.015114004 -0.28188846 -0.32409883
0.041417424 -0.44881716 -0.12253219 -0.22072674 -0.24640779 -0.13064428 -0.042546146 -0.06974466
0.4027747 -0.15375261 -0.29426557 0.40586635 0.62959445 0.83938926 0.014405873 -0.016025798
-0.28825453 -0.20999748 -0.22422066 -0.083278075 -0.32402426 -0.27626762 -0.19275999 -0.28737885

critic.0.bias f4 [64]
00000000: 513e 00bf 22ba b7be dbf7 723e d84a 213e
00000010: 21cc 9ebe ec3e ba3e 946e 5fbe 6506 eb3e
00000020: ddec d33e 4e30 683e e1bc d93e 5d79 eabe
00000030: 13dc b83e 4893 783e da46 293e 236c bfbe
00000040: e3b7 e83e 4511 423e f71c 9bbe 7d21 95bf
00000050: de8a 22bf 2d96 58bf 308c db3e dde7 e83d
00000060: ba35 a5be 53c7 ec3b 405f c63c 384c 68bf
00000070: 242c 68bf b873 44bf e134 2ebf 1b1b 623e
00000080: ec06 71be 6baa 0b3e 7b96 c33e 190c 01bf
00000090: 4963 acbf 2db4 823e 2f83 9d3d 909f 103f
000000a0: 2c76 a33e 5b9e 6cbf 0d69 d3be c47e 8a3d
000000b0: 675b b33e 4ac8 8d3e 8862 1dbe 22bb 43bb
000000c0: d390 8cbf 9387 fd3c bef8 e5bd 58cf f0be
000000d0: 45a1 9d3e cb36 6f3e 9257 a3bc 87d4 3e3e
000000e0: f82c fa3e 1cb9 cd3e c732 8f3e 3b44 7f3e
000000f0: 3ebd 40bf 13ea 3a3e be22 f33d 82c5 93bf
-0.5009509 -0.35884196 0.23727362 0.15751207 -0.31015113 0.3637613 -0.21819526 0.45903316
0.4139165 0.22674677 0.42526916 -0.45795718 0.36105403 0.24274933 0.16530934 -0.3738719
0.45452794 0.189519 -0.30295536 -1.1650845 -0.63493145 -0.8460415 0.42880392 0.113723494
-0.32267553 0.0072259097 0.02421534 -0.907413 -0.90692353 -0.7673907 -0.68049437 0.22080652
-0.23537797 0.13639228 0.38200745 -0.50409085 -1.34678 0.25528088 0.07691037 0.56493473
0.31926095 -0.9242913 -0.41291085 0.0676246 0.35030672 0.2769187 -0.15369618 -0.0029866179
-1.0981697 0.030948436 -0.112290844 -0.4703319 0.307871 0.23360746 -0.019939218 0.1863576
0.48862433 0.4018029 0.27968428 0.24928372 -0.7528876 0.18253355 0.11871861 -1.154465

critic.2.weight f4 [32, 64]
00000000: d73a 23be 5b08 cabd bb46 19bd b714 61be
00000010: 7b12 e4bc e389 163e 8c02 82be cfe1 c5be
00000020: 0856 833e 0152 18be b24b a2be 169d cdbd
00000030: 09e6 c6be a7d4 afbe 3394 13bf c577 373e
00000040: 6505 09bf 5d04 aebe 9b2c 18be 288f 3abe
00000050: 66e2 3a3e b95c 563e 4b46 14bf 895c ac3d
00000060: 390f 8abe 3d33 88be bf4d 8bbe d206 cebd
00000070: a773 ae3c 63a0 b43d 7108 303d 4d3a a7be
00000080: fed4 31bd ecd0 bebe 6a4b ddbe e14b cabc
00000090: 93c3 aebc e273 61bd 18b2 b1be 6f47 cabe
000000a0: cae1 4abe 32ff 733e 8ce1 b8be e118 b3be
000000b0: f292 a73d b36f f23c b344 6a3e 1ded 1cbe
000000c0: 8abb d93d bd13 ccbe 801e cbbd 113a 18bc
000000d0: dfbe b3be e6bb 07be 8eae 91be 9ae3 a43c
000000e0: 333b 36be 0d13 b0bc 5b01 fdbd 78b2 e2bd
000000f0: 7e1d e13c dba5 d3bd 01c5 4fbe 9d7c a13e
00000100: a3cf 04bf 2bfe de3e feca 1e3c acb5 cbbe
00000110: d2b8 76bf 8d7c 05c0 6d43 39bf c39e d0bf
00000120: b0db 2d3f 3d21 b13d d0eb 74be 24b5 45bd
00000130: 11ab cfbe a1c2 b2be 9c7b f5be 907b 20bf
00000140: 75c0 aebe 9594 6cbd c536 4d3c 7cf4 833e
00000150: 38e5 103f c9df 923e bcaf 56bf 0423 d63e
00000160: b554 d73d 3f2c 95bf be15 c0bf 9a7c 8e3e
00000170: 53ef 653f 6484 19bf 6c1c 583e 68db 3bbf
00000180: bb4c 2cbe d55b 48be a3b1 a0bf a00c 6d3d
00000190: 4e0a 03bf c0b7 72bf d160 a2bb 894c debe
000001a0: a1e3 01bf bcdc 553f 9ebc c5bf 9058 063e
000001b0: fb2a cd3d 8965 0abf 81bc 9c3e 0c98 4b3f
000001c0: a1fa 883c 61f6 14bf 7395 b03e 18fd db3e
000001d0: bbd9 533d 2019 72be aa97 b03f 5e0d 11c0
000001e0: 6594 85bf 0c5a 063f 3a6b 0dbe 5aaf 333f
000001f0: 9d05 6cbc c624 c4be 8bbf 0cbf 258c 1d3f
00000200: 460c 22be 9bc4 da3e 5b1d 1cbe a21a fa3e
00000210: 3e5d 13bf 7d2b 963c 7d09 a5be b2de 0a3f
00000220: 1a99 2d3e 267f ffbd e283 ad3e 4068 adbe
00000230: 3203 b63d a553 463e 378d 9c3d 5371 b9be
00000240: 70db ddbe 656c f4bd 7b73 9d3e 6bef a1be
00000250: 6d26 753e 8a62 c3be db44 783e 7b01 913e
00000260: b261 663e 5155 60be 0a17 53be 3eb4 0fbf
00000270: 5088 97be 3bc2 75bd ba4e 453e 77df fd3e
00000280: f35e 173c 1a19 d93e 2909 d33e 7004 babd
00000290: cfb3 963f ba04 863e 78de 143e ea18 923e
000002a0: cfa6 823e faad 84be 0105 c93e 634b f23e
000002b0: b9c8 913d 2d1e 743d 51d6 c43d fee1 22bf
000002c0: 9481 4cbe 385a 0ebe 1d42 5d3e f178 2bbe
000002d0: 0dfb 7c3d 9821 883e 91f2 21bf 9b46 533e
000002e0: 1d2b cd3e ea90 08be bc24 9b3e 67d6 b1be
000002f0: 5d8b bd3e b41f e53e 0e7b 743d a22a 1ebf
00000300: 4a98 35be c04e de3c 18b9 643e 9b54 16bf
00000310: 9645 77bf 37c0 0ebf 9400 5c3e bed7 6bbe
00000320: 8b69 983e 4b3a 5ebe 26fe adbd 050f 813e
00000330: b297 9f3e 4d0e 323e a3a0 02be f196 50bf
00000340: 008e 94be 7e8c 9f3e afea d2bc 8e51 99bf
00000350: 75ec efbe 8df4 45bf 93e7 6e3e af7b 913c
00000360: bf1f 193f 3471 5f3d 2253 9abd e3a7 73bf
00000370: 717d 2bbf 2b6b aebe b5b4 22bd 6f7a 85bc
00000380: b74e db3d d91f 0a3f 50da d13e 9ea0 c1be
00000390: b29b 99be 1491 823e e6a3 8a3c 576e 7abd
000003a0: 10d9 44be b4ea 53bf ef34 21be 86a6 403e
000003b0: 430b db3e e174 37be bab0 50bd 4b81 44be
000003c0: af1b 76bf 0f71 97bd 3447 dd3e e82b 32bf
000003d0: f9bf 96bd 02b1 ddbe 088e 47bf 8c8a 5bbe
000003e0: 40a7 993e 1867 69bd d045 5cbd e66a 80be
000003f0: 9e29 58bf 2d49 633e 9347 483e 0936 a3bf
-0.15940414 -0.09864875 -0.03742097 -0.21980558 -0.027840843 0.14701037 -0.25392568 -0.3864884
0.25651574 -0.14875032 -0.31698376 -0.100397274 -0.38847378 -0.34341928 -0.5764801 0.17916782
-0.53523856 -0.33987704 -0.14860766 -0.18218672 0.18250427 0.20933808 -0.5791976 0.08416087
-0.2696474 -0.26601592 -0.27207753 -0.100598946 0.021295382 0.08819654 0.0429768 -0.32661667
-0.043416016 -0.3726877 -0.432216 -0.024694385 -0.021333491 -0.055042155 -0.34706187 -0.39507625
-0.19812694 0.23827818 -0.3610958 -0.3497992 0.081823245 0.029594278 0.22877769 -0.15324827
0.10631473 -0.3985881 -0.09917927 -0.009291188 -0.3510656 -0.13255271 -0.28453487 0.02012806
-0.1779602 -0.02149346 -0.12353774 -0.110691965 0.027479883 -0.10334369 -0.20289995 0.31540385
-0.5187933 0.4355329 0.009691952 -0.39787042 -0.96375763 -2.085727 -0.7236851 -1.629845
0.6791334 0.08648918 -0.2391808 -0.048268452 -0.405602 -0.34914115 -0.4794587 -0.6268854
-0.34131208 -0.057758886 0.012525265 0.25772464 0.5659976 0.2868636 -0.838619 0.4182359
0.105142035 -1.1654128 -1.5006635 0.27829438 0.89818305 -0.5996764 0.21104592 -0.7338166
-0.16826145 -0.19566281 -1.255421 0.05787337 -0.511876 -0.9481163 -0.004955389 -0.43417767
-0.5073796 0.8353994 -1.5448186 0.13119721 0.100179635 -0.5406118 0.30612567 0.7952888
0.016721072 -0.58188444 0.3448902 0.42966533 0.051721316 -0.23642397 1.3796284 -2.2664409
-1.0435911 0.5248115 -0.13810435 0.7018944 -0.014405635 -0.38309306 -0.5497977 0.6154197
-0.15824994 0.42728123 -0.15245573 0.48848444 -0.5756415 0.018331284 -0.322338 0.54246056
0.16952935 -0.124754235 0.3388968 -0.338686 0.08887328 0.19367845 0.07644122 -0.36219272
-0.4333148 -0.11934737 0.30752167 -0.31627974 0.2394044 -0.38161117 0.24245016 0.28321442
0.22498205 -0.21907546 -0.20614257 -0.561344 -0.29596186 -0.059999686 0.19268313 0.49584553
0.009238946 0.42401963 0.41217926 -0.09082878 1.1773623 0.2617548 0.1453799 0.28534633
0.2551789 -0.25913984 0.3926163 0.4732314 0.07118363 0.05959909 0.0961119 -0.63626087
-0.19971305 -0.13901603 0.21607251 -0.16745354 0.06176286 0.2658813 -0.6326075 0.20632403
0.40071955 -0.1333653 0.30301464 -0.34733889 0.37020388 0.4475075 0.059687667 -0.617838
-0.17733875 0.02713716 0.22336233 -0.5872285 -0.96590555 -0.55762047 0.21484596 -0.23031518
0.29768023 -0.21701925 -0.084957406 0.25206771 0.31170422 0.17388268 -0.1275659 -0.8148032
-0.29014587 0.31161875 -0.025746671 -1.1978014 -0.4686009 -0.7732628 0.23330526 0.017759172
0.59814066 0.05455132 -0.075353876 -0.9517805 -0.66988283 -0.34066138 -0.039723117 -0.016293732
0.10708373 0.53954846 0.40986872 -0.37817854 -0.300016 0.2550131 0.016923856 -0.061140385
-0.19223428 -0.82780004 -0.15742849 0.18813524 0.4278203 -0.1791568 -0.05094979 -0.19189946
-0.9613599 -0.07394611 0.43218386 -0.69598246 -0.07360835 -0.4329911 -0.779511 -0.2143957
0.30010414 -0.056983083 -0.053777516 -0.25081557 -0.844385 0.22195883 0.19558553 -1.2750865

critic.2.bias f4 [32]
00000000: 4c53 b0be 830f f7bd 7c7c 943e de12 ae3e
00000010: 946f 9c3e bda5 9f3e e2d7 173e 481b a6bd
00000020: fc79 d93e 4d8d 0b3f a3dd 20be c365 47be
00000030: 387c e33e 80ae 9b3e 77db d53e d4fe 7d3e
00000040: cc83 1cbe e783 a93e 414d a63e 80ee e33e
00000050: 06b7 fe3e 3a08 893e b8b5 98be 43f9 3cbe
00000060: 1723 95be 7dcf 4f3e 0c30 d2be 9138 c83e
00000070: c298 44be b423 e5bd b2f2 6bbd b497 43be
-0.3443855 -0.120635055 0.29001224 0.3399877 0.30553877 0.31181136 0.14828447 -0.08110672
0.4247588 0.5451248 -0.15709548 -0.19472413 0.4443071 0.3040657 0.41769 0.2480424
-0.15284652 0.33108446 0.32480815 0.445179 0.4974901 0.2676409 -0.2982614 -0.18454461
-0.29128334 0.20293994 -0.41052282 0.39105657 -0.19198897 -0.111884505 -0.0576045 -0.19100839

critic.4.weight f4 [1, 32]
00000000: 9cf3 b0be e462 a9bf bd91 7b3e c77b ca3e
00000010: 8ee5 ae3e 7129 0b3f bf64 95be 57a3 efbe
00000020: 0de9 e03e 6fa0 113f 69e0 52bf 13d6 dfbe
00000030: 8c17 1c3f ae33 da3e a8cc a73e add9 a73e
00000040: 43cf b0be 855a c13e 700a e23e c498 a83e
00000050: 33be ee3e ab33 d73e 8e57 e9be ff0f a8be
00000060: b620 29bf 8594 9b3e 79d9 4dbf 0ba1 f63e
00000070: 4758 5abf 8cbe 90be 2d55 ecbf 4456 1fbf
-0.3456086 -1.3233304 0.24567313 0.3954756 0.3415951 0.5436011 -0.29178426 -0.46804306
0.43927804 0.5688543 -0.8237367 -0.43718013 0.6097343 0.42617553 0.32773328 0.3278326
-0.34533128 0.37764373 0.44148588 0.3292905 0.46629485 0.42031607 -0.4557461 -0.32824704
-0.6606554 0.3038675 -0.8040996 0.4816974 -0.8529095 -0.28270376 -1.8463494 -0.62241006
