logs/exp/model_9.pt (torch, 34660 bytes, 12 tensors)

log_std f4 [3]
0	0xbd0a8a00	-0.033823013
1	0xbbbdd96d	-0.0057937414
2	0xbd1355f6	-0.03597065

actor.0.weight f4 [64, 24]
0	0xbe9f619b	-0.31129155
1	0xbd3970c2	-0.04527355
2	0x3ee04154	0.4379984
3	0x3be3e729	0.0069550467
4	0x3dff4666	0.12464599
5	0x3d7ef780	0.062247753
6	0x3d0ab164	0.03386058
7	0x3e594a11	0.2121966
8	0x3e75fc6c	0.24022073
9	0xbea13f44	-0.3149358
10	0x3ccd1357	0.025033636
11	0xbe28dac4	-0.16489702
12	0xbea5d76b	-0.32390913
13	0x3dc235e9	0.09482939
14	0xbe2a1849	-0.16610827
15	0xbed8ba95	-0.4232985
16	0xbb92da84	-0.0044816155
17	0xbd2e6386	-0.04257538
18	0x3e887ee7	0.2665932
19	0xbedd4df5	-0.4322354
20	0x3e0063a0	0.12538004
21	0xbde44c36	-0.111473486
22	0xbd3735fe	-0.044729225
23	0xbbc811d0	-0.006105639
24	0xbc7b1705	-0.0153253125
25	0x3e14a587	0.14516269
26	0x3e2728ad	0.1632411
27	0xbe569c83	-0.20958142
28	0xbea04c04	-0.31307995
29	0x3c935ceb	0.017988643
30	0xbcf92a6b	-0.030415734
31	0x3e13e879	0.1444415
32	0xbdb1a429	-0.08673889
33	0xbcc66c3b	-0.02422153
34	0x3c45475a	0.012040937
35	0xbdf92450	-0.12165129
36	0x3e3dd403	0.18537907
37	0xbe5176ff	-0.2045555
38	0x3e77b352	0.24189499
39	0x3bbd2207	0.0057718786
40	0x3d38d1a5	0.045121808
41	0xbe01374c	-0.1261875
42	0xbd432fe7	-0.047653105
43	0xbd995b26	-0.07488088
44	0xbe494330	-0.19654536
45	0x3dd72b54	0.10506311
46	0x3e025144	0.12726313
47	0x3c9b896f	0.018986432
48	0x3da8b9b7	0.08238547
49	0xbe184d17	-0.14873157
50	0x3e0e4051	0.13891722
51	0xbdaa758f	-0.08323204
52	0x3d6c5a37	0.057703223
53	0x3e783ad7	0.24241196
54	0x3d8a5e11	0.06756223
55	0xbe963730	-0.2933898
56	0x3eb8300f	0.35974166
57	0xbdcdab48	-0.10042435
58	0x3de24deb	0.11050018
59	0xbe56e8cb	-0.20987241
60	0x3e077682	0.13228801
61	0xbe48877c	-0.19582933
62	0x3eb3ca51	0.35115293
63	0xbec20830	-0.37896872
64	0xbeb0f608	-0.34562707
65	0xbd7bec89	-0.061504874
66	0xbe3e39cf	-0.1857674
67	0x3dde3cc9	0.108514376
68	0xbcae1a1a	-0.02125268
69	0x3d8c65f0	0.068553805
70	0xbd6f4419	-0.058414552
71	0xbe760352	-0.24024704
72	0xbd9c6197	-0.07635801
73	0x3ea945e3	0.33061132
74	0xbd56b271	-0.05241627
75	0xbe4f4e95	-0.2024482
76	0xbe5fa9de	-0.21842143
77	0xbda20e41	-0.07912875
78	0xbe5e4991	-0.21707751
79	0xbee8d8ec	-0.45477998
80	0x3d5f64b0	0.054539382
81	0x3d83fa7f	0.06444263
82	0xbe621f33	-0.22082214
83	0x3b0d0aa4	0.0021521235
84	0x3d2c4b33	0.042063903
85	0x3e245ee2	0.1605182
86	0x3da67d54	0.08129373
87	0xbeada7b7	-0.3391702
88	0xbd13b6d1	-0.03606302
89	0xbdba386a	-0.090927914
90	0x3af0d30d	0.0018373445
91	0xbbc54b4d	-0.0060209394
92	0x3d6d784e	0.05797606
93	0xbe857cf6	-0.260719
94	0xbe0dbdef	-0.13841985
95	0x3ae9e8b2	0.0017845838
96	0xbdeced7d	-0.11568735
97	0x3d455398	0.048175424
98	0x3e1b597d	0.15170856
99	0xbf123b94	-0.5712216
100	0x3f15f17e	0.5857161
101	0x3f0b358e	0.5437859
102	0x3d687d43	0.056760084
103	0xbd9345c2	-0.071910396
104	0xbdb7fd23	-0.08983829
105	0xbca24416	-0.019807857
106	0xbd00b600	-0.03142357
107	0xbe1b1dc8	-0.1514808
108	0xbe155a94	-0.14585334
109	0xbdc86728	-0.097853005
110	0xbe8b673a	-0.27227193
111	0xbda40ec5	-0.080106296
112	0xbe30b271	-0.1725557
113	0xbb81165e	-0.003939434
114	0xbd63bc39	-0.055599425
115	0x3ddaf080	0.10690403
116	0x3df2c742	0.11854412
117	0xbe26b793	-0.16280966
118	0x3d859890	0.065232396
119	0xbdcb63bf	-0.099311344
120	0xbebc3df2	-0.3676601
121	0xbe5478bd	-0.20749183
122	0x3df66741	0.12031413
123	0x3d8556d9	0.065107055
124	0xbea8087f	-0.32818982
125	0x3f003168	0.5007539
126	0x3e1cf913	0.1532939
127	0x3bf21e95	0.0073888996
128	0x3cfe99a1	0.031079115
129	0x3e00af42	0.12566856
130	0xbc6c309d	-0.014415887
131	0x3dbc4949	0.091936655
132	0x3d813264	0.063084394
133	0x3cee10f2	0.029060815
134	0xb90d4af0	-0.00013474724
135	0x3eaade39	0.33372667
136	0xbdb622df	-0.0889337
137	0x3e12936c	0.1431405
138	0x3e2f133e	0.17097184
139	0xbdcd6811	-0.10029615
140	0xbe08f37b	-0.1337413
141	0xbd3fce9d	-0.0468279
142	0xbd836af8	-0.06416887
143	0x3d843436	0.06455271
144	0x3e6f5a3b	0.23374264
145	0x3eaaacac	0.33334863
146	0xbe8d928e	-0.27650875
147	0xbe80bad3	-0.25142536
148	0x3e40eb32	0.1883972
149	0xbcf0daf9	-0.02940129
150	0x3edce374	0.43142283
151	0xbead603b	-0.3386248
152	0x3ea55036	0.3228776
153	0xbe3bb000	-0.18328857
154	0x3df41b31	0.11919249
155	0xbe0351cc	-0.12824172
156	0xb9eeac30	-0.00045523187
157	0xbe28daac	-0.16489667
158	0x3eb0e173	0.34547004
159	0x3df06396	0.117377445
160	0xbe9315a4	-0.28727448
161	0x3d8b96ef	0.06815898
162	0xbddc17e0	-0.10746741
163	0xbe47a6d4	-0.19497234
164	0xbd485744	-0.048911348
165	0x3e0202a7	0.12696324
166	0x3c3e084b	0.011598657
167	0xbc34157e	-0.010991452
168	0x3e13f4ad	0.14448805
169	0xbd928448	-0.07154137
170	0xbadadf12	-0.001669856
171	0xbf5937e1	-0.8485089
172	0x3de1993b	0.110155545
173	0x3c7f21ff	0.01557207
174	0xbe7a6803	-0.2445374
175	0x3e92a8b2	0.2864433
176	0x3d4f8b9b	0.050670248
177	0x3e46c723	0.19411902
178	0x3e44bde3	0.19213061
179	0x3e81a8a1	0.25323966
180	0xbe04ac70	-0.12956405
181	0xbd8d2721	-0.06892229
182	0x3d5a1304	0.05324079
183	0xbce92c15	-0.028463403
184	0x3ec75eab	0.38939413
185	0xbe17e7d7	-0.14834534
186	0xbdbb172b	-0.09135278
187	0xbdd62b0e	-0.10457431
188	0xbe4ac010	-0.19799829
189	0x3d5375aa	0.051625885
190	0xbe9c4adf	-0.30525872
191	0x3e56347f	0.20918463
192	0x3e642136	0.22278294
193	0x3dee920c	0.1164895
194	0x3e17716f	0.14789365
195	0x3e97bddc	0.2963704
196	0x3efec1d6	0.4975726
197	0x3d477d68	0.04870358
198	0x3d80e830	0.06294286
199	0xbc200494	-0.0097667165
200	0x3ed84f67	0.4224808
201	0x3dc1b6c3	0.09458687
202	0xbe222298	-0.15833509
203	0x3e624133	0.22095184
204	0x3e1a85a3	0.15090041
205	0x3e99476e	0.2993731
206	0xbe150e45	-0.14556225
207	0xbd20a8b4	-0.039223388
208	0xbc71e18c	-0.014763247
209	0xbda36e36	-0.079800054
210	0x3e1df562	0.15425637
211	0xbde1501a	-0.11001606
212	0x3e4e3577	0.20137583
213	0xbc3670c8	-0.011135288
214	0xbe13a07e	-0.14416692
215	0x3c82a96b	0.015949925
216	0x3dabf14f	0.08395635
217	0xbd0c0235	-0.034181792
218	0x3cebdf99	0.028793143
219	0xbeb88a9f	-0.3604326
220	0xbe3b6bef	-0.18302892
221	0xbeb61a78	-0.3556707
222	0x3d24a3a2	0.040195115
223	0x3e086c0d	0.13322468
224	0xbd473c94	-0.048641756
225	0xbe12088f	-0.14261077
226	0xbe50d942	-0.20395377
227	0x3de4f5ea	0.11179717
228	0xbe061163	-0.1309257
229	0x3e090477	0.1338061
230	0xbe5e5642	-0.21712592
231	0x3e829807	0.25506613
232	0xbe3ca9b4	-0.18424112
233	0xbe98f7e7	-0.29876634
234	0xbdd4d943	-0.10393002
235	0x3d69ccec	0.057080194
236	0xbe099cbf	-0.134387
237	0x3ad74934	0.0016425014
238	0x3e3ccdf0	0.18437934
239	0x3b26a6ca	0.0025429004
240	0xbe350542	-0.17677787
241	0xbde04a15	-0.1095163
242	0xbe8330d8	-0.25623202
243	0x3e0f2bb9	0.13981523
244	0xbe5a58eb	-0.21322982
245	0xbd466571	-0.048436586
246	0x3e6e7879	0.23288144
247	0x3e6724fe	0.22572705
248	0x3e94a737	0.29033825
249	0xbde4d165	-0.11172751
250	0xbdcbc25f	-0.09949183
251	0xbdfe3f6c	-0.124144405
252	0xbd068fca	-0.03285197
253	0x3d90ae3f	0.07064485
254	0x3cb3d3e0	0.021951616
255	0x3d6a555a	0.057210304

actor.0.bias f4 [64]
0	0x3d02adf3	0.031904172
1	0xbc829b80	-0.015943289
2	0xbe043105	-0.12909324
3	0xbd98a35a	-0.07453032
4	0x3cf95669	0.030436711
5	0x3e451b71	0.1924875
6	0xbd97c157	-0.074099235
7	0x3d91ee90	0.0712558
8	0xbe7a3c24	-0.24437004
9	0xbe7f5aae	-0.24936935
10	0x3d9be7df	0.07612585
11	0xbe57d2da	-0.21076527
12	0xbdba21d1	-0.09088481
13	0x3e7e9f25	0.24865396
14	0xbe6f02eb	-0.23340957
15	0x3d0bd71c	0.03414069
16	0x3ccd5bef	0.025068251
17	0xbe3470ba	-0.17621127
18	0xbd475a0b	-0.048669856
19	0xbe0f5c80	-0.1400013
20	0x3e0454a5	0.12922914
21	0xbde751e7	-0.112949185
22	0x3c720c99	0.014773511
23	0xbaf38fd2	-0.001858229
24	0xbe7457f8	-0.23861682
25	0xbe9684cc	-0.2939819
26	0xbe80e02f	-0.25171039
27	0x3d9a3de5	0.07531337
28	0xbe32155f	-0.17390965
29	0x3dc3c88a	0.09559734
30	0xbe3e4eea	-0.18584791
31	0xbe838260	-0.25685406
32	0xbe1f42fb	-0.15552895
33	0xbe5dc272	-0.21656206
34	0x3d138ef9	0.03602502
35	0xbe23fe09	-0.16014875
36	0xbed4403b	-0.41455254
37	0x3d089030	0.033340633
38	0xbe09fadd	-0.13474603
39	0xbd90ef32	-0.07076873
40	0xbd8b4676	-0.06800549
41	0xbdf06780	-0.11738491
42	0xbdf0ec38	-0.11763805
43	0x3e015c6a	0.1263291
44	0xbda44aff	-0.08022117
45	0x3e44ccf7	0.19218813
46	0xbbb1794e	-0.005416072
47	0xbdd86825	-0.10566739
48	0xbc76f394	-0.015072722
49	0xbe8c2679	-0.27373102
50	0xbbec8b31	-0.0072187413
51	0xbe30fe16	-0.17284426
52	0xbe80d625	-0.2516338
53	0xbccef05a	-0.025261093
54	0xbe11d18c	-0.14240092
55	0xbcc9b75b	-0.024623564
56	0xbb20a433	-0.0024511933
57	0x3d85e67e	0.065381035
58	0x3bb74bc4	0.0055937488
59	0xbe691f2d	-0.22765799
60	0xbe0715ef	-0.13191961
61	0x3daf23b3	0.08551731
62	0x3e21be50	0.15795255
63	0xbd400aa4	-0.046885148

actor.2.weight f4 [32, 64]
0	0xbbb2f09a	-0.005460811
1	0x3da51c01	0.08061982
2	0xbeae13f1	-0.3399959
3	0xbd689bfb	-0.05678938
4	0xbd07ad64	-0.033124343
5	0xbe42e3bd	-0.19032188
6	0xbe8dc022	-0.27685648
7	0xbda2e7d6	-0.079543754
8	0xbe48c469	-0.19606175
9	0xbe63a5e4	-0.22231251
10	0x3ac62b81	0.0015119166
11	0xbe7dad0f	-0.24773048
12	0xbe0a40fb	-0.1350135
13	0xbdd870ee	-0.10568415
14	0xbea52871	-0.32257417
15	0xbdb70354	-0.08936182
16	0xbed92465	-0.4241058
17	0x3ef85da5	0.48508945
18	0xbeb689c8	-0.35651994
19	0x3d82a947	0.06379943
20	0x3e053667	0.13009034
21	0x3df1afd9	0.118011184
22	0x3d9dceb8	0.07705444
23	0xbe7b2d58	-0.24529016
24	0x3d89f8c5	0.06736902
25	0x3d184886	0.03717854
26	0x3e742fb2	0.2384632
27	0xbea80aa5	-0.3282062
28	0xbd3ba3ee	-0.045810632
29	0xbd82a412	-0.0637895
30	0xbe99dc1d	-0.30050746
31	0xbe5b0309	-0.21387877
32	0xbeb601cf	-0.35548255
33	0x3e06129f	0.13093041
34	0xbd058dbb	-0.032605868
35	0x3dac4eb8	0.08413452
36	0xbc8f101a	-0.017463733
37	0xbe5d4f17	-0.21612202
38	0xbd84a86a	-0.06477435
39	0xbda799ac	-0.081836075
40	0xbcaf017f	-0.021363018
41	0x3dc58ab2	0.09645595
42	0xbc577a35	-0.013151695
43	0xbda1058d	-0.07862387
44	0xbde210c6	-0.110383555
45	0xbe3779fb	-0.17917626
46	0x3e5114a6	0.20418033
47	0xbe6e64af	-0.23280595
48	0xbe4327d1	-0.19058158
49	0xbdcb8247	-0.09936958
50	0xbe8a5dd1	-0.270247
51	0x3eaf91d4	0.34290946
52	0xbd69c4aa	-0.05707232
53	0xbd329e42	-0.043607958
54	0xbdd42c9e	-0.103600726
55	0x3d73765d	0.059439052
56	0x3e250897	0.16116558
57	0xbdd7aae3	-0.10530641
58	0x3e36e233	0.17859726
59	0x3e569fd2	0.20959404
60	0x3e0fb213	0.14032774
61	0xbe8485a9	-0.25883225
62	0xbe759af8	-0.23984897
63	0x3ebbacf9	0.36655405
64	0xbe794258	-0.24341714
65	0x3d70b70d	0.05876832
66	0xbd84fe20	-0.06493783
67	0x3e49a886	0.19693193
68	0xbdb1467f	-0.08656024
69	0xbba41c8d	-0.0050082863
70	0xbe4116a7	-0.18856297
71	0xbe12f0cd	-0.1434967
72	0x3da574c5	0.08078913
73	0x3e22c9dd	0.15897317
74	0x3e37e948	0.17960083
75	0x3e4503a0	0.19239664
76	0xbe12d0bd	-0.1433744
77	0xbdc31c82	-0.09526922
78	0x3d42eaf4	0.04758735
79	0xbf0e6b0b	-0.55632085
80	0xbd71e5fc	-0.05905722
81	0x3e92548e	0.28580135
82	0x3e46bc19	0.19407691
83	0x3d4719df	0.048608657
84	0xbe44a454	-0.19203311
85	0x3e2988f5	0.16556151
86	0xbdcbe65e	-0.099560484
87	0xbe39a434	-0.18129045
88	0xbdb014ec	-0.085977405
89	0x3e2e1fb0	0.17004275
90	0x3e86d449	0.26333836
91	0xbdc2ee8e	-0.09518157
92	0xbcec311e	-0.028832015
93	0xbef29f14	-0.47386992
94	0x3c72bea6	0.014815962
95	0xbe0dd336	-0.13850102
96	0xbd31b632	-0.043386646
97	0x3e0c45e1	0.13698532
98	0x3d8ae791	0.06782449
99	0x3de4a671	0.11164559
100	0x3e37a241	0.17932989
101	0x3a533a7e	0.0008057727
102	0x3e9c5008	0.3052981
103	0xbdc39ec6	-0.09551768
104	0xbe13381a	-0.1437687
105	0xbe820eaf	-0.25401828
106	0x3e85ff1d	0.26171198
107	0xbddd5d69	-0.10808832
108	0xbd602336	-0.05472108
109	0xbe37d0c2	-0.17950729
110	0x3e028535	0.12746127
111	0x3dbca77f	0.09211635
112	0x3e47279c	0.19448704
113	0x3d09d3d1	0.03364927
114	0xbd9dba75	-0.077015795
115	0xbe94119c	-0.28919685
116	0x3d3146fe	0.043280594
117	0x3ea3f203	0.32020578
118	0x3de58b2a	0.11208184
119	0xbd9ed36f	-0.077551715
120	0xbe11326b	-0.14179389
121	0x3d4ea0b2	0.05044622
122	0x3c33c323	0.010971817
123	0xbd068840	-0.032844782
124	0x3e11e673	0.14248066
125	0xbe6880f8	-0.22705448
126	0xbdabd589	-0.08390338
127	0xbcb5413b	-0.02212583
128	0xbe990a88	-0.29890847
129	0xbe25b94d	-0.16183968
130	0x3df793c0	0.12088728
131	0xbe2a751e	-0.16646239
132	0xbe99e9d0	-0.30061197
133	0x3e68fd41	0.22752859
134	0xbd1643c1	-0.03668571
135	0x3db71693	0.089398526
136	0xbe1214a7	-0.1426569
137	0xbe3664c8	-0.17811882
138	0xbd7f2bf5	-0.06229778
139	0xbe455030	-0.1926887
140	0x3e4a821f	0.197762
141	0xbe77dfb3	-0.24206428
142	0xbe4e44b5	-0.20143397
143	0xbe085e0e	-0.13317129
144	0xbe000b32	-0.1250427
145	0x3d8a78c2	0.06761314
146	0x3dac05f1	0.08399571
147	0xbd0e71c7	-0.034776475
148	0xbdf2806f	-0.11840903
149	0x3ea150a6	0.31506842
150	0xbdc9029f	-0.09814953
151	0x3cc9bffe	0.024627682
152	0xbeaf0405	-0.34182754
153	0xbd93aa37	-0.072102
154	0xbcd244b8	-0.025667533
155	0x3df3ee5f	0.119107
156	0xbd9bf0a6	-0.076142594
157	0xbcd64bb1	-0.02615914
158	0xbe296a5d	-0.1654448
159	0xbe5a2c4a	-0.21305957
160	0x3e14831b	0.14503138
161	0xbd849eea	-0.06475623
162	0x3bb6551f	0.0055643464
163	0xbd3d03c6	-0.046146177
164	0xbbab0b94	-0.005219886
165	0x3e10849e	0.1411309
166	0x3d992442	0.07477619
167	0xbc52ad38	-0.012858681
168	0xbca70af6	-0.020390969
169	0xbd218798	-0.039435953
170	0xbcbcb2ed	-0.023034537
171	0x3de4e605	0.11176685
172	0xbec9d8e1	-0.39423278
173	0xbd412c2e	-0.047161274
174	0x3e26bd7f	0.16283225
175	0x3e95ffec	0.29296815
176	0x3e40623e	0.18787476
177	0xbbf4eed0	-0.0074747577
178	0xbdcd3a69	-0.100209065
179	0x3ec099bd	0.37617293
180	0xbb694b18	-0.0035597738
181	0xbeaf292d	-0.34211102
182	0xbdaa28e7	-0.08308583
183	0xbd17c459	-0.037052486
184	0x3e912d3a	0.28354818
185	0xbd4c62e0	-0.049898982
186	0xbe319e0f	-0.17345451
187	0x3db753a5	0.08951501
188	0x3df0c699	0.117566295
189	0x3d20fce2	0.039303668
190	0x3dceb1c0	0.10092497
191	0xbe360ba4	-0.17777878
192	0x3d237b0d	0.039912272
193	0xbd09da07	-0.033655193
194	0x3dc481c2	0.09595062
195	0x3cf75510	0.030191928
196	0x3d9d5924	0.07683018
197	0xbd85004a	-0.06494196
198	0x3ecc2c52	0.39877564
199	0x3df9ff82	0.122069374
200	0x3e8fca71	0.28084138
201	0xbe8abd61	-0.2709761
202	0xbd6d0e4f	-0.057874974
203	0x3d49f02d	0.049301315
204	0xbddaac29	-0.10677368
205	0xbe62659c	-0.22109073
206	0xbcf94a69	-0.03043099
207	0xbe28f4d7	-0.16499649
208	0xbd130416	-0.03589257
209	0xbdc078ff	-0.09398078
210	0xbd5f4427	-0.054508355
211	0xbe0c9ada	-0.13730946
212	0xbe8ae9ff	-0.2713165
213	0xbd457ac0	-0.048212767
214	0xbe101251	-0.14069487
215	0x3d99cfee	0.075103626
216	0x3eabf2ce	0.33583683
217	0x3e9fc161	0.31202224
218	0x3dc79137	0.097444944
219	0x3e5c3b6f	0.21507047
220	0xbbe4ccc3	-0.0069824173
221	0xbe84d863	-0.2594634
222	0xbe2956ae	-0.16536972
223	0xbdd265c4	-0.102733165
224	0x3e88f26c	0.26747453
225	0xbd44a59b	-0.048009496
226	0xbc54c1e2	-0.012985678
227	0xbd3e1fc3	-0.04641701
228	0x3d8b94db	0.06815501
229	0xbeca772b	-0.39544043
230	0xbe52caaf	-0.2058513
231	0xbdd28732	-0.10279693
232	0xbd7d4998	-0.061837763
233	0x3da30ed5	0.07961813
234	0xbb180cfd	-0.00232011
235	0x3de9b25d	0.11410973
236	0xbe974789	-0.29546764
237	0xbd8a30b8	-0.067475736
238	0x3e55417e	0.20825765
239	0xbc73fa68	-0.0148912445
240	0x3df55ab1	0.11980189
241	0xbd93cf20	-0.0721724
242	0x3d5b877b	0.053596
243	0xbe76bdf1	-0.24095894
244	0x3e21c268	0.15796816
245	0x3cbd5f3e	0.023116704
246	0x3e25ef4c	0.16204566
247	0xbda728d3	-0.081620835
248	0x3e62a94e	0.22134897
249	0x3e00096e	0.12503597
250	0x3e586994	0.21134025
251	0x3d6380c8	0.055542737
252	0x3e1bb409	0.15205397
253	0xbd210189	-0.039308105
254	0xbea591e2	-0.32337862
255	0x3ce0919b	0.02741318

actor.2.bias f4 [32]
0	0xbded68e5	-0.11592273
1	0xbdb693a0	-0.08914876
2	0xbdb82840	-0.08992052
3	0xbe3ef885	-0.1864949
4	0xbd2de153	-0.042451214
5	0x3d158033	0.036499213
6	0xbe1808de	-0.14847133
7	0x3db5b68d	0.088727094
8	0x3d587565	0.05284633
9	0x3ba0a6c3	0.004902692
10	0x3d8569b0	0.06514299
11	0xbe0c24d5	-0.13685925
12	0xbe164c1c	-0.14677471
13	0x3ddb43b7	0.10706275
14	0x3c688d1d	0.0141938
15	0xbc12c0c0	-0.008957088
16	0x3d027afb	0.031855565
17	0xbe1eebca	-0.15519634
18	0xbda2ec12	-0.07955183
19	0xbddb410c	-0.10705766
20	0xbe33bd78	-0.17552745
21	0xbe006692	-0.12539127
22	0xbd8c3366	-0.06845741
23	0x3da9dcad	0.08294044
24	0xbe088ce1	-0.13334991
25	0xbc0839e3	-0.0083145825
26	0xbe2808d6	-0.1640962
27	0x3d06997b	0.032861214
28	0xbcc5a1a7	-0.024124933
29	0xbd82171f	-0.06352066
30	0xbd2cbed5	-0.04217418
31	0xbd6023e7	-0.05472174

actor.4.weight f4 [3, 32]
0	0x3c2256b5	0.009908368
1	0xbb0dfcfa	-0.0021665678
2	0xbcddf451	-0.027094038
3	0x3d45f607	0.048330333
4	0xbcaf1100	-0.02137041
5	0x3ca8d67a	0.020610083
6	0x3d5b3a5b	0.05352245
7	0xbcb573b9	-0.022149907
8	0xbc93a514	-0.018023051
9	0x3ae7a8bb	0.0017674187
10	0x3cfb0cae	0.030645695
11	0xb9b8aadc	-0.00035222515
12	0xbc94a200	-0.018143654
13	0x3835c6d6	4.3338943e-05
14	0x3c760be9	0.015017488
15	0x3d168aad	0.036753345
16	0xbc492e13	-0.012279051
17	0xbc261f18	-0.010139249
18	0xbc2eebda	-0.010676349
19	0x3ba8d9ca	0.0051529156
20	0x3d203807	0.03911593
21	0x3ba754ac	0.005106529
22	0xbd3c04c9	-0.045903
23	0xbd480ee4	-0.048842326
24	0x3cbafcb3	0.022825575
25	0x3d1718e1	0.03688896
26	0x3d107800	0.03527069
27	0x3cf53b19	0.029935407
28	0x3c795573	0.015218127
29	0x3cce0d9c	0.025152974
30	0x3d0b14b7	0.033955302
31	0x3c301a53	0.010748464
32	0x3be653f6	0.007029052
33	0xbc67e7a6	-0.01415435
34	0x3bcf4570	0.0063254163
35	0xbccb505a	-0.024818588
36	0xbd0f305a	-0.03495822
37	0x3c0ed13b	0.008716877
38	0x3c9a08ca	0.01880302
39	0x3bae7399	0.005323839
40	0x3c08f9cc	0.0083603375
41	0x3c618bb5	0.013766219
42	0x3c95dbe7	0.018293334
43	0x398bcb9d	0.0002666385
44	0x3c620e30	0.013797328
45	0x3c52cf5c	0.012866821
46	0xbd24d4d9	-0.04024205
47	0x3ce86a08	0.028370872
48	0xbd17359e	-0.036916368
49	0xbc9d0495	-0.019167224
50	0x3d0ae6fd	0.033911694
51	0x3ad4aaf6	0.0016225267
52	0xbc5ad19f	-0.013355642
53	0xbd2ff3a5	-0.042956967
54	0xbc90311f	-0.017601548
55	0x3cbfffe5	0.02343745
56	0xbccb81e3	-0.024842208
57	0xbd16ccfb	-0.03681658
58	0xbce22f8c	-0.027610563
59	0x3b803385	0.0039123916
60	0x3b8ea820	0.004353538
61	0xbc12af95	-0.008952995
62	0x3c696a97	0.014246604
63	0xbd293bcf	-0.041316804
64	0xbd1b0005	-0.037841816
65	0xbc0bdb06	-0.008536106
66	0x3c4f246b	0.01264296
67	0x3cbe2219	0.023209618
68	0xbc0d31bc	-0.008617815
69	0x3b708090	0.0036697723
70	0xbac64180	-0.0015125722
71	0x3c59cab8	0.013292961
72	0x3cc55ce1	0.02409214
73	0xbb9886b7	-0.004654731
74	0xbd0132c5	-0.03154256
75	0xbbc9cb87	-0.0061582956
76	0xbb9c2cbd	-0.0047660754
77	0x3bd6e848	0.006558452
78	0x3aee2ad4	0.0018170723
79	0xbc0810ec	-0.008304816
80	0x3cec6de6	0.028860997
81	0x3c76a7a1	0.015054614
82	0x3951c173	0.00020003859
83	0x3ba7b46e	0.0051179444
84	0xbc07c612	-0.00828697
85	0x3d0ea9f9	0.034830067
86	0xbc30af92	-0.010784047
87	0x3be9c786	0.0071343808
88	0xbbb69706	-0.0055722026
89	0x3b9fc346	0.0048755733
90	0x3d0bfdc7	0.034177568
91	0x3c2173e7	0.009854293
92	0x3a5e6745	0.0008484016
93	0x3b72cde9	0.0037049002
94	0x3b8e7c5f	0.0043483223
95	0x3c481006	0.012210852

actor.4.bias f4 [3]
0	0x3e07f3b4	0.13276559
1	0xbd303f08	-0.04302886
2	0x3e181400	0.1485138

critic.0.weight f4 [64, 24]
0	0xbe2f5b2e	-0.17124626
1	0xbd9e378e	-0.0772544
2	0xbf38375e	-0.71959484
3	0x3e55cd9f	0.2087922
4	0x3ebdff9b	0.37109074
5	0x3f542e1f	0.82882875
6	0x3ec98930	0.39362478
7	0x3f20c78f	0.628045
8	0x3d954343	0.0728822
9	0x3f0e509d	0.55591756
10	0x3e938fab	0.28820547
11	0x3f123f14	0.571275
12	0x3e54cf9c	0.20782322
13	0x3f19a5f0	0.60018826
14	0x3e324e9e	0.17412803
15	0x3db491b9	0.08816857
16	0x3e3f2af5	0.1866873
17	0x3eef81aa	0.46778613
18	0xbe88b56f	-0.26700923
19	0xbe1ee138	-0.15515602
20	0xbe0ad2d8	-0.13556993
21	0x3cdb6960	0.026783645
22	0x3e01782a	0.12643495
23	0xbde55051	-0.1119696
24	0xbed36bd0	-0.41293192
25	0x3c80289a	0.01564436
26	0x3edc5124	0.43030655
27	0xbe97f0cd	-0.29675904
28	0x3e9eb799	0.3099945
29	0xbee55fba	-0.44799596
30	0xbda70a42	-0.081562534
31	0xbf31a494	-0.6939175
32	0x3e71cd02	0.2361336
33	0xbf09bd3c	-0.53804374
34	0x3ec365d8	0.38163638
35	0xbf480e7a	-0.7814709
36	0x3ee19ccd	0.44064942
37	0xbee2c721	-0.44292548
38	0x3e8cbd95	0.2748839
39	0xbf5d0a81	-0.8634415
40	0xbe0eef79	-0.13958539
41	0xbec0c726	-0.37651938
42	0xb9e974b0	-0.00044528162
43	0xbeed03db	-0.46292004
44	0x3e77fe0b	0.24218003
45	0xbef274b9	-0.47354677
46	0xbe84c84d	-0.25934067
47	0xbf02b917	-0.51063675
48	0xbe81782b	-0.25286993
49	0x3e9f46b4	0.3110863
50	0xbe192680	-0.14956093
51	0xbeb4d26d	-0.35316792
52	0xbf809243	-1.0044636
53	0xbe1aed40	-0.15129566
54	0xbcd93ae3	-0.026517337
55	0x3ef86110	0.48511553
56	0x3e85e733	0.26152954
57	0x3f38364d	0.71957856
58	0x3ee8ad24	0.45444596
59	0x3f3fc96f	0.7491674
60	0xbd1c1d70	-0.03811401
61	0x3f8a724a	1.0816128
62	0x3ec8150e	0.39078563
63	0x3f1891bc	0.59597373
64	0x3e85db46	0.26143855
65	0x3f0eb74c	0.5574844
66	0x3ebeb734	0.37249148
67	0x3f3911a2	0.7229253
68	0x3dc12f11	0.09432805
69	0x3f1943ba	0.5986897
70	0x3ee6ed06	0.4510271
71	0x3eebc045	0.46045128
72	0x3e98a811	0.29815724
73	0x3dc5b959	0.09654493
74	0xbdf84289	-0.121220656
75	0xbec7e330	-0.39040518
76	0xbf376147	-0.7163281
77	0x3c2d6af4	0.010584582
78	0x3edb2c40	0.42807198
79	0xbe608417	-0.21925388
80	0x3f1280e2	0.5722791
81	0xbe9c15a3	-0.30485258
82	0x3ee6bc7e	0.45065683
83	0xbb9e51b3	-0.0048315166
84	0x3ebe2fa6	0.37145728
85	0xbea7889a	-0.32721406
86	0x3e0a7984	0.13522917
87	0xbe2eb152	-0.1705983
88	0x3e9c36ae	0.30510467
89	0x3dafa95c	0.085772246
90	0x3df7f030	0.12106359
91	0xbdfd477f	-0.123671524
92	0xbe4cd619	-0.20003547
93	0xbe6de15a	-0.23230496
94	0x3ef70af7	0.48250553
95	0xbcdee360	-0.02720803
96	0xbe7a38b2	-0.2443569
97	0xbe95ffcb	-0.29296717
98	0xbf3aa6b2	-0.72910607
99	0xbe8700d9	-0.26367834
100	0xbe2b5dbb	-0.16734974
101	0x3fae0100	1.3594055
102	0x3ea61a8d	0.32442132
103	0x3fc55177	1.5415486
104	0x3ea5be99	0.32371977
105	0x3fa24e5b	1.2680162
106	0x3ebedce8	0.37277913
107	0x3fac524f	1.3462619
108	0x3f1370ad	0.57593805
109	0x3f72003b	0.945316
110	0x3f4650a5	0.77466804
111	0x3f8c141b	1.0943636
112	0x3f25a631	0.6470671
113	0x3f0dc427	0.5537743
114	0x3e3c9f19	0.18420066
115	0x3f6ceaaa	0.9254557
116	0x3f2f6b7f	0.685234
117	0x3f56d62c	0.8392055
118	0x3ef0b4f4	0.47013056
119	0x3ef12112	0.47095543
120	0x3e739d3a	0.23790446
121	0xbe11dc11	-0.14244105
122	0xbd844a6d	-0.06459508
123	0xbdd45f9b	-0.10369798
124	0xbf72c725	-0.9483512
125	0x3f02c309	0.5107885
126	0xbe30cc31	-0.17265393
127	0x3ef19311	0.47182515
128	0x3d5098a0	0.050926805
129	0xbd497ca9	-0.04919115
130	0xbe4b6d4e	-0.19865915
131	0x3f0154e3	0.5052015
132	0xbea9d7db	-0.33172497
133	0x3ee2b5a7	0.44279215
134	0xbc797099	-0.015224599
135	0x3eaa8bf9	0.33309916
136	0xbde763b8	-0.11298317
137	0x3ea43a68	0.3207581
138	0xbd46eaf7	-0.048563924
139	0x3e89db82	0.26925284
140	0x3eb3faf5	0.35152403
141	0x3d72b06a	0.059250273
142	0x3e65f406	0.22456369
143	0x3e9a069c	0.30083168
144	0x3e6e81cd	0.23291703
145	0xbc85deab	-0.016341528
146	0xbe92b4fc	-0.28653705
147	0xbe6df824	-0.2323919
148	0x3e843773	0.25823554
149	0x3ed9c3d3	0.42532215
150	0xbef44ccb	-0.47714838
151	0x3bbbf356	0.005735795
152	0xbe8d3d0b	-0.27585635
153	0xbe22e623	-0.15908103
154	0xbee2ec52	-0.44320923
155	0xbe93c1c5	-0.28858772
156	0xbd9ba9c6	-0.07600741
157	0xbe821bde	-0.25411886
158	0xbe03631c	-0.12830776
159	0xbed9f11b	-0.4256676
160	0xbd94650d	-0.072458364
161	0xbeaa08d0	-0.33209848
162	0xbdbf4bf5	-0.093406595
163	0xbe89109f	-0.26770493
164	0xbc44f68e	-0.012021674
165	0xbec881d5	-0.39161554
166	0xbe8d1548	-0.275553
167	0xbeb3b928	-0.351022
168	0x3daae98e	0.08345328
169	0x3e3e435b	0.18580382
170	0xbf1a3d40	-0.6024971
171	0xbefb2510	-0.49051714
172	0xbf60dcfc	-0.87837195
173	0x3dcf0025	0.101074494
174	0xbe1e8b41	-0.15482809
175	0xbf08d7f1	-0.534545
176	0xbd22d216	-0.039751135
177	0xbec174de	-0.37784475
178	0x3f0eb903	0.55751055
179	0xbf21fa3f	-0.6327247
180	0x3e6b53f0	0.22981238
181	0xbf1835be	-0.59457004
182	0x3e38ac6c	0.18034524
183	0x3e017bae	0.12644836
184	0x3eb022b8	0.34401488
185	0xbeb7ee70	-0.359241
186	0x3edb9218	0.42884898
187	0xbe0dcd77	-0.1384791
188	0x3eac11ba	0.33607274
189	0x3db25fd1	0.08709682
190	0x3dedce5b	0.11611625
191	0x3d80a56a	0.0628155
192	0xbe197dce	-0.14989397
193	0xbd9d4547	-0.07679229
194	0x3e07193b	0.13193218
195	0xbeef5b30	-0.46749258
196	0x3d2bcc0d	0.041942645
197	0xbf8551f3	-1.0415634
198	0x3e21c242	0.1579676
199	0xbcf72a17	-0.030171437
200	0x3d4a0292	0.049318857
201	0x3e3ca7a7	0.1842333
202	0x3e7fa3b7	0.24964796
203	0x3e6cc06b	0.23120277
204	0xbe67a0c3	-0.2261992
205	0x3eb70d28	0.35752225
206	0x3dd74fbf	0.10513257
207	0x3f00acb4	0.50263524
208	0xbdd431b4	-0.103610426
209	0x3d993ad9	0.074819274
210	0xbe06613d	-0.13123031
211	0x3cd6b075	0.026207188
212	0x3d81586c	0.06315693
213	0x3e13e60c	0.14443225
214	0x3d34e005	0.044158954
215	0x3ebc4dca	0.36778098
216	0x3e2e2335	0.17005618
217	0xbe895059	-0.26819113
218	0xbd2c44e3	-0.042057883
219	0xbef0fc5c	-0.47067535
220	0x3d8600af	0.06543099
221	0x3ee12bca	0.4397872
222	0xbf1dc97d	-0.6163557
223	0xbd95ca58	-0.07313985
224	0xbe30faf5	-0.17283233
225	0xbe72e38f	-0.23719619
226	0xbea2713c	-0.31727016
227	0x3dd8cbe8	0.10585767
228	0xbe9e7d54	-0.30954993
229	0xbd821fc1	-0.06353713
230	0xbe46a0b2	-0.19397238
231	0xbec809f9	-0.3907011
232	0x3dfc60fa	0.12323184
233	0xbf01b7b3	-0.5067093
234	0xbd399457	-0.045307484
235	0xbe8abdf4	-0.27098048
236	0xbe3144a1	-0.17311336
237	0xbe312e97	-0.17302929
238	0x3cd7c179	0.026337372
239	0xbdd49783	-0.10380461
240	0x3eba9642	0.36442763
241	0xbe48b143	-0.1959887
242	0xbebc5ace	-0.36788028
243	0xbdacb9bd	-0.08433864
244	0x3f021ea3	0.50828
245	0x3f28adc4	0.65890145
246	0xbd543d27	-0.051816132
247	0xbe331472	-0.17488268
248	0xbe9ea9df	-0.30988976
249	0xbea5e783	-0.32403192
250	0xbe646ea2	-0.22307828
251	0xbe293bd5	-0.1652673
252	0xbe9e9571	-0.3097339
253	0xbeacdc0d	-0.33761635
254	0xbe2f1654	-0.17098361
255	0xbeac3cc7	-0.3364012

critic.0.bias f4 [64]
0	0xbedfea96	-0.43733662
1	0xbe5c72c7	-0.21528159
2	0x3e840a03	0.25788888
3	0x3e35b115	0.17743333
4	0xbd3c67c9	-0.045997415
5	0x3e6811dc	0.22663063
6	0xbe2383cc	-0.15968245
7	0x3eb8329e	0.35976118
8	0x3e53ddb8	0.20690048
9	0x3e4eab5c	0.20182556
10	0x3eb2cd2a	0.34922153
11	0xbec6654c	-0.38749158
12	0x3ea2908a	0.317509
13	0x3e0a263c	0.13491148
14	0x3e323b49	0.17405428
15	0xbe1f216c	-0.15540093
16	0x3ef27c6c	0.4736055
17	0x3e45ba1d	0.19309278
18	0xbd33fd8c	-0.043942973
19	0xbf00e1da	-0.5034462
20	0xbe4c54ba	-0.19954196
21	0xbed5b0cf	-0.41736457
22	0x3ecc4173	0.39893684
23	0x3db19adb	0.086721145
24	0xbe5e2e36	-0.21697316
25	0xbd4a5689	-0.049398933
26	0xbd7180ea	-0.058960833
27	0xbeb4d1cf	-0.3531632
28	0xbed918e7	-0.4240181
29	0xbf27c989	-0.65541893
30	0xbeac2e20	-0.3362894
31	0x3d9b2fd8	0.07577485
32	0xbe2735b8	-0.16329086
33	0x3de060d2	0.10955967
34	0x3ebd2e59	0.36949423
35	0xbe7991e5	-0.2437206
36	0xbeece052	-0.46264893
37	0x3e31d8ff	0.17367934
38	0xbc0881ff	-0.008331775
39	0x3f04397c	0.51650214
40	0x3eb2720b	0.34852633
41	0xbec144bf	-0.37747762
42	0xbea6eb5a	-0.32601434
43	0x3db1fb04	0.086904556
44	0x3e9a15df	0.3009481
45	0x3e0a1634	0.13485032
46	0x3d9c2fdf	0.07626318
47	0x3e205f58	0.15661371
48	0xbf1ecd59	-0.62032086
49	0x3d839bff	0.06426238
50	0xbe0dcb84	-0.13847166
51	0xbe8c7c8c	-0.27438772
52	0x3e67cc6c	0.22636575
53	0x3e2ca5dc	0.16860145
54	0xbd96d12f	-0.07364117
55	0x3d35f050	0.044418633
56	0x3ea80dab	0.32822928
57	0x3eda9e99	0.42699125
58	0x3e9551fc	0.29164112
59	0x3e7efc4c	0.24900931
60	0xbeea67ff	-0.45782468
61	0x3e113eb6	0.14184079
62	0x3d0383be	0.03210806
63	0xbed1e2a9	-0.4099324

critic.2.weight f4 [32, 64]
0	0xbe262551	-0.16225173
1	0xbdc6ac09	-0.09700782
2	0xbcfec86e	-0.031101432
3	0xbe59794d	-0.21237679
4	0xbca22450	-0.019792706
5	0x3e1ab843	0.15109353
6	0xbe82b23e	-0.25526613
7	0xbec27390	-0.37978792
8	0x3e87b266	0.26503295
9	0xbe19ffd4	-0.15038997
10	0xbea2bb6a	-0.3178361
11	0xbdd1ff8d	-0.102538206
12	0xbec5f161	-0.3866072
13	0xbeb0351b	-0.34415516
14	0xbf13c2bb	-0.5771901
15	0x3e3d308e	0.18475553
16	0xbf061a7d	-0.5238417
17	0xbea8faab	-0.33003744
18	0xbe1a7b1a	-0.15086022
19	0xbe3b14bb	-0.18269627
20	0x3e39eb42	0.1815615
21	0x3e554443	0.20826821
22	0xbf148fc3	-0.5803186
23	0x3daab779	0.08335776
24	0xbe8ae6dc	-0.27129257
25	0xbe88fd9f	-0.26755998
26	0xbe888c2e	-0.2666945
27	0xbdcfb5f2	-0.10142125
28	0x3ca7b558	0.020472214
29	0x3db2102b	0.0869449
30	0x3d25c93e	0.040475123
31	0xbea49bc0	-0.32150078
32	0xbd35fc8b	-0.044430297
33	0xbebee995	-0.37287584
34	0xbedda019	-0.43286207
35	0xbca1a9c3	-0.019734269
36	0xbcc6aaa2	-0.024251286
37	0xbd6744ad	-0.05646198
38	0xbeb25b2e	-0.3483519
39	0xbec60577	-0.38676044
40	0xbe447ae0	-0.19187498
41	0x3e7643f8	0.24049366
42	0xbebb6126	-0.36597556
43	0xbeb37300	-0.35048676
44	0x3da7b075	0.081879534
45	0x3ceb27f1	0.028705569
46	0x3e7a87b2	0.24465826
47	0xbe133a50	-0.14377713
48	0x3dd43ce8	0.103631794
49	0xbecd3d33	-0.40085754
50	0xbdc7961c	-0.09745428
51	0xbc28371a	-0.0102670435
52	0xbead1f65	-0.33813015
53	0xbde8c92a	-0.11366494
54	0xbe923a4f	-0.2856011
55	0x3ce4b96b	0.027920445
56	0xbe2ff6c3	-0.17183976
57	0xbc2e54bc	-0.010640319
58	0xbdfcd920	-0.12346101
59	0xbdcf773d	-0.10130165
60	0x3cce1c32	0.025159929
61	0xbdd51dec	-0.10406098
62	0xbe4c2d90	-0.19939256
63	0x3ea22fcd	0.31677094
64	0xbeea3e74	-0.45750773
65	0x3e6a4661	0.2287841
66	0x3e3fe1d2	0.18738487
67	0xbe477954	-0.19479877
68	0xbe52358e	-0.20528242
69	0xbf3ed519	-0.7454391
70	0xbf0323e0	-0.51226616
71	0xbf85a290	-1.0440235
72	0x3ea2bd1a	0.31784898
73	0x3e351f8b	0.17687814
74	0xbe18288f	-0.14859222
75	0x3c89544d	0.01676383
76	0xbe1cebfc	-0.15324396
77	0xbeaeafa9	-0.34118393
78	0xbe9b4e65	-0.30333248
79	0xbe2f97d9	-0.17147769
80	0xbe5bb792	-0.21456745
81	0x3daa5dec	0.083186954
82	0x3d23ef94	0.0400234
83	0x3e7b3fcb	0.24536054
84	0x3e3b8bf1	0.18315102
85	0xbd5391e3	-0.0516528
86	0xbee8eb3d	-0.45491973
87	0x3eaaa21a	0.333268
88	0xbdfc8cea	-0.12331565
89	0xbf13f807	-0.57800335
90	0xbef77d6d	-0.4833788
91	0xbd0f7a98	-0.035029024
92	0x3f0aab50	0.5416765
93	0xbe93678c	-0.28789937
94	0xbdc86703	-0.09785273
95	0xbe95f42d	-0.29287854
96	0x3e09af4f	0.13445781
97	0xbd62626a	-0.055269636
98	0xbf5a6e09	-0.8532415
99	0xbbb2067e	-0.005432903
100	0xbe1e9708	-0.15487301
101	0xbf187b13	-0.59562796
102	0xbca73f20	-0.020415843
103	0xbe7e4241	-0.24829961
104	0xbe0e944b	-0.13923757
105	0x3f1aa071	0.60401064
106	0xbf98d5a5	-1.1940199
107	0x3e4f504f	0.20245479
108	0xbcf8c519	-0.030367421
109	0xbedba301	-0.428978
110	0x3e72d38f	0.23713516
111	0x3f0d8dc8	0.55294466
112	0xbe8ee905	-0.27912155
113	0xbebd81b2	-0.37013012
114	0x3e66d2c8	0.22541344
115	0x3e4ed947	0.20200072
116	0x3e0417a0	0.12899637
117	0x3d29d868	0.041466147
118	0x3f866fe5	1.0502898
119	0xbf82df8b	-1.022447
120	0x3da5f8db	0.08104106
121	0x3ecf0e05	0.40440384
122	0xbcdfbed2	-0.02731267
123	0x3f2032fb	0.6257779
124	0xbe851a46	-0.25996608
125	0xbea82e55	-0.3284785
126	0xbe4764fb	-0.19472115
127	0x3f0d96d8	0.55308294
128	0xbea51ba3	-0.32247648
129	0x3ea67eda	0.32518655
130	0xbe2fc1ec	-0.17163819
131	0x3f003fa9	0.5009714
132	0xbf4ae92d	-0.7926205
133	0xbd5f8526	-0.05457034
134	0xbebdef90	-0.37096834
135	0x3f0b53f9	0.5442501
136	0x3d91d05b	0.07119819
137	0xbd93e81a	-0.07222004
138	0x3ebbccfa	0.36679822
139	0xbe8d4ce2	-0.2759772
140	0xbca7a55a	-0.020464588
141	0x3e39149d	0.1807427
142	0x3e4cbb55	0.19993336
143	0xbeb30776	-0.3496663
144	0xbecb9a45	-0.39766136
145	0xbd8aea8a	-0.06783016
146	0x3e5b8e9f	0.21441124
147	0xbe6fe2ed	-0.23426409
148	0x3d2fcebd	0.04292177
149	0xbedebfa4	-0.43505585
150	0x3e6d8763	0.23196177
151	0x3e84e7cf	0.25958106
152	0x3e06480e	0.13113424
153	0xbe02f6b2	-0.1278942
154	0xbe9c4bb4	-0.30526507
155	0xbf14fdcc	-0.58199763
156	0xbec2c920	-0.3804407
157	0x3d8ff863	0.07029798
158	0xbe19b6bd	-0.15011115
159	0x3eea0af7	0.4571149
160	0x3dd5efb8	0.10446113
161	0x3eb82e5e	0.35972875
162	0x3ef0e148	0.47046876
163	0xbe1cc303	-0.15308766
164	0x3f321633	0.69565123
165	0x3e351ca4	0.17686707
166	0x3e1b148b	0.15144555
167	0x3e9016d2	0.2814241
168	0x3e4e2f80	0.20135307
169	0xbe94cac5	-0.2906095
170	0xbe367b34	-0.17820436
171	0x3ebe4d95	0.37168565
172	0x3d292f57	0.041304912
173	0x3ddc079d	0.107436396
174	0xbc970168	-0.018433288
175	0xbf06e103	-0.5268709
176	0xbe918fc3	-0.28429994
177	0xbe5e50ad	-0.21710463
178	0x3e003f9a	0.12524262
179	0xbebb9f60	-0.3664503
180	0x3d8e5ac2	0.069509044
181	0x3e6a5d65	0.2288719
182	0xbf53515a	-0.8254601
183	0x3dd5a4b5	0.10431806
184	0x3e134b95	0.14384301
185	0xbdf31243	-0.118687175
186	0x3e875de9	0.26438835
187	0xbe89b7c4	-0.26898015
188	0x3e323c72	0.1740587
189	0x3efddcc7	0.49582502
190	0x3c7a2a81	0.015268923
191	0xbf0264b6	-0.5093492
192	0xbeaf516a	-0.34241802
193	0x3da77b50	0.08177817
194	0x3e01d616	0.12679324
195	0xbf072a4a	-0.52798903
196	0xbf835262	-1.0259516
197	0xbea57b6a	-0.3232072
198	0x3e66e664	0.22548825
199	0xbdfaf454	-0.12253633
200	0x3e731d40	0.23741627
201	0xbe1c4937	-0.15262304
202	0xbd825de4	-0.063655645
203	0x3e098ceb	0.13432662
204	0x3e881aeb	0.26583037
205	0x3e8216d4	0.2540804
206	0xbd166d13	-0.036725115
207	0xbf40add4	-0.7526524
208	0xbe75bafd	-0.23997112
209	0x3e61168a	0.21981254
210	0x3e10d896	0.14145121
211	0xbf37c1e5	-0.71780235
212	0xbdeaec60	-0.11470866
213	0xbece08ce	-0.40241092
214	0x3e887737	0.26653454
215	0x3da0cc3f	0.07851457
216	0x3f0205b3	0.50789946
217	0x3d54be5d	0.051939357
218	0x3d8b87fa	0.06813045
219	0xbf14f990	-0.581933
220	0xbf1a4c52	-0.60272706
221	0xbeb52354	-0.35378516
222	0xbdd2ceb5	-0.102933325
223	0xb9b82ea7	-0.00035129974
224	0x3cec2c1d	0.028829629
225	0x3f0f8a29	0.5607019
226	0x3ee4ecf8	0.44712043
227	0xbef63a0e	-0.48091167
228	0xbe005cef	-0.12535451
229	0x3e9e33e1	0.30898955
230	0x3d707942	0.05870939
231	0xbc551595	-0.013005634
232	0xbe710f5a	-0.23541012
233	0xbf161462	-0.5862485
234	0xbdd9071d	-0.1059706
235	0x3e5d0ca0	0.21586847
236	0x3ecdbe0f	0.40184066
237	0xbe09c12f	-0.134526
238	0xbc39430f	-0.011307492
239	0xbe9a5ef2	-0.30150563
240	0xbf2a49d6	-0.66518915
241	0xbe0494f9	-0.12947454
242	0x3ea28577	0.3174245
243	0xbf2c6ab3	-0.6735031
244	0xbd89a16e	-0.067202434
245	0xbebf727e	-0.37392038
246	0xbf798029	-0.9746118
247	0xbeb74543	-0.3579503
248	0x3c5e5e45	0.01357228
249	0xbd14a43e	-0.036289446
250	0xbacc2d92	-0.0015577546
251	0xbe412e13	-0.18865232
252	0xbf1603d1	-0.58599573
253	0x3e7531c6	0.23944768
254	0x3d669cee	0.056302004
255	0xbf2ee30b	-0.6831519

critic.2.bias f4 [32]
0	0xbeaf5bdf	-0.3424978
1	0xbdceecf0	-0.10103786
2	0x3e6c436c	0.23072594
3	0x3e88cbcd	0.26717988
4	0x3e820020	0.2539072
5	0x3e922c96	0.2854964
6	0x3e0bcd12	0.13652447
7	0xbd046010	-0.032318175
8	0x3ea88177	0.32911274
9	0x3eb7438b	0.3579372
10	0xbd901f14	-0.07037178
11	0xbe2e4af5	-0.17020781
12	0x3ec22721	0.37920478
13	0x3e428a5a	0.1899809
14	0x3e83eee0	0.25768185
15	0x3e21dc69	0.15806736
16	0xbe1b0121	-0.1513715
17	0x3e8bf4ff	0.27335355
18	0x3e907c63	0.282199
19	0x3e9e0aba	0.3086756
20	0x3ea8f3a2	0.32998377
21	0x3e2e1c39	0.17002954
22	0xbe97c5bb	-0.29643044
23	0xbe3c314e	-0.18378183
24	0xbe947dca	-0.2900222
25	0x3e4e0570	0.20119262
26	0xbe335abf	-0.17515086
27	0x3ebe415a	0.37159234
28	0xbe58aafb	-0.21158974
29	0xbde208cd	-0.11036835
30	0xbe38145a	-0.17976514
31	0xbd7d717e	-0.061875813

critic.4.weight f4 [1, 32]
0	0xbe9dc547	-0.30814573
1	0xbf0f55cf	-0.5599031
2	0x3e8ba99c	0.2727784
3	0x3eae99ad	0.3410162
4	0x3e9c3c91	0.30514959
5	0x3efd4afa	0.49471265
6	0xbe5a7649	-0.21334185
7	0xbeec450d	-0.46146432
8	0x3ec50f53	0.38488254
9	0x3ee2ca0c	0.44294775
10	0xbe293750	-0.16525006
11	0xbefd6f53	-0.49498996
12	0x3ef010b3	0.4688774
13	0x3ed1365a	0.4086178
14	0x3e7addb9	0.24498643
15	0x3e932f3b	0.2874697
16	0xbeb6fb4e	-0.35738605
17	0x3ebbcaaf	0.36678073
18	0x3eec5e41	0.4616566
19	0x3e78af4a	0.24285617
20	0x3eb4405a	0.35205346
21	0x3ea38df2	0.31944233
22	0xbed53537	-0.41642162
23	0xbe94336c	-0.28945482
24	0xbf1f6021	-0.62256056
25	0x3e8b5461	0.27212813
26	0xbee89745	-0.4542791
27	0x3ed5601a	0.41674882
28	0xbf08ca76	-0.5343393
29	0xbe789ab2	-0.24277762
30	0xbf85c0bf	-1.0449446
31	0xbe74e094	-0.23913795
