logs/exp/model_68.pt (torch, 34660 bytes, 12 tensors)

log_std f4 [3]
-0.28648877 -0.08880061 -0.13000654
00000000: a8ae 92be 18dd b5bd 6f20 05be

actor.0.weight f4 [64, 24]
-0.36322975 0.0116051175 0.5565167 -0.29397312 -0.29214028 -0.36329335 -0.2022729 -0.09017747
0.07401924 -0.4042525 -0.108674765 -0.18283607 -0.4457968 0.062159877 -0.29503307 -0.51523954
-0.13378859 -0.20092945 0.14045721 -0.66020155 0.0059424336 -0.40095103 -0.15948908 -0.3502154
-0.06672059 0.05629591 0.05059938 0.24267818 -0.38466746 0.2828264 -0.11218501 0.27967346
-0.1468963 -0.034460127 -0.03870618 -0.24078658 0.12820032 -0.4015855 0.16981037 -0.24131784
-0.040043343 -0.402947 -0.14408597 -0.36807123 -0.30183494 -0.20063329 0.014682655 -0.29396442
-0.035413727 -0.1863401 0.12712799 -0.44826677 0.114020824 0.34520963 0.16993354 -0.21326141
0.48505843 -0.024772715 0.21748887 -0.1425663 0.22660953 -0.13506807 0.42490414 -0.34006187
-0.29641327 -0.060233727 -0.17060651 0.06561236 -0.02143564 -0.00574089 -0.0786477 -0.34477887
-0.41961214 0.2232521 0.0068028336 -0.105375804 -0.020944113 -0.11984928 -0.03106738 -0.47813687
0.20889235 0.03395852 -0.08629139 -0.026897999 0.14940992 0.1267343 0.16796713 -0.37213725
0.037905127 -0.104499795 0.050575793 -0.00088818715 0.08638674 -0.23551174 -0.13359274 0.041078232
-0.19280499 0.02578562 0.17057121 -1.0655553 0.50578624 0.8295516 0.009357988 0.10165119
-0.108709395 0.059391957 -0.0402797 -0.1266778 -0.1511702 -0.10552812 -0.28030732 -0.11965982
-0.18935196 -0.080373496 -0.083233945 -0.008717329 0.08278579 -0.31612936 0.01989871 -0.28558677
-0.5392206 -0.10906421 0.099979654 -0.1684418 -0.34815902 0.53012055 0.093041345 0.03992577
-0.029162819 0.19293763 -0.0866196 0.16575377 -0.005666256 0.105235964 -0.058739375 0.4058975
-0.13140139 0.2064068 0.1479951 -0.04145176 -0.13553831 0.015675286 -0.04694465 0.13522628
0.06676192 0.46527424 -0.2118306 -0.5237105 0.47919708 -0.07987571 0.7205715 -0.3042985
0.60504395 -0.0786715 0.37023076 0.02664502 0.18751107 0.018457392 0.47424155 0.32118362
-0.22301222 0.2807684 -0.10344805 0.018726006 -0.09841505 0.33830348 -0.08450529 0.19688596
0.06242209 0.058645222 -0.11862157 -1.3702984 -0.061579492 -0.1473474 -0.35841918 0.1371995
-0.011797149 0.10351579 0.1491815 0.21489437 -0.16611533 -0.06013247 0.01917547 0.017797021
0.3516341 -0.073398 -0.13213763 -0.006609993 -0.24291079 0.16925573 -0.35379636 0.345399
0.02524364 0.07065828 0.04013542 0.43960762 0.6227253 0.16428006 0.14560808 -0.039977867
0.4546679 -0.036386274 -0.1498904 0.06017541 0.12125717 0.12653655 -0.20259306 -0.21614648
-0.1057585 -0.27451155 0.011453501 -0.3408282 0.02471789 -0.27859706 -0.35081014 -0.2994981
0.09966936 0.12270088 0.037861995 -1.1027975 -0.52637976 -0.49259838 -0.3003245 -8.592274e-06
-0.33701643 -0.23528582 -0.4387014 0.053576536 -0.3408683 0.086755656 -0.40583953 0.21935074
-0.36087504 -0.33162323 -0.2615849 0.029017435 -0.26837718 -0.019990096 0.071345605 -0.013161174
-0.32339364 -0.20769666 -0.21558589 -0.18607105 -0.22214311 0.04437045 0.26437926 0.34214357
0.35209438 -0.0067689614 0.0015765466 -0.0368946 0.11276543 0.1474432 0.20967364 0.1281656
00000000: 40f9 b9be 6423 3e3c e177 0e3f a583 96be
00000010: 6993 95be 9601 babe a120 4fbe f7ae b8bd
00000020: 6697 973d 2ffa cebe e090 debd 6139 3bbe
00000030: 7a3f e4be 5b9b 7e3d 930e 97be bde6 03bf
00000040: e0ff 08be 73c0 4dbe 04d4 0f3e f802 29bf
00000050: bfb8 c23b 7449 cdbe 1b51 23be 6f4f b3be
00000060: cea4 88bd 8a96 663d 4c41 4f3d a180 783e
00000070: 22f3 c4be 9fce 903e 41c1 e5bd 5c31 8f3e
00000080: fc6b 16be 1026 0dbd 5f8a 1ebd c290 76be
00000090: f246 033e 9d9c cdbe c5e2 2d3e 061c 77be
000000a0: 7d04 24bd 124f cebe 468b 13be d573 bcbe
000000b0: 1c8a 9abe d072 4dbe 858f 703c 8182 96be
000000c0: fc0d 11bd f0cf 3ebe d72d 023e 3983 e5be
000000d0: c083 e93d 51bf b03e 0f03 2e3e 3361 5abe
000000e0: 9459 f83e 26f0 cabc 67b5 5e3e e6fc 11be
000000f0: 540c 683e 494f 0abe 098d d93e 971c aebe
00000100: 7bc3 97be a4b7 76bd 79b3 2ebe c65f 863d
00000110: cc99 afbc 131e bcbb 0c12 a1bd db86 b0be
00000120: 67d7 d6be 339c 643e 4eea de3b 45cf d7bd
00000130: fd92 abbc 8a73 f5bd 0581 febc 5bce f4be
00000140: e0e7 553e 1718 0b3d 8ab9 b0bd 3159 dcbc
00000150: eafe 183e a3c6 013e 93ff 2b3e c688 bebe
00000160: 6842 1b3d fd03 d6bd 9028 4f3d 3bd5 68ba
00000170: 88eb b03d fd29 71be 89cc 08be a641 283d
00000180: ac6e 45be 5d3c d33c 38aa 2e3e 1e64 88bf
00000190: 357b 013f 7e5d 543f 3f52 193c 802e d03d
000001a0: 08a3 debd fb44 733d 54fc 24bd d3b7 01be
000001b0: 5ccc 1abe 211f d8bd 7184 8fbe 3510 f5bd
000001c0: 7be5 41be dc9a a4bd 8f76 aabd 21d3 0ebc
000001d0: 998b a93d b5db a1be 9f02 a33c 6e38 92be
000001e0: 5c0a 0abf 0e5d dfbd 22c2 cc3d 027c 2cbe
000001f0: e641 b2be fbb5 073f 768c be3d 3489 233d
00000200: dde6 eebc 7191 453e 9e65 b1bd 5bbb 293e
00000210: 00ac b9bb f485 d73d b398 70bd ccd1 cf3e
00000220: 168e 06be 4e5c 533e 078c 173e 52c9 29bd
00000230: 8eca 0abe 7569 803c 0949 40bd c278 0a3e
00000240: 79ba 883d 6d38 ee3e 1fea 58be e411 06bf
00000250: 5259 f53e e095 a3bd 6077 383f 03cd 9bbe
00000260: 29e4 1a3f 861e a1bd e38e bd3e a846 da3c
00000270: e702 403e f533 973c cacf f23e 2e72 a43e
00000280: 515d 64be e0c0 8f3e 92dc d3bd 4867 993c
00000290: d48d c9bd 1d36 ad3e 1c11 adbd 799c 493e
000002a0: 4eae 7f3d f935 703d deef f2bd f065 afbf
000002b0: c73a 7cbd 3de2 16be b882 b7be 077e 0c3e
000002c0: d448 41bc 1600 d43d 09c3 183e 450d 5c3e
000002d0: 231a 2abe 774d 76bd e015 9d3c 0fcb 913c
000002e0: 6209 b43e b151 96bd 164f 07be a498 d8bb
000002f0: 9bbd 78be 6051 2d3e cc24 b5be 23d8 b03e
00000300: c0cb ce3c 4ab5 903d 0a65 243d 4014 e13e
00000310: ed6a 1f3f 0839 283e 491a 153e d5bf 23bd
00000320: 3bca e83e c609 15bd de7c 19be 7e7a 763d
00000330: ae55 f83d cc92 013e 8e74 4fbe 8155 5dbe
00000340: ea97 d8bd c78c 8cbe 77a7 3b3c 0981 aebe
00000350: 2c7d ca3c 46a4 8ebe 639d b3be d157 99be
00000360: 731f cc3d 994a fb3d 2e15 1b3d 7828 8dbf
00000370: d3c0 06bf db35 fcbe 22c4 99be 8927 10b7
00000380: 6b8d acbe c4ee 70be 789d e0be 1273 5b3d
00000390: 4a86 aebe f3ac b13d 33ca cfbe 7b9d 603e
000003a0: 9dc4 b8be 85ca a9be 75ee 85be f9b5 ed3c
000003b0: bc68 89be 45c2 a3bc a51d 923d f7a1 57bc
000003c0: da93 a5be 6fae 54be 8cc2 5cbe 6989 3ebe
000003d0: 7c79 63be cabd 353d b85c 873e 712d af3e
000003e0: b745 b43e 2ace ddbb 20a4 ce3a cb1e 17bd
000003f0: 90f1 e63d 5afb 163e b0b4 563e d83d 033e

actor.0.bias f4 [64]
0.1260179 -0.047113117 -0.26322663 -0.15265325 -0.014685453 -0.045322027 -0.18754713 -0.027520861
-0.4238648 -0.34562522 -0.050235428 -0.23442659 -0.13482144 0.11502236 -0.26638988 0.012959629
0.14043827 -0.18900658 0.065186515 -0.20692004 -0.004003471 -0.4159359 -0.17426938 -0.18365186
-0.25991404 -0.45792758 -0.1554418 0.3576585 -0.15231653 -0.13733196 -0.3954077 -0.41227823
-0.23735164 -0.33759582 -0.09319178 -0.21400629 -0.6569722 0.06274884 -0.35446468 -0.063661404
-0.15446723 -0.30219138 -0.20101362 0.104333 -0.09934966 0.07995134 -0.18335022 -0.29021063
-0.029572925 -0.40675756 -0.09311038 -0.2989882 -0.42696163 -0.08068754 -0.26701084 -0.22032747
0.086912006 -0.06786457 -0.04136778 -0.47173893 -0.39828762 0.01948729 0.19813007 -0.21105291
00000000: d60a 013e aff9 40bd a4c5 86be 2251 1cbe
00000010: 419b 70bc 97a3 39bd 5b0c 40be 6e73 e1bc
00000020: cf04 d9be caf5 b0be aac3 4dbd 860d 70be
00000030: a20e 0abe d890 eb3d 4164 88be a054 543c
00000040: 0dcf 0f3e f18a 41be 8280 853d d9e2 53be
00000050: 8d2f 83bb 8df5 d4be ac73 32be 3c0f 3cbe
00000060: 7413 85be 7c75 eabe 232c 1fbe 041f b73e
00000070: ddf8 1bbe c0a0 0cbe e172 cabe 2216 d3be
00000080: 4f0c 73be 5cd9 acbe 55db bebd 7724 5bbe
00000090: 552f 28bf 7782 803d 657c b5be e960 82bd
000000a0: a82c 1ebe d4b8 9abe 84d6 4dbe 8aac d53d
000000b0: d677 cbbd 87bd a33d 29c0 3bbe 7d96 94be
000000c0: eb42 f2bc 8742 d0be a8b0 bebd fb14 99be
000000d0: b79a dabe 823f a5bd a5b5 88be 869d 61be
000000e0: ecfe b13d 94fc 8abd 4371 29bd c487 f1be
000000f0: 5bec cbbe cfa3 9f3c 9ce2 4a3e 411e 58be

actor.2.weight f4 [32, 64]
-0.16903466 -0.086397804 -0.3535812 -0.1200358 0.1859318 -0.082384534 -0.38587272 -0.06263805
-0.29229245 -0.3731783 0.025039103 -0.34760478 0.025998313 -0.44891742 -0.34830937 -0.23529457
-0.32482773 0.5160244 -0.35264203 -0.34023228 0.07976489 0.08776669 0.11088134 -0.23804408
0.22405268 0.09994506 0.2505958 -0.5214417 -0.16791087 -0.042554565 -0.3129977 -0.087019354
-0.30748644 0.075452685 -0.011521527 0.17030603 0.020260189 -0.34983033 -0.015372693 0.14165878
-0.055242807 0.17906915 -0.053247336 -0.32492715 -0.07467305 -0.40301132 0.08183278 -0.24774396
0.16668224 -0.18230897 -0.39975667 0.31973624 -0.06296592 0.06394392 -0.042550586 0.042975515
0.26154146 -0.2528121 0.21090731 0.24450524 0.21518426 -0.3566791 -0.4222901 0.25216863
-0.96054834 0.39724502 -0.048929352 -0.16818686 -0.13122034 -0.20893739 -0.42859197 0.13798599
0.15213175 0.14173073 -0.41977048 -0.08568505 -0.05561291 -0.47177207 0.080561444 -1.1205705
-0.0072960574 0.16301104 0.18644069 -0.19452305 -0.15017433 -0.08877445 -0.050873812 -0.22015111
-0.06916549 -0.017508036 -0.014188975 -0.1560795 -0.43942437 -0.4644335 -0.010173296 -0.19570659
-0.12779996 0.23565488 -0.33142897 0.06737617 0.053976938 -0.06199694 0.07683942 -0.06749464
-0.16318254 -0.0954847 0.11718907 -0.055257816 -0.12850586 -0.08465827 0.029792137 0.24739194
0.03330012 0.10636857 -0.2086372 -0.7662723 0.026390718 -0.122734345 -0.1912044 -0.23417835
-0.27526748 0.03940371 -0.23341838 -0.0819386 0.2676805 -0.24200888 -0.21146762 0.03109888
-0.62822485 -0.15121183 -0.02197112 -0.1711583 -0.25552663 0.055791534 -0.21822485 -0.014501141
-0.11267058 -0.07593623 -0.04790362 -0.4446431 0.07677822 -0.28837126 -0.25685102 -0.33092913
-0.06315799 0.06962627 0.13018791 -0.06456985 -0.29094222 0.23149137 -0.16573265 -0.11445123
-0.2418588 -0.1499828 -0.036831044 0.22851332 -0.13159 -0.06022056 0.04135742 -0.12436199
0.030465556 -0.12214655 -0.036021166 -0.16041835 0.108046345 -0.22636575 -0.011273328 -0.15971246
-0.12896034 -0.0012720937 -0.21622866 0.25726876 -0.43983698 0.08049899 0.11340538 0.32182685
0.16596322 -0.00026890414 -0.08535294 0.33314025 -0.04330546 -0.10069907 0.10009703 -0.14227106
0.29825208 -0.21520966 0.059958935 0.22468615 0.28976163 -0.06802385 0.2087892 -0.37064078
-0.25396797 -0.13120835 0.004514216 0.037508212 0.10882693 0.31049672 0.35345203 0.14612472
0.06119279 -0.48403093 -0.13515976 -0.17152044 -0.2515268 -0.55204475 -0.34891158 -0.262997
0.13246748 -0.0029357658 -0.12174811 -0.25612253 -0.4876411 -0.04632104 0.2112473 0.013217873
0.381552 0.35977414 0.3331539 0.26609758 0.19592632 -0.030714616 -0.17769186 -0.07918029
0.29966387 -0.36557502 -0.09607378 -0.16276377 0.029179113 -0.959193 -0.117621906 0.36397207
-0.23771662 0.070278965 0.027059723 0.27955166 -0.3133311 0.13276891 0.33870882 0.00432816
0.030152008 -0.26696277 -0.3015089 -0.17664663 0.17469339 -0.18746907 0.005672655 -0.05646674
0.5143354 0.12588884 0.18188891 0.11602929 0.32238773 0.031443246 -0.21624014 0.02883384
00000000: 6c17 2dbe 55f1 b0bd 9808 b5be 54d5 f5bd
00000010: e864 3e3e 39b9 a8bd 1c91 c5be 6148 80bd
00000020: 5ba7 95be 3a11 bfbe ce1e cd3c 41f9 b1be
00000030: 6afa d43c 81d8 e5be 9b55 b2be 0ff1 70be
00000040: d24f a6be 2d1a 043f 7f8d b4be ed32 aebe
00000050: c65b a33d 06bf b33d c215 e33d d4c1 73be
00000060: 116e 653e ffaf cc3d 184e 803e 347d 05bf
00000070: d4f0 2bbe b24d 2ebd 3c41 a0be 3437 b2bd
00000080: dd6e 9dbe f086 9a3d c9c4 3cbc b464 2e3e
00000090: b2f8 a53c f61c b3be bfdd 7bbc 000f 113e
000000a0: 4846 62bd e75d 373e e119 5abd da5c a6be
000000b0: 2fee 98bd 8057 cebe f297 a73d 98b0 7dbe
000000c0: c0ae 2a3e 34af 3abe e8ac ccbe 78b4 a33e
000000d0: 47f4 80bd 08f5 823d 8649 2ebd 1807 303d
000000e0: c3e8 853e 9670 81be 16f8 573e 955f 7a3e
000000f0: 4359 5c3e a59e b6be 6836 d8be 3f1c 813e
00000100: 7fe6 75bf b363 cb3e 256a 48bd 2d39 2cbe
00000110: a05e 06be aff3 55be 6870 dbbe 334c 0d3e
00000120: 6dc8 1b3e dc21 113e 28ec d6be a57b afbd
00000130: 5dca 63bd 1c8c f1be 66fd a43d db6e 8fbf
00000140: c413 efbb 5eec 263e 4fea 3e3e 0d31 47be
00000150: 4dc7 19be 61cf b5bd 0f61 50bd 4b6f 61be
00000160: a3a6 8dbd 036d 8fbc e078 68bc 4ed3 1fbe
00000170: 3bfc e0be 3aca edbe e5ad 26bc 4f67 48be
00000180: fedd 02be 834f 713e 0fb1 a9be 84fc 893d
00000190: ec16 5d3d 81f0 7dbd fc5d 9d3d a13a 8abd
000001a0: 5319 27be 7b8d c3bd d300 f03d 0556 62bd
000001b0: 0a97 03be 5161 adbd a40e f43c 5054 7d3e
000001c0: b565 083d c4d7 d93d fda4 55be 6c2a 44bf
000001d0: 5931 d83c 255c fbbd 16cb 43be 73cc 6fbe
000001e0: dcef 8cbe c965 213d 3a05 6fbe 6dcf a7bd
000001f0: 6b0d 893e 2dd1 77be f88a 58be 14c3 fe3c
00000200: 58d3 20bf 46d7 1abe c7fc b3bc 1f44 2fbe
00000210: 63d4 82be aa85 643d 5676 5fbe 3296 6dbc
00000220: d5bf e6bd 7484 9bbd 9636 44bd 43a8 e3be
00000230: e63d 9d3d 66a5 93be fa81 83be 8b6f a9be
00000240: fa58 81bd 3898 8e3d fb4f 053e 333d 84bd
00000250: 61f6 94be 130c 6d3e d2b5 29be 6865 eabd
00000260: d5a9 77be 1795 19be 26dc 16bd 65ff 693e
00000270: 87bf 06be d5a9 76bd 6666 293d 80b1 febd
00000280: e792 f93c f827 fabd ee8a 13bd b544 24be
00000290: 6747 dd3d 6ccc 67be c4b3 38bc aa8b 23be
000002a0: 2e0e 04be 62bc a6ba 0c6b 5dbe bbb8 833e
000002b0: 5032 e1be a8dc a43d 1441 e83d 7dc6 a43e
000002c0: 43f2 293e b4fb 8cb9 86cd aebd 5c91 aa3e
000002d0: 1161 31bd 503b cebd acff cc3d 81af 11be
000002e0: 7fb4 983e ec5f 5cbe 8097 753d 2014 663e
000002f0: a35b 943e 1750 8bbd d6cc 553e a1c4 bdbe
00000300: 1708 82be 7b5b 06be fdeb 933b 36a2 193d
00000310: a7e0 de3d 6df9 9e3e aaf7 b43e b8a1 153e
00000320: 4aa5 7a3d e7d2 f7be 5267 0abe 0ea3 2fbe
00000330: 1fc8 80be ce52 0dbf 8aa4 b2be 8ba7 86be
00000340: 8ea5 073e fa65 40bb 1357 f9bd 7e22 83be
00000350: 18ac f9be 21bb 3dbd 3651 583e c78f 583c
00000360: c95a c33e 5134 b83e 2693 aa3e f13d 883e
00000370: e9a0 483e 389d fbbc dbf4 35be 4729 a2bd
00000380: 8b6d 993e a62c bbbe 54c2 c4bd 8cab 26be
00000390: 0909 ef3c ac8d 75bf c1e3 f0bd 8c5a ba3e
000003a0: fc6b 73be 6bee 8f3d 5aac dd3c 6521 8f3e
000003b0: ef6c a0be 93f4 073e 3e6b ad3e 3dd3 8d3b
000003c0: 5801 f73c 58af 88be 605f 9abe dbe2 34be
000003d0: d3e2 323e e4f7 3fbe aee1 b93b ab49 67bd
000003e0: 7cab 033f 01e9 003e 1641 3a3e c4a0 ed3d
000003f0: 0110 a53e a2ca 003d 0e6e 5dbe f234 ec3c

actor.2.bias f4 [32]
-0.27005008 -0.14411081 -0.20636682 -0.27730405 -0.026563449 0.018790502 -0.23224226 0.05661705
0.09704341 0.04408794 -0.048722148 -0.27698356 -0.17310613 0.08109614 -0.026759611 -0.13623427
-0.00806725 -0.17309193 -0.079581834 -0.10877526 -0.24518226 -0.07374933 -0.118882686 0.061505184
-0.07970375 -0.13389502 -0.20205523 -0.27364254 -0.17217103 -0.12912552 -0.1787085 -0.051376488
00000000: 0144 8abe c991 13be d351 53be ccfa 8dbe
00000010: 979b d9bc 8aee 993c ead0 6dbe 48e7 673d
00000020: b2be c63d 8e95 343d e090 47bd cad0 8dbe
00000030: bc42 31be bc15 a63d f936 dbbc ff80 0bbe
00000040: 802c 04bc 033f 31be cdfb a2bd 90c5 debd
00000050: 0f11 7bbe e409 97bd c478 f3bd dcec 7b3d
00000060: b83b a3bd c71b 09be 91e7 4ebe e01a 8cbe
00000070: 9a4d 30be 7b39 04be 5cff 36be 2770 52bd

actor.4.weight f4 [3, 32]
0.02141665 -0.035359677 -0.07573678 0.07290507 -0.09686078 0.022467492 0.121411 -0.008253733
-0.06862748 -0.00583427 -0.003936891 0.03920541 -0.04521911 0.0034104958 0.032259904 0.0041985665
-0.031956427 0.0068710553 0.019976364 -0.005125453 0.10237055 -0.02293167 -0.10455746 -0.08206858
-0.0012385399 0.0006148823 0.034602962 -0.0010093502 0.06573323 0.06296976 0.004542958 0.019769842
0.057682987 0.03212225 -0.038351115 -0.021327998 0.028358212 0.032279614 -0.02474818 0.00043664154
-0.06415135 0.0029013513 -0.030587608 0.032961458 -0.09768103 -0.005013772 0.0118129235 0.07445432
0.0019500126 0.01909118 -0.012085684 0.012227564 0.04242766 -0.024246944 0.02678415 0.045307193
0.01281204 0.044549342 -0.027337855 0.15011922 -0.050805036 -0.09188106 0.023070091 -0.073211126
-0.057746395 -0.06583861 0.0017694697 0.061508793 -0.019237977 -0.021882202 0.056815665 -0.04529062
0.082282074 0.011540855 -0.03654908 -0.05101908 0.094574705 -0.00014421118 0.061618324 0.04545295
0.03951889 0.01607836 -0.049146038 -0.026290042 -0.0014483997 0.046147253 0.06979581 0.012778064
0.0139854215 0.0662863 0.057101104 -0.027489025 -0.081437886 0.113118514 -0.010326357 0.001037884
00000000: f871 af3c 4fd5 10bd e31b 9bbd 414f 953d
00000010: f25e c6bd bf0d b83c 55a6 f83d aa3a 07bc
00000020: 908c 8cbd 672d bfbb 0901 81bb da95 203d
00000030: ac37 39bd a082 5f3b f622 043d 2194 893b
00000040: bee4 02bd 9726 e13b 79a5 a33c 6bf3 a7bb
00000050: a7a7 d13d 33db bbbc 3922 d6bd 9213 a8bd
00000060: 8156 a2ba 0d30 213a d6bb 0d3d 2c4c 84ba
00000070: 259f 863d 4af6 803d 18dd 943b 5df4 a13c
00000080: ff44 6c3d 9f92 033d 0f16 1dbd 0eb8 aebc
00000090: 7b4f e83c a137 043d b2bc cabc 09ed e439
000000a0: c861 83bd 9924 3e3b dd92 fabc 9802 073d
000000b0: fe0c c8bd 914a a4bb fe8a 413c 827b 983d
000000c0: 9197 ff3a 1b65 9c3c 0803 46bc 1f56 483c
000000d0: a0c8 2d3d 87a1 c6bc 6f6a db3c 0994 393d
000000e0: 97e9 513c 5f79 363d a3f3 dfbc dab8 193e
000000f0: f118 50bd 232c bcbd 7dfd bc3c b7ef 95bd
00000100: 7c87 6cbd 65d6 86bd 8ded e73a a5f0 7b3d
00000110: f698 9dbc 4e42 b3bc 8bb7 683d a882 39bd
00000120: 8183 a83d db15 3d3c 7db4 15bd 62f9 50bd
00000130: 62b0 c13d 6537 17b9 7f63 7c3d df2c 3a3d
00000140: 8fde 213d c4b6 833c 5b4d 49bd 375e d7bc
00000150: 3bd8 bdba e704 3d3d 1bf1 8e3d 165b 513c
00000160: 1c23 653c 1dc1 873d d9e2 693d aa30 e1bc
00000170: e8c8 a6bd aeaa e73d e12f 29bc 9c09 883a

actor.4.bias f4 [3]
0.104744576 -0.06782562 0.15802218
00000000: 5384 d63d 29e8 8abd 91d0 213e

critic.0.weight f4 [64, 24]
-0.4415124 0.038830698 -0.7438684 -0.6943605 0.039694674 0.020809941 -0.08218539 0.10875597
-0.30827639 0.18655697 0.044833396 0.30440903 0.07093806 0.39724106 0.11092995 -0.0791154
0.17838365 0.3194782 -0.23264052 -0.29363713 -0.06835329 -0.10670233 0.216894 -0.24225372
-0.31081846 -0.053212073 0.28196156 0.43109214 0.57807404 -0.9422659 0.2393357 -1.2184205
0.53307664 -0.94450516 0.63612384 -1.0961976 0.6308695 -0.6876964 0.4068714 -1.0591643
-0.05456716 -0.5288517 0.05982928 -0.58358145 0.25711903 -0.5994008 -0.2787799 -0.644279
-0.41295025 0.094515696 -0.21030572 -0.46709004 -1.4372536 -0.1863397 -0.25872412 0.38971776
0.18399875 0.61214846 0.41709027 0.6199155 -0.07115985 0.9410482 0.34255818 0.45142937
0.19476137 0.4142425 0.27216068 0.573943 -0.027465161 0.4629317 0.31650805 0.3445655
0.30819234 -0.019478848 -0.027728751 -0.41882053 -0.570241 -0.23597099 0.7837004 -0.4548878
1.0284367 -0.47268206 0.829312 -0.15492207 0.65690655 -0.46710223 0.34508473 -0.29221737
0.44874865 -0.019390834 0.20569958 -0.21677905 -0.15167296 -0.30537415 0.50587213 -0.08349516
-0.72159356 -0.21273309 -0.6003291 -0.67224485 -0.19453816 1.0863868 0.113432355 1.3578854
0.06289206 1.1270244 0.16471663 1.2552032 0.42450112 0.88035023 0.6672691 1.0337665
0.580872 0.48599637 0.14915897 0.84108835 0.6792808 0.73948085 0.4943701 0.36234024
0.3351406 -0.1086842 -0.08321743 0.13187744 -1.8200063 -0.009318302 -0.80148894 0.020823622
-0.34247953 -0.2708243 -0.44334304 0.43279362 -0.46803334 0.4745069 -0.099517144 0.40729922
-0.17183954 0.4003388 -0.09972421 0.33253148 0.31891283 0.122791834 0.21002133 0.3619352
0.28927806 0.13979103 -0.4372885 0.002058207 0.038162228 1.0561929 -0.7016889 0.46137515
-0.4855929 0.09801169 -0.630969 -0.18487532 -0.24558637 -0.25908467 -0.2804064 -0.50482196
-0.20763555 -0.4610102 -0.21496768 -0.43131894 -0.12288294 -0.57849264 -0.37715614 -0.55238754
0.03645779 0.28207496 -0.52611357 -0.36307588 -1.1065679 -0.14593865 -0.29620653 -0.8151706
-0.08325837 -0.64436555 0.5511121 -0.88951933 0.22453181 -0.84992164 0.168768 -0.11564002
0.32283217 -0.58876204 0.3820401 -0.35950875 0.27180928 -0.11139409 0.039788462 -0.10892157
-1.0430306 -0.18535051 0.20664346 -1.3262311 -0.99955904 -3.6206937 -0.07195491 -1.6501213
0.26439133 -0.690466 0.48646986 -0.26051095 -0.031354304 0.10452544 0.2590387 0.44422528
-0.023125907 0.15973786 -0.12944518 0.22772825 0.020038286 0.47208706 -0.045573458 0.792355
0.084941216 -0.14818804 0.040421844 0.062467292 0.017798565 0.68380344 -0.666539 0.12539253
-0.22514057 -0.09788591 -0.3688619 0.19786902 -0.35707885 -0.0009690511 -0.24556953 -0.34991935
0.067915194 -0.47748944 -0.108203374 -0.24887326 -0.24511273 -0.15553524 -0.058731455 -0.09164915
0.22379431 -0.11460703 -0.37042025 0.13702376 0.81677467 1.1249651 0.08011917 0.17016505
-0.30154356 -0.11285598 -0.27071232 -0.04759044 -0.38256085 -0.2830925 -0.25384867 -0.32142252
00000000: ea0d e2be f00c 1f3d 296e 3ebf 9cc1 31bf
00000010: e296 223d 9c79 aa3c d050 a8bd 73bb de3d
00000020: 67d6 9dbe ca08 3f3e 39a3 373d 80db 9b3e
00000030: f947 913d 2e63 cb3e 3e2f e33d 4107 a2bd
00000040: 34aa 363e a692 a33e 5139 6ebe 9b57 96be
00000050: cffc 8bbd c086 dabd 7619 5e3e 5c11 78be
00000060: 9923 9fbe e7f4 59bd 445d 903e 1cb8 dc3e
00000070: a9fc 133f 5738 71bf 6b14 753e 34f5 9bbf
00000080: b677 083f 17cb 71bf 03d9 223f 3450 8cbf
00000090: aa80 213f df0c 30bf 7351 d03e b292 87bf
000000a0: d081 5fbd d362 07bf 8c0f 753d 9865 15bf
000000b0: 1ba5 833e 5572 19bf 3dbc 8ebe 78ef 24bf
000000c0: 376e d3be 7291 c13d 625a 57be 6d26 efbe
000000d0: edf7 b7bf d6cf 3ebe 7d77 84be 1689 c73e
000000e0: 2b6a 3c3e c3b5 1c3f db8c d53e c8b2 1e3f
000000f0: 41bc 91bd 89e8 703f c963 af3e c021 e73e
00000100: 866f 473e 9817 d43e a558 8b3e eeed 123f
00000110: 9efe e0bc 6205 ed3e 580d a23e e46a b03e
00000120: 63cb 9d3e 1b92 9fbc 6827 e3bc a56f d6be
00000130: 50fb 11bf 61a2 71be 97a0 483f 0ee7 e8be
00000140: d0a3 833f 6203 f2be cb4d 543f e4a3 1ebe
00000150: 072b 283f 0628 efbe f2ae b03e 849d 95be
00000160: 62c2 e53e 87d9 9ebc e9a2 523e 54fb 5dbe
00000170: 2850 1bbe 005a 9cbe d680 013f 83ff aabd
00000180: 5bba 38bf b4d6 59be 2baf 19bf 3d18 2cbf
00000190: 0335 47be b90e 8b3f 394f e83d 30cf ad3f
000001a0: 8dcd 803d 5642 903f 7aab 283e 80aa a03f
000001b0: 3658 d93e a25e 613f 26d2 2a3f 7652 843f
000001c0: 07b4 143f 84d4 f83e 21bd 183e 9151 573f
000001d0: 59e5 2d3f 9e4e 3d3f 141e fd3e a984 b93e
000001e0: 8c97 ab3e d295 debd e66d aabd e10a 073e
000001f0: f7f5 e8bf cbab 18bc 612e 4dbf 4d96 aa3c
00000200: 7a59 afbe 7ca9 8abe dcfd e2be 2097 dd3e
00000210: 11a2 efbe 92f2 f23e a5cf cbbd 8689 d03e
00000220: b4f6 2fbe 35f9 cc3e 353c ccbd 9141 aa3e
00000230: 8b48 a33e 497a fb3d d50f 573e 924f b93e
00000240: 411c 943e 6125 0f3e 47e4 dfbe fce2 063b
00000250: ff4f 1c3d 5431 873f e2a1 33bf 5d39 ec3e
00000260: a29f f8be 5aba c83d 2f87 21bf f54f 3dbe
00000270: fe7a 7bbe bfa6 84be 6d91 8fbe 033c 01bf
00000280: 6a9e 54be 8709 ecbe 7d20 5cbe d6d5 dcbe
00000290: 0daa fbbd 1818 14bf 9c1a c1be 4569 0dbf
000002a0: c354 153d 216c 903e 61af 06bf 15e5 b9be
000002b0: 04a4 8dbf f170 15be 62a8 97be 05af 50bf
000002c0: 5d83 aabd 24f5 24bf af15 0d3f 8ab7 63bf
000002d0: abeb 653e 7794 59bf 85d1 2c3e add4 ecbd
000002e0: 424a a53e 1cb9 16bf c39a c33e 8811 b8be
000002f0: 962a 8b3e 9622 e4bd 3af9 223d 4612 dfbd
00000300: 0782 85bf 86cc 3dbe 589a 533e f1c1 a9bf
00000310: 1ae3 7fbf 72b9 67c0 195d 93bd 2d37 d3bf
00000320: 4d5e 873e 61c2 30bf 9412 f93e b161 85be
00000330: 5f6d 00bd 6f11 d63d b8a0 843e 7f71 e33e
00000340: 8b72 bdbc 5292 233e 478d 04be 9831 693e
00000350: 5527 a43c 65b5 f13e 3cab 3abd c7d7 4a3f
00000360: a9f5 ad3d 9bbe 17be 6091 253d b4dd 7f3d
00000370: 4cce 913c be0d 2f3f 4da2 2abf e666 003e
00000380: 408b 66be 6878 c8bd 78db bcbe 2d9e 4a3e
00000390: 0ad3 b6be eb07 7eba 9476 7bbe a128 b3be
000003a0: 1f17 8b3d 7f79 f4be bb99 ddbd a2d8 7ebe
000003b0: d5fe 7abe a144 1fbe 6590 70bd 8db2 bbbd
000003c0: 562a 653e 17b7 eabd b9a7 bdbe f54f 0c3e
000003d0: 2518 513f dbfe 8f3f 8515 a43d bf3f 2e3e
000003e0: eb63 9abe 0921 e7bd ce9a 8abe 31ee 42bd
000003f0: 04df c3be 80f1 90be 74f8 81be 7e91 a4be

critic.0.bias f4 [64]
-0.6232886 -0.44414783 0.23166713 0.19849202 -0.4761028 0.3174876 -0.119649515 0.44781506
0.7006208 0.23104753 0.5304652 -0.5044126 0.57389677 0.34956563 0.20611717 -0.5545397
0.7089704 0.16224934 -0.6780422 -1.5027694 -0.8520628 -1.013835 0.45101476 0.19269183
-0.026040139 -0.2578162 0.086450025 -1.1320256 -1.0386897 -0.90866643 -0.88043004 0.15824273
-0.4305786 0.23632196 0.4176057 -0.66982514 -2.2234771 0.35983658 0.07364852 0.6251774
0.39873046 -1.1728425 -0.8264729 0.16825342 0.5426518 0.35741872 -0.21825756 -0.116713285
-1.3657228 -0.17235973 -0.09882438 -0.58228534 0.34841117 0.32694662 -0.20725772 0.18844332
0.6364363 0.5503728 0.34129912 0.382057 -0.9726337 0.24760783 0.12608151 -1.8454525
00000000: d78f 1fbf 5867 e3be 263a 6d3e 7e41 4b3e
00000010: bfc3 f3be bc8d a23e ce0a f5bd 0448 e53e
00000020: e25b 333f b997 6c3e 91cc 073f 2f21 01bf
00000030: e6ea 123f 44fa b23e 6110 533e 50f6 0dbf
00000040: 167f 353f b124 263e 2c94 2dbf bf5a c0bf
00000050: ca20 5abf 58c5 81bf 68eb e63e 0251 453e
00000060: 2152 d5bc 7c00 84be b60c b13d 37e6 90bf
00000070: c9f3 84bf 5d9e 68bf dd63 61bf 620a 223e
00000080: cc74 dcbe 62fe 713e 6ad0 d53e a979 2bbf
00000090: 734d 0ec0 803c b83e 09d5 963d a00b 203f
000000a0: 6626 cc3e b41f 96bf ba93 53bf a04a 2c3e
000000b0: 3aeb 0a3f 96ff b63e e97e 5fbe 6007 efbd
000000c0: 01d0 aebf 127f 30be 7064 cabd a710 15bf
000000d0: f362 b23e 8c65 a73e 5e3b 54be 49f7 403e
000000e0: 7ded 223f 3be5 0c3f c2be ae3e fa9c c33e
000000f0: 86fe 78bf e88c 7d3e 831b 013e ca37 ecbf

critic.2.weight f4 [32, 64]
-0.21181084 -0.14308853 -0.10757119 -0.46545112 -0.2235032 0.3438741 -0.19111444 -0.3817913
0.5615549 -0.08649236 -0.2787264 -0.019264225 -0.59689575 -0.33385298 -0.55404276 0.03401793
-0.4211125 -0.41863477 -0.11982448 -0.6264401 0.2119756 0.2502146 -0.51876646 0.12096952
-0.15411608 -0.2499766 -0.16024868 -0.05901658 0.056569386 0.13049969 0.097462155 -0.6108795
-0.15284683 -0.30370954 -0.40381095 0.05299309 -1.1234138 -0.05027547 -0.28267202 -0.572251
-0.28489992 0.05582986 -0.6366777 -0.20317318 0.25827798 0.049425695 -0.20678659 -0.11557587
0.17438568 -0.45105255 0.13501345 0.017999731 -0.35879526 -0.27625883 -0.24923253 0.014868429
-0.15612125 -0.16176936 0.003745101 -0.08699748 0.104247294 -0.07052515 -0.40092108 -0.5683148
-0.7379008 0.31780034 0.096305616 -0.3024049 -0.93894327 -2.1769826 -0.7789167 -1.7003734
0.6825815 -0.034565013 -0.38467833 -0.33837247 -0.4243938 -0.40276542 -0.5773659 -0.802817
-0.142178 0.15434301 -0.11357468 0.10110321 0.43374267 0.15542716 -1.0326043 0.3396846
-0.2840763 -1.2675568 -1.7489564 0.14960623 0.71725893 -0.8161183 0.021366348 -0.6371473
-0.5593644 -0.32484236 -1.4992942 0.0160589 -0.8425934 -1.0650462 -0.14756784 -0.30447415
-0.6856376 0.71522623 -1.7367365 -0.054738637 -0.18578102 -0.6061611 0.46885198 0.7586533
-0.18602996 -0.90086037 0.18674406 0.298622 0.19525546 -0.16142061 1.1922878 -2.6773663
-1.6389067 0.78477705 -0.27264532 0.8855569 -0.22452793 -0.52129054 -0.5439166 0.49078187
-0.11818856 0.5918295 -0.20759933 0.48890483 -0.42286068 -0.043631054 -0.33286473 0.5003166
0.26944488 -0.16866463 0.3340409 -0.25370175 0.18241024 0.1444 0.03181649 -0.37547016
-0.43368205 -0.17201136 0.26500854 -0.31303465 0.18042827 -0.46995312 0.21505596 0.25762415
0.25426954 -0.30628958 -0.22072354 -0.66524464 -0.37456566 -0.15781191 0.18406646 0.45665193
0.03106036 0.35092196 0.35195974 -0.046164833 0.84829646 0.23257388 0.060910266 0.2709973
0.23229498 -0.27233464 0.37864023 0.4068925 -0.0055510215 -0.003006535 0.015304525 -0.6292181
-0.18166001 -0.111654565 0.15089129 -0.27696863 -0.04594598 0.25936198 -0.5943662 0.15335256
0.33263052 -0.2645676 0.21308167 -0.39038894 0.3860813 0.41695166 0.0021786133 -0.63722265
-0.21523947 0.13478734 0.05675469 -0.6022736 -0.8943584 -0.64486885 0.19142602 -0.30067682
0.5133813 -0.23406638 -0.07993524 0.42781186 0.42941475 0.09882582 -0.16755451 -0.96265954
-0.15145622 0.2904718 0.0047850334 -1.3506174 -0.58850205 -0.9066899 0.19881658 0.020359257
0.6676294 0.061110068 -0.019809177 -1.0753996 -0.8143624 -0.27364862 -0.14483286 -0.13960645
0.05527432 0.450579 0.34838533 -0.3296148 -0.9223346 0.30904657 -0.028521204 -0.07388616
-0.32552636 -0.954296 -0.17228818 0.09703616 0.31392768 -0.2452365 -0.078640305 -0.21166222
-1.0881053 -0.10760113 0.3251141 -0.9547233 -0.23720823 -0.42610314 -0.6115353 -0.51816416
0.103049494 -0.19665593 -0.15262322 -0.22506663 -0.9682794 0.22910659 0.06104832 -1.5496912
00000000: f1e4 58be cd85 12be 494e dcbd 9c4f eebe
00000010: 06de 64be 4410 b03e 81b3 43be 267a c3be
00000020: 10c2 0f3f e822 b1bd 3ab5 8ebe 02d0 9dbc
00000030: 29ce 18bf c7ee aabe bfd5 0dbf 6356 0b3d
00000040: 0f9c d7be 4c57 d6be 8966 f5bd 615e 20bf
00000050: 2210 593e 211c 803e e1cd 04bf debe f73d
00000060: 9bd0 1dbe def9 7fbe 3b18 24be 5fbb 71bd
00000070: 4db5 673d b6a1 053e 3d9a c73d 9962 1cbf
00000080: e183 1cbe d17f 9bbe 4fc0 cebe 480f 593d
00000090: 06cc 8fbf a7ed 4dbd 63ba 90be 0b7f 12bf
000000a0: 67de 91be daad 643d 4ffd 22bf a10c 50be
000000b0: 033d 843e 9972 4a3d ddbf 53be 0bb3 ecbd
000000c0: 2992 323e 5cf0 e6be f740 0a3e 2c74 933c
000000d0: 03b4 b7be cc71 8dbe d036 7fbe b69a 733c
000000e0: 40de 1fbe dea6 25be 5e70 753b bc2b b2bd
000000f0: 9b7f d53d 7d6f 90bd 8745 cdbe 147d 11bf
00000100: 11e7 3cbf bab6 a23e e13b c53d d1d4 9abe
00000110: 965e 70bf af53 0bc0 1667 47bf d6a5 d9bf
00000120: a9bd 2e3f 0b94 0dbd 8ff4 c4be 283f adbe
00000130: 254a d9be 4537 cebe 40ce 13bf 6a85 4dbf
00000140: 1c97 11be 180c 1e3e d899 e8bd 330f cf3d
00000150: 8513 de3e 4c28 1f3e 612c 84bf 24eb ad3e
00000160: 7372 91be 4d3f a2bf cedd dfbf 6032 193e
00000170: 489e 373f 21ed 50bf 7b08 af3c 161c 23bf
00000180: 8132 0fbf bd51 a6be dfe8 bfbf f48d 833c
00000190: 33b4 57bf 6f53 88bf 061c 17be 09e4 9bbe
000001a0: f285 2fbf 1119 373f 624d debf 9f35 60bd
000001b0: 613d 3ebe 602d 1bbf 5e0d f03e 1a37 423f
000001c0: a37e 3ebe c99e 66bf d639 3f3e fce4 983e
000001d0: 0cf1 473e 724b 25be e39c 983f f859 2bc0
000001e0: b2c7 d1bf 26e7 483f 2b98 8bbe dbb3 623f
000001f0: a6ea 65be 4c73 05bf 1e3e 0bbf c347 fb3e
00000200: d80c f2bd 2382 173f eb94 54be bc51 fa3e
00000210: 3281 d8be 7ab6 32bd 3f6d aabe c014 003f
00000220: aef4 893e 6cb6 2cbe 6907 ab3e 32e5 81be
00000230: c0c9 3a3e 98dd 133e 0252 023d a03d c0be
00000240: 930b debe bf23 30be 33af 873e 1446 a0be
00000250: 30c2 383e b29d f0be a137 5c3e 50e7 833e
00000260: 9e2f 823e fdd1 9cbe 5a05 62be 794d 2abf
00000270: 12c7 bfbe 7299 21be eb7b 3c3e 48ce e93e
00000280: 4c72 fe3c 0bac b33e 1134 b43e 5617 3dbd
00000290: f529 593f d927 6e3e 0b7d 793d 28c0 8a3e
000002a0: bcde 6d3e 726f 8bbe 22dd c13e 3754 d03e
000002b0: 58e5 b5bb 4909 45bb d5bf 7a3c 7014 21bf
000002c0: 1505 3abe 26ab e4bd 3f83 1a3e d5ce 8dbe
000002d0: da31 3cbd 18cb 843e 6228 18bf 7408 1d3e
000002e0: 8c4e aa3e 6875 87be 1532 5a3e 0fe1 c7be
000002f0: 73ac c53e b07a d53e 11c7 0e3b 0621 23bf
00000300: bc67 5cbe b105 0a3e 9b77 683d 9a2e 1abf
00000310: acf4 64bf 2016 25bf 2f05 443e 50f2 99be
00000320: f56c 033f 19af 6fbe 16b5 a3bd 280a db3e
00000330: 40dc db3e 3165 ca3d 6993 2bbe db70 76bf
00000340: 5717 1bbe b8b8 943e c5cb 9c3b 08e1 acbf
00000350: 12a8 16bf d41c 68bf 9396 4b3e 75c8 a63c
00000360: c3e9 2a3f 8d4e 7a3d db46 a2bc b2a6 89bf
00000370: 0e7a 50bf ac1b 8cbe 114f 14be fef4 0ebe
00000380: 5367 623d 4ab2 e63e 905f b23e 45c3 a8be
00000390: 1f1e 6cbf 5a3b 9e3e 4da5 e9bc a151 97bd
000003a0: 64ab a6be be4c 74bf 506c 30be e5ba c63d
000003b0: 21bb a03e 471f 7bbe 2b0e a1bd fbbd 58be
000003c0: 0947 8bbf fb5d dcbd 5b75 a63e bf68 74bf
000003d0: b7e6 72be 312a dabe 948d 1cbf 68a6 04bf
000003e0: 9d0b d33d 2c60 49be 4349 1cbe de77 66be
000003f0: 29e1 77bf eb9a 6a3e ce0d 7a3d 485c c6bf

critic.2.bias f4 [32]
-0.41877472 0.095315136 0.39081046 0.470062 0.4511489 0.40976197 -0.03492252 -0.28399453
0.5502811 0.7099334 -0.20487268 -0.27290252 0.5590709 0.43092063 0.56196666 0.3767204
-0.285748 0.4924794 0.448846 0.5969844 0.65693235 0.41292316 -0.2995319 -0.40930265
-0.29148713 0.27017146 -0.325383 0.4892428 -0.14798728 -0.11399111 -0.09857087 -0.22960728
00000000: a469 d6be 9534 c33d 4f18 c83e f7ab f03e
00000010: fdfc e63e 52cc d13e eb0a 0fbd bb67 91be
00000020: 39df 0c3f 32be 353f 25ca 51be e1b9 8bbe
00000030: 451f 0f3f a1a1 dc3e 0cdd 0f3f 7fe1 c03e
00000040: 904d 92be 4326 fc3e 25cf e53e f8d3 183f
00000050: b82c 283f aa6a d33e 3f5c 99be 1e90 d1be
00000060: cd3d 95be ea53 8a3e 9a98 a6be 087e fa3e
00000070: fa89 17be 2c74 e9bd 86df c9bd 2c1e 6bbe

critic.4.weight f4 [1, 32]
-0.44771242 -1.5290731 0.15680003 0.4486181 0.40241706 0.49936247 -0.296905 -0.59242225
0.42731875 0.58974516 -1.0132502 -0.7305765 0.6111714 0.41422036 0.35319418 0.35394764
-0.4831779 0.48442486 0.37440354 0.39463708 0.4881065 0.51092684 -0.56969875 -1.0619804
-0.77249473 0.31095657 -0.8326264 0.45531994 -1.0097516 -0.3978915 -1.8982432 -0.7896752
00000000: 903a e5be abb8 c3bf 3090 203e 46b1 e53e
00000010: 9c09 ce3e 70ac ff3e ef03 98be fca8 17bf
00000020: 86c9 da3e 8af9 163f 2fb2 81bf 1007 3bbf
00000030: bb75 1c3f b114 d43e ded5 b43e a038 b53e
00000040: 1863 f7be 8906 f83e d2b1 bf3e df0d ca3e
00000050: 18e9 f93e 1acc 023f c7d7 11bf f9ee 87bf
00000060: 37c2 45bf b335 9f3e 0127 55bf b21f e93e
00000070: 8a3f 81bf 6fb8 cbbe a2f9 f2bf 2728 4abf
