logs/exp/model_46.pt (torch, 34660 bytes, 12 tensors)

log_std f4 [3]
000000 fe 62 4f be 26 92 a8 bd 75 81 94 bd
       -0.20252606 -0.082310006 -0.072512545

actor.0.weight f4 [64, 24]
000000 26 26 ae be ab 6e 44 3d 24 0e 0c 3f c1 32 0d bd
       -0.3401348 0.047957104 0.54709077 -0.03447223
000010 3a ee 6d be 14 3f c3 be 13 9c 18 be 43 d0 0b be
       -0.23235407 -0.38134062 -0.14903288 -0.13653664
000020 bc b0 f7 3d 74 45 fb be ba c0 86 bd 45 34 92 be
       0.12094256 -0.49076426 -0.065797284 -0.28555503
000030 78 ba d1 be 2a 2b 2d bd c9 7d 86 be 22 79 1b bf
       -0.40962577 -0.042277493 -0.2626784 -0.6073171
000040 63 f4 d3 bd 63 2f 8b be c1 af 2c 3e 1a 3c 35 bf
       -0.103493474 -0.2718459 0.1686392 -0.7079483
000050 9e de 02 3d 46 94 da be 37 30 0c be 12 49 b8 be
       0.031950586 -0.4269125 -0.13690268 -0.35993248
000060 a4 02 35 bd a2 12 79 3d 2a 44 04 3e 0e 98 2d 3b
       -0.04419197 0.060808785 0.12916628 0.0026488337
000070 2a 2d 6f be c7 7c 27 bc da 38 fa 3b cb f3 7e 3d
       -0.23357072 -0.01022262 0.0076361718 0.062244218
000080 41 5d 99 bd 2e 44 1c be 61 a3 bf 3b 8b 34 8f be
       -0.0748849 -0.15260383 0.0058483337 -0.27969775
000090 16 a7 1c 3e 11 4b c7 be 44 61 3c 3e df ed 44 be
       0.15298113 -0.3892446 0.18396479 -0.19231366
0000a0 ad 33 18 bd 7e a2 a8 be f4 67 17 be 8b 12 8c be
       -0.037158657 -0.32936472 -0.14785749 -0.27357897
0000b0 0e 6a a0 be 86 bd be bd e7 c9 27 bb c0 ac 34 be
       -0.31330913 -0.093134925 -0.002560252 -0.17644024
0000c0 53 76 1b 3d f4 a5 3c be 04 e7 03 3e 37 29 83 be
       0.03795464 -0.18422681 0.12881094 -0.25617382
0000d0 5f a4 20 3e e0 87 81 3e 18 2f 60 3e a2 e2 8b be
       0.15687703 0.25298977 0.21892965 -0.27321345
0000e0 9e ac 09 3f 4e 3b 78 bd 05 e0 8c 3e 73 50 28 be
       0.5377902 -0.060603432 0.27514663 -0.16436939
0000f0 15 7c 8c 3e 2c 3a 1e be ed a6 f0 3e 0e 3c b6 be
       0.27438417 -0.15451878 0.47002354 -0.35592693
000100 0e 9a 82 be 21 96 95 bd b5 f5 ed bd 89 e8 82 3d
       -0.2550816 -0.073040254 -0.116191305 0.06392009
000110 97 d3 08 3d 43 0f b3 ba e2 03 a8 bc 5a e6 aa be
       0.033404913 -0.0013661165 -0.020509664 -0.3337887
000120 20 4c 99 be 0b f2 a2 3e b8 c8 27 bd a3 4b d9 bc
       -0.2994089 0.3182529 -0.040962905 -0.026525324
000130 9f 2c e0 bd 5e 4e 59 bd ca 56 ec bd 83 3b e7 be
       -0.10946011 -0.053053252 -0.11539991 -0.4516259
000140 d0 69 0f 3e 72 70 19 3d ae 64 13 be c5 2b 27 bd
       0.14005208 0.03746075 -0.14393875 -0.040813226
000150 7e 30 db 3d 3d 08 d7 3d 85 ed 07 3e 02 37 cd be
       0.107026085 0.10499618 0.132742 -0.4008103
000160 bf d3 b1 3b a7 d8 0e be ca 5d b9 3c 0f 61 2c bd
       0.0054268534 -0.13949834 0.02262773 -0.04208475
000170 88 11 83 3d 2b ea 90 be 13 23 1b be 5b 15 60 bc
       0.06399828 -0.28303656 -0.15150099 -0.013676967
000180 2b e2 2d be ed 2d 12 3d 66 76 f6 3d 7b 8e 4e bf
       -0.16980807 0.03568833 0.120343015 -0.8068616
000190 ac 12 0f 3f 3b 20 34 3f 14 3c 8f 3d ee 7d 15 3d
       0.55887866 0.7036168 0.06993881 0.03649705
0001a0 42 ef 69 bd b7 fb 03 3d 10 a0 d4 3b 36 f0 08 be
       -0.05711294 0.032222476 0.0064888075 -0.13372883
0001b0 e3 fe e9 bd ac 4c d8 bd 60 f7 7a be 0b 6f db bd
       -0.11425569 -0.10561499 -0.24508429 -0.10714539
0001c0 a6 c0 24 be 36 0a 64 bd 23 04 6b bd 6e 29 10 3d
       -0.16089115 -0.0556738 -0.057376992 0.03519576
0001d0 26 11 d6 3d ae 1a 81 be 15 e4 12 3d 68 f2 52 be
       0.104524896 -0.25215667 0.035862047 -0.20600283
0001e0 96 37 fd be 8f 69 f4 bd 13 79 70 3d c0 6b a1 bd
       -0.4945647 -0.11934196 0.058709215 -0.0788188
0001f0 4e 83 00 bf 9b 31 99 3e 59 15 f6 3a db 5d 1d be
       -0.50200355 0.29920658 0.0018774673 -0.15367834
000200 45 96 8c bd 39 d9 3e 3d 8b aa be bd ec 84 77 3d
       -0.06864599 0.04659388 -0.09309872 0.0604295
000210 83 2a cb 3b 7a b1 23 3d 61 ec 16 bd a4 6b c1 3e
       0.006200136 0.039964177 -0.036846522 0.37777436
000220 99 55 da bd 38 b9 59 3e fd 45 2f 3e 3f 77 f1 bb
       -0.10660858 0.21262062 0.17116542 -0.0073689516
000230 4b 71 ee bd dd 80 91 3d 34 7a 06 bd 1e 09 52 3e
       -0.11642703 0.07104657 -0.032831386 0.2051129
000240 f7 59 f0 3d 17 be fc 3e 4c 60 9a be 3c d2 ca be
       0.117359094 0.49363777 -0.30151594 -0.3961352
000250 26 e7 c1 3e 78 6f 27 bc c2 c2 1d 3f 90 64 8d be
       0.37871665 -0.010219447 0.616253 -0.27615786
000260 f7 e0 ff 3e 24 fa af bd 9d 37 89 3e 4f de 01 bc
       0.49976322 -0.085926324 0.26800242 -0.007926538
000270 1e a6 cc 3d 71 6b 09 bd b5 a1 cb 3e f9 6a 81 3e
       0.09992622 -0.03354973 0.3977181 0.25276926
000280 f6 ba 92 be 4b 1f 4a 3e c5 93 20 be 82 37 a6 bd
       -0.28658265 0.197385 -0.1568137 -0.08116056
000290 37 b6 0d be 02 6f 65 3e 24 da e9 bd 2a 86 8d 3d
       -0.1383904 0.22405627 -0.1141856 0.069103554
0002a0 76 b3 ac 3d 6a 71 ba 3c 2b 32 c4 bd d1 d8 8f bf
       0.08432667 0.022759158 -0.09579881 -1.1238042
0002b0 4a bb 4e bd e8 75 66 be dd 42 b9 be 91 ab ab 3d
       -0.05047158 -0.22505915 -0.36183825 0.08382333
0002c0 4f 78 ba bc 03 99 9b 3d 65 87 0e 3e 5a 1f 4f 3e
       -0.022762446 0.07597544 0.13918836 0.20226803
0002d0 f3 5c 36 be ee d0 90 bd a5 70 c8 3b 11 ca 5b 3b
       -0.17808895 -0.070711 0.006116944 0.003353719
0002e0 cf a8 ad 3e f1 cb c3 bd a1 36 13 be 18 34 21 bd
       0.33917853 -0.09560383 -0.14376308 -0.03935632
0002f0 a8 48 81 be 13 02 01 3e 7f af b8 be ab 88 95 3e
       -0.25250745 0.12598448 -0.36071393 0.29205832
000300 67 6b 81 3d b4 12 66 3d 8c 7c 08 3e 29 89 dd 3e
       0.063193135 0.05617018 0.13328761 0.43268707
000310 94 03 22 3f 3a d3 38 3e b3 0f 2e 3e 03 63 5a 3d
       0.6328671 0.18049327 0.16998176 0.05331708
000320 0d 13 f7 3e eb 75 c7 3d 85 eb 00 be a8 27 4e 3e
       0.48256722 0.09739288 -0.12589844 0.20132315
000330 ba d2 11 3e 8c f0 85 3e b2 29 39 be db f8 b9 bd
       0.14240542 0.26160085 -0.18082312 -0.090806685
000340 b8 d2 b5 bd 50 2f 27 be 4c dc 1c 3d 7b e0 6e be
       -0.08878082 -0.16326642 0.03829603 -0.2332782
000350 f1 e7 50 3d e5 19 39 be d9 ff a4 be f6 48 54 be
       0.051002447 -0.18076284 -0.32226446 -0.20730957
000360 93 15 11 3e e8 91 db 3d bf 27 52 3d 70 65 9f bf
       0.14168386 0.10721189 0.051307436 -1.2452831
000370 74 fe b6 be 14 a1 00 bf a9 0c 09 be 93 62 a9 bb
       -0.35741007 -0.50245786 -0.13383736 -0.0051692217
000380 dd 47 5c be de 6b 77 be 8c 1a b6 be 56 ea 4d 3d
       -0.21511789 -0.24162242 -0.3556713 0.05027231
000390 8f bb 93 be 16 f4 ab 3d 4e 78 c0 be 38 39 5a 3e
       -0.28854033 0.08396165 -0.37591785 0.2131089
0003a0 57 05 b0 be 28 26 ae be 2b 03 83 be 8e fb 71 3c
       -0.34379074 -0.34013486 -0.25588354 0.014769448
0003b0 3b 42 8b be 95 c9 26 bd 22 65 7a 3d 9d 4a 26 bd
       -0.27198967 -0.040719587 0.061131604 -0.0405985
0003c0 d4 b9 90 be a6 9a 26 be 66 f0 49 be 9e 1e 16 be
       -0.28266776 -0.16269931 -0.19720611 -0.14660117
0003d0 64 75 cb be aa e7 87 3b 39 42 e0 3d 81 4c 92 3e
       -0.39738 0.0041474896 0.10950131 0.28573993
0003e0 9e 7f 69 3e f6 98 75 bd 2b 9e c8 bd ae 52 aa bd
       0.22802588 -0.059960328 -0.09795793 -0.08316551
0003f0 1d a9 0c 3d 6b af e4 3d 77 7d 13 3e e0 9e d1 3d
       0.034340966 0.11166271 0.1440333 0.10235381

actor.0.bias f4 [64]
000000 f0 5d 12 3e c9 49 a8 bc 05 25 4f be 45 fa c9 bd
       0.14293647 -0.020542996 -0.20228966 -0.09862188
000010 6a 18 df 3c da 1a a1 3a 13 a6 fd bd 5e c1 07 3c
       0.027233321 0.0012291328 -0.12385192 0.008285848
000020 91 0e cd be 5a 0b 94 be 34 36 32 3b e1 ea 5a be
       -0.40050176 -0.2891491 0.0027192952 -0.21378662
000030 e5 07 f1 bd d7 6e 3b 3e e7 c0 a8 be 42 a7 f9 3c
       -0.11769084 0.18304001 -0.32959673 0.030475263
000040 c2 c1 37 3d c1 4e 74 be e5 bb 68 3d 24 0a 4c be
       0.044862516 -0.23858167 0.056819815 -0.19925743
000050 ec f0 30 3d af d2 a5 be e1 1b 0f be cc 01 26 be
       0.04319851 -0.323873 -0.13975479 -0.16211623
000060 0b 70 47 be 6e 74 dd be 9a d8 6f be 6e 0f a4 3e
       -0.19476335 -0.4325289 -0.2342247 0.32043022
000070 67 49 3c be 03 c6 29 bd c0 5e ba be f3 29 ae be
       -0.18387376 -0.041448604 -0.36400414 -0.3401638
000080 2a 47 46 be 79 77 8d be 57 8d cb bd 2b c0 3a be
       -0.19363084 -0.27630213 -0.09939068 -0.18237369
000090 17 a0 12 bf 4e a9 8e 3d 46 3e 9a be 71 ab e4 bc
       -0.5727553 0.06965886 -0.30125636 -0.02791378
0000a0 f9 8d cc bd da 87 84 be 0b 45 28 be 6a 72 cd 3d
       -0.09988017 -0.25884897 -0.16432588 0.100315884
0000b0 2f af 04 be 6b 2a 03 3e 47 10 14 be f6 71 84 be
       -0.12957452 0.1280915 -0.14459334 -0.25868195
0000c0 93 ee f6 bc 31 23 c9 be fa 47 82 bd e8 76 78 be
       -0.030143058 -0.3928466 -0.06361385 -0.24264109
0000d0 dc 98 d9 be 60 7f 5b bd 6d ce 64 be e0 94 28 be
       -0.42499435 -0.05358827 -0.2234437 -0.16463041
0000e0 b1 0f cf 3d b9 76 11 3d 0e 8b 3f 3d f0 43 c7 be
       0.10110415 0.035513613 0.046763472 -0.3891902
0000f0 b6 ce 91 be 87 da 7e 3d dc e8 3d 3e ef e6 ee bd
       -0.2847802 0.062220123 0.1854586 -0.11665141

actor.2.weight f4 [32, 64]
000000 e4 7c 16 be 3d 9f 11 be 45 3b 8d be 6e 4a 1a be
       -0.1469608 -0.14220901 -0.27584282 -0.15067455
000010 a2 75 a4 3c be f1 1a be da 69 b3 be 1f e9 48 bd
       0.020075623 -0.1513128 -0.35041696 -0.049050447
000020 d6 09 85 be 68 0c a8 be ef 96 9b bd 44 80 cd be
       -0.25984067 -0.32821965 -0.07597148 -0.4013692
000030 5e 4b e5 3c ed db 9d be 53 3d a0 be 8b de 84 be
       0.02799004 -0.30831853 -0.31296787 -0.25951037
000040 98 2e ae be bd 04 d0 3e 59 d3 83 be 95 40 af be
       -0.34019923 0.40628615 -0.25747183 -0.3422896
000050 6e ed 34 3e 0c 20 4c 3d bd 0f 99 3d aa 2f 4b be
       0.17668697 0.04983525 0.07473705 -0.19842401
000060 ea c9 eb 3d 63 28 17 3d 4d cb 21 3e 37 ba c6 be
       0.115131214 0.03690375 0.1580021 -0.38813946
000070 20 41 1e be 23 70 0e be 73 d3 81 be dd c4 42 be
       -0.1545453 -0.13909964 -0.25356635 -0.1902041
000080 77 f5 cd be e3 6b 16 3e d3 fe b2 bd 74 62 be 3d
       -0.40226337 0.14689593 -0.0874001 0.09296122
000090 b0 ce 06 bd fb 96 8a be f0 bb c9 bd 8b 2d 5c 3c
       -0.032911956 -0.27068314 -0.09850299 0.013438593
0000a0 d4 61 99 3d 61 7c 41 3e 64 47 a1 bb 91 1f 03 be
       0.07489362 0.18895103 -0.0049218405 -0.1280501
0000b0 3b d9 47 be 75 f3 75 be 79 56 44 3e fa 07 33 be
       -0.1951646 -0.24018653 0.19173612 -0.17483512
0000c0 55 b3 4c bc 31 0d 40 be 75 dc c4 be 55 11 a0 3e
       -0.012493928 -0.18755032 -0.38449445 0.31263223
0000d0 c0 21 53 bd 2e c6 33 bd 9f 93 97 bd 72 30 6b bc
       -0.05154586 -0.04389017 -0.07401203 -0.014354812
0000e0 ac 7f 28 3e 88 83 96 be 50 6b ca 3d 4f a0 91 3e
       0.16454953 -0.29397225 0.098837495 0.28442618
0000f0 5e 02 a3 3e 7e 31 e5 be 8b 7c a0 be c7 ab 5e 3e
       0.31837744 -0.44764322 -0.3134502 0.21745215
000100 eb 1b 18 bf 06 73 82 bc 83 33 ad bd 00 a1 1a be
       -0.594176 -0.015923988 -0.08457091 -0.15100479
000110 57 9e 07 be 1c ac 36 be b8 aa b2 be f1 22 00 3e
       -0.13243996 -0.17839092 -0.34895873 0.12513329
000120 f0 eb 96 3d ae 6f ab 3e cb 4a 4c be d3 03 5f 3d
       0.0736922 0.33483642 -0.19950406 0.054447006
000130 ee 01 3e be 77 bb d3 be fa fe 61 3c 1d 43 49 bf
       -0.18555424 -0.41353962 0.013793701 -0.7861803
000140 64 9e d7 3c 11 27 2e 3e de 94 f3 3d 90 a6 a2 bc
       0.026320644 0.1700709 0.118936285 -0.019854814
000150 d6 e9 2a be ff 9b 03 bd c2 ba 99 bd b8 ba 59 be
       -0.16690764 -0.03213119 -0.07506324 -0.21262634
000160 c4 7e a6 bd 13 fb 4b 3d be 7a e4 3b 2c 95 cb bd
       -0.081296474 0.04979999 0.00697264 -0.09940562
000170 de 0a e0 be a5 2e df be c8 ff 8c 3d 4c 52 40 be
       -0.4375829 -0.43590274 0.06884724 -0.18781394
000180 f8 97 8d bd f7 4a 60 3e 43 a9 80 be a8 4d b6 3d
       -0.06913751 0.21903597 -0.25129136 0.089015305
000190 26 f9 d6 3d 64 84 39 bb fc 42 95 3e c6 9e ee bd
       0.1049674 -0.002830767 0.29152668 -0.116513774
0001a0 a8 4a 0b be 2f 1f a5 be 89 53 7e 3e e2 34 16 be
       -0.13602698 -0.32250354 0.24836554 -0.1466861
0001b0 e9 ed 73 bd 7f 47 6d be e5 33 ba 3b f4 97 ed 3d
       -0.05955306 -0.23171805 0.005682456 0.116012484
0001c0 fc a3 e0 3c cd 6c b8 3d 35 6e bf be 20 d3 2a bf
       0.027421944 0.09005127 -0.3738877 -0.667284
0001d0 03 bb 93 3d 72 b8 62 3c a9 9c 59 be a1 4d 36 be
       0.07213404 0.0138379205 -0.21251167 -0.1780305
0001e0 04 4b 8b be 98 af 88 3d f2 1f 50 be 2d 07 40 be
       -0.2720567 0.06674117 -0.20324686 -0.18752737
0001f0 7d f4 77 3e c0 bc 6d be fe 5b 79 be 11 b4 4e 3d
       0.24214359 -0.23216534 -0.24351498 0.050464693
000200 89 d2 fb be 01 4e 12 be 51 62 0e bd 72 d0 0b be
       -0.49184063 -0.14287569 -0.03476173 -0.13653734
000210 87 eb 6d be 76 d2 42 3e c4 79 39 be 14 ae ae bc
       -0.23234378 0.19025597 -0.18112856 -0.021323241
000220 8b 9c 34 be d3 e7 81 bd 99 31 49 bd 36 14 f0 be
       -0.17637841 -0.06343045 -0.049119566 -0.4689042
000230 a2 18 ce 3d 3c cc 66 be ac 88 88 be 38 73 a7 be
       0.10063292 -0.22538847 -0.26666772 -0.32705092
000240 e9 79 98 bd ec 66 6f 3d 90 f4 bf 3d 7d c4 38 bd
       -0.074451275 0.058447763 0.093728185 -0.04510926
000250 3d 33 92 be a0 01 82 3e fa 52 41 be ca 40 20 be
       -0.28554717 0.25391865 -0.1887931 -0.15649715
000260 13 de 7b be b0 b4 df bb d7 14 6c bc 5a 7f 2d 3e
       -0.24596433 -0.0068269596 -0.0144092655 0.16943112
000270 d2 b8 ed bd 66 6b 9b bd 40 9e 33 bc 58 29 df bd
       -0.11607517 -0.07588844 -0.010963023 -0.108965576
000280 6c 74 14 3c 65 44 13 be 55 f6 91 bc 50 1b 25 be
       0.00906096 -0.14381559 -0.017817656 -0.161237
000290 ac 83 0e 3e a5 d1 5d be fd d2 02 3c 15 33 20 be
       0.13917416 -0.21662004 0.007984874 -0.15644486
0002a0 90 cb d5 bd 93 75 a9 bd 82 88 0e be 05 0d 60 3e
       -0.10439217 -0.08274379 -0.13919261 0.21879967
0002b0 b4 22 c1 be ad f5 17 bc b1 46 dc 3d ac 97 8f 3e
       -0.3772179 -0.009274882 0.10755671 0.28045404
0002c0 67 3c 5e 3e d3 86 21 3d 77 00 18 be 87 76 ce 3e
       0.21702729 0.03943522 -0.14843927 0.40324804
0002d0 ef 84 65 bd 2d f8 52 bd da 1a d1 3d c7 20 19 be
       -0.05603498 -0.05150621 0.102102 -0.1495391
0002e0 6d 8c a8 3e 2b 8b 3e be 35 15 e2 3c 73 83 26 3e
       0.32919636 -0.18607776 0.027598003 0.16261081
0002f0 e9 57 84 3e 15 ed 46 bd 40 b6 25 3e 1e e0 b5 be
       0.2584832 -0.048565943 0.16182804 -0.3552255
000300 a5 27 e3 bd da 89 b5 bd ae 0a 7e bc 06 80 90 3b
       -0.11091546 -0.08864184 -0.015505476 0.004409793
000310 09 26 cb 3d ac 65 6e 3e 8d 19 bb 3e 54 96 5a 3d
       0.09919364 0.23280972 0.3654293 0.05336602
000320 2d 89 30 3e de 37 13 bf 4b 1f 0c be 24 02 88 bd
       0.17239828 -0.5750712 -0.13683812 -0.06641033
000330 cd 1b 95 be 39 9d 12 bf a0 2f 25 be 75 36 71 be
       -0.29122773 -0.5727115 -0.16131449 -0.2355593
000340 9f 1b 08 3e 87 90 64 3b 5a 5f 2b be 80 34 af be
       0.13291787 0.0034876184 -0.16735592 -0.34219742
000350 6a 95 07 bf 3b c0 0a be 2e 3c 04 3e fb 2e 0e 3d
       -0.5296236 -0.13549893 0.12913582 0.034712773
000360 e2 d2 b1 3e 34 51 a5 3e 9b cc 8c 3e 13 5e 82 3e
       0.34731203 0.32288516 0.27499852 0.25462398
000370 13 de 17 3e 8e fc 08 be 29 9e 45 be 2a 94 e0 bd
       0.14830808 -0.13377592 -0.19298615 -0.1096576
000380 39 3a 91 3e d2 15 69 be 23 6a 07 be 9f 0e cd bd
       0.28364733 -0.2276223 -0.13224082 -0.100125544
000390 3b ba 8b bc e0 1d 45 bf 83 48 83 be 50 48 af 3e
       -0.017056575 -0.7699871 -0.2564126 0.34234858
0003a0 d3 2c 74 be c5 7a 5e 3d bb 87 88 ba d9 ea 47 3e
       -0.23845224 0.0543163 -0.0010416427 0.19523181
0003b0 38 26 c7 be fa 52 4f 3d 70 96 8c 3e a5 38 93 bd
       -0.38896346 0.050616242 0.27458525 -0.071885385
0003c0 43 d4 50 3c 52 f3 7d be dd 95 23 be 00 9a 6b be
       0.01274592 -0.2479985 -0.15975137 -0.23007965
0003d0 06 f9 12 3e c2 5f 43 be ef 4a aa bd 02 7f dc bd
       0.14352807 -0.19079497 -0.08315074 -0.10766412
0003e0 97 8d e1 3e e7 a5 d8 3d 6e 5d 29 3e ef 91 f7 3c
       0.44053337 0.10578518 0.16539547 0.030220954
0003f0 93 b8 74 3e 46 16 94 3b 4c 92 86 be 8c ed 85 bb
       0.23898534 0.0045192568 -0.2628349 -0.0040871557

actor.2.bias f4 [32]
000000 e0 1b 36 be 31 06 28 be 80 34 4a be 75 bb 5e be
       -0.17784071 -0.16408612 -0.1974659 -0.21751197
000010 1a f6 84 bd d7 80 8e bd 20 77 23 be 67 41 0e 3d
       -0.06492253 -0.06958168 -0.15963411 0.03473034
000020 98 86 ca 3d e4 dc 2e 3d af 88 a2 bd 14 cb 78 be
       0.09888953 0.042691126 -0.079362266 -0.24296218
000030 94 05 16 be 3b 84 07 3e be 3c 7c 3c d3 fe 81 bd
       -0.14650565 0.13234036 0.015395341 -0.06347432
000040 92 4a a3 bb b9 31 f3 bd 9d 63 e8 bd 86 65 b8 bd
       -0.0049832547 -0.11874718 -0.11347125 -0.09003739
000050 df 44 5e be ff 45 06 be 9e b3 02 be 4e 26 21 3d
       -0.2170596 -0.13112639 -0.12763831 0.03934317
000060 a6 72 59 bd 7e 0a b2 bd 88 a8 56 be 3a 6b 2d be
       -0.053087853 -0.086934075 -0.20962727 -0.16935435
000070 37 9e 3f bd ea 20 03 be b8 30 21 be 72 1b 00 bd
       -0.046781745 -0.12805524 -0.15741241 -0.031276174

actor.4.weight f4 [3, 32]
000000 9d d8 8d 3b fd e6 6d bc 55 3b 68 bd 6d 53 74 3d
       0.004328801 -0.014520404 -0.05669721 0.059649874
000010 1f ad de bd 50 7a af 3c 63 33 0f 3e e9 f9 40 bc
       -0.10872864 0.021420628 0.13984446 -0.011778333
000020 76 a3 6d bd 4b 7c 93 3b 9e 5e 20 bd 95 13 fc 3c
       -0.058017217 0.004500901 -0.039152734 0.030771056
000030 2b 75 03 bd b2 5d 6f bc 40 69 3d 3c 73 a8 2e 3d
       -0.032094162 -0.014609741 0.011560738 0.042641114
000040 cb 39 40 bd 14 02 72 3c c2 f8 83 bb ce f5 02 3c
       -0.046930116 0.014771003 -0.004027457 0.007993175
000050 af 6c 95 3d 4a 16 a3 bc c1 fe f5 bd 9f 5e a0 bd
       0.072961204 -0.01990809 -0.12011481 -0.078305475
000060 9d 3c b9 bb 04 69 8a 3c 20 f9 16 3d 6e 5a 62 bb
       -0.0056529776 0.016895778 0.036858678 -0.0034538764
000070 67 dd 62 bc 63 50 a5 3d ec 30 3e bc 7a 3a 22 bc
       -0.013846732 0.08071973 -0.011608344 -0.009901637
000080 48 52 9b 3d ab c4 ec 3b 7a e1 d5 bc 37 4e bd 3b
       0.07584053 0.007225593 -0.026108492 0.005777146
000090 11 ee 33 3d 39 92 5a 3d 1d 58 f5 3c 95 37 a6 bb
       0.04392821 0.053362105 0.029949242 -0.005072544
0000a0 be 1b e6 bc 3c bd 76 3c d8 a1 89 bc 23 cd 86 3c
       -0.0280894 0.015059765 -0.016800806 0.016455239
0000b0 4a 5e 44 bd e1 ef 16 bb 0d 6f e7 3b 84 42 cc bb
       -0.047941484 -0.0023031163 0.007062799 -0.006233515
0000c0 1c c0 9a bb 4a dd 4e 3c 5e ee d9 bb 38 4a 10 3c
       -0.0047226083 0.012626002 -0.00665073 0.008806758
0000d0 b4 98 19 3d 80 22 93 bc 45 c8 d2 bc d2 e9 33 3d
       0.037499145 -0.017960787 -0.025730262 0.04392416
0000e0 b2 6a 92 3c 1b 9b 1a 3d 91 21 29 bd 93 eb 1d 3d
       0.017873142 0.037745576 -0.041291777 0.03855474
0000f0 db 24 07 bc f9 70 16 bd ba 19 ae 3c f3 a2 2e bd
       -0.008248533 -0.036728833 0.021252502 -0.04263587
000100 e0 aa 01 be 6b e1 01 bd 10 f8 c9 ba 31 a0 af 3c
       -0.1266284 -0.031709116 -0.0015409011 0.02143869
000110 bc 89 8a bc d7 fe 99 bd 1a 54 5f 3d 80 24 f8 bc
       -0.01691138 -0.0751931 0.054523565 -0.030290842
000120 25 90 8f 3d 31 50 09 bc 53 4a a8 bd 24 41 29 bc
       0.07009915 -0.0083809355 -0.08217301 -0.010330472
000130 ab 8d 79 3d 45 80 b5 bc 5c 4b 3b 3d c0 0d b1 bc
       0.06092612 -0.02215589 0.045726165 -0.021613002
000140 26 2d f7 bc bd d7 91 3c 77 db c1 bc ed 31 33 3c
       -0.030172896 0.017803067 -0.02366422 0.010937196
000150 03 3c 01 3d f7 ca 2e 3d 8c 82 28 3d 45 89 87 3d
       0.031551372 0.04267403 0.041140124 0.06617979
000160 99 09 36 3c 9a 02 4a 3c bd 2b 4f bc c4 d5 1d bd
       0.011110687 0.012329722 -0.012644705 -0.03853394
000170 77 f2 bc bc 86 05 40 3d ad 7b 22 bd 95 54 f9 3c
       -0.023064835 0.046880268 -0.039668728 0.03043584

actor.4.bias f4 [3]
000000 cc 81 f9 3d 67 42 a6 bd 86 c2 56 3e
       0.1218296 -0.08118134 0.20972642

critic.0.weight f4 [64, 24]
000000 c8 de da be d5 c1 65 3d 09 41 42 bf 2c 41 c1 be
       -0.42748094 0.056093056 -0.75880486 -0.37745035
000010 09 c3 64 3d e6 e3 9f 3e 2e 9f 09 3d 97 bb 8a 3e
       0.055850063 0.3122856 0.03359907 0.27096245
000020 20 1a 43 be 4b 0e 95 3e 92 51 19 3e 68 1e c0 3e
       -0.19052935 0.29112467 0.14972523 0.37523198
000030 a4 ce 28 3e 89 2a e3 3e 24 68 4a 3e 38 7d 4e bd
       0.16485077 0.4436839 0.19766289 -0.050412387
000040 0a af 85 3e ed b1 ab 3e 17 c7 1d be 46 07 93 be
       0.26110107 0.33534184 -0.15407978 -0.28716487
000050 f5 13 68 3b 1d ec d9 bd ec 95 8e 3e e8 fd 7b be
       0.0035412286 -0.10640738 0.27848756 -0.24608576
000060 b7 7f 98 be fb e3 f5 bc 9b 9e a3 3e 68 89 8f 3e
       -0.2978494 -0.030015936 0.31956944 0.2803452
000070 b7 55 2d 3f ed f8 86 bf ce 37 ba 3e a7 df 94 bf
       0.67708915 -1.0544716 0.363707 -1.1630753
000080 9a ff 26 3f 49 61 5f bf 4e ee 3e 3f b4 48 84 bf
       0.6523377 -0.8725782 0.74582374 -1.0334687
000090 d6 f1 3c 3f ba 4d 23 bf 0a ef 03 3f 94 b1 82 bf
       0.7380651 -0.63790476 0.5153662 -1.0210443
0000a0 9a c2 42 3d 8c 87 01 bf 1a c7 1e 3e 58 ac 12 bf
       0.047548868 -0.50597453 0.15505639 -0.57294226
0000b0 19 98 b6 3e e1 84 17 bf 9a 80 37 be f1 cc 23 bf
       0.35662916 -0.5918713 -0.17920151 -0.6398459
0000c0 07 4b b5 be 0a a7 f0 3d 57 95 a3 bd 44 12 02 bf
       -0.35408804 0.1175061 -0.07987469 -0.5080912
0000d0 3e 6f ae bf d2 b5 92 be 8b 79 5e be f9 38 96 3e
       -1.3627698 -0.28654343 -0.21726052 0.29340342
0000e0 b4 9d 57 3e 10 99 08 3f 23 e3 df 3e ff 0d 0e 3f
       0.21056253 0.53358555 0.4372798 0.55490106
0000f0 04 2c 59 bd 7d d6 62 3f 27 1b ba 3e 18 00 d1 3e
       -0.053020492 0.88608533 0.3634884 0.40820384
000100 56 b7 5d 3e 20 7c c4 3e 06 91 98 3e 9f 70 0f 3f
       0.21651968 0.3837595 0.29798144 0.5603122
000110 43 85 0f b9 f2 d6 eb 3e 31 e0 ae 3e 8f 97 b1 3e
       -0.00013687187 0.46062428 0.3415542 0.34685943
000120 bd 3e a9 3e 46 62 56 3d b5 fc 5d bd bf 4b 93 be
       0.33055678 0.052339815 -0.05419608 -0.28768727
000130 c6 ae 05 bf b3 74 e3 be 37 5b 4d 3f 78 ef 23 bf
       -0.5221981 -0.44424972 0.8021731 -0.64037275
000140 0b f9 83 3f f4 63 1c bf 8d 2a 54 3f e9 9c 81 be
       1.0310377 -0.61090016 0.8287743 -0.25315025
000150 8f 2c 27 3f be f3 08 bf 6f c9 ae 3e 51 94 ab be
       0.65302366 -0.5349692 0.34138057 -0.33511594
000160 87 4b e7 3e 0d 8d 19 bd b0 9f 5c 3e d9 d7 5b be
       0.4517481 -0.037488032 0.21545291 -0.21469058
000170 33 70 10 be 78 aa 95 be 71 62 05 3f 49 f5 7a bd
       -0.141053 -0.2923162 0.52103335 -0.06126908
000180 cc 7d 32 bf 1e 40 06 be fc f5 42 bf 18 49 0c bf
       -0.697232 -0.13110396 -0.7615659 -0.5479903
000190 20 f6 1b be 29 6f 51 3f 9d 9a 15 3e 72 f7 8b 3f
       -0.15230608 0.8181024 0.14609762 1.0934889
0001a0 86 34 d0 3d 33 1b 65 3f f4 0e 58 3e 10 31 86 3f
       0.10166268 0.8949463 0.21099454 1.0483723
0001b0 49 cd f4 3e e8 35 31 3f bb 34 3b 3f 13 12 5d 3f
       0.4781287 0.6922288 0.73127335 0.86355704
0001c0 9f c2 26 3f fe 1a aa 3e 55 30 63 3e f7 e8 33 3f
       0.6514072 0.33223718 0.22186406 0.7027735
0001d0 22 38 40 3f 34 86 1d 3f b2 83 0f 3f bb 36 80 3e
       0.7508565 0.615329 0.56060326 0.25041756
0001e0 1f a1 94 3e df b8 f3 bd 87 c7 e4 bb cd 43 3d 3e
       0.29029176 -0.11900496 -0.0069817933 0.18482895
0001f0 f4 b7 d3 bf 35 a2 f3 3d 47 47 2d bf c5 28 1b 3e
       -1.6540513 0.11896173 -0.67686886 0.15152271
000200 2d c0 87 be 54 61 41 be 75 71 ca be 3b cc ec 3e
       -0.26513806 -0.18884784 -0.39539686 0.46249565
000210 30 64 e8 be 58 06 e8 3e b0 fd c4 bd 7e 5e bf 3e
       -0.45388937 0.4531734 -0.096186996 0.3737678
000220 b4 c9 2b be d1 ff c3 3e 86 af c9 bd 98 30 ab 3e
       -0.16776162 0.3828111 -0.098479316 0.33435512
000230 68 2c a0 3e b8 00 0f 3e 09 8d 47 3e fc 70 c7 3e
       0.3128388 0.13965118 0.19487394 0.38953388
000240 76 b6 a6 3e f0 0c ea 3d 66 a9 ee be 5f d8 22 3d
       0.32561082 0.11428249 -0.46613616 0.03975713
000250 c2 90 0f 3e a4 03 76 3f 56 f5 19 bf cb 07 b0 3e
       0.14020064 0.96099305 -0.6013998 0.34380946
000260 c0 6f cb be 02 41 af 3a 61 b5 0d bf 15 32 82 be
       -0.39733696 0.0013370814 -0.5535489 -0.25428835
000270 64 db 34 be 34 72 9b be 4d 99 5f be 58 75 07 bf
       -0.17661816 -0.30360568 -0.21835823 -0.5291343
000280 87 5d 1b be 2c c5 f0 be 1c 46 26 be 13 10 dc be
       -0.15172397 -0.4702543 -0.16237682 -0.42981014
000290 d2 43 8f bd 17 f5 11 bf 98 56 a4 be a7 5a 0a bf
       -0.069953576 -0.570146 -0.32097316 -0.54044574
0002a0 45 f0 9d 3d a3 9d a7 3e 42 e2 02 bf 17 cc d8 be
       0.077118434 0.32737455 -0.5112649 -0.42343208
0002b0 da 81 7f bf ec 2c 19 be d9 41 31 be a6 59 55 bf
       -0.9980751 -0.14958543 -0.17310275 -0.8333992
0002c0 af 99 e7 3c b9 eb 29 bf 3d f1 25 3f 92 19 67 bf
       0.028271524 -0.6637531 0.64821225 -0.9027339
0002d0 bc 63 a1 3e 41 24 59 bf bb 9e 81 3e 2c 74 c7 bd
       0.31521404 -0.84820944 0.25316414 -0.09738955
0002e0 cf 3c cc 3e ba a8 0d bf 00 e7 e6 3e a4 b1 9d be
       0.39890143 -0.5533558 0.45098114 -0.30799592
0002f0 cb d3 aa 3e 8e 7f 4d bd 46 2b c2 3d ca 4e 36 bd
       0.3336471 -0.050170474 0.0948091 -0.044508733
000300 16 cd 60 bf 19 cb af bd b5 fc 68 3e 50 f1 ad bf
       -0.87812936 -0.0858366 0.2275265 -1.3589268
000310 94 d0 4d bf b3 b6 50 c0 17 1f e6 3d 46 25 ad bf
       -0.8039639 -3.261151 0.11236399 -1.3527
000320 65 96 e1 3e 11 6e e5 be d2 11 26 3f a7 a8 80 bd
       0.44060054 -0.44810537 0.6487094 -0.06282168
000330 d6 ce ea 3d ad 61 83 3e d4 44 bd 3e bf f4 05 3f
       0.11465232 0.25660458 0.36966574 0.5232658
000340 5b 0f b3 3d 99 39 38 3e b9 4f 58 bc dd ff 3a 3e
       0.08743163 0.17990722 -0.013202601 0.18261667
000350 47 49 f7 3d e4 dc ab 3e 85 07 50 3d 75 72 14 3f
       0.120745234 0.33566964 0.05078842 0.5798715
000360 f1 80 33 3e c4 c2 33 be f7 c5 90 3d f0 56 a3 bd
       0.17529656 -0.17554766 0.07069009 -0.079755664
000370 59 e9 c5 bc 83 bf 2d 3f 92 71 35 bf d6 eb 18 3e
       -0.02415912 0.6787035 -0.7087642 0.14933714
000380 dd a8 85 be 4c 3f 5f bd 7e 52 cb be c8 70 81 3e
       -0.26105395 -0.054503724 -0.39711374 0.25281358
000390 e9 32 c4 be 15 c8 63 3d 33 28 87 be db 0f 96 be
       -0.3832009 0.055610735 -0.26397857 -0.29308972
0003a0 df 2c 68 3d ac 58 d9 be 8c b4 e0 bd c6 5a 4e be
       0.056683417 -0.42450464 -0.109719366 -0.20151815
0003b0 89 35 71 be 09 ad eb bd d8 fe 06 bd 9c 5a 67 bd
       -0.23555578 -0.11507613 -0.03295788 -0.056482896
0003c0 cd eb c4 3e 9d 0d 20 be d1 8a 9d be 36 1e ba 3e
       0.38461152 -0.15630193 -0.3076997 0.36351174
0003d0 8b 4d 36 3f 85 c1 81 3f 8d 6f 3c 3d ad 63 d3 3d
       0.7121207 1.0137182 0.04600482 0.10321746
0003e0 59 86 93 be 37 3c 08 be 20 d5 72 be cc 03 02 bd
       -0.28813437 -0.1330422 -0.23714113 -0.031741902
0003f0 07 73 af be 7c e3 77 be c5 b5 5a be 4d 1d 88 be
       -0.34267446 -0.24207872 -0.21358402 -0.26584855

critic.0.bias f4 [64]
000000 51 14 0c bf c3 41 c8 be bb e7 7f 3e b0 ee 2e 3e
       -0.547185 -0.39112672 0.24990742 0.1708324
000010 2c 1d d9 be 3e 5f a9 3e 0d 3f 43 be 0b 22 eb 3e
       -0.4240507 0.33080477 -0.1906702 0.4592441
000020 fd b3 ed 3e 07 f1 77 3e d3 13 ea 3e 21 01 03 bf
       0.46426383 0.24213038 0.4571825 -0.511736
000030 9c 89 d2 3e 7b a4 91 3e e9 71 29 3e 5d 27 f0 be
       0.41120613 0.284458 0.1654736 -0.46905032
000040 a1 a9 fd 3e 92 c0 3a 3e bc 9a b2 be c6 fa a8 bf
       0.4954348 0.18237522 -0.34883678 -1.320153
000050 a5 5b 35 bf ff 4b 69 bf 66 dd e1 3e 96 da 20 3e
       -0.70842963 -0.91131586 0.44114226 0.15708384
000060 db 55 99 be 43 a5 a6 bc 3b 5b 25 bd f5 8a 7f bf
       -0.29948315 -0.020342475 -0.040370207 -0.99821407
000070 24 a3 79 bf fc c5 4a bf 04 04 44 bf ac dd 5e 3e
       -0.9751456 -0.7920835 -0.7656863 0.21764249
000080 ab e5 8f be 0b b2 2b 3e bd d1 cc 3e 33 35 07 bf
       -0.2810491 0.16767137 0.40003768 -0.5281555
000090 4b 65 bf bf 10 68 7a 3e 58 4a 8c 3d 35 8c 13 3f
       -1.4952787 0.24453759 0.068501174 0.57635814
0000a0 2b 36 b3 3e 52 67 81 bf 42 ff ff be eb db d0 3d
       0.35002264 -1.0109656 -0.49999434 0.10198196
0000b0 a7 3b c6 3e cb 49 9e 3e 53 eb 1b bd d7 50 45 bc
       0.38717386 0.30915675 -0.03806622 -0.0120431995
0000c0 c0 18 99 bf b0 75 ac bc 39 b9 65 bd 43 60 f9 be
       -1.1960678 -0.021052212 -0.056084845 -0.48706254
0000d0 4e de ab 3e 8c 1b 86 3e a7 b2 23 bd 2e c8 56 3e
       0.33568043 0.26192892 -0.039965298 0.209748
0000e0 25 91 15 3f 9a be e8 3e a6 1f a3 3e da aa 9a 3e
       0.584246 0.45457917 0.31860083 0.30208474
0000f0 46 ed 57 bf 97 13 57 3e b9 8a 1b 3e 22 25 a0 bf
       -0.84346426 0.21003567 0.15189637 -1.2511332

critic.2.weight f4 [32, 64]
000000 9d fb 23 be 23 0f ce bd 47 e5 12 bd cb 8f 60 be
       -0.16013952 -0.10061481 -0.035863187 -0.21929853
000010 ec 57 ce bc 47 db 19 3e 77 2d 82 be d7 2b c6 be
       -0.025188409 0.15025054 -0.25425312 -0.38705322
000020 52 01 84 3e c2 ba 18 be ed 68 a2 be 5d a3 ce bd
       0.25782257 -0.14914992 -0.31720677 -0.10089753
000030 5b 2b c7 be 97 ef af be 83 a0 13 bf 3c 01 38 3e
       -0.38900265 -0.3436248 -0.57666796 0.17969221
000040 00 38 08 bf f8 b2 ac be da 9c 18 be 07 d6 3e be
       -0.5321045 -0.33730292 -0.14903584 -0.18636332
000050 7b 9a 3a 3e 34 14 56 3e 07 69 14 bf c6 e8 ab 3d
       0.18222992 0.20906144 -0.5797276 0.083940074
000060 63 59 8a be 1a 46 88 be d5 50 89 be a2 7b ce bd
       -0.27021322 -0.26615983 -0.26819482 -0.10082175
000070 e9 5c ab 3c e5 1b b4 3d 4b a3 2e 3d fe f5 a6 be
       0.020918326 0.08794383 0.042636197 -0.32609552
000080 1f b4 33 bd da d6 be be e8 5c dd be 57 57 c8 bc
       -0.04387295 -0.37273294 -0.43234944 -0.02445571
000090 d9 7e bb bc f2 59 62 bd 65 df b1 be 9b e1 c9 be
       -0.022887634 -0.05526156 -0.3474075 -0.39429936
0000a0 17 3b 49 be 92 06 71 3e 21 11 b8 be 39 47 b3 be
       -0.19651447 0.23537663 -0.35950568 -0.35015276
0000b0 dd 85 a6 3d 68 b7 f0 3c 89 31 70 3e 71 ef 1b be
       0.08131001 0.02938433 0.23456396 -0.15228058
0000c0 87 02 d9 3d 4a 71 cc be 64 b1 cc bd 0e 15 1e bc
       0.10596185 -0.39930183 -0.09994772 -0.0096485745
0000d0 50 8c b2 be a3 19 07 be b5 d8 91 be 04 8e b5 3c
       -0.34872675 -0.13193373 -0.28485647 0.022162445
0000e0 1b 23 34 be 5b 0f 96 bc f9 af fc bd 14 78 dd bd
       -0.17591517 -0.018317869 -0.123382516 -0.10813919
0000f0 63 c7 dd 3c 4e 05 d4 bd 96 3e 50 be 99 cd a0 3e
       0.027072614 -0.10352574 -0.20336375 0.3140686
000100 e8 a4 21 bf 43 db c0 3e 85 a3 a2 3d 86 27 d2 be
       -0.6314225 0.37667283 0.07941345 -0.4104578
000110 2c e8 75 bf 49 02 0d c0 12 f8 33 bf 46 9a d5 bf
       -0.9605739 -2.2032645 -0.703004 -1.6687706
000120 1f fc 49 3f 2e 78 32 3d 55 85 8f be 58 05 ae bd
       0.7890033 0.043571644 -0.28031412 -0.08497113
000130 eb f1 cf be b1 ca be be 7f d0 03 bf be 3a 2d bf
       -0.40614256 -0.37264016 -0.51490015 -0.6766776
000140 6d b1 57 be 97 95 82 3d e2 22 68 bd dc 17 f9 3d
       -0.21063776 0.06376188 -0.05667389 0.12162754
000150 c1 1b 12 3f e3 1c 92 3e b7 b7 6a bf 7e 0f de 3e
       0.570736 0.28537664 -0.91686577 0.43371195
000160 9e f9 6e 3d ec 5f a3 bf fa 1e c5 bf 10 9c 97 3e
       0.058343522 -1.2763648 -1.5400078 0.29611254
000170 f5 4b 54 3f 97 b8 2b bf d9 10 07 3e 26 56 37 bf
       0.829284 -0.67078537 0.1319002 -0.7161583
000180 ce f0 d0 be f3 38 82 be 85 f3 b1 bf a3 cf cb 3d
       -0.4080872 -0.25434074 -1.3902441 0.09951713
000190 b5 d2 22 bf eb 93 7d bf 10 be 2d bc 48 fe db be
       -0.63602763 -0.9905383 -0.010604396 -0.4296744
0001a0 b3 da 10 bf b9 0f 41 3f dc 06 ce bf 74 b4 b1 3d
       -0.5658371 0.75414616 -1.6095843 0.08676997
0001b0 ac ed e0 3d a7 d9 17 bf 4e db cf 3e f0 17 5c 3f
       0.10982832 -0.59316486 0.40597004 0.85974026
0001c0 36 7e 1a bd 22 e5 44 bf 71 25 ad 3e 70 b5 dd 3e
       -0.03771802 -0.7691213 0.33817628 0.43302488
0001d0 10 c7 d5 3d 52 0c 77 be 97 d1 b1 3f d9 a2 20 c0
       0.10438359 -0.24125794 1.3892087 -2.5099394
0001e0 50 bc a3 bf 1d e6 25 3f 90 25 4c be 3b 88 47 3f
       -1.2791843 0.6480425 -0.19936204 0.77942246
0001f0 56 87 69 bd f4 89 cb be b1 cc 14 bf 9d e8 ff 3e
       -0.057013832 -0.39753687 -0.58124834 0.49982157
000200 b2 7b 0b be 09 b2 e0 3e 2c 20 1f be b6 c6 fd 3e
       -0.13621405 0.4388583 -0.15539616 0.49565667
000210 71 c1 08 bf 28 80 f4 3c 18 f4 a4 be 89 6b 09 3f
       -0.5342017 0.029846266 -0.3221748 0.5367971
000220 9c d5 55 3e 93 42 f9 bd cb 96 b1 3e 34 f7 a4 be
       0.20882267 -0.12170901 0.34685358 -0.3221985
000230 3e 03 ce 3d eb a9 42 3e bc 63 8e 3d 2a cf bc be
       0.10059212 0.19010131 0.069526166 -0.36876804
000240 59 c9 c3 be fe 4b f1 bd 7d 20 91 3e b3 c8 b8 be
       -0.38239554 -0.117820725 0.283451 -0.3609062
000250 79 e7 5c 3e f9 fd d3 be 33 82 6e 3e 1a 8e 8a 3e
       0.21572675 -0.41404703 0.23291855 0.2706154
000260 51 d3 5b 3e 69 39 57 be 7f de 3d be 60 44 1b bf
       0.2146733 -0.21017994 -0.18541907 -0.60651207
000270 40 66 a8 be 75 10 3e bd ba 65 54 3e 77 b1 f0 3e
       -0.3289051 -0.046402413 0.2074193 0.47010395
000280 ef 58 1e 3c a7 db d2 3e 9f 00 cf 3e 6f 06 d7 bd
       0.009664758 0.41183206 0.4043016 -0.10499274
000290 f0 e0 88 3f 51 ef 87 3e 64 20 02 3e d7 81 92 3e
       1.0693645 0.2654977 0.12707669 0.28614685
0002a0 d3 00 8b 3e e9 c6 94 be f5 e9 c3 3e 9e ab ea 3e
       0.27149066 -0.29058006 0.38264433 0.4583406
0002b0 8a fb 98 3d 3e 56 5e 3d a4 5b 06 3e 5c 5c 19 bf
       0.07469852 0.054281466 0.13120896 -0.59906554
0002c0 9b ba 3e be 82 3b 12 be f5 0d 62 3e c1 6b 1d be
       -0.18625872 -0.14280513 0.22075637 -0.15373136
0002d0 ff 20 79 3d f5 94 8b 3e a5 16 21 bf cb e6 3b 3e
       0.060822483 0.27262083 -0.6292518 0.1834976
0002e0 2f 83 b9 3e 25 14 b2 bd 96 c4 94 3e 08 e5 92 be
       0.36232898 -0.086952485 0.29056233 -0.28690362
0002f0 29 9e c3 3e 7b fd e4 3e ef 67 04 3d 46 ae 2c bf
       0.38206604 0.4472464 0.03232568 -0.6745342
000300 17 55 22 be 06 cd 5d 3d a2 3a 32 3e aa 8a 11 bf
       -0.15852772 0.054150604 0.17405179 -0.5685221
000310 8d 39 6c bf 7d cb 14 bf ac 24 5d 3e 81 81 71 be
       -0.92275316 -0.58123 0.2159602 -0.23584558
000320 ec c9 8c 3e 4e 42 61 be 8f 75 99 bd 28 22 8f 3e
       0.27497804 -0.2199795 -0.07493126 0.27955747
000330 38 dd af 3e 56 71 27 3e 14 eb 07 be 43 4c 5a bf
       0.34348464 0.16351828 -0.13273269 -0.85272616
000340 8b 18 70 be 98 11 a3 3e 83 72 d1 bd 98 a8 a0 bf
       -0.23446862 0.3184936 -0.102269195 -1.2551451
000350 b1 81 ff be 70 ed 4e bf c8 92 67 3e 4f b9 49 3c
       -0.49903634 -0.8083105 0.22614586 0.012312247
000360 c0 1b 16 3f 00 a0 83 3d 5f a1 a0 bd c8 27 7c bf
       0.58636093 0.06427002 -0.07843279 -0.984982
000370 5a 1d 34 bf a7 9e a5 be ab 50 72 bd 9e a8 44 3c
       -0.70357287 -0.32347605 -0.059158962 0.012003092
000380 50 5f e1 3d d8 03 04 3f 2d 13 ce 3e 74 e5 ea be
       0.110045075 0.51568365 0.40249005 -0.45878184
000390 97 54 a6 be 7b 5d 80 3e 14 50 e2 ba a6 dd 4c bd
       -0.32486412 0.2507132 -0.0017266297 -0.050016068
0003a0 01 63 68 be 4b a3 5e bf 32 e1 45 be 4b 85 26 3e
       -0.22694017 -0.86967915 -0.19324186 0.16261785
0003b0 27 71 da 3e a7 47 3c be f7 cc 54 3d 2e 82 57 be
       0.42664453 -0.18386708 0.051953282 -0.21045753
0003c0 e8 64 7e bf 40 32 87 bd 19 6a d8 3e 10 fd 22 bf
       -0.9937272 -0.06601381 0.42268446 -0.6366739
0003d0 20 3a 8d bd a7 f4 da be 66 b0 42 bf 3b 5d ab be
       -0.06895852 -0.4276478 -0.7605041 -0.33469567
0003e0 cb 6d 37 3e f2 73 21 3c 66 85 9b bd ab e5 4b be
       0.17912976 0.009854304 -0.07593803 -0.1991183
0003f0 3a 91 5f bf 04 09 66 3e 05 a7 59 3e 05 6a ac bf
       -0.87330973 0.22464377 0.21255119 -1.3469855

critic.2.bias f4 [32]
000000 38 1e b0 be 96 57 49 ba ea ae a7 3e a1 4a c1 3e
       -0.34398055 -0.0007680593 0.32750636 0.3775225
000010 c1 81 b6 3e 37 32 ab 3e 62 50 dc 3d 4f a4 09 be
       0.3564587 0.33436748 0.10757519 -0.13441585
000020 c6 86 eb 3e 3c c2 15 3f 96 8c 0d be a3 bd 6d be
       0.4600126 0.58499503 -0.1382316 -0.23216872
000030 fe 8c f3 3e c8 5b af 3e 4a e3 e9 3e 26 bb 96 3e
       0.47568506 0.3424971 0.4568122 0.29439658
000040 e1 cc 36 be 14 a5 c2 3e 3c 0c bc 3e 96 9a fc 3e
       -0.17851593 0.3801657 0.36728084 0.4933669
000050 48 9c 09 3f 28 a5 90 3e 9c b4 98 be e6 59 3e be
       0.5375409 0.28251004 -0.29825294 -0.18588981
000060 d5 ed 94 be 7d 7b 50 3e 85 fc b0 be 47 70 d3 3e
       -0.290877 0.20359607 -0.34567657 0.41296598
000070 cf 3d 41 be ae 5d e7 bd f9 f4 b7 bd 5d 49 39 be
       -0.18871234 -0.11297165 -0.08982272 -0.18094392

critic.4.weight f4 [1, 32]
000000 06 85 bf be 10 45 ba bf 48 01 65 3e d3 1c cb 3e
       -0.37406176 -1.4552326 0.2236377 0.3967043
000010 88 e4 ae 3e 4a e2 06 3f 66 2d 88 be fc 85 e7 be
       0.3415873 0.5268904 -0.26597136 -0.4521941
000020 f5 6f de 3e 88 b5 13 3f 8c 73 5d bf 9a 9d cd be
       0.4344479 0.5769887 -0.86504436 -0.40159303
000030 e2 fe 1d 3f 33 a2 d9 3e 06 ab a5 3e 46 56 a7 3e
       0.61717045 0.4250656 0.32357043 0.3268301
000040 31 b6 a9 be 31 02 c6 3e 64 18 db 3e 1e 03 ab 3e
       -0.33146814 0.38673547 0.42792046 0.33400816
000050 34 25 ee 3e a7 a5 e2 3e 4e 75 f8 be 77 f2 b6 be
       0.4651276 0.44267008 -0.48526996 -0.3573186
000060 a6 83 30 bf 9b 5a 89 3e b1 de 5a bf 73 a1 ef 3e
       -0.6895088 0.2682694 -0.8549605 0.46802863
000070 a3 9e 77 bf 35 f8 9f be ee 59 ed bf 91 da 25 bf
       -0.96726435 -0.31244054 -1.8543069 -0.6478663
