logs/exp/model_4.pt (torch, 34660 bytes, 12 tensors)

log_std f4 [3]
0	0xbcca7f23	-0.024718827
1	0xbb125348	-0.0022327472
2	0xbcf5c3a7	-0.03000052

actor.0.weight f4 [64, 24]
0	0xbe8dd622	-0.27702433
1	0xbc91e64e	-0.017810013
2	0x3ea9d675	0.3317143
3	0xbdf13d82	-0.1177931
4	0x3e2e8d95	0.17046197
5	0x3e1b98f0	0.1519506
6	0x3d92fc32	0.07177009
7	0x3e93ea9d	0.28889933
8	0x3e8838c7	0.26605818
9	0xbe814491	-0.25247625
10	0x3d5bdb5c	0.053675994
11	0xbdcbeb5e	-0.09957002
12	0xbe993884	-0.2992593
13	0x3e25af65	0.16180189
14	0xbe108544	-0.14113337
15	0xbeb2a79a	-0.34893495
16	0x3cb99076	0.022651892
17	0x3d2915ea	0.041280665
18	0x3e961053	0.2930933
19	0xbeae5f08	-0.34056878
20	0x3e1d42f2	0.15357569
21	0xbc3384c1	-0.010956944
22	0xbc848b85	-0.01617981
23	0x3dce7041	0.100800045
24	0xbcbc3de1	-0.022978725
25	0x3e0d9698	0.13826978
26	0x3ddbd1d2	0.107333794
27	0xbea4cc0e	-0.3218693
28	0xbe725873	-0.23666553
29	0x3d345392	0.04402501
30	0x3d2a7e4f	0.041624364
31	0x3e1da680	0.15395546
32	0xbd01c5e1	-0.031682853
33	0xbced8608	-0.028994575
34	0x3d74c8a9	0.059761677
35	0xbe0840bc	-0.13305944
36	0x3e69ae24	0.22820336
37	0xbe627d12	-0.22118023
38	0x3e90e8ca	0.28302604
39	0xbc3b8215	-0.011444588
40	0x3da9ece1	0.08297134
41	0xbe12c5ed	-0.14333315
42	0xbc5009c6	-0.012697643
43	0xbdba6eec	-0.09103188
44	0xbe282d47	-0.16423522
45	0x3db8da48	0.09026009
46	0x3e21a132	0.15784147
47	0x3bad38db	0.0052863187
48	0x3dbb63d8	0.09149903
49	0xbe27159c	-0.16316837
50	0x3d73a982	0.059487827
51	0x3cb07cc7	0.021543873
52	0x3e0b2978	0.13590038
53	0x3ec764ee	0.3894419
54	0x3e04581a	0.12924233
55	0xbe394382	-0.18092158
56	0x3ecc016a	0.3984483
57	0xbcdf9f03	-0.027297502
58	0x3e0c0b4a	0.13676181
59	0xbe1c3f63	-0.15258555
60	0x3e19fd2d	0.15037985
61	0xbe13ef2c	-0.14446706
62	0x3eb9d684	0.36296475
63	0xbea8bcc8	-0.3295653
64	0xbead42c7	-0.3384001
65	0xbc487819	-0.012235665
66	0xbe3b1573	-0.18269901
67	0x3e21d35b	0.15803282
68	0xbcab09fa	-0.02087878
69	0x3df6204a	0.120178774
70	0xbd77fb7e	-0.060542576
71	0xbe3ed355	-0.18635304
72	0xbd95087a	-0.072770074
73	0x3e9c1faa	0.30492908
74	0xbdaa8ef0	-0.083280444
75	0xbe9faa79	-0.31184748
76	0xbe5488d8	-0.20755327
77	0xbcf2bcbc	-0.029631011
78	0xbe5a21c8	-0.21301949
79	0xbed092df	-0.40737054
80	0x3d570a48	0.05250004
81	0x3ddab6bb	0.10679384
82	0xbe6807db	-0.22659247
83	0x3d2325f5	0.03983112
84	0x3d07a9e1	0.033120994
85	0x3e466a8c	0.19376582
86	0x3d91aaf9	0.071126886
87	0xbe9d663a	-0.30742055
88	0xbd430ab2	-0.04761762
89	0xbd775699	-0.06038532
90	0xbc1840fd	-0.009292838
91	0x3cd426e0	0.025897443
92	0x3d3fa034	0.04678364
93	0xbe6973ef	-0.22798131
94	0xbe18b0ec	-0.1491124
95	0x3d106756	0.0352548
96	0xbe16cf66	-0.14727554
97	0xbd385843	-0.045006048
98	0x3e0b28d9	0.13589801
99	0xbe95b25a	-0.29237634
100	0x3f0d85d5	0.55282336
101	0x3f1688da	0.5880257
102	0x3ce672bb	0.02813088
103	0xbcfb3ae3	-0.030667728
104	0xbde1659e	-0.1100571
105	0x3c72c349	0.014817067
106	0xbd36c39a	-0.044620134
107	0xbdee9581	-0.11649609
108	0xbe1d77c2	-0.15377715
109	0xbd6aa156	-0.05728277
110	0xbe8ec2a0	-0.27882862
111	0xbd0627cd	-0.0327528
112	0xbe38e02b	-0.18054263
113	0x3d54981e	0.051902883
114	0xbd8b6125	-0.06805638
115	0x3e2eef8c	0.17083567
116	0x3dcfa38e	0.101386175
117	0xbdb794b9	-0.089639135
118	0x3d309a99	0.043116186
119	0xbc8ca08d	-0.0171664
120	0xbeb1ed87	-0.3475153
121	0xbe2ee5ee	-0.17079899
122	0x3e397d0b	0.18114106
123	0x3e3479ce	0.1762459
124	0xbead77a4	-0.3388034
125	0x3ed8fc7e	0.42380136
126	0x3e1c4ce9	0.15263714
127	0xbd1669d3	-0.036722016
128	0x3d139469	0.036030207
129	0x3de6c705	0.11268429
130	0xbbc4bff8	-0.00600433
131	0x3db0ec2c	0.08638796
132	0x3d95836a	0.07300456
133	0x3cab1874	0.020885684
134	0x3c346eae	0.011012716
135	0x3ea33820	0.31878757
136	0xbd9c2967	-0.07625084
137	0x3df595f1	0.1199149
138	0x3e3de06a	0.18542638
139	0xbe077273	-0.13227253
140	0xbdf081f9	-0.1174354
141	0xbdb2ba1e	-0.08726905
142	0xbd3fbd16	-0.046811186
143	0x3c817093	0.01580075
144	0x3e79bb50	0.2438786
145	0x3e64d8fd	0.223484
146	0xbe2d8546	-0.16945371
147	0xbe11b93b	-0.14230816
148	0x3e16ff11	0.14745738
149	0xbca31737	-0.01990853
150	0x3ec5374e	0.38518757
151	0xbea89eeb	-0.32933745
152	0x3e8e88be	0.278387
153	0xbe3467e4	-0.17617756
154	0x3da318eb	0.07963737
155	0xbdfe77b0	-0.12425172
156	0xbd04e28c	-0.032442614
157	0xbe24c244	-0.16089731
158	0x3ea45039	0.32092455
159	0x3df9b797	0.1219322
160	0xbe9cc557	-0.30619308
161	0x3d92fd35	0.07177202
162	0xbdf5d681	-0.12003804
163	0xbe43d1f8	-0.19123065
164	0xbd6512c8	-0.055926114
165	0x3e04953c	0.12947553
166	0x3c145762	0.009054037
167	0xbc2d144c	-0.010563921
168	0x3e08b61e	0.13350722
169	0xbe4ea219	-0.20179023
170	0xbc56dad4	-0.013113696
171	0xbf1a4c20	-0.6027241
172	0x3e21df7a	0.15807906
173	0xbc13ca6c	-0.009020429
174	0xbe53c11b	-0.20679133
175	0x3e89ef07	0.26940176
176	0x3d9c9137	0.07644885
177	0x3e374ca5	0.17900331
178	0x3e56a138	0.20959938
179	0x3e719143	0.23590569
180	0xbdedb58e	-0.116068944
181	0xbdb96fd2	-0.09054531
182	0x3d84aa17	0.064777546
183	0xbd62c18a	-0.055360354
184	0x3ecda8d4	0.40167868
185	0xbe38fc95	-0.18065102
186	0xbda1ab4e	-0.07894002
187	0xbe11bffb	-0.14233391
188	0xbe3d24fa	-0.18471137
189	0x3c19dfb7	0.009391717
190	0xbe9517a2	-0.29119593
191	0x3e279c64	0.16368252
192	0x3e5ef630	0.217736
193	0x3d14977b	0.036277276
194	0x3e1d01dd	0.15332742
195	0x3e7e1b59	0.2481512
196	0x3ef74f99	0.48302916
197	0xbb3e4138	-0.0029030573
198	0x3d37b5a7	0.04485097
199	0xbd647fea	-0.05578605
200	0x3ecf060f	0.4043431
201	0x3d8a8c32	0.067650214
202	0xbe35d138	-0.17755592
203	0x3e566667	0.20937501
204	0x3e06c016	0.13159212
205	0x3e98e3fa	0.29861432
206	0xbe28e4a7	-0.16493474
207	0xbcfdca79	-0.030980336
208	0xbd1245ff	-0.035711285
209	0xbd7c19c9	-0.06154803
210	0x3e05a042	0.13049415
211	0xbda7c0c3	-0.08191063
212	0x3e3348a6	0.17508182
213	0x3ce5bc47	0.02804388
214	0xbe3193ba	-0.1734151
215	0x3d82f1de	0.06393789
216	0x3dd31a2e	0.10307728
217	0xbce2c4f7	-0.02768181
218	0xbd4272bd	-0.047472704
219	0xbe9ceac3	-0.3064786
220	0xbe455e50	-0.19274259
221	0xbe966940	-0.29377174
222	0x3d0c9c32	0.034328647
223	0x3e3b1920	0.18271303
224	0xbd4429a2	-0.047891267
225	0xbdd450f2	-0.103670016
226	0xbe4801cd	-0.19531937
227	0x3e1624a4	0.14662415
228	0xbdec7781	-0.11546231
229	0x3e2b9a3d	0.16758056
230	0xbe47a96a	-0.1949822
231	0x3e949c71	0.29025605
232	0xbe20c530	-0.15700221
233	0xbe8660cb	-0.26245722
234	0xbd92b450	-0.07163298
235	0x3dc4ff3e	0.09618996
236	0xbdc6a99b	-0.097003184
237	0x3d34be31	0.044126693
238	0x3e678b00	0.22611618
239	0x3d41c224	0.047304288
240	0xbe17474c	-0.14773291
241	0xbe022ce6	-0.1271244
242	0xbe3ed2d4	-0.18635112
243	0xbcd621cd	-0.026139164
244	0xbe3d9965	-0.18515547
245	0xbcb10669	-0.021609502
246	0x3e6821f0	0.22669196
247	0x3e66ea03	0.22550206
248	0x3e85f7b2	0.2616554
249	0xbde9f6ae	-0.114240035
250	0xbe0dd47c	-0.13850588
251	0xbdf79d4f	-0.12090551
252	0xbda33a86	-0.07970147
253	0x3da28f25	0.07937459
254	0xbd047f35	-0.032347877
255	0x3d8f5030	0.069977164

actor.0.bias f4 [64]
0	0x3cb43c1e	0.022001322
1	0x3b56c26f	0.00327697
2	0xbdd4f74d	-0.103987314
3	0xbdba1767	-0.09086495
4	0x3db642da	0.0889947
5	0x3e565b3b	0.20933239
6	0xbda7c376	-0.08191578
7	0x3d73ed8d	0.059552718
8	0xbe5901a1	-0.21192028
9	0xbe764e37	-0.24053274
10	0x3df14dc6	0.11782412
11	0xbe2fc690	-0.1716559
12	0xbdbc2839	-0.09187359
13	0x3e835736	0.25652474
14	0xbe7c5255	-0.24640782
15	0x3d8e1b50	0.06938803
16	0xbc8cca1d	-0.017186219
17	0xbe187b29	-0.14890732
18	0x3c0ac529	0.008469858
19	0xbe4019f8	-0.18759906
20	0x3e0b0661	0.13576652
21	0xbdc1b14e	-0.09457646
22	0xbd1ce082	-0.038300045
23	0x3c38c104	0.011276487
24	0xbe3e5261	-0.18586113
25	0xbe764e03	-0.24053197
26	0xbe62f400	-0.22163391
27	0x3d062c89	0.032757316
28	0xbe29ad17	-0.16569935
29	0x3de9af16	0.11410348
30	0xbe1e39ab	-0.15451686
31	0xbe1e06cf	-0.15432285
32	0xbe11b8e5	-0.14230688
33	0xbe56afb5	-0.20965464
34	0x3d405f31	0.04696578
35	0xbe259bff	-0.16172789
36	0xbeb454df	-0.35221002
37	0x3cca3a46	0.02468599
38	0xbdf33c05	-0.11876682
39	0xbd9d6e3b	-0.076870404
40	0xbd3faed1	-0.046797577
41	0xbe030d0e	-0.12797949
42	0xbdd1e884	-0.10249427
43	0x3ddd927f	0.108189575
44	0xbd69d55f	-0.057088252
45	0x3e3c030f	0.18360542
46	0xbd621292	-0.05519349
47	0xbd8a8e2c	-0.067653984
48	0x3d134368	0.035952955
49	0xbe89ae59	-0.2689083
50	0x3d4832c1	0.048876528
51	0xbe3e1dcd	-0.18566056
52	0xbe80ffa6	-0.25195044
53	0xbbba8c61	-0.005693004
54	0xbde8a306	-0.11359219
55	0xbd1474c7	-0.03624418
56	0x3d894290	0.06702149
57	0x3d4fb672	0.050711103
58	0x3cdabb94	0.026700772
59	0xbe3958f6	-0.18100342
60	0xbdce2c50	-0.10067046
61	0x3da3e2ed	0.08002267
62	0x3e2cdb45	0.1688052
63	0xbd15edb9	-0.036603663

actor.2.weight f4 [32, 64]
0	0x3ce75941	0.028240802
1	0x3ddba4db	0.10724803
2	0xbea97f8a	-0.33105117
3	0xbd8ac16b	-0.06775173
4	0xbd0cc7e1	-0.034370307
5	0xbe481a10	-0.19541192
6	0xbe8c3af0	-0.27388716
7	0xbda22b21	-0.079183824
8	0xbe3cc39b	-0.18433993
9	0xbe592df2	-0.21208933
10	0x3cffa039	0.03120433
11	0xbe6cc71f	-0.23122834
12	0xbda29861	-0.0793922
13	0xbd4ab98e	-0.049493365
14	0xbe9fdf70	-0.31225157
15	0xbda29fbc	-0.07940623
16	0xbed3fa2f	-0.41401812
17	0x3effaca0	0.4993639
18	0xbeb025dc	-0.34403884
19	0x3d8535a7	0.06504374
20	0x3e15134a	0.1455814
21	0x3dfcebd9	0.12349672
22	0x3dc1dcc1	0.094659336
23	0xbe68d9ac	-0.22739285
24	0x3d92511c	0.07144377
25	0x3d16a37e	0.036777012
26	0x3e7a25b5	0.24428447
27	0xbe953bd4	-0.29147208
28	0xbcdba52d	-0.02681216
29	0xbd923945	-0.071398295
30	0xbe95a9e8	-0.2923119
31	0xbe607687	-0.21920215
32	0xbeb12e59	-0.34605673
33	0x3e0ccb64	0.13749462
34	0xbd13539c	-0.035968408
35	0x3db8ff50	0.09033072
36	0xbc1f7c90	-0.009734288
37	0xbe48966f	-0.19588636
38	0xbd7bc8f8	-0.061470956
39	0xbd96ac5b	-0.07357093
40	0xbcd422a8	-0.025895432
41	0x3e09391f	0.13400696
42	0xbc1edbdb	-0.009695972
43	0xbd72cf57	-0.059279766
44	0xbdc7f7b9	-0.09764046
45	0xbe27656f	-0.16347288
46	0x3e663c3f	0.2248392
47	0xbe3e4c94	-0.185839
48	0xbe42a141	-0.19006826
49	0xbdbe9ec4	-0.09307626
50	0xbe82eb63	-0.2557021
51	0x3ead5ef8	0.33861518
52	0xbd437839	-0.047722075
53	0xbd4382e3	-0.047732245
54	0xbda42ebd	-0.08016727
55	0x3d7e1659	0.06203303
56	0x3e2403dd	0.16017099
57	0xbd7b02c8	-0.06128195
58	0x3e39fbeb	0.18162505
59	0x3e58e6a7	0.21181737
60	0x3e112fec	0.14178437
61	0xbe7ea0cb	-0.24866025
62	0xbe54f9a9	-0.20798363
63	0x3ec2ba35	0.3803269
64	0xbe64c731	-0.2234161
65	0x3c2560d7	0.010093889
66	0xbcb4c840	-0.022068143
67	0x3e1ad1b7	0.15119062
68	0xbd73c752	-0.05951626
69	0x3d5d8f05	0.054091472
70	0xbe55ca45	-0.20877941
71	0xbde52692	-0.11188997
72	0x3d8012c9	0.06253583
73	0x3e326d42	0.17424491
74	0x3e79978a	0.24374214
75	0x3e58f201	0.21186067
76	0xbdf022de	-0.117254004
77	0xbc62e61d	-0.013848809
78	0x3d3ee67e	0.046606533
79	0xbf043330	-0.51640606
80	0xbb885f2b	-0.0041617355
81	0x3e752f89	0.23943914
82	0x3e90d029	0.28283814
83	0x3d86383d	0.06553695
84	0xbe2fc1c6	-0.17163762
85	0x3e18b9a5	0.14914568
86	0xbd6c1d69	-0.057645235
87	0xbe0c9a31	-0.13730694
88	0xbda2786b	-0.07933124
89	0x3e55cfa4	0.2087999
90	0x3e86f592	0.2635923
91	0xbcff7eeb	-0.031188449
92	0xbdb76c07	-0.089561515
93	0xbef847ff	-0.4849243
94	0x3d32a710	0.043616354
95	0xbe1379eb	-0.14401977
96	0xbd35a584	-0.0443473
97	0x3e08d8d6	0.13363966
98	0x3d4f6d20	0.05064118
99	0x3e199609	0.1499864
100	0x3e3411d9	0.17584933
101	0x3b67b33f	0.0035354642
102	0x3ea1592b	0.31513342
103	0xbc72faaf	-0.014830275
104	0xbddc24e4	-0.10749224
105	0xbe281965	-0.16415937
106	0x3e98bbbd	0.29830733
107	0xbd8fa9b1	-0.07014788
108	0xbd3dc626	-0.046331547
109	0xbe1b0c44	-0.15141398
110	0x3e076542	0.1322222
111	0x3e2343ad	0.15943785
112	0x3e788721	0.24270298
113	0x3b66bd39	0.0035208
114	0xbd8bb0cf	-0.06820833
115	0xbe95ceeb	-0.29259428
116	0x3d8d2d41	0.06893397
117	0x3eaa520b	0.3326572
118	0x3de6c647	0.11268287
119	0xbd7e25cb	-0.06204776
120	0xbe057204	-0.13031775
121	0x3d3b5a45	0.045740385
122	0x3cac7faf	0.021056978
123	0xbc75a5cb	-0.014993141
124	0x3e1a8fcf	0.15093921
125	0xbe46f822	-0.19430593
126	0xbd409cdf	-0.047024604
127	0xbd4f5d31	-0.050625984
128	0xbe6b902d	-0.23004217
129	0xbe16d727	-0.14730512
130	0x3dfc75b1	0.12327135
131	0xbe2d5433	-0.1692665
132	0xbea1bc85	-0.3158914
133	0x3e664d1c	0.22490352
134	0xbd80eb67	-0.062948994
135	0x3dc4fe35	0.09618799
136	0xbdd4c7b4	-0.10389653
137	0xbe22b482	-0.15889171
138	0xbda31485	-0.07962898
139	0xbe119c4d	-0.1421978
140	0x3e872190	0.26392794
141	0xbea077f5	-0.3134152
142	0xbe3dac45	-0.18522747
143	0xbde1302b	-0.109955154
144	0xbd67419a	-0.056459047
145	0x3c837edb	0.0160517
146	0x3db450c9	0.08804471
147	0xbd685bd2	-0.05672819
148	0xbdd95b47	-0.10613113
149	0x3eabe155	0.33570352
150	0xbdf0f1e0	-0.11764884
151	0x3cd0259c	0.025408559
152	0xbeb132d3	-0.34609088
153	0xbd96005b	-0.073242866
154	0xbd40ca64	-0.047068015
155	0x3e101774	0.14071447
156	0xbdc0db98	-0.09416884
157	0xbd4ac13f	-0.0495007
158	0xbe1c6cdb	-0.152759
159	0xbe69d4d8	-0.228351
160	0x3e584757	0.21120964
161	0xbd9537d7	-0.07286041
162	0x3d47775f	0.048697826
163	0xbd2d1714	-0.042258337
164	0xbb8b5715	-0.0042523243
165	0x3e3c80d7	0.18408523
166	0x3da83301	0.08212853
167	0xbc5900fc	-0.013244864
168	0xba06b390	-0.0005138451
169	0x3ca2db8f	0.019880084
170	0x3b697183	0.0035620637
171	0x3dc720fd	0.09723089
172	0xbed80cd8	-0.421973
173	0xbc9f2bbd	-0.019430036
174	0x3e67ce99	0.22637405
175	0x3e9c7253	0.30555972
176	0x3e3cd18d	0.18439312
177	0x3dbbd72f	0.091719024
178	0xbda6fd7b	-0.08153816
179	0x3ea7ea9b	0.32796177
180	0xbcaeb16e	-0.02132484
181	0xbeab3598	-0.33439326
182	0xbe114e20	-0.14189959
183	0xbd56dc50	-0.0524562
184	0x3e867e4b	0.2626823
185	0x3d2dcfdb	0.042434555
186	0xbe3a4f13	-0.18194227
187	0x3dc9e353	0.09857812
188	0x3db998b0	0.09062326
189	0x3d89b597	0.06724089
190	0x3dc85e8d	0.09783659
191	0xbd9e23c9	-0.07721669
192	0x3d960c35	0.07326547
193	0xbce726a7	-0.028216673
194	0x3df50949	0.11964662
195	0x3cb93ea9	0.022612887
196	0x3ddfa8ad	0.10920844
197	0xbd21a745	-0.03946616
198	0x3ecb2536	0.39676827
199	0x3deb89f6	0.11500923
200	0x3e8d2048	0.2756369
201	0xbe84891a	-0.2588585
202	0xbcdf094f	-0.027226118
203	0x3d5ab178	0.053391904
204	0xbd7a75ce	-0.061147504
205	0xbe162e49	-0.14666094
206	0xbc979eac	-0.018508278
207	0xbe259a81	-0.1617222
208	0xbd96313e	-0.07333611
209	0xbd9c8728	-0.076429665
210	0xbda0a9be	-0.07844876
211	0xbe0ce168	-0.1375786
212	0xbe75d16b	-0.24005668
213	0xbd4f9463	-0.050678622
214	0xbdfad277	-0.12247174
215	0x3e013bf8	0.12620533
216	0x3ea99de3	0.3312827
217	0x3ea913ff	0.33023068
218	0x3df87e16	0.12133424
219	0x3e564c74	0.20927602
220	0x3d61f975	0.05516954
221	0xbe872e4b	-0.26402506
222	0xbe22e209	-0.15906538
223	0xbdcb4921	-0.099260576
224	0x3e867a66	0.26265258
225	0xbd11d74d	-0.035605717
226	0xbbbd6f9f	-0.0057811285
227	0xbd2618ae	-0.04055088
228	0x3d9ba7a0	0.07600331
229	0xbec22520	-0.3791895
230	0xbe5b95ec	-0.2144391
231	0xbd8edcc8	-0.069757044
232	0xbd8d24e4	-0.06891802
233	0x3de5bb56	0.11217372
234	0x3bbff9c6	0.0058586327
235	0x3d9849d6	0.07435958
236	0xbe864ebd	-0.26231948
237	0xbdaedbff	-0.08538055
238	0x3e51565e	0.20443103
239	0xbc1406fc	-0.009034868
240	0x3e39da08	0.18149579
241	0xbda54f1a	-0.08071728
242	0x3da276ca	0.079328135
243	0xbe5c67a2	-0.21523908
244	0x3e1c75bc	0.15279287
245	0x3d587139	0.052842353
246	0x3e603902	0.21896747
247	0xbd9d1297	-0.07669561
248	0x3e6e33fb	0.23262016
249	0x3de10914	0.1098806
250	0x3e805ca6	0.25070685
251	0x3d9f246c	0.07770619
252	0x3e33bf42	0.17553428
253	0xbba4253b	-0.005009321
254	0xbea11de0	-0.31468105
255	0x3c4769c2	0.012171211

actor.2.bias f4 [32]
0	0xbdf34b9c	-0.11879656
1	0xbd905f7b	-0.070494615
2	0xbda5cf64	-0.08096197
3	0xbe2becd1	-0.16789557
4	0xbd574acc	-0.052561566
5	0x3d7499a6	0.059716843
6	0xbe1c9e23	-0.152947
7	0x3db1ad31	0.08675612
8	0x3d56fda7	0.052487995
9	0x3bac09c2	0.0052501867
10	0x3db664af	0.089059226
11	0xbdffd1fb	-0.124912225
12	0xbe37b880	-0.17941475
13	0x3dd381e0	0.10327506
14	0x3d21ee75	0.03953405
15	0xbc5b5d69	-0.01338897
16	0x3d6b114b	0.05738954
17	0xbdfe679c	-0.12422106
18	0xbdac3859	-0.08409185
19	0xbde53389	-0.1119147
20	0xbe070755	-0.1318639
21	0xbdb1c27b	-0.08679672
22	0xbda849f5	-0.08217231
23	0x3dc54f49	0.09634263
24	0xbdbb3a63	-0.09141996
25	0x3d012b97	0.03153571
26	0xbdfd153d	-0.123575665
27	0x3dbc9baf	0.09209382
28	0xbcc9049e	-0.024538334
29	0xbcd51ac2	-0.026013736
30	0xbcf8fb4f	-0.03039327
31	0xbd20504b	-0.039139073

actor.4.weight f4 [3, 32]
0	0x3bfbbff0	0.007682793
1	0xbaa0007b	-0.0012207174
2	0xbcb5fe20	-0.022215903
3	0x3c5238b3	0.012830901
4	0xbc14b410	-0.009076133
5	0x3c039692	0.008031504
6	0x3c5f317d	0.013622639
7	0xbb9844fb	-0.004646895
8	0xbb672572	-0.0035270122
9	0xbc263a64	-0.010145757
10	0x3ba12b4d	0.004918492
11	0xbae9ef35	-0.0017847779
12	0xbcb740c4	-0.02236975
13	0xbc99e2e5	-0.01878495
14	0x3a79cac8	0.0009528813
15	0x3c93bd4c	0.0180346
16	0x3c11c6dc	0.008897509
17	0x3c1cc5a1	0.009568603
18	0x3809de06	3.287012e-05
19	0x3a1ed05b	0.0006058269
20	0x3bd0b1a6	0.0063688336
21	0xbb8950fb	-0.004190562
22	0xbc3720fa	-0.011177296
23	0xbcdd57e4	-0.027019449
24	0xbaa618d0	-0.001267219
25	0x3c5ce0f5	0.013481368
26	0x3c2b5b1e	0.010458736
27	0x3c2537ee	0.010084135
28	0xbab99b4e	-0.0014160664
29	0x3c1a6a1d	0.009424713
30	0xbb368a41	-0.0027853402
31	0x3b752c8a	0.003741058
32	0x3c8a5d20	0.016890109
33	0xbc069626	-0.008214509
34	0x3c1aad26	0.009440696
35	0xbca602d5	-0.020265022
36	0xbc16910b	-0.009189854
37	0xbb81a39c	-0.0039562713
38	0x3d06d6fe	0.032919876
39	0x3c794e11	0.015216366
40	0xbb61c311	-0.0034448544
41	0x3bea6db7	0.0071541923
42	0x38f814bb	0.00011829423
43	0x3b93d117	0.0045110094
44	0x3d3a5fbd	0.04550146
45	0x3be829cf	0.007085062
46	0xbd0b6aad	-0.03403728
47	0x3c308c99	0.010775709
48	0xbc6e8b24	-0.014559541
49	0xbc0027a7	-0.007821954
50	0x3cbeaf4d	0.02327695
51	0xb9a41942	-0.00031299336
52	0xbc871b78	-0.01649259
53	0xbd0f7a76	-0.035028897
54	0x3c328113	0.0108950315
55	0x3cbfeb9a	0.023427773
56	0xbc6d0a89	-0.014467844
57	0xbc8b4420	-0.017000258
58	0xbcd49184	-0.025948294
59	0xbb7365db	-0.0037139568
60	0xbc083005	-0.00831223
61	0xbc88e105	-0.01670886
62	0xbc44dc7e	-0.01201546
63	0xbcc62411	-0.02418712
64	0xbc65597a	-0.013998384
65	0x3bfb7005	0.007673266
66	0x3cc26b13	0.023732698
67	0x3bc6e4ca	0.0060697543
68	0xbc649267	-0.013950921
69	0x3c4ea1dc	0.0126118325
70	0xbb6e0c9e	-0.0036323438
71	0x3c8cba9a	0.017178822
72	0x3c9b6809	0.018970506
73	0x3c8ea4e0	0.017412603
74	0xbbc75569	-0.0060831797
75	0x3c987f0e	0.018615272
76	0xbcee39d2	-0.029080305
77	0xbc0b6c34	-0.008509684
78	0x3b1d2d55	0.0023983319
79	0x3a95e532	0.0011436103
80	0x3ccf1cf6	0.025282364
81	0x3d11f521	0.035634164
82	0x3baa9704	0.0052059907
83	0xbbc72aec	-0.0060781147
84	0xbc6708b4	-0.014101196
85	0x3cc87a6d	0.02447244
86	0x3be9d84f	0.0071363817
87	0xbb02f6e6	-0.0019983589
88	0x3ae83475	0.0017715829
89	0xbc17d4ce	-0.009267045
90	0x3c984ddc	0.018591814
91	0x3c5f4987	0.01362837
92	0x3c9de4bf	0.019274114
93	0xbb9f7c91	-0.0048671444
94	0x3bb292ff	0.005449652
95	0x3c5308ef	0.012880548

actor.4.bias f4 [3]
0	0x3e26937e	0.16267201
1	0xbd85f316	-0.065405056
2	0x3e1945e7	0.14968072

critic.0.weight f4 [64, 24]
0	0xbe4d2047	-0.20031844
1	0xbdba8a4b	-0.091084085
2	0xbec2fe81	-0.38084796
3	0xbe2328b3	-0.15933494
4	0xbe782bee	-0.24235508
5	0x3da90567	0.082529835
6	0xbdf5aa7b	-0.11995407
7	0xbd861cc8	-0.06548458
8	0xbe9d0d8d	-0.306744
9	0x3d6227f9	0.055213902
10	0x398d1875	0.00026911838
11	0x3e64b587	0.22334872
12	0xbc946a35	-0.01811705
13	0x3eb9fc8d	0.36325493
14	0xbc2a8252	-0.010407047
15	0xbd85069f	-0.064954035
16	0x3d04f463	0.032459628
17	0x3ec3d4ae	0.382482
18	0xbecb85dd	-0.39750567
19	0xbe3cebf3	-0.18449382
20	0xbe7bb822	-0.2458196
21	0x3d309b5b	0.04311691
22	0x3d1496c2	0.036276586
23	0xbd6b8a54	-0.057504967
24	0xbe32ef1b	-0.17474024
25	0xbce337a6	-0.027736496
26	0x3e4b181a	0.19833413
27	0xbf09472a	-0.5362421
28	0x3f0890c7	0.5334591
29	0xbe4cec45	-0.20012005
30	0x3b2aedf3	0.002608177
31	0xbebf1187	-0.3731806
32	0x3e6c6e49	0.23088945
33	0xbe1e4154	-0.15454608
34	0x3ea6c121	0.3256922
35	0xbebcb63e	-0.3685779
36	0x3eb1e71e	0.3474664
37	0xbd0ba7c2	-0.034095533
38	0x3e14a52e	0.14516136
39	0xbef90915	-0.48639742
40	0xbe9245d9	-0.28568915
41	0xbd263e0f	-0.040586527
42	0xbe1eee60	-0.1552062
43	0xbe34197d	-0.17587848
44	0x3dd549ae	0.10414444
45	0xbe64adc4	-0.22331911
46	0xbec13eed	-0.3774332
47	0xbe974630	-0.29545736
48	0xbe4aca53	-0.19803743
49	0x3ed6ec03	0.41976938
50	0x3d79121f	0.060808297
51	0xbc7dbb5b	-0.015486564
52	0xbf8afcec	-1.0858436
53	0xbf3060b4	-0.6889756
54	0xbdab9d97	-0.08379667
55	0xbe07296a	-0.13199392
56	0x3e686737	0.22695623
57	0x3e70afba	0.23504534
58	0x3edfeea1	0.43736747
59	0x3eb339c6	0.35005015
60	0xbd14e8ce	-0.036354832
61	0x3f3b11e6	0.73074186
62	0x3ed598f3	0.41718253
63	0x3e936a03	0.28791818
64	0x3e9c7090	0.30554628
65	0x3e913191	0.2835813
66	0x3edd9b76	0.4328267
67	0x3ef69014	0.48156798
68	0x3e2632c0	0.16230297
69	0x3ec33a7d	0.3813056
70	0x3f0655a5	0.52474433
71	0x3e86827b	0.26271424
72	0x3e9fe6c2	0.31230742
73	0x3ea71305	0.32631698
74	0xbbb841af	-0.0056230645
75	0xbe35dd37	-0.17760168
76	0xbf8cbf2f	-1.0995845
77	0x3e9f9e19	0.31175306
78	0x3e152bbc	0.14567465
79	0x3d7b4905	0.061348934
80	0x3ec7fab3	0.39058456
81	0xbdcc6011	-0.09979261
82	0x3eab3e1e	0.3344583
83	0x3e03bca4	0.1286493
84	0x3e9872f6	0.29775208
85	0xbe7bfbd2	-0.2460778
86	0x3dc1f800	0.0947113
87	0xbdf71682	-0.1206484
88	0x3e90fa5a	0.28316003
89	0x3de7d7be	0.113204464
90	0x3de1d3ab	0.110267006
91	0xbde68309	-0.11255462
92	0xbe57e9ca	-0.21085277
93	0xbe72ecd6	-0.23723158
94	0x3ef04856	0.46930188
95	0xbd38b9e8	-0.04509917
96	0xbe1f408d	-0.15551968
97	0xbe94ac3d	-0.29037657
98	0xbd960925	-0.07325963
99	0xbd607bbe	-0.05480551
100	0xbef4285d	-0.47687045
101	0x3e138609	0.14406599
102	0x3c34db22	0.011038573
103	0x3ec1c095	0.3784224
104	0x3d6adb8d	0.057338286
105	0x3e705b2c	0.2347228
106	0x3e106bda	0.14103642
107	0x3ee756bf	0.4518337
108	0x3ebcca96	0.3687331
109	0x3e388bb3	0.18022041
110	0x3f16706c	0.5876529
111	0x3ee452a5	0.44594303
112	0x3ef2b0f0	0.47400618
113	0x3b94c877	0.004540499
114	0x3cc7b762	0.024379436
115	0x3eec47c6	0.4614851
116	0x3f094828	0.53625727
117	0x3ee3cd6e	0.44492668
118	0x3ea81397	0.32827446
119	0x3e06498d	0.13113995
120	0x3e4f55c0	0.20247555
121	0xbe5b8f49	-0.21441378
122	0x3d86b70d	0.06577883
123	0xbc4ca69c	-0.012490895
124	0xbf085d74	-0.532676
125	0x3e179cf8	0.14805973
126	0x3df9f14c	0.12204227
127	0x3e583219	0.2111286
128	0x3e706985	0.23477753
129	0xbe631acf	-0.22178195
130	0xbdb7834c	-0.0896059
131	0x3eb4a301	0.35280612
132	0xbe888118	-0.2666099
133	0x3e96b3ae	0.2943396
134	0x3cf0ec6a	0.029409606
135	0x3e48af80	0.19598198
136	0xbdb5695b	-0.088579856
137	0x3e4a6e55	0.19768651
138	0xbd25320a	-0.040330924
139	0x3e2c9a8f	0.16855834
140	0x3eaa1da2	0.33225733
141	0xbcd8d3e0	-0.026468217
142	0x3e385cbb	0.18004124
143	0x3e6df6ed	0.23238726
144	0x3e971ec1	0.2951565
145	0xbe06656d	-0.13124628
146	0xbe4e5ead	-0.20153303
147	0x3d5efa96	0.054438196
148	0x3ee00364	0.43752587
149	0x3f11aa9f	0.5690097
150	0xbe9fa130	-0.31177664
151	0x3e4adec7	0.19811545
152	0xbe0b76bc	-0.13619512
153	0x3d58d312	0.052935667
154	0xbeabb750	-0.33538294
155	0xbda0e86a	-0.078568295
156	0xbaf7d8bc	-0.0018909196
157	0xbd64d348	-0.055865556
158	0xbdb01d43	-0.08599331
159	0xbe76a48b	-0.24086206
160	0xbd72677d	-0.059180725
161	0xbe2294a0	-0.15877008
162	0xbdd9dc2c	-0.106376976
163	0xbdd2df0b	-0.10296448
164	0xbd4c7894	-0.04991968
165	0xbe6ebb68	-0.23313677
166	0xbeacb6ac	-0.33733118
167	0xbe4919ff	-0.19638823
168	0x3e0bb0d8	0.1364168
169	0x3e9b3ca5	0.30319706
170	0xbed7afb3	-0.42126235
171	0xbe94fe69	-0.2910035
172	0xbf71cc4d	-0.94452363
173	0x3f107561	0.56429106
174	0xbe5b4583	-0.21413235
175	0xbd91f93e	-0.07127617
176	0xbdc75762	-0.09733464
177	0xbc8712db	-0.016488483
178	0x3efefb46	0.4980108
179	0xbec06e5b	-0.37584195
180	0x3e2fa57c	0.17152971
181	0xbed6429f	-0.41847703
182	0x3e02e187	0.12781344
183	0x3e7af811	0.24508692
184	0x3e965581	0.2936211
185	0xbe93cc2f	-0.28866717
186	0x3ec2aff4	0.38024867
187	0xbddb9811	-0.10722364
188	0x3e91a261	0.28444198
189	0x3daa5d76	0.083186075
190	0x3d76a763	0.060218226
191	0x3cec783a	0.028865922
192	0xbdc3cee5	-0.095609464
193	0xbe7065a2	-0.2347627
194	0x3e39c3a6	0.1814104
195	0xbdbdf431	-0.092750914
196	0x3e7580f0	0.23974967
197	0xbf894795	-1.072497
198	0x3e8f3ba7	0.279752
199	0xbb2a172d	-0.0025953755
200	0x3df36684	0.11884788
201	0x3e642821	0.22280933
202	0x3e95965b	0.29216275
203	0x3e88c0d5	0.2670962
204	0xbe47f33f	-0.19526385
205	0x3ec85e37	0.3913438
206	0x3e0b8aa9	0.13627113
207	0x3f0aba0a	0.54190123
208	0xbd976ccf	-0.073938005
209	0x3dfa7b14	0.122305065
210	0xbdd6c84f	-0.104874246
211	0x3dac06d7	0.08399742
212	0x3da6f3eb	0.081519924
213	0x3e59af8a	0.21258369
214	0x3d64049a	0.05566845
215	0x3ee56748	0.4480536
216	0x3e3c3082	0.1837788
217	0xbea86d6a	-0.32895976
218	0xbe00d284	-0.12580305
219	0xbe909345	-0.28237358
220	0x3eacef4f	0.33776328
221	0x3f05500c	0.52075267
222	0xbebc3a16	-0.36763066
223	0x3cd4003f	0.025879024
224	0x3ce7e119	0.028305577
225	0xbe0e0831	-0.13870312
226	0xbe28ff1d	-0.16503568
227	0x3e456d13	0.1927989
228	0xbe4d6fdb	-0.200622
229	0x3c0a12ec	0.008427363
230	0xbdf93142	-0.12167598
231	0xbeaa84af	-0.33304355
232	0x3e27e272	0.16394976
233	0xbeec2c24	-0.46127427
234	0xbd054c30	-0.03254336
235	0xbe71271c	-0.23550075
236	0xbe40211d	-0.18762632
237	0xbe15ef5b	-0.14642088
238	0xbc583bc4	-0.013197843
239	0xbdaaca85	-0.08339409
240	0x3ecf5e7c	0.40501773
241	0xbe648945	-0.22317989
242	0xbeb757bf	-0.35809132
243	0x3e118d8a	0.14214149
244	0x3f326d5e	0.6969813
245	0x3f3853e2	0.72002995
246	0x3df649f5	0.12025825
247	0xbd93c850	-0.07215941
248	0xbe37e429	-0.1795813
249	0xbe558c1a	-0.20854226
250	0xbe07e5f6	-0.13271317
251	0xbd6d44a8	-0.057926804
252	0xbe811a89	-0.25215557
253	0xbe7ae03e	-0.24499604
254	0xbe0f403b	-0.13989346
255	0xbe84459e	-0.25834364

critic.0.bias f4 [64]
0	0xbe6efba8	-0.23338187
1	0xbe432183	-0.19055752
2	0x3e53f213	0.20697813
3	0x3e25c490	0.16188264
4	0x3db28a9c	0.08717844
5	0x3e4c33bc	0.1994161
6	0xbd8ac20a	-0.06775291
7	0x3ea1ecda	0.31626016
8	0x3e77de26	0.24205837
9	0x3e705401	0.23469545
10	0x3eca5847	0.39520475
11	0xbe846f35	-0.25866094
12	0x3ecdedad	0.40220395
13	0x3e078a21	0.13236286
14	0x3e6fc22e	0.23413917
15	0xbdca56db	-0.098798476
16	0x3ee752c7	0.45180342
17	0x3e029970	0.12753844
18	0x3b8a83e6	0.0042271493
19	0xbedc9346	-0.4308111
20	0x3c818d51	0.015814455
21	0xbe180b24	-0.14848
22	0x3ecc7520	0.3993311
23	0x3db6b1e2	0.08920647
24	0xbe341e2c	-0.17589635
25	0x3cdc87f7	0.026920302
26	0xbd28670c	-0.0411139
27	0xbe408f5f	-0.18804692
28	0xbee528a7	-0.44757578
29	0xbe95674c	-0.29180372
30	0xbe84a0f4	-0.25904047
31	0x3d701dae	0.058622055
32	0xbd41d99d	-0.047326673
33	0x3dfdd589	0.12394244
34	0x3ec2fe12	0.38084465
35	0xbe5b4a84	-0.21415144
36	0xbe0ffdd0	-0.14061666
37	0x3e400dc1	0.18755247
38	0xbd5bcd48	-0.05366257
39	0x3ef274cc	0.47354734
40	0x3ec2c73c	0.3804263
41	0xbec57229	-0.3856366
42	0xbe94ef1d	-0.2908868
43	0x3d8fe6b4	0.07026425
44	0x3eaed12c	0.3414396
45	0x3e07ec7e	0.13273808
46	0x3e043373	0.12910251
47	0x3e39ee4b	0.18157308
48	0xbeb637fa	-0.35589582
49	0x3e11d8a2	0.14242795
50	0xbe06ee20	-0.13176775
51	0xbe972284	-0.2951852
52	0x3e516bf0	0.20451331
53	0x3e35027d	0.1767673
54	0xbe8a7524	-0.27042496
55	0xbe23f9bc	-0.16013235
56	0x3ea984ff	0.3310928
57	0x3ec283d3	0.379912
58	0x3e90599f	0.28193375
59	0x3e354d19	0.17705192
60	0xbe8ffb63	-0.2812148
61	0x3e246c54	0.16056949
62	0x3da2e92d	0.07954631
63	0xbedfa763	-0.43682393

critic.2.weight f4 [32, 64]
0	0xbe1bc51d	-0.15211911
1	0xbdc5ad23	-0.09652164
2	0xbc1e51ce	-0.009663058
3	0xbe4d6d39	-0.20061196
4	0x3bfbbbed	0.0076823146
5	0x3e2785b8	0.16359603
6	0xbe81d812	-0.2536016
7	0xbeba2125	-0.36353412
8	0x3e8ceb00	0.2752304
9	0xbe1d300d	-0.15350361
10	0xbea2c612	-0.3179174
11	0xbdcdf37f	-0.10056209
12	0xbec25f56	-0.3796336
13	0xbead938b	-0.3390163
14	0xbf12f159	-0.5739952
15	0x3e4dc8fe	0.20096204
16	0xbefaf7b7	-0.49017116
17	0xbe9ca9d2	-0.30598313
18	0xbe142477	-0.14467035
19	0xbe4aa899	-0.19790877
20	0x3e41cb1c	0.18925136
21	0x3e5f6244	0.21814829
22	0xbf137de4	-0.5761397
23	0x3dbb8bcd	0.09157524
24	0xbe8730ad	-0.26404324
25	0xbe896cf1	-0.26840928
26	0xbe7d8422	-0.24757436
27	0xbdb9ef5b	-0.090788566
28	0x3ceb85d8	0.028750345
29	0x3db2bf62	0.087279096
30	0x3d4d826a	0.0501732
31	0xbea32e75	-0.3187138
32	0xbd22fab2	-0.039789863
33	0xbebd54c0	-0.36978722
34	0xbedc78ae	-0.4306082
35	0xbc1a14c4	-0.009404365
36	0xbc8e0e7c	-0.017340891
37	0xbd646ddf	-0.055768844
38	0xbeb003ec	-0.34377992
39	0xbebddd10	-0.3708272
40	0xbe2a3d91	-0.16625048
41	0x3e69a2fa	0.22816077
42	0xbeb9766c	-0.3622316
43	0xbeb22dc3	-0.34800538
44	0x3da9086d	0.0825356
45	0x3d05b69f	0.032644864
46	0x3e8108fe	0.25202173
47	0xbe0a2793	-0.13491659
48	0x3de536cd	0.11192093
49	0xbecd23b4	-0.40066302
50	0xbdbe433d	-0.092901684
51	0xbaafc9f3	-0.0013411626
52	0xbe9f51b3	-0.3111702
53	0xbdbdb17b	-0.09262367
54	0xbe8d95fd	-0.27653494
55	0x3d4da2c2	0.050204046
56	0xbe114e07	-0.14189921
57	0x3c8957a3	0.016765421
58	0xbdf193e8	-0.11795789
59	0xbda4ad56	-0.08040874
60	0x3d0c3914	0.03423412
61	0xbdccfc9f	-0.10009121
62	0xbe3f48ae	-0.18680069
63	0x3ea4a37c	0.3215598
64	0xbe946dea	-0.28990108
65	0xbe02ce8f	-0.12774108
66	0x3d2d7ecf	0.042357262
67	0xbe548d77	-0.2075709
68	0x3e32e449	0.17469896
69	0xbd3f6efa	-0.046736695
70	0xbed0dbeb	-0.40792784
71	0xbd34c97a	-0.044137456
72	0x3e20dd8f	0.15709518
73	0x3e0c43c1	0.13697721
74	0xbe374c04	-0.17900091
75	0x3dc16d49	0.094446726
76	0xbd950623	-0.07276561
77	0xbea1248e	-0.31473202
78	0x3d8f19d5	0.06987349
79	0xbe6cb74b	-0.23116796
80	0xbea66cf9	-0.32505015
81	0xbdd46841	-0.10371447
82	0x3e18e54f	0.14931224
83	0xbe0bdcb7	-0.13658415
84	0x3d27f1bd	0.041002024
85	0xbd8bc2c8	-0.06824261
86	0xbce67f81	-0.02813697
87	0x3e54f1fd	0.20795436
88	0xbebc0264	-0.36720574
89	0xbefdecbb	-0.49594674
90	0xbe8a276f	-0.2698321
91	0xbe13123d	-0.14362426
92	0xbd26fca7	-0.04076829
93	0xbdededc3	-0.11617615
94	0x3cdf1d54	0.027235664
95	0xbd0ae26e	-0.033907346
96	0x3e57e571	0.21083619
97	0xbe85ef96	-0.26159352
98	0xbf07d140	-0.53053665
99	0xbe455c47	-0.19273482
100	0x3e15f08a	0.1464254
101	0xbc0ff46b	-0.008786301
102	0xbe30405b	-0.1721205
103	0xbe9dcc5f	-0.30819985
104	0xbe8f302f	-0.2796645
105	0x3b317096	0.0027075163
106	0xbda7bb78	-0.08190054
107	0x3b9b614d	0.0047418238
108	0xbd949c07	-0.07256322
109	0xbed80ea8	-0.42198682
110	0x3ddbf8c0	0.10740805
111	0x3d9ffc65	0.07811812
112	0xbdd0b92e	-0.1019157
113	0xbe2fd734	-0.17171937
114	0x3dce7a07	0.100818686
115	0x3c639fb8	0.01389306
116	0xbda0733f	-0.078344814
117	0xbdad8e96	-0.08474462
118	0x3eb5055f	0.3535566
119	0xbedd5960	-0.4323225
120	0x3dd88ed5	0.10574118
121	0x3e1bc68d	0.1521246
122	0xbe98b694	-0.29826796
123	0x3e819349	0.25307682
124	0xbe12bbcc	-0.14329451
125	0xbed66d39	-0.41880205
126	0xbe023ae0	-0.12717772
127	0x3e831f81	0.25609973
128	0xbe237818	-0.15963781
129	0x3e845b74	0.25851023
130	0xbe78e672	-0.24306658
131	0x3ee4e85b	0.44708523
132	0xbea67101	-0.3250809
133	0xbd541eca	-0.051787175
134	0xbea943c4	-0.33059514
135	0x3ef910eb	0.4864572
136	0x3e35799e	0.17722175
137	0xbcb31ed5	-0.021865288
138	0x3ed56af5	0.41683164
139	0xbe5e5f31	-0.21716
140	0xbbed73f5	-0.007246489
141	0x3e3d1584	0.18465239
142	0x3e07a2b9	0.13245668
143	0xbece540a	-0.40298492
144	0xbe687f25	-0.22704752
145	0xbe368499	-0.1782402
146	0x3e7f46ff	0.24929427
147	0xbe531c2c	-0.20616215
148	0x3de58335	0.112066664
149	0xbe9316ff	-0.28728482
150	0x3e58d7df	0.21176098
151	0x3e63933b	0.22224133
152	0x3c61a44c	0.013772082
153	0xbd547474	-0.05186887
154	0xbeb2b935	-0.34906927
155	0xbecbaf6e	-0.3978228
156	0xbdbeb2e4	-0.093114644
157	0x3e82af0c	0.25524175
158	0xbdc799ae	-0.09746109
159	0x3ec676d9	0.3876255
160	0x3e1362e1	0.14393188
161	0x3e930210	0.2871251
162	0x3ed1ce0d	0.40977517
163	0x3c33089d	0.010927347
164	0x3d95ecd1	0.0732056
165	0x3e72c900	0.23709488
166	0x3dbc6e81	0.092007644
167	0x3e7d2602	0.2472153
168	0x3e020252	0.12696198
169	0xbe1d25c0	-0.15346432
170	0xbce2da59	-0.027692007
171	0x3e7abcfe	0.24486157
172	0x3d644d33	0.055737685
173	0x3e03b8cc	0.12863463
174	0x3d016a73	0.03159566
175	0xbeed1105	-0.46302047
176	0xbe2058d9	-0.15658893
177	0xbe34623d	-0.176156
178	0x3d65c55c	0.05609642
179	0xbe26006d	-0.162111
180	0xbd0d4da0	-0.034497857
181	0x3e067846	0.13131818
182	0xbecef7f5	-0.4042355
183	0xbd0e4e69	-0.034742747
184	0x3d97d84c	0.07414302
185	0xbe0ebe1d	-0.1393971
186	0x3e4d49d3	0.20047693
187	0xbea83099	-0.32849577
188	0x3e3cf3d3	0.18452387
189	0x3f0a9beb	0.5414416
190	0xbe393335	-0.1808594
191	0xbed8038a	-0.421902
192	0xbe06c65b	-0.13161604
193	0x3eb651d2	0.356093
194	0x3cebc7b2	0.028781746
195	0xbed45f3f	-0.41478917
196	0xbecabe8d	-0.39598504
197	0xbe84f93c	-0.259714
198	0x3e885393	0.26626262
199	0x3c76ea94	0.015070576
200	0x3e84fac1	0.2597256
201	0xbdbafc57	-0.09130161
202	0xbc92a48e	-0.017900731
203	0x3e75754c	0.23970526
204	0x3e864af8	0.26229072
205	0x3e90267f	0.2815437
206	0xbd73babf	-0.059504267
207	0xbf1a5d4d	-0.60298616
208	0xbe0acf9d	-0.1355576
209	0x3df29576	0.11844914
210	0x3e68cddb	0.22734778
211	0xbe8bfe1a	-0.27342302
212	0x3d270487	0.040775802
213	0xbdde0450	-0.10840666
214	0x3ea960cc	0.33081663
215	0x3dca0b4a	0.098654345
216	0x3e905905	0.28192917
217	0x3e03425a	0.1281828
218	0x3dec4ac2	0.115376964
219	0xbe4bb9de	-0.19895121
220	0xbe4f7695	-0.20260079
221	0xbe03258d	-0.12807293
222	0xbdacf2a0	-0.084447145
223	0x3d1b93c4	0.037982717
224	0x3d48c8ab	0.049019497
225	0x3ee88408	0.45413232
226	0x3ee3209f	0.44360825
227	0xbe547080	-0.2074604
228	0x3e1e5ea5	0.15465792
229	0x3eb67f8c	0.35644186
230	0xbce5de6e	-0.028060164
231	0x3e14635a	0.14491025
232	0xbe816607	-0.25273153
233	0xbe506642	-0.20351508
234	0x3c8279a5	0.015927145
235	0x3d49fb21	0.04931176
236	0x3eb846d4	0.35991538
237	0xbdd6d493	-0.10489764
238	0x3d2ca771	0.042151872
239	0xbe81a7ad	-0.2532324
240	0xbefd2967	-0.4944565
241	0xbdd29ce3	-0.1028383
242	0x3e1d747b	0.15376465
243	0xbe853c96	-0.26022786
244	0xbe1cdc04	-0.15318304
245	0xbe461801	-0.19345094
246	0xbf21ef14	-0.6325543
247	0xbe9abfd7	-0.30224487
248	0x3d5da7f2	0.054115243
249	0x3d7f1fba	0.062286116
250	0xbe12bb6a	-0.14329305
251	0xbe67bcef	-0.22630666
252	0xbf057813	-0.52136344
253	0x3e912143	0.2834569
254	0x3c5fc07c	0.013656732
255	0xbe9187c4	-0.28423893

critic.2.bias f4 [32]
0	0xbeacbd3b	-0.3373812
1	0xbe607eb4	-0.21923333
2	0x3e615a76	0.22007164
3	0x3e7b0b7b	0.24516098
4	0x3e858f29	0.26085785
5	0x3e924706	0.28569812
6	0x3e0320c4	0.12805468
7	0xbde9380e	-0.11387645
8	0x3ea6d0bd	0.3258113
9	0x3e9dbf8d	0.30810204
10	0xbd63911d	-0.055558313
11	0xbe121442	-0.1426554
12	0x3e9b7881	0.30365375
13	0x3e1574f6	0.14595398
14	0x3e597a16	0.21237978
15	0x3e0fb12f	0.14032434
16	0xbe55fc0d	-0.20896931
17	0x3e78ce45	0.24297436
18	0x3e9949fc	0.29939258
19	0x3e71d32a	0.23615709
20	0x3e85690f	0.26056716
21	0x3e253db6	0.16136822
22	0xbe9614f5	-0.29312864
23	0xbe3b88a9	-0.1831385
24	0xbe92ad7a	-0.28647977
25	0x3e438118	0.19092214
26	0xbe74ad8b	-0.23894326
27	0x3ebf9e27	0.37425348
28	0xbe58bbe2	-0.21165422
29	0xbdd98002	-0.10620119
30	0xbdfcbd1a	-0.12340756
31	0xbd1d2405	-0.03836443

critic.4.weight f4 [1, 32]
0	0xbe9e7748	-0.3095038
1	0xbe8114a0	-0.25211048
2	0x3e57a7d2	0.21060112
3	0x3e54d4ab	0.20784251
4	0x3e55153e	0.20808885
5	0x3ed3182a	0.41229373
6	0xbd404328	-0.046939045
7	0xbe2c1df1	-0.16808297
8	0x3ea3351a	0.3187645
9	0x3e977073	0.2957798
10	0xbe1889fd	-0.14896388
11	0xbeebcd51	-0.4605508
12	0x3ecdff62	0.40233904
13	0x3eb4107e	0.35168833
14	0x3e26d2b5	0.16291316
15	0x3e0131e6	0.12616691
16	0xbebd2b4c	-0.36947095
17	0x3e75b862	0.23996118
18	0x3ed2a45f	0.4114103
19	0x3d93ad77	0.0721082
20	0x3e661aec	0.22471207
21	0x3e8ca1c5	0.2746717
22	0xbed61dee	-0.4181971
23	0xbea24555	-0.3169352
24	0xbf205708	-0.626328
25	0x3e7d1042	0.24713233
26	0xbe7a36b6	-0.24434933
27	0x3eb88a07	0.36042807
28	0xbf09f382	-0.5388719
29	0xbe860d05	-0.26181808
30	0xbee7c5b6	-0.4526803
31	0xbe6f3b8f	-0.23362564
