logs/exp/model_71.pt (torch, 34660 bytes, 12 tensors)

log_std f4 [3]
-0.28740656 -0.09297748 -0.13452795
00000000: f426 93be fa6a bebd b2c1 09be

actor.0.weight f4 [64, 24]
-0.37941843 0.014299626 0.53277194 -0.32009256 -0.31753308 -0.3847368 -0.22061256 -0.11757302
0.0621569 -0.4309957 -0.117771804 -0.20512421 -0.45344517 0.043909095 -0.30178592 -0.5305949
-0.13991798 -0.21422121 0.13474727 -0.67203677 0.00039881936 -0.41178212 -0.16482584 -0.36003402
-0.074587576 0.066891566 0.044388242 0.22137468 -0.37374157 0.27506623 -0.094647154 0.2705144
-0.12874514 -0.040702287 -0.021138662 -0.24454504 0.14508039 -0.40372273 0.1860565 -0.24211803
-0.024533698 -0.40269786 -0.12943666 -0.36712047 -0.28810364 -0.19948766 0.027436502 -0.29328236
-0.029050784 -0.18527006 0.13483697 -0.4174967 0.078570366 0.3191534 0.13305122 -0.23088974
0.4500976 -0.036141448 0.18593735 -0.15009739 0.19831216 -0.14024885 0.39920393 -0.34379232
-0.32032755 -0.0630695 -0.19317281 0.063479796 -0.04345131 -0.00753377 -0.10029154 -0.34632242
-0.42273262 0.21644017 -0.01108502 -0.12575597 -0.0021261736 -0.10093622 -0.013750624 -0.4638135
0.22302835 0.043057397 -0.075160146 -0.021531075 0.1580516 0.12965938 0.1742915 -0.3708548
0.04287389 -0.103994206 0.054408006 -0.00072523457 0.089602895 -0.23527682 -0.13101062 0.041398786
-0.21058282 0.012842043 0.1398685 -1.1017625 0.49148634 0.81826246 -0.004627351 0.083432436
-0.11825822 0.03932806 -0.04625628 -0.146296 -0.15457596 -0.12374534 -0.28203243 -0.13661349
-0.18988973 -0.096246995 -0.08296917 -0.023906138 0.08367595 -0.3307882 0.021332284 -0.2998564
-0.5242041 -0.13185662 0.11006848 -0.14038427 -0.2725097 0.6177341 0.15957424 0.11904535
0.02462693 0.25972447 -0.043603197 0.22191335 0.029436324 0.15299726 -0.029155038 0.4471756
-0.10572846 0.24292316 0.1707749 -0.008687354 -0.11481472 0.045407284 -0.027838364 0.16222088
0.06387173 0.46059397 -0.21726762 -0.5412879 0.5081723 -0.08962064 0.745981 -0.31357747
0.6259817 -0.08677454 0.38690907 0.019821908 0.20067056 0.0129916975 0.4848102 0.31662503
-0.21476533 0.27649215 -0.0967293 0.014563574 -0.09275171 0.33400226 -0.0794415 0.19229174
0.06585003 0.058139626 -0.1217184 -1.383567 -0.052293375 -0.12762941 -0.34673938 0.15547258
-0.0023710425 0.117033504 0.15698326 0.22585589 -0.15947671 -0.0497191 0.02466535 0.028506495
0.3559692 -0.061891988 -0.12891254 0.005757343 -0.24068943 0.18238491 -0.35248464 0.35910907
0.013572613 0.07473273 0.024485754 0.41243368 0.64441925 0.1901236 0.17235938 -0.021442482
0.4810393 -0.026243184 -0.12474813 0.06536211 0.1453529 0.12927005 -0.17954409 -0.21465878
-0.083934285 -0.27402478 0.032046746 -0.341176 0.04376607 -0.2802 -0.33319956 -0.30268258
0.09259152 0.1339126 0.028881187 -1.1196355 -0.52397645 -0.47558373 -0.29551306 0.016922425
-0.33300722 -0.2192655 -0.43704414 0.06731967 -0.34095865 0.09790028 -0.40708718 0.22823815
-0.36280942 -0.3242618 -0.2638581 0.035462216 -0.27078676 -0.013982696 0.06881375 -0.0073615895
-0.32835737 -0.20527664 -0.21820752 -0.19177997 -0.22293307 0.05710202 0.2647238 0.34736136
0.35366964 -0.0052753077 0.0042340155 -0.03713938 0.116372645 0.146147 0.21392784 0.12622334
00000000: 2243 c2be fb48 6a3c be63 083f 2ce3 a3be
00000010: b293 a2be 39fc c4be 42e8 61be 20ca f0bd
00000020: 3c98 7e3d 78ab dcbe 5832 f1bd 150c 52be
00000030: f729 e8be 06da 333d af83 9abe 11d5 07bf
00000040: a946 0fbe ce5c 5bbe 30fb 093e 9a0a 2cbf
00000050: a118 d139 1bd5 d2be 1bc8 28be 6156 b8be
00000060: 5fc1 98bd 72fe 883d 72d0 353d 0bb0 623e
00000070: 0e5b bfbe 7bd5 8c3e 5ed6 c1bd dd80 8a3e
00000080: c4d5 03be 71b7 26bd fd2a adbc 046a 7abe
00000090: f48f 143e bfb4 cebe 9885 3e3e caed 77be
000000a0: e5fa c8bc 6a2e cebe 0b8b 04be 37f7 bbbe
000000b0: 5282 93be 7e46 4cbe 84c2 e03c 1b29 96be
000000c0: e9fb edbc 6fb7 3dbe b412 0a3e 21c2 d5be
000000d0: 80e9 a03d 1368 a33e 943e 083e 5c6e 6cbe
000000e0: 3173 e63e 0e09 14bd 5c66 3e3e 21b3 19be
000000f0: 5812 4b3e 659d 0fbe 7564 cc3e 8c05 b0be
00000100: f901 a4be 952a 81bd 18cf 45be b201 823d
00000110: 00fa 31bd d8dd f6bb a765 cdbd 2c51 b1be
00000120: 6970 d8be 7ea2 5d3e f29d 35bc 2cc6 00be
00000130: 4657 0bbb a6b7 cebd 4c4a 61bc f778 edbe
00000140: 8b61 643e f45c 303d 90ed 99bd f061 b0bc
00000150: 47d8 213e 6ec5 043e 7979 323e aee0 bdbe
00000160: 889c 2f3d eafa d4bd eeda 5e3d ab1d 3eba
00000170: b981 b73d 68ec 70be a627 06be c691 293d
00000180: 06a3 57be 6f67 523c b039 0f3e 8e06 8dbf
00000190: 19a4 fb3e a679 513f 09a1 97bb a0de aa3d
000001a0: 5e31 f2bd 7616 213d 3a77 3dbd 9ece 15be
000001b0: 2949 1ebe 326e fdbd 8e66 90be 68e4 0bbe
000001c0: 7472 42be 251d c5bd bdeb a9bd ced6 c3bc
000001d0: 4c5e ab3d 125d a9be 0bc1 ae3c c786 99be
000001e0: 3d32 06bf 6c05 07be 956b e13d e5c0 0fbe
000001f0: 6486 8bbe d223 1e3f 6e67 233e 0cce f33d
00000200: 6abe c93c 9bfa 843e 4499 32bd 413d 633e
00000210: 7224 f13c 50ab 1c3e 8cd6 eebc 33f4 e43e
00000220: 2a88 d8bd d9c0 783e 9edf 2e3e 6755 0ebc
00000230: fb23 ebbd fdfc 393d 480d e4bc 3b1d 263e
00000240: 2ecf 823d f9d2 eb3e 677b 5ebe d891 0abf
00000250: 9417 023f 078b b7bd 9cf8 3e3f 3a8d a0be
00000260: 5640 203f dab6 b1bd f218 c63e 8e61 a23c
00000270: 957c 4d3e 21db 543c 0b39 f83e ad1c a23e
00000280: 71eb 5bbe 6190 8d3e 031a c6bd 0f9c 6e3c
00000290: 9cf4 bdbd 5802 ab3e 3ab2 a2bd 20e8 443e
000002a0: 61dc 863d d123 6e3d 7f47 f9bd b918 b1bf
000002b0: 9431 56bd 49b1 02be d387 b1be 3434 1f3e
000002c0: 7e63 1bbb 43af ef3d 38c0 203e c446 673e
000002d0: dd4d 23be 41a6 4bbd fd0e ca3c 7486 e93c
000002e0: 9841 b63e 7482 7dbd a601 04be 18a8 bc3b
000002f0: 4a77 76be 1cc3 3a3e de78 b4be 25dd b73e
00000300: aa5f 5e3c 790d 993d 5996 c83c 822a d33e
00000310: a9f8 243f c3af 423e fa7e 303e 25a8 afbc
00000320: c84a f63e f2fb d6bc f37b ffbd 92dc 853d
00000330: 64d7 143e 5e5f 043e 68da 37be 83cf 5bbe
00000340: bde5 abbd fa4c 8cbe 7343 033d 9fae aebe
00000350: 0d44 333d 6076 8fbe 2299 aabe 36f9 9abe
00000360: 9fa0 bd3d 6220 093e 3d98 ec3c 3750 8fbf
00000370: 5223 06bf b67f f3be 7d4d 97be e6a0 8a3c
00000380: ec7f aabe 2387 60be 40c4 dfbe e5de 893d
00000390: 2292 aebe f17f c83d bb6d d0be 43b7 693e
000003a0: 28c2 b9be a505 a6be 6918 87be d440 113d
000003b0: 90a4 8abe ae17 65bc 39ee 8c3d 7d39 f1bb
000003c0: 751e a8be 0a34 52be cb71 5fbe f861 44be
000003d0: 9148 64be cfe3 693d e189 873e 59d9 b13e
000003e0: 3014 b53e 7ddc acbb 7fbd 8a3b 761f 18bd
000003f0: c854 ee3d 8fa7 153e e60f 5b3e b140 013e

actor.0.bias f4 [64]
0.12396108 -0.05495991 -0.26144823 -0.14708027 -0.023754753 -0.04498355 -0.18939435 -0.028872585
-0.4344951 -0.3506619 -0.0543385 -0.24156931 -0.14254132 0.11413857 -0.25834665 0.009360254
0.11676542 -0.19965236 0.05501814 -0.21381545 -0.007844312 -0.41213006 -0.17795178 -0.20508307
-0.24754615 -0.45829168 -0.153109 0.35485947 -0.14110854 -0.13706344 -0.40244612 -0.41135284
-0.25458765 -0.3345162 -0.08678491 -0.22082427 -0.65643936 0.067183904 -0.3697472 -0.062985316
-0.15980512 -0.30068314 -0.20148796 0.09949338 -0.10023798 0.07566152 -0.18912038 -0.29010293
-0.021018993 -0.40679166 -0.09649427 -0.2986469 -0.42792055 -0.07944773 -0.26278597 -0.23788737
0.078844264 -0.06678743 -0.049670957 -0.47004268 -0.3918282 0.033071347 0.19179969 -0.20939805
00000000: 4fdf fd3d a51d 61bd 8bdc 85be 369c 16be
00000010: 5499 c2bc ac40 38bd 98f0 41be 3386 ecbc
00000020: 2476 debe f589 b3be 0c92 5ebd f25d 77be
00000030: 5af6 11be 7cc1 e93d 0346 84be c05b 193c
00000040: b522 ef3d ab71 4cbe b35a 613d 70f2 5abe
00000050: 6e85 00bc b602 d3be fe38 36be 4c01 52be
00000060: bd7c 7dbe 35a5 eabe 9bc8 1cbe 24b0 b53e
00000070: c27e 10be 5c5a 0cbe 6b0d cebe d79c d2be
00000080: 5059 82be b545 abbe 49bc b1bd c21f 62be
00000090: 690c 28bf b797 893d 814f bdbe 72fe 80bd
000000a0: f4a3 23be 24f3 99be dc52 4ebe 2fc3 cb3d
000000b0: 9249 cdbd 6df4 9a3d c6a8 41be 5f88 94be
000000c0: 0630 acbc ff46 d0be ca9e c5bd 3fe8 98be
000000d0: 6718 dbbe 7eb5 a2bd e28b 86be bf98 73be
000000e0: 1a79 a13d d9c7 88bd c673 4bbd 6fa9 f0be
000000f0: b59d c8be d275 073d 2367 443e 716c 56be

actor.2.weight f4 [32, 64]
-0.16880874 -0.08593512 -0.3539159 -0.11909394 0.18523048 -0.08332968 -0.3818023 -0.062343694
-0.29121202 -0.3721655 0.02294043 -0.34654975 0.022796476 -0.44942597 -0.3486804 -0.23422751
-0.3245189 0.5176174 -0.35326916 -0.3401816 0.07945059 0.08852268 0.11158052 -0.23708604
0.22320247 0.09884656 0.2498797 -0.5202064 -0.16630907 -0.04083488 -0.31362358 -0.08755199
-0.3075668 0.07547492 -0.012102759 0.16899998 0.019146228 -0.3502003 -0.015957264 0.14164786
-0.05574764 0.17788178 -0.054404046 -0.32528898 -0.076758005 -0.40357697 0.0807322 -0.24817257
0.16454819 -0.18238296 -0.39948282 0.3222844 -0.06218509 0.061438933 -0.04408245 0.04347194
0.26100442 -0.25217742 0.2099976 0.2417795 0.21419804 -0.35721263 -0.42185307 0.25343817
-1.027064 0.4374877 -0.05540911 -0.1621659 -0.11292504 -0.19376972 -0.3910417 0.14849474
0.17635454 0.11605732 -0.43133762 -0.06417522 -0.040921405 -0.490393 0.073295295 -1.1175333
-0.017967159 0.2211264 0.18959059 -0.18643516 -0.16265693 -0.07187276 -0.0358902 -0.20723307
-0.057622064 -0.0063810265 -0.012140292 -0.17501803 -0.43688172 -0.4367946 -0.016621908 -0.18928732
-0.1126962 0.2342806 -0.32425272 0.06426833 0.05628138 -0.06780669 0.08412632 -0.04912356
-0.17027368 -0.06420819 0.12773544 -0.07942374 -0.16080429 -0.08064242 0.03905112 0.25551498
0.038331028 0.09209985 -0.21683572 -0.7339627 0.030028708 -0.12534969 -0.20133074 -0.21788271
-0.27101454 0.03792354 -0.22124499 -0.09089717 0.27815804 -0.2400409 -0.20935637 0.037655745
-0.6354826 -0.14515387 -0.026023243 -0.16863096 -0.25908378 0.047924343 -0.21519138 -0.013540598
-0.10543618 -0.09715064 -0.049529396 -0.43781984 0.069205225 -0.294789 -0.256572 -0.32702467
-0.06614268 0.08533088 0.13091798 -0.065477505 -0.29596135 0.22292548 -0.15975375 -0.116164856
-0.2528444 -0.15325496 -0.03547271 0.22272408 -0.13316797 -0.06146229 0.030064445 -0.12909612
0.028009513 -0.11789484 -0.0347878 -0.1530403 0.10720473 -0.22961032 -0.008697382 -0.1571964
-0.13461082 -0.0058976165 -0.22129217 0.25240734 -0.43761566 0.07765112 0.106240116 0.3185501
0.16587868 -0.0016642507 -0.087511554 0.33149895 -0.038622744 -0.111063294 0.094718285 -0.14623314
0.29713574 -0.22141415 0.054261625 0.21768238 0.28431287 -0.0673114 0.21005674 -0.37454548
-0.28217706 -0.12821364 0.008568639 0.04017796 0.10209789 0.32363337 0.35985187 0.15593125
0.048248153 -0.4898417 -0.11226069 -0.15641645 -0.23751031 -0.5513125 -0.355674 -0.24458998
0.15630282 -0.035839763 -0.084986486 -0.2440288 -0.48448968 -0.048256427 0.2469357 0.04058252
0.3865341 0.3825705 0.33737627 0.27683228 0.19927351 -0.03448466 -0.17425348 -0.07829889
0.31022355 -0.3640063 -0.09166204 -0.12193412 0.029904831 -0.9653812 -0.08902728 0.33600548
-0.21941298 0.060441002 0.04541372 0.28717783 -0.3057636 0.14081134 0.3644295 0.017047549
0.028861284 -0.26271826 -0.29127708 -0.1681556 0.19944973 -0.18654051 -0.0028495765 -0.056356404
0.5163677 0.11880032 0.18194269 0.116323054 0.33910397 0.026460418 -0.19671036 0.034016527
00000000: 33dc 2cbe c1fe afbd 7734 b5be 86e7 f3bd
00000010: 0fad 3d3e c0a8 aabd 977b c3be 1a5c 7fbd
00000020: be19 95be 7a8c bebe 92ed bb3c f86e b1be
00000030: adbf ba3c 291b e6be 3d86 b2be 56d9 6fbe
00000040: 5727 a6be 9382 043f b2df b4be 482c aebe
00000050: feb6 a23d 614b b53d 5484 e43d afc6 72be
00000060: 308f 643e 1170 ca3d 77e0 7f3e 3f2c 05bf
00000070: ed4c 2abe 7a42 27bd 4593 a0be 754e b3bd
00000080: 6579 9dbe 9892 9a3d a74a 46bc 550e 2d3e
00000090: 8dd8 9c3c 744d b3be cfb8 82bc 230c 113e
000000a0: a357 64bd a426 363e c7d6 5ebd 478c a6be
000000b0: 4d33 9dbd a4a1 cebe ec56 a53d f320 7ebe
000000c0: 527f 283e 99c2 3abe 0389 ccbe 7602 a53e
000000d0: cbb5 7ebd 64a7 7b3d cd8f 34bd a20f 323d
000000e0: 5fa2 853e 661d 81be 9c09 573e 0c95 773e
000000f0: bb56 5b3e 93e4 b6be 20fd d7be a6c2 813e
00000100: d576 83bf 63fe df3e aaf4 62bd d10e 26be
00000110: 3e45 e7bd 926b 46be 9e36 c8be 010f 183e
00000120: 4996 343e 76af ed3d 49d8 dcbe 4c6e 83bd
00000130: 349d 27bd cb14 fbbe d81b 963d 550b 8fbf
00000140: dd2f 93bc f66e 623e 0924 423e dce8 3ebe
00000150: 8a8f 26be 0732 93bd 9a01 13bd e834 54be
00000160: 1d05 6cbd ee17 d1bb 13e8 46bc ed37 33be
00000170: f6ae dfbe 8ba3 dfbe ab2a 88bc 89d4 41be
00000180: 44cd e6bd 41e7 6f3e 7404 a6be 1d9f 833d
00000190: 4e87 663d 3cde 8abd 6c4a ac3d c935 49bd
000001a0: 395c 2ebe 957f 83bd 14cd 023e eaa8 a2bd
000001b0: e1a9 24be da27 a5bd 11f4 1f3d dcd2 823e
000001c0: ff00 1d3d d99e bc3d 2f0a 5ebe fbe4 3bbf
000001d0: c4fe f53c ab5b 00be a529 4ebe a51c 5fbe
000001e0: 6bc2 8abe b755 1b3d 0c8e 62be 4c28 babd
000001f0: bb6a 8e3e 48cd 75be 8461 56be e93c 1a3d
00000200: fdae 22bf 37a3 14be b22e d5bc 98ad 2cbe
00000210: a1a6 84be 514c 443d 215b 5cbe 62d9 5dbc
00000220: edee d7bd eaf6 c6bd 56df 4abd ec29 e0be
00000230: 78bb 8d3d 95ee 96be 685d 83be c76f a7be
00000240: d075 87bd f5c1 ae3d 5d0f 063e 1219 86bd
00000250: 3f88 97be 9446 643e 7d96 23be d7e7 edbd
00000260: d274 81be deee 1cbe d54b 11bd c811 643e
00000270: 2f5d 08be e2bf 7bbd b649 f63c c631 04be
00000280: 3574 e53c da72 f1bd a77d 0ebd 99b6 1cbe
00000290: 278e db3d f81e 6bbe 777f 0ebc 18f8 20be
000002a0: 6bd7 09be cb40 c1bb 6a9a 62be 893b 813e
000002b0: 290f e0be 8d07 9f3d 6b94 d93d 0019 a33e
000002c0: 1adc 293e fd22 daba 4239 b3bd 3bba a93e
000002d0: e232 1ebd 2775 e3bd a9fb c13d 24be 15be
000002e0: 2d22 983e 64ba 62be 7041 5e3d 21e8 5e3e
000002f0: 7591 913e 8fda 89bd 1d19 573e 6dc4 bfbe
00000300: 8379 90be 704a 03be 7a63 0c3c a591 243d
00000310: b318 d13d 46b3 a53e 813e b83e 71ac 1f3e
00000320: db9f 453d 88cc fabe efe8 e5bd a22b 20be
00000330: e735 73be d122 0dbf e71a b6be cc75 7abe
00000340: d90d 203e b7cc 12bd 650d aebd b0e2 79be
00000350: 080f f8be 88a8 45bd b6dc 7c3e db39 263d
00000360: cce7 c53e 48e0 c33e 95bc ac3e f6bc 8d3e
00000370: 5b0e 4c3e c93f 0dbd 816f 32be 2b5b a0bd
00000380: 9fd5 9e3e 095f babe 4fb9 bbbd 99b8 f9bd
00000390: fafa f43c 3923 77bf ef53 b6bd e908 ac3e
000003a0: ccad 60be fc90 773d bd03 3a3d f908 933e
000003b0: 0c8d 9cbe d930 103e 8196 ba3e 4da7 8b3c
000003c0: 806e ec3c 0283 86be 4522 95be fb30 2cbe
000003d0: 8d3c 4c3e 7a04 3fbe f6bf 3abb f9d5 66bd
000003e0: ac30 043f 954d f33d 2f4f 3a3e c83a ee3d
000003f0: 099f ad3e 85c3 d83c 716e 49be ea54 0b3d

actor.2.bias f4 [32]
-0.26947874 -0.14472896 -0.20750445 -0.28066546 -0.026600478 0.005391531 -0.23851517 0.056665625
0.1042982 0.03875598 -0.050995387 -0.28688392 -0.1664883 0.07684474 -0.035632424 -0.13257909
-0.008174189 -0.17436086 -0.089345336 -0.117742255 -0.24392352 -0.08924507 -0.1203808 0.059657834
-0.08756796 -0.13350053 -0.2012406 -0.28351432 -0.1753871 -0.13627025 -0.18422753 -0.045991343
00000000: 1ef9 89be d433 14be 0c7c 54be 62b3 8fbe
00000010: 3fe9 d9bc 71ab b03b 523d 74be 371a 683d
00000020: 4b9a d53d 97be 1e3d 8ae0 50bd 73e2 92be
00000030: e97b 2abe c660 9d3d 4ef3 11bd d0c2 07be
00000040: 09ed 05bc a78b 32be b0fa b6bd da22 f1bd
00000050: 16c7 79be 1fc6 b6bd 358a f6bd c65b 743d
00000060: d556 b3bd 5db4 08be 0412 4ebe ca28 91be
00000070: ad98 33be 6e8a 0bbe 24a6 3cbe 6b61 3cbd

actor.4.weight f4 [3, 32]
0.020182448 -0.04137126 -0.075763695 0.06569632 -0.08582038 0.015803449 0.09620588 -0.011848346
-0.07274705 0.010445211 0.0019270547 0.038793527 -0.04781558 0.0013712101 0.030335186 0.011707632
-0.037179206 0.0011524954 0.012343816 -0.0033723456 0.086910054 -0.014145959 -0.10116436 -0.082114995
-0.0012933708 0.013811971 0.034704756 -0.00090500445 0.062842965 0.061210085 0.0087767 0.011900898
0.06025541 0.04413129 -0.032869585 -0.009038401 0.029316278 0.018884473 -0.015141996 0.0018781784
-0.06458615 0.006651229 -0.03286596 0.028322294 -0.100062646 -0.0014097554 0.013249111 0.080588646
0.0067614466 0.018032515 -0.0054124454 0.00819104 0.043109506 -0.019025702 0.037788566 0.05338394
0.0100514805 0.0353521 -0.021979636 0.16962281 -0.040104475 -0.09197939 0.02332243 -0.06441424
-0.051403537 -0.064276196 -0.0022788353 0.074741356 -0.014813558 -0.036600128 0.054757584 -0.04708103
0.08694957 0.018152205 -0.04138164 -0.06289449 0.09704763 0.0017942095 0.06488338 0.038518727
0.038367633 0.020580351 -0.060683038 -0.027863018 -0.0005953302 0.0462619 0.06592221 0.010371201
0.015937474 0.057492338 0.06828268 -0.03995235 -0.08177298 0.11652155 -0.016828286 0.0075646024
00000000: a955 a53c e974 29bd ff29 9bbd cb8b 863d
00000010: 98c2 afbd 3c76 813c 9707 c53d 911f 42bc
00000020: 68fc 94bd 6422 2b3c 3a95 fc3a f6e5 1e3d
00000030: 45da 43bd 2dba b33a 7f81 f83c 5ed1 3f3c
00000040: 3949 18bd 540f 973a b83d 4a3c 9202 5dbb
00000050: e6fd b13d 74c4 67bc 432f cfbd e82b a8bd
00000060: 5386 a9ba 9b4b 623c 9326 0e3d d23d 6dba
00000070: d0b3 803d 6db7 7a3d 26cc 0f3c fcfb 423c
00000080: 60ce 763d 03c3 343d 42a2 06bd cd15 14bc
00000090: b128 f03c 9cb3 9a3c 2216 78bc 362d f63a
000000a0: be45 84bd 8ef2 d93b 759e 06bd 2804 e83c
000000b0: a5ed ccbd 8bc7 b8ba cd12 593c a90b a53d
000000c0: 208f dd3b edb8 933c e25a b1bb b633 063c
000000d0: 9893 303d cadb 9bbc 2fc8 1a3d 1ea9 5a3d
000000e0: f7ae 243c 5dcd 103d a30e b4bc 9ab1 2d3e
000000f0: 9744 24bd b15f bcbd ae0e bf3c 9deb 83bd
00000100: 848c 52bd 3da3 83bd 8358 15bb ff11 993d
00000110: 91b4 72bc 04ea 15bd 7d49 603d 0ad8 40bd
00000120: 9e12 b23d efb3 943c cb7f 29bd d4ce 80bd
00000130: e8c0 c63d ae2b eb3a 94e1 843d d0c5 1d3d
00000140: 6127 1d3d 2098 a83c c78e 78bd fc40 e4bc
00000150: ef0f 1cba 1e7d 3d3d 3902 873d f8eb 293c
00000160: 4e8f 823c 167d 6b3d cad7 8b3d 13a5 23bd
00000170: 9878 a7bd daa2 ee3d 79db 89bc 7ce0 f73b

actor.4.bias f4 [3]
0.105886325 -0.07032216 0.15179487
00000000: eeda d83d 1105 90bd 1d70 1b3e

critic.0.weight f4 [64, 24]
-0.4242834 0.017144673 -0.76230776 -0.75947803 0.07254353 0.036626738 -0.05976039 0.11251248
-0.29446384 0.18812998 0.05467953 0.30548832 0.07833411 0.39825526 0.1160739 -0.0781587
0.18136469 0.32035562 -0.2315721 -0.29266843 -0.06903089 -0.105536304 0.21470201 -0.24083418
-0.29794708 -0.041593347 0.28327337 0.40601942 0.28662407 -1.0945183 0.06920125 -1.3152721
0.43083826 -1.0120386 0.56317204 -1.1470268 0.57248974 -0.7274228 0.35609964 -1.0911938
-0.10159243 -0.55536044 0.014387695 -0.6061476 0.21248902 -0.6189643 -0.32347754 -0.66186196
-0.4534285 0.10059256 -0.23793806 -0.48691535 -1.4389149 -0.15850432 -0.27797693 0.3998755
0.15696539 0.60529256 0.3878376 0.6020679 -0.101367235 0.9162147 0.3119083 0.42229643
0.16368574 0.3828512 0.24048324 0.5410393 -0.05970134 0.4288091 0.28351083 0.30913594
0.31741092 -0.020649455 0.003347789 -0.41069156 -0.6256556 -0.31342974 0.74431765 -0.4868225
1.002731 -0.4858886 0.8125652 -0.16132347 0.6479196 -0.47107553 0.34369984 -0.29522207
0.45499 -0.021803947 0.2191568 -0.21861604 -0.13211401 -0.30695522 0.5315951 -0.08414381
-0.700008 -0.19190976 -0.6164124 -0.6680904 -0.18709236 1.103838 0.11754374 1.3717992
0.059484717 1.1357272 0.15695639 1.2613603 0.41379505 0.88560444 0.65450734 1.0390289
0.5663986 0.49171793 0.13285774 0.84699154 0.661164 0.7450884 0.4749267 0.36744753
0.35922435 -0.14883958 -0.07677808 0.08732997 -1.830801 -0.004337476 -0.8131663 0.053147975
-0.3526003 -0.21701013 -0.44958428 0.49598643 -0.46912107 0.541458 -0.09539877 0.47632363
-0.1624977 0.47090858 -0.08568374 0.40444866 0.33459634 0.19277786 0.22877802 0.43095848
0.23262511 0.15802185 -0.46505946 -0.13230564 -0.107422486 0.8864819 -0.8332792 0.33223546
-0.5899778 9.770627e-05 -0.71206385 -0.26652145 -0.30912328 -0.33209687 -0.33044264 -0.5729703
-0.24684915 -0.5263467 -0.24530558 -0.4951347 -0.14573695 -0.6416239 -0.39352822 -0.6153001
0.039360613 0.28927517 -0.509948 -0.30913308 -1.1681416 -0.2924972 -0.344254 -0.93904203
-0.11912824 -0.73736155 0.52209383 -0.95993024 0.20029794 -0.90575236 0.14905794 -0.1627695
0.30795884 -0.6309495 0.37236157 -0.39904326 0.26761797 -0.14912225 0.04121963 -0.14458236
-1.0744673 -0.15313672 0.17183699 -1.3169444 -1.1169382 -3.7534053 -0.17140384 -1.7858014
0.19168606 -0.81542474 0.42834544 -0.373587 -0.08071011 0.00096838607 0.21603777 0.34862208
-0.06134005 0.07175408 -0.16413957 0.14673452 -0.011247176 0.39839122 -0.07427441 0.7252098
0.036817413 -0.1531035 -0.0738446 -0.23370697 -0.025798216 0.61706096 -0.70425904 0.051962465
-0.2531927 -0.16781823 -0.3871359 0.13376614 -0.36704826 -0.060317427 -0.24882495 -0.4059223
0.070186645 -0.5313035 -0.10123244 -0.30133787 -0.23429698 -0.20743316 -0.04428465 -0.14331679
0.1714464 -0.083859324 -0.39860192 -0.040026855 0.7768236 1.1269006 0.052364036 0.15592165
-0.318757 -0.1351553 -0.282021 -0.0759511 -0.38932118 -0.31641257 -0.25639206 -0.35866117
00000000: ac3b d9be fc72 8c3c 9a26 43bf 276d 42bf
00000010: b491 943d eb05 163d 50c7 74bd f16c e63d
00000020: f7c3 96be 25a5 403e a5f7 5f3d f768 9c3e
00000030: a26d a03d 1de8 cb3e 27b8 ed3d ab11 a0bd
00000040: aab7 393e a705 a43e 3d21 6dbe a3d8 95be
00000050: 1160 8dbd 6b23 d8bd d8da 5b3e 3c9d 76be
00000060: 858c 98be c95d 2abd 3509 913e c7e1 cf3e
00000070: 64c0 923e 2d19 8cbf 63b9 8d3d d65a a8bf
00000080: d596 dc3e 7b8a 81bf 0b2c 103f c6d1 92bf
00000090: b08e 123f 6138 3abf b152 b63e 3dac 8bbf
000000a0: b10f d0bd 1a2c 0ebf 5eba 6b3c 7d2c 1bbf
000000b0: b996 593e 7274 1ebf d99e a5be c96f 29bf
000000c0: c827 e8be 7903 ce3d 09a6 73be f84c f9be
000000d0: 5d2e b8bf f54e 22be fe52 8ebe 7bbc cc3e
000000e0: 89bb 203e 74f4 1a3f a692 c63e 1f21 1a3f
000000f0: a099 cfbd 0c8d 6a3f 72b2 9f3e 3d37 d83e
00000100: 3c9d 273e 1305 c43e 3d41 763e 8d81 0a3f
00000110: 6489 74bd de8c db3e 5528 913e 1147 9e3e
00000120: af83 a23e 0c29 a9bc 9466 5b3b 2a46 d2be
00000130: f72a 20bf dd79 a0be 9a8b 3e3f cc40 f9be
00000140: 7d59 803f 64c6 f8be 4604 503f fb31 25be
00000150: 0fde 253f d030 f1be 6df9 af3e 5927 97be
00000160: 73f4 e83e 319e b2bc a46a 603e e2dc 5fbe
00000170: e548 07be 3c29 9dbe 9e16 083f 9753 acbd
00000180: b933 33bf fe83 44be 34cd 1dbf f907 2bbf
00000190: 2495 3fbe 904a 8d3f c6ba f03d 1e97 af3f
000001a0: 3fa6 733d 825f 913f 2db9 203e 4174 a13f
000001b0: f2dc d33e f9b6 623f cb8d 273f e6fe 843f
000001c0: 80ff 103f 74c2 fb3e dc0b 083e 70d4 583f
000001d0: 0b42 293f 1dbe 3e3f 9829 f33e 1522 bc3e
000001e0: 41ec b73e 6769 18be d33d 9dbd 0eda b23d
000001f0: b057 eabf 6321 8ebb ab2b 50bf b1b1 593d
00000200: 0788 b4be e737 5ebe e92f e6be eff1 fd3e
00000210: a330 f0be fe9c 0a3f 6e60 c3bd b1e0 f33e
00000220: cc65 26be ee1a f13e f57a afbd e513 cf3e
00000230: 3650 ab3e 8f67 453e c944 6a3e 97a6 dc3e
00000240: 4735 6e3e 7bd0 213e 461c eebe 217b 07be
00000250: 5200 dcbd 7af0 623f c951 55bf c41a aa3e
00000260: c908 17bf a7e7 cc38 d149 36bf 8075 88be
00000270: 6845 9ebe 9a08 aabe c72f a9be 2eae 12bf
00000280: 06c6 7cbe a8be 06bf 6331 7bbe 4c82 fdbe
00000290: 113c 15be 7741 24bf 887c c9be 4f84 1dbf
000002a0: 9838 213d e01b 943e f48b 02bf b146 9ebe
000002b0: aa85 95bf 31c2 95be 0f42 b0be 0f65 70bf
000002c0: 82f9 f3bd bac3 3cbf f1a7 053f fdbd 75bf
000002d0: e71a 4d3e 63df 67bf a5a2 183e 0cad 26be
000002e0: c8ac 9d3e e885 21bf 2da6 be3e 664f ccbe
000002f0: 3905 893e 81b3 18be ead5 283d 660d 14be
00000300: 2588 89bf dfcf 1cbe 09f6 2f3e a291 a8bf
00000310: d5f7 8ebf cb37 70c0 7d84 2fbe 2495 e4bf
00000320: 5a49 443e adbf 50bf 1850 db3e cc46 bfbe
00000330: 584b a5bd 4adb 7d3a 0139 5d3e 987e b23e
00000340: b43f 7bbd cef3 923d 3414 28be 9341 163e
00000350: 1346 38bc eff9 cb3e 2f1d 98bd 59a7 393f
00000360: dbcd 163d 2ac7 1cbe d63b 97bd e150 6fbe
00000370: c856 d3bc b5f7 1d3f 524a 34bf 98d6 543d
00000380: 79a2 81be 8bd8 2bbe ad36 c6be fef9 083e
00000390: c0ed bbbe 680f 77bd f8cb 7ebe 0cd5 cfbe
000003a0: 04be 8f3d 8203 08bf f452 cfbd f548 9abe
000003b0: 8ceb 6fbe 5c69 54be d263 35bd a3c1 12be
000003c0: a58f 2f3e 70be abbd 8d15 ccbe 33f3 23bd
000003d0: e9dd 463f 473e 903f ac7b 563d eda9 1f3e
000003e0: 1e34 a3be 2766 0abe 0e65 90be 408c 9bbd
000003f0: 1b55 c7be d400 a2be d245 83be 70a2 b7be

critic.0.bias f4 [64]
-0.6136962 -0.44452715 0.19981195 0.20987535 -0.46445337 0.32743406 -0.11462847 0.4535047
0.6774601 0.23587242 0.53220224 -0.50771767 0.5986639 0.34441048 0.18798722 -0.5511978
0.71009994 0.17645872 -0.71575344 -1.5251783 -0.8656433 -1.0203124 0.45656136 0.22640765
-0.030944744 -0.213687 0.067605935 -1.1520383 -1.2360097 -0.910007 -0.8842151 0.21006873
-0.41844907 0.23706502 0.43782526 -0.6637002 -2.24598 0.3581678 0.09018876 0.6264502
0.3830664 -1.1972563 -0.7785585 0.15475872 0.5198469 0.35859233 -0.22434668 -0.15532102
-1.3721523 -0.17204708 -0.1479073 -0.6818027 0.34509024 0.32459393 -0.24802296 0.18106642
0.5848308 0.5467141 0.32247424 0.3960182 -0.9785121 0.26668558 0.17649467 -1.9064522
00000000: 321b 1dbf 1099 e3be 819b 4c3e 90e9 563e
00000010: d5cc edbe 70a5 a73e 55c2 eabd c531 e83e
00000020: 066e 2d3f 8a88 713e 683e 083f c9f9 01bf
00000030: 0a42 193f 9256 b03e b97f 403e 4d1b 0dbf
00000040: 1cc9 353f 98b1 343e 9e3b 37bf 0b39 c3bf
00000050: cd9a 5dbf 9999 82bf 69c2 e93e 68d7 673e
00000060: d57f fdbc c4d0 5abe fb74 8a3d fe75 93bf
00000070: 9135 9ebf 38f6 68bf ec5b 62bf 421c 573e
00000080: f53e d6be 2cc1 723e a22a e03e 42e8 29bf
00000090: 23be 0fc0 c561 b73e e2b4 b83d 0a5f 203f
000000a0: 4721 c43e b23f 99bf 9c4f 47bf 1279 1e3e
000000b0: b014 053f 6a99 b73e 23bb 65be 790c 1fbe
000000c0: b0a2 afbf 1c2d 30be 0375 17be 9f8a 2ebf
000000d0: abaf b03e 2d31 a63e bbf9 7dbe 7a69 393e
000000e0: 79b7 153f 75f5 0b3f 581b a53e e6c2 ca3e
000000f0: c57f 7abf 038b 883e 05bb 343e a006 f4bf

critic.2.weight f4 [32, 64]
-0.21156766 -0.1428056 -0.10747138 -0.465336 -0.22343275 0.3431474 -0.1914427 -0.3816027
0.56152624 -0.08718428 -0.27920353 -0.019951817 -0.59749925 -0.3343068 -0.5541807 0.03421569
-0.42132875 -0.41854352 -0.12081906 -0.6259977 0.2120898 0.2503456 -0.5187494 0.120436
-0.15501936 -0.25122267 -0.16033113 -0.05890899 0.056708943 0.1296812 0.09763273 -0.6107009
-0.15270104 -0.3043166 -0.40418574 0.053141423 -1.1230417 -0.05131959 -0.2836081 -0.57214385
-0.2848466 0.05624132 -0.6373072 -0.2041257 0.25766426 0.049072143 -0.2066716 -0.115352646
0.17454775 -0.45086765 0.13530947 0.017660378 -0.35880512 -0.276115 -0.24947695 0.014930986
-0.15608068 -0.1616757 0.002633896 -0.086950965 0.104423486 -0.07086145 -0.40078372 -0.56802046
-0.7592563 0.29373688 0.0981435 -0.3041901 -0.9587208 -2.0489552 -0.78671473 -1.712717
0.66539985 -0.042923167 -0.3953655 -0.35206032 -0.44459242 -0.35365924 -0.57325035 -0.83444923
-0.20156565 0.17450185 -0.07371281 0.09532279 0.4292956 0.1500363 -1.0417703 0.3350959
-0.29651928 -1.335134 -1.8134074 0.14478324 0.7109636 -1.2425222 0.0036683457 -0.6656793
-0.5841134 -0.30872688 -1.530439 -0.009517615 -1.0123465 -1.0855368 -0.16033664 -0.26957962
-0.6306934 0.70966893 -1.7334926 -0.034550544 -0.19120021 -0.6041903 0.44134742 0.7499896
-0.19443378 -0.9265476 0.18290621 0.29461858 0.17099562 -0.12551971 1.1877589 -2.6878097
-1.4839315 0.7682812 -0.25584078 0.87021005 -0.23196547 -0.5305921 -0.57630557 0.4842144
-0.13389222 0.5859513 -0.2057342 0.4840199 -0.4360249 -0.05160484 -0.32928044 0.4978381
0.2811439 -0.17762347 0.33446267 -0.23485339 0.18988755 0.13928562 0.029750213 -0.38470683
-0.4100686 -0.17719227 0.27125314 -0.3008178 0.19310777 -0.46324915 0.22058605 0.23587327
0.24468799 -0.30944884 -0.22659768 -0.6561642 -0.45165765 -0.17250586 0.18243551 0.4515423
0.017036378 0.3300814 0.34978944 -0.04811507 0.87326443 0.25259125 0.033789918 0.26754588
0.2410795 -0.26037616 0.4211797 0.3797263 -0.055982564 -0.008704067 0.013390442 -0.6297076
-0.17765121 -0.11932196 0.13408408 -0.41071752 -0.059982806 0.2588643 -0.6649806 0.14993764
0.327316 -0.28919396 0.19257857 -0.36956528 0.39191055 0.4236735 -0.009748532 -0.63559264
-0.2487046 0.05499791 0.05188744 -0.61641866 -0.92225516 -0.6616964 0.19619669 -0.31503764
0.4981082 -0.25177255 -0.07957404 0.45178092 0.42079514 0.08662142 -0.17352863 -0.9638706
-0.1280402 0.2781759 0.0117901955 -1.3500111 -0.58622 -0.90709984 0.2032003 -0.038606744
0.63147897 0.05609335 -0.041493937 -1.0749636 -1.0426402 -0.29724053 -0.14575851 -0.1615695
0.029443087 0.41950455 0.34039396 -0.34059182 -0.8740861 0.3380288 -0.08076514 -0.08647275
-0.333231 -0.9535169 -0.104623415 0.05512603 0.20791307 -0.25942022 -0.09265503 -0.21077509
-1.0888137 -0.13374086 0.2879558 -1.2922374 -0.26904196 -0.43278 -0.7878691 -0.5669217
0.07675537 -0.24964732 -0.18541908 -0.19407886 -0.9682824 0.24173847 0.01819224 -1.5451305
00000000: 31a5 58be a23b 12be f419 dcbd 8540 eebe
00000010: 8ecb 64be 04b1 af3e 8e09 44be 6e61 c3be
00000020: 2fc0 0f3f ac8d b2bd c4f3 8ebe fe71 a3bc
00000030: b6f5 18bf 432a abbe c9de 0dbf c025 0c3d
00000040: 67b8 d7be 564b d6be fc6f f7bd 6341 20bf
00000050: 122e 593e 4c2d 803e c3cc 04bf 26a7 f63d
00000060: 65bd 1ebe 42a0 80be d82d 24be 8e4a 71bd
00000070: a347 683d 26cb 043e abf3 c73d e556 1cbf
00000080: a95d 1cbe 63cf 9bbe 6ff1 cebe d2aa 593d
00000090: d5bf 8fbf 7e34 52bd 1535 91be 0578 12bf
000000a0: 6ad7 91be 4c5d 663d 9126 23bf 5406 51be
000000b0: 92ec 833e dfff 483d b8a1 53be 023e ecbd
000000c0: a5bc 323e 20d8 e6be 918e 0a3e 7fac 903c
000000d0: 4eb5 b7be f25e 8dbe e376 7fbe 18a1 743c
000000e0: 9dd3 1fbe 518e 25be 719d 2c3b 5913 b2bd
000000f0: fbdb d53d cf1f 91bd 8633 cdbe ca69 11bf
00000100: 9f5e 42bf ae64 963e 76ff c83d cebe 9bbe
00000110: ba6e 75bf 1522 03c0 2366 49bf 503a dbbf
00000120: a557 2a3f 34d0 2fbd 596d cabe 4041 b4be
00000130: 9ea1 e3be d312 b5be 89c0 12bf 779e 55bf
00000140: 3a67 4ebe 9db0 323e bef6 96bd 9838 c33d
00000150: a2cc db3e 1ea3 193e bb58 85bf b191 ab3e
00000160: 60d1 97be ace5 aabf bc1d e8bf 0f42 143e
00000170: b601 363f f80a 9fbf a168 703b f569 2abf
00000180: 7588 15bf 7311 9ebe 6de5 c3bf c5ef 1bbc
00000190: 9294 81bf dff2 8abf 4a2f 24be 5706 8abe
000001a0: 1f75 21bf ddac 353f 16e3 ddbf df84 0dbd
000001b0: fdc9 43be 37ac 1abf 4af8 e13e 52ff 3f3f
000001c0: a619 47be 3932 6dbf c44b 3b3e 3fd8 963e
000001d0: 7a19 2f3e 3d88 00be 7c08 983f 1305 2cc0
000001e0: 78f1 bdbf 14ae 443f 90fd 82be 16c6 5e3f
000001f0: 5b88 6dbe e2d4 07bf c388 13bf f3ea f73e
00000200: 0b1b 09be e800 163f fcab 52be 75d1 f73e
00000210: a83e dfbe 995f 53bd 7297 a8be a3e4 fe3e
00000220: 18f2 8f3e ede2 35be b13e ab3e 687d 70be
00000230: e271 423e e4a0 0e3e b8b6 f33c 4bf8 c4be
00000240: 83f4 d1be e471 35be b1e1 8a3e ca04 9abe
00000250: 0bbe 453e fe2e edbe 4fe1 613e c388 713e
00000260: 7d8f 7a3e 1470 9ebe 3909 68be 61fa 27bf
00000270: ac3f e7be 60a5 30be 60d0 3a3e 8d30 e73e
00000280: e08f 8b3c 6e00 a93e 9a17 b33e 4f14 45bd
00000290: 428e 5f3f a453 813e 4c67 0a3d c6fb 883e
000002a0: 8bdd 763e 0650 85be dea4 d73e 7c6b c23e
000002b0: f94d 65bd 819b 0ebc 9663 5b3c 8434 21bf
000002c0: 33ea 35be 125f f4bd 564d 093e 9149 d2be
000002d0: 88b0 75bd dd89 843e 2b3c 2abf 4189 193e
000002e0: f695 a73e 3b11 94be 5133 453e a937 bdbe
000002f0: 80a8 c83e bceb d83e 4fb8 1fbc 33b6 22bf
00000300: 6bac 7ebe 7d45 613d ed87 543d 9dcd 1dbf
00000310: ea18 6cbf ef64 29bf c9e7 483e 9d4c a1be
00000320: 0a08 ff3e 55e8 80be b7f7 a2bd d44f e73e
00000330: 7672 d73e 9266 b13d 7db1 31be 39c0 76bf
00000340: f81c 03be 126d 8e3e aa2b 413c 2acd acbf
00000350: 8412 16bf b237 68bf bd13 503e 1b22 1ebd
00000360: 9ba8 213f 24c2 653d 8cf5 29bd 6898 89bf
00000370: 3c75 85bf e92f 98be b841 15be 7a72 25be
00000380: a132 f13c 4dc9 d63e 1e48 ae3e 0d62 aebe
00000390: 1bc4 5fbf 1c12 ad3e 3268 a5bd a018 b1bd
000003a0: 419d aabe af19 74bf cd44 d6bd d5cb 613d
000003b0: 2ae7 543e bad2 84be ecc1 bdbd 6dd5 57be
000003c0: 3f5e 8bbf 5df3 08be f16e 933e 0968 a5bf
000003d0: debf 89be 5795 ddbe cab1 49bf c821 11bf
000003e0: eb31 9d3d 8ca3 7fbe 80de 3dbe 9cbc 46be
000003f0: 5be1 77bf 4a8a 773e e407 953c d6c6 c5bf

critic.2.bias f4 [32]
-0.41896975 0.115658216 0.39454076 0.47051346 0.45508298 0.38887078 -0.06270759 -0.3036967
0.5532381 0.71952736 -0.20597668 -0.31773758 0.5576607 0.4316875 0.5585417 0.38258815
-0.36411288 0.4918137 0.45759022 0.59923565 0.663129 0.42833155 -0.2993109 -0.5313477
-0.2912641 0.2606648 -0.31530115 0.48196906 -0.12279252 -0.113941126 -0.09925419 -0.2315981
00000000: 3483 d6be 37de ec3d 3f01 ca3e 24e7 f03e
00000010: a300 e93e 121a c73e d66c 80bd 227e 9bbe
00000020: 03a1 0d3f f232 383f 8deb 52be 80ae a2be
00000030: dac2 0e3f 2506 dd3e 97fc 0e3f 98e2 c33e
00000040: 016d babe 01cf fb3e 4449 ea3e 8267 193f
00000050: d2c2 293f 464e db3e 473f 99be 6706 08bf
00000060: 9120 95be db75 853e 276f a1be a6c4 f63e
00000070: a57a fbbd f759 e9bd c845 cbbd 0d28 6dbe

critic.4.weight f4 [1, 32]
-0.45091376 -1.5352863 0.158953 0.48996142 0.42668045 0.4943734 -0.41858602 -0.84309715
0.4484706 0.601476 -1.0157533 -1.1797912 0.5964621 0.4083208 0.36607456 0.36579603
-0.7505616 0.5195314 0.36836648 0.49296886 0.5025226 0.57963496 -0.57296544 -1.0999782
-0.77572167 0.30047128 -0.83062434 0.4452179 -0.99077857 -0.4011903 -1.9000709 -0.7979308
00000000: 2bde e6be 4384 c4bf 93c4 223e 39dc fa3e
00000010: dc75 da3e 831e fd3e e850 d6be 37d5 57bf
00000020: f09d e53e 55fa 193f 3404 82bf 6603 97bf
00000030: bdb1 183f 6d0f d13e 206e bb3e 9e49 bb3e
00000040: ce24 40bf 0300 053f 889a bc3e 6a66 fc3e
00000050: 52a5 003f f562 143f ddad 12bf 16cc 8cbf
00000060: b295 46bf 5fd7 993e cca3 54bf 9af3 e33e
00000070: aaa3 7dbf d168 cdbe 8635 f3bf 3145 4cbf
