logs/exp/model_51.pt (torch, 34660 bytes, 12 tensors)

log_std f4 [3]
-0.23294406 -0.084090434 -0.09184697
00000000: e388 6ebe 9b37 acbd 441a bcbd

actor.0.weight f4 [64, 24]
-0.36387107 0.047630552 0.53738457 -0.03490782 -0.25427774 -0.37602186 -0.15941842 -0.12645985
0.11501087 -0.4734301 -0.07031522 -0.26576266 -0.41360193 -0.02503125 -0.2667107 -0.59586626
-0.106754236 -0.26556513 0.16584212 -0.70780987 0.030119397 -0.43078372 -0.13811153 -0.36760876
-0.029902562 0.06506215 0.09774953 -0.083680615 -0.24377204 0.0031780165 -0.0048905513 0.063737124
-0.085444175 -0.16439487 -0.0030096741 -0.30253652 0.1453867 -0.4198561 0.17807446 -0.226929
-0.040863186 -0.3654691 -0.1494451 -0.30963087 -0.31254432 -0.12732671 -1.0887041e-05 -0.20834227
0.028724505 -0.19122513 0.13591698 -0.22038986 0.1755562 0.2701723 0.2407133 -0.2612873
0.5603148 -0.051956303 0.29424176 -0.15788412 0.29158884 -0.14789292 0.4847627 -0.34929895
-0.24369168 -0.06689536 -0.10738247 0.06959683 0.03977034 0.003794239 -0.01719865 -0.32949287
-0.32720912 0.32330185 -0.036906783 -0.07888396 -0.0979336 -0.08602167 -0.098695464 -0.4769491
0.15871884 0.01787186 -0.120471686 -0.053921208 0.13196746 0.095052406 0.16126512 -0.40816325
0.03997547 -0.14481123 0.061711952 -0.04548684 0.108505115 -0.28355795 -0.10176988 -0.010994342
-0.16640088 0.021778053 0.08870469 -0.78015995 0.5123395 0.7398939 0.02603384 0.045696866
-0.091491 0.024191586 -0.023642216 -0.15330972 -0.14155236 -0.13195275 -0.26979148 -0.13668916
-0.1855967 -0.08757085 -0.08027135 0.0041350196 0.08185834 -0.28302282 0.01312029 -0.23649175
-0.5048755 -0.11070738 0.055963926 -0.048749305 -0.4902082 0.34003454 0.018809061 -0.11497859
-0.049139306 0.08094596 -0.07290651 0.091302805 0.027375292 0.07065978 -0.016550275 0.40873504
-0.087126106 0.24485391 0.18974285 0.026984194 -0.09903337 0.10758893 -0.01657008 0.24341676
0.09862592 0.50145787 -0.26947558 -0.42029205 0.4399001 -0.072379634 0.68574995 -0.31444404
0.5675089 -0.10631774 0.3340902 -0.014212422 0.16105112 -0.030836489 0.45332858 0.26225188
-0.23866573 0.21133818 -0.114928454 -0.063310295 -0.10454864 0.24374226 -0.08598809 0.09075792
0.086580604 0.019050444 -0.09713403 -1.1170303 -0.05468231 -0.20805971 -0.37093177 0.09322268
-0.029341588 0.08011274 0.13276887 0.20260288 -0.18377084 -0.071481496 0.0010478521 0.0026280258
0.33492687 -0.09528333 -0.14744902 -0.037558362 -0.25597823 0.12882502 -0.3640971 0.29555875
0.05841386 0.060190707 0.11082739 0.4226241 0.6002963 0.16594915 0.14812987 0.0155342305
0.46868762 0.047572985 -0.13234131 0.1505567 0.14099124 0.21289678 -0.17951547 -0.13618647
-0.086158626 -0.20571643 0.03860776 -0.27516517 0.054366488 -0.21841736 -0.3180687 -0.24235544
0.1267827 0.120144024 0.08065516 -1.3577459 -0.39033127 -0.46591273 -0.16986415 0.030139266
-0.23829049 -0.20585556 -0.3694773 0.08218869 -0.29027465 0.113674365 -0.3660742 0.24179722
-0.32250154 -0.31138247 -0.2262149 0.044057854 -0.23537709 -0.0103874765 0.10256578 -0.009732553
-0.28961143 -0.16396683 -0.1882571 -0.1564691 -0.35871798 -0.039109368 0.15399076 0.2723303
0.27169985 -0.06055204 -0.055738002 -0.078271784 0.07256765 0.11825535 0.17815933 0.10904061
00000000: 4f4d babe 4118 433d 0992 093f 81fb 0ebd
00000010: b130 82be f085 c0be 953e 23be b17e 01be
00000020: d28a eb3d 6e65 f2be 6d01 90bd 0b12 88be
00000030: a2c3 d3be 560e cdbc 4e8e 88be b18a 18bf
00000040: f7a1 dabd 27f8 87be 84d2 293e 0733 35bf
00000050: f4bc f63c af8f dcbe 1c6d 0dbe 3737 bcbe
00000060: 38f6 f4bc 4e3f 853d e830 c83d be60 abbd
00000070: 619f 79be 4546 503b eb40 a0bb 9c88 823d
00000080: 5bfd aebd 2157 28be f43d 45bb 11e6 9abe
00000090: 40e0 143e 61f7 d6be 2759 363e 1360 68be
000000a0: 2860 27bd c41e bbbe 2308 19be f087 9ebe
000000b0: cf05 a0be ef61 02be 7ca7 36b7 ad57 55be
000000c0: a74f eb3c 85d0 43be d22d 0b3e e1ad 61be
000000d0: 01c5 333e 0654 8a3e 8c7d 763e 73c7 85be
000000e0: ca70 0f3f 22d0 54bd dba6 963e 60ac 21be
000000f0: 224b 953e 3e71 17be d132 f83e 50d7 b2be
00000100: 508a 79be 6f00 89bd 57eb dbbd c888 8e3d
00000110: 39e6 223d c4a8 783b 2fe4 8cbc 4ab3 a8be
00000120: f487 a7be d287 a53e 912b 17bd ea8d a1bd
00000130: 6991 c8bd 212c b0bd d920 cabd ac32 f4be
00000140: 3187 223e 0268 923c dcb9 f6bd 7cdc 5cbd
00000150: 7a22 073e d6aa c23d af22 253e c6fa d0be
00000160: 52bd 233d 6549 14be acc5 7c3d 6950 3abd
00000170: ee37 de3d 822e 91be ba6c d0bd 9d21 34bc
00000180: fe64 2abe e367 b23c ceaa b53d 90b8 47bf
00000190: ae28 033f b069 3d3f eb44 d53c a32c 3b3d
000001a0: a25f bbbd 6f2d c63c 52ad c1bc 39fd 1cbe
000001b0: 1af3 10be 9f1e 07be 1c22 8abe 3ef8 0bbe
000001c0: 100d 3ebe 5958 b3bd 4e65 a4bd 0f7f 873b
000001d0: 58a5 a73d 5ee8 90be 7cf6 563c e52a 72be
000001e0: 853f 01bf 8dba e2bd 6e3a 653d 5aad 47bd
000001f0: 92fc fabe 0219 ae3e 7615 9a3c e579 ebbd
00000200: 4c46 49bd ffc6 a53d 0250 95bd f7fc ba3d
00000210: 2642 e03c 13b6 903d 7194 87bc b845 d13e
00000220: 2c6f b2bd fcba 7a3e f34b 423e f50d dd3c
00000230: 02d2 cabd 9657 dc3d fabd 87bc 3e42 793e
00000240: 63fc c93d 8b5f 003f b4f8 89be 8530 d7be
00000250: 963a e13e c63b 94bd 4f8d 2f3f cffe a0be
00000260: 4348 113f 1ebd d9bd df0d ab3e 38db 68bc
00000270: 96ea 243e ce9c fcbc af1a e83e e145 863e
00000280: ca64 74be 0969 583e 9c5f ebbd d4a8 81bd
00000290: 991d d6bd 9297 793e 861a b0bd 4adf b93d
000002a0: 2c51 b13d ad0f 9c3c 35ee c6bd d9fa 8ebf
000002b0: 8ffa 5fbd 9b0d 55be c5ea bdbe 88eb be3d
000002c0: c55d f0bc 2612 a43d 90f4 073e 2177 4f3e
000002d0: 6c2e 3cbe e464 92bd 1558 893a f53a 2c3b
000002e0: 897b ab3e e823 c3bd e0fc 16be ccd6 19bd
000002f0: 940f 83be b5ea 033e ef6a babe 7a53 973e
00000300: 5f43 6f3d 888a 763d 78f9 e23d 3062 d83e
00000310: 05ad 193f 93ee 293e 5baf 173e 4983 7e3c
00000320: d3f7 ef3e e4db 423d 7b84 07be 892b 1a3e
00000330: 0260 103e 9d01 5a3e e7d2 37be 7774 0bbe
00000340: ef73 b0bd 54a7 52be 2c23 1e3d 73e2 8cbe
00000350: 65af 5e3d cda8 5fbe e7d9 a2be 062c 78be
00000360: 53d3 013e 120e f63d 882e a53d 9eca adbf
00000370: 80d9 c7be 1d8c eebe def0 2dbe 9fe6 f63c
00000380: 6c02 74be cdcb 52be 212c bdbe 8b52 a83d
00000390: e19e 94be 1bce e83d 146e bbbe b199 773e
000003a0: ec1e a5be 866d 9fbe e1a4 67be 0276 343d
000003b0: b106 71be 3c30 2abc 020e d23d 4975 1fbc
000003c0: f347 94be ece6 27be 78c6 40be 7039 20be
000003d0: e2a9 b7be 2531 20bd c1af 1d3e e16e 8b3e
000003e0: 3e1c 8b3e 6a05 78bd 884d 64bd f54c a0bd
000003f0: 599e 943d dc2f f23d 666f 363e af50 df3d

actor.0.bias f4 [64]
0.1306241 -0.004300322 -0.21552643 -0.1163319 0.045777705 -0.00040859805 -0.13263842 0.0020132852
-0.41763732 -0.3154015 -0.003533151 -0.21763453 -0.11929746 0.1729342 -0.33876273 0.024042659
0.056862753 -0.21367203 0.06951187 -0.18749532 0.034571573 -0.34742317 -0.14275718 -0.15386724
-0.20851107 -0.43412066 -0.21923222 0.3165001 -0.17292699 -0.07182811 -0.37913895 -0.3650346
-0.19858499 -0.29652902 -0.07653678 -0.18468478 -0.5979103 0.057412572 -0.3067262 -0.025180047
-0.117712475 -0.26568574 -0.17745313 0.101557 -0.13674238 0.12824875 -0.14840649 -0.263429
-0.033977613 -0.40047604 -0.0929213 -0.2644884 -0.44492346 -0.068067044 -0.2254555 -0.19619142
0.114695504 0.02582161 0.024946755 -0.38590443 -0.2979795 0.04364944 0.18898487 -0.10532647
00000000: 53c2 053e b7e9 8cbb f6b2 5cbe 6b3f eebd
00000010: 6781 3b3d 1a39 d6b9 5ed2 07be 52f1 033b
00000020: 8fd4 d5be 4e7c a1be 708c 67bb 96db 5ebe
00000030: 3a52 f4bd aa15 313e 4f72 adbe 1cf5 c43c
00000040: ebe8 683d d7cc 5abe 3d5c 8e3d c6fe 3fbe
00000050: ec9a 0d3d 73e1 b1be f02e 12be 608f 1dbe
00000060: ed83 55be 1045 debe 697e 60be 4d0c a23e
00000070: c613 31be 9e1a 93bd 801e c2be d1e5 babe
00000080: dd59 4bbe a7d2 97be 51bf 9cbd 021e 3dbe
00000090: a610 19bf 7229 6b3d 370b 9dbe 6346 cebc
000000a0: 3d13 f1bd f607 88be 46b6 35be 1efd cf3d
000000b0: 3206 0cbe a453 033e dff7 17be 2ae0 86be
000000c0: 1c2c 0bbd 320b cdbe 864d bebd 066b 87be
000000d0: 02cd e3be bc66 8bbd cedd 66be 67e6 48be
000000e0: 7ae5 ea3d d787 d33c 235d cc3c 4495 c5be
000000f0: c590 98be c1c9 323d 4085 413e 68b5 d7bd

actor.2.weight f4 [32, 64]
-0.12468494 -0.035162125 -0.2533209 -0.18335313 0.024758695 -0.19690965 -0.36479908 -0.020662453
-0.24454448 -0.30514225 -0.12659788 -0.44167957 0.03352064 -0.30215144 -0.27833822 -0.2894631
-0.32683682 0.38402298 -0.24782014 -0.40729928 0.21401966 0.01095643 0.06795486 -0.19269443
0.07769925 -0.014921956 0.123612694 -0.35996044 -0.19094865 -0.15237018 -0.2198318 -0.22156405
-0.43843344 0.18130577 -0.10050937 0.072388455 -0.08038303 -0.24013066 -0.1312999 -0.006719388
0.07389141 0.21903774 -0.056905027 -0.14692724 -0.21739395 -0.24474682 0.19363418 -0.15667923
-0.030914001 -0.13473718 -0.28714406 0.2934139 -0.05041825 -0.06495668 -0.12759969 -0.039018523
0.12987636 -0.32697588 0.07921104 0.23417558 0.32062018 -0.48213193 -0.30636021 0.1864088
-0.6348695 0.06941552 -0.10095201 -0.13817044 -0.08590067 -0.16034439 -0.34124267 0.115736656
0.059990846 0.27697518 -0.23397131 0.117832236 -0.17706549 -0.43190473 0.0014035591 -0.74850535
0.0140206 0.14899097 0.10018759 -0.04952655 -0.1891854 -0.062398434 -0.07277679 -0.25073022
-0.046278454 0.08214907 0.02338559 -0.16471702 -0.41931698 -0.44080672 0.015092937 -0.1725366
-0.051651355 0.19696935 -0.24163271 0.09647172 0.11060417 -0.017829241 0.27533326 -0.077694155
-0.1566216 -0.23786719 0.21730037 -0.20611906 -0.033513278 -0.26331154 -0.015152966 0.117562115
0.08060111 0.06505946 -0.3729014 -0.692935 0.053785417 0.050572958 -0.18015791 -0.15454653
-0.25352353 0.052524306 -0.16591464 -0.15716484 0.2450122 -0.20633757 -0.27832153 0.045531996
-0.5021981 -0.14930518 -0.023233686 -0.16187133 -0.2431983 0.16474369 -0.2011748 -0.047452386
-0.16688493 -0.06671618 -0.05746014 -0.49777818 0.1020907 -0.21831681 -0.26599056 -0.34681275
-0.0733445 0.03952417 0.11096855 -0.053495895 -0.26659107 0.23446843 -0.19317025 -0.17724872
-0.24688265 -0.034251485 -0.025296986 0.17896312 -0.11874316 -0.09142888 0.0109854285 -0.123506494
-0.019686347 -0.13962983 -0.034451723 -0.17468765 0.12858328 -0.2259826 -0.005875052 -0.17482054
-0.0918139 -0.056571048 -0.16117409 0.23336932 -0.41050225 0.03521964 0.12162002 0.30713883
0.20350507 0.021690981 -0.14424068 0.36515844 -0.058199797 -0.053020746 0.12747897 -0.17610425
0.3152575 -0.19342303 0.03981227 0.21739313 0.2850936 -0.046924382 0.1691776 -0.3660235
-0.10116338 -0.08064024 -0.012464657 0.01360847 0.08316263 0.25840443 0.36118236 0.010970757
0.15717945 -0.60159093 -0.14193715 -0.08031185 -0.29028302 -0.565453 -0.18314686 -0.2511314
0.13875507 -0.0012854239 -0.16723517 -0.35916787 -0.52345103 -0.13447562 0.14738664 0.08425936
0.34956244 0.35086483 0.28983283 0.24321963 0.15123802 -0.11238413 -0.20857655 -0.13138111
0.24769627 -0.24432614 -0.12624758 -0.13044216 -0.010431062 -0.77628034 -0.2966262 0.351849
-0.23313238 0.058132723 0.0036062456 0.20845327 -0.42132118 0.09119513 0.287894 -0.06647574
0.011861822 -0.26551762 -0.14795415 -0.22746982 0.12663175 -0.19251439 -0.0719903 -0.12810847
0.45966747 0.103226095 0.17249316 0.04120176 0.25118726 -0.0021952738 -0.27068737 -0.009628559
00000000: d15a ffbd 2906 10bd 47b3 81be ecc0 3bbe
00000010: bfd2 ca3c afa2 49be f2c6 babe 4e44 a9bc
00000020: de69 7abe 9b3b 9cbe e0a2 01be d323 e2be
00000030: f04c 093d 98b3 9abe 5982 8ebe 8234 94be
00000040: 2857 a7be a99e c43e 90c4 7dbe 8889 d0be
00000050: f827 5b3e 9982 333c eb2b 8b3d b051 45be
00000060: c920 9f3d 387b 74bc a728 fd3d bc4c b8be
00000070: 0b88 43be ee06 1cbe 961b 61be b0e1 62be
00000080: 597a e0be 38a8 393e dbd7 cdbd 6640 943d
00000090: dc9f a4bd d0e4 75be 7b73 06be 502e dcbb
000000a0: 6154 973d 6e4b 603e 3f15 69bd 1874 16be
000000b0: 859c 5ebe e99e 7abe 0a48 463e 8570 20be
000000c0: 5c3f fdbc 8bf8 09be 8c04 93be 593a 963e
000000d0: 5e83 4ebd 0208 85bd 7ea9 02be e3d1 1fbd
000000e0: 4ffe 043e 6269 a7be 6639 a23d b9cb 6f3e
000000f0: 5428 a43e ffd9 f6be 3fdb 9cbe f3e1 3e3e
00000100: cf86 22bf b929 8e3d edbf cebd 8d7c 0dbe
00000110: b1ec afbd 5231 24be 5cb7 aebe 5707 ed3d
00000120: f6b8 753d b1cf 8d3e 2d96 6fbe 0752 f13d
00000130: a850 35be 9e22 ddbe a1f7 b73a 0c9e 3fbf
00000140: a9b6 653c 1791 183e 272f cd3d 5adc 4abd
00000150: d1b9 41be 8095 7fbd ff0b 95bd b65f 80be
00000160: 7a8e 3dbd c63d a83d 2393 bf3c 94ab 28be
00000170: b7b0 d6be 6bb1 e1be 5e48 773c 6fad 30be
00000180: 5f90 53bd 55b2 493e 916e 77be f792 c53d
00000190: 7084 e23d a10e 92bc 7bf8 8c3e 1d1e 9fbd
000001a0: 6a61 20be 7593 73be fd83 5e3e e010 53be
000001b0: 3845 09bd c5d0 86be 2544 78bc 68c4 f03d
000001c0: 3212 a53d e53d 853d efec bebe 3064 31bf
000001d0: 194e 5c3d 9725 4f3d 517b 38be 7241 1ebe
000001e0: d6cd 81be ba23 573d 87e5 29be d2ef 20be
000001f0: 7ae4 7a3e 284a 53be 2980 8ebe c27f 3a3d
00000200: 0e90 00bf 75e3 18be 9254 bebc 99c1 25be
00000210: fa08 79be 92b2 283e c400 4ebe 6f5d 42bd
00000220: e2e3 2abe 7ea2 88bd 535b 6bbd c8dc febe
00000230: ee14 d13d 718e 5fbe ea2f 88be 7191 b1be
00000240: a435 96bd 19e4 213d 7b43 e33d 831e 5bbd
00000250: a07e 88be 7e18 703e 6cce 45be b080 35be
00000260: cece 7cbe 494b 0cbd a03b cfbc 1c42 373e
00000270: 9d2f f3bd 113f bbbd 3afc 333c f9f0 fcbd
00000280: 4345 a1bc 1ffb 0ebe 401d 0dbd 52e1 32be
00000290: 56ab 033e fc67 67be 8283 c0bb 2804 33be
000002a0: ed08 bcbd 0bb7 67bd d20a 25be 5ef8 6e3e
000002b0: 5a2d d2be 7842 103d eb13 f93d 4d41 9d3e
000002c0: a263 503e 49b1 b13c d4b3 13be 0cf6 ba3e
000002d0: e962 6ebd 482c 59bd d989 023e ac54 34be
000002e0: 6e69 a13e b010 46be 3112 233d 4e9c 5e3e
000002f0: caf7 913e c833 40bd e53c 2d3e 6f67 bbbe
00000300: bf2e cfbd b626 a5bd 9038 4cbc 0ff6 5e3c
00000310: 2b51 aa3d 964d 843e e5ec b83e b1be 333c
00000320: a6f3 203e dd01 1abf f957 11be 8a7a a4bd
00000330: fa9f 94be 87c1 10bf da8a 3bbe 4b94 80be
00000340: cf15 0e3e ab7b a8ba b23f 2bbe dae4 b7be
00000350: e300 06bf fab3 09be 86ec 163e 2c90 ac3d
00000360: d9f9 b23e 8ea4 b33e f864 943e 910e 793e
00000370: 24de 1a3e a729 e6bd 1795 55be c588 06be
00000380: 17a4 7d3e a230 7abe 0c47 01be a192 05be
00000390: 0ce7 2abc 4fba 46bf 64df 97be 8d25 b43e
000003a0: 41ba 6ebe 941c 6e3d c356 6c3b c674 553e
000003b0: 69b7 d7be 83c4 ba3d d866 933e 6f24 88bd
000003c0: 1658 423c edf1 87be 4b81 17be d9ed 68be
000003d0: c1ab 013e 7e22 45be a76f 93bd de2e 03be
000003e0: 8959 eb3e 3468 d33d 0ca2 303e 2dc3 283d
000003f0: 9e9b 803e 95de 0fbb 8997 8abe 1bc1 1dbc

actor.2.bias f4 [32]
-0.1454868 -0.18430026 -0.19362022 -0.22126192 -0.043688424 -0.05803437 -0.17704067 0.024557851
0.093881354 0.032284286 -0.07311128 -0.25723144 -0.15693161 0.12222268 0.017913701 -0.07523912
0.011447483 -0.13819346 -0.11145266 -0.10733073 -0.23241048 -0.13450761 -0.124454886 0.050621822
-0.086287 -0.09554569 -0.21654397 -0.17272337 -0.05537128 -0.12070827 -0.20404285 -0.02650129
00000000: 7efa 14be 35b9 3cbe 6144 46be 7c92 62be
00000010: a2f2 32bd 73b5 6dbd 264a 35be 8c2d c93c
00000020: de44 c03d 873c 043d 5ebb 95bd d7b3 83be
00000030: aeb2 20be e24f fa3d c1bf 923c f816 9abd
00000040: 398e 3b3c 9682 0dbe 4b41 e4bd 37d0 dbbd
00000050: 03fd 6dbe 5dbc 09be 34e2 febd d458 4f3d
00000060: 3db7 b0bd 75ad c3bd b4bd 5dbe 65de 30be
00000070: ffcc 62bd e635 f7bd 9cf0 50be 3c19 d9bc

actor.4.weight f4 [3, 32]
0.007279261 -0.035073888 -0.07200808 0.06347358 -0.11729961 0.021815524 0.13396125 -0.0035945708
-0.060953457 0.0020598038 -0.049771152 0.021499885 -0.03791469 -0.022075582 0.011940111 0.05429361
-0.05363465 0.0053125503 0.003582003 -0.0026681873 0.079158336 -0.012570508 -0.1295513 -0.075686365
-0.005186084 0.037852235 0.038879383 -0.024874678 -0.016073538 0.0727123 -0.022514792 0.0019603272
0.07118646 0.03551485 -0.017187787 0.011080487 0.051388804 0.052596815 0.0024939643 0.020083036
-0.030451689 0.013518135 0.0017583291 0.028018113 -0.051577877 0.011688039 0.0042368514 0.012336851
-0.0037175368 0.004355612 0.027852118 0.01406506 0.06148569 -0.010914779 0.008475904 0.050245557
-0.0071644015 0.011437556 -0.026356984 0.045474105 -0.026850078 -0.06330247 0.0353644 -0.075925276
-0.12528887 -0.040293653 -0.0026545867 0.030231325 -0.031911023 -0.066320755 0.05473435 -0.025265304
0.06454323 -0.007991972 -0.06480038 -0.00831464 0.06500129 -0.017096812 0.07083199 0.025302444
-0.015400233 0.0072812024 -0.019238822 0.020852339 0.028608793 0.0452128 0.07404758 0.037661385
0.008679142 0.02666339 -0.0063136504 -0.022205621 0.0058757784 0.067282386 -0.017331867 0.030061116
00000000: de86 ee3b a3a9 0fbd f978 93bd 70fe 813d
00000010: c73a f0bd 78b6 b23c 232d 093e e492 6bbb
00000020: 55aa 79bd c6fd 063b d6dc 4bbd 8720 b03c
00000030: 6f4c 1bbd dad7 b4bc 75a0 433c fa62 5e3d
00000040: 02b0 5bbd e714 ae3b 0ac0 6a3b c1dc 2ebb
00000050: c41d a23d 88f4 4dbc 19a9 04be 7401 9bbd
00000060: 07f0 a9bb f20a 1b3d fd3f 1f3d fbc5 cbbc
00000070: a7ac 83bc 30ea 943d f170 b8bc d578 003b
00000080: 35ca 913d 0578 113d 67cd 8cbc ee8a 353c
00000090: 117d 523d c26f 573d c771 233b 2e85 a43c
000000a0: d275 f9bc 2b7b 5d3c bc77 e63a 3e86 e53c
000000b0: 5343 53bd 307f 3f3c 49d5 8a3b 8120 4a3c
000000c0: eba1 73bb 86b9 8e3b 202a e43c 2371 663c
000000d0: 6bd8 7b3d e7d3 32bc 85de 0a3c 49ce 4d3d
000000e0: 5bc3 eabb 9664 3b3c 9aea d7bc 0e43 3a3d
000000f0: b2f4 dbbc baa4 81bd 43da 103d b67e 9bbd
00000100: ba4b 00be f50a 25bd 93f8 2dbb afa7 f73c
00000110: 22b5 02bd 2dd3 87bd 2031 603d 2ff9 cebc
00000120: 3e2f 843d c3f0 02bc 10b6 84bd 213a 08bc
00000130: 651f 853d 9d0e 8cbc 5d10 913d 1247 cf3c
00000140: 4251 7cbc 2797 ee3b bc9a 9dbc 86d2 aa3c
00000150: fd5c ea3c 0f31 393d 42a6 973d d342 1a3d
00000160: f632 0e3c 2f6d da3c bde2 cebb 90e8 b5bc
00000170: 9a89 c03b 59cb 893d 8ffb 8dbc bb42 f63c

actor.4.bias f4 [3]
0.11790781 -0.07703795 0.20674375
00000000: a679 f13d 13c6 9dbd a2b4 533e

critic.0.weight f4 [64, 24]
-0.44468364 0.035400458 -0.74965435 -0.41980997 0.008533609 0.30354404 -0.028849874 0.25767252
-0.2436283 0.28180888 0.105123654 0.37049866 0.12487112 0.44304034 0.15907374 -0.047995828
0.22239615 0.33987823 -0.19229397 -0.28124598 -0.033222876 -0.09988072 0.24435204 -0.23942298
-0.31648517 -0.04255087 0.2744277 0.22656693 0.6550682 -0.95575714 0.31190705 -1.1552879
0.5999693 -0.88422734 0.69899786 -1.0501292 0.69341856 -0.655919 0.47412157 -1.0375276
0.008468144 -0.5201357 0.123824164 -0.58279246 0.32952634 -0.5995392 -0.20513919 -0.646788
-0.37501898 0.15606052 -0.16762514 -0.5472221 -1.4232283 -0.2609866 -0.26358443 0.30146876
0.17918319 0.53223515 0.41053492 0.54852766 -0.077907495 0.87863564 0.3366156 0.39822587
0.18793646 0.37142926 0.26356012 0.5416217 -0.03967895 0.4367013 0.2999481 0.3205472
0.34858608 0.044659562 -0.026314316 -0.21343538 -0.54817086 -0.47074068 0.79203904 -0.6445249
1.0339777 -0.60706383 0.83550316 -0.2484819 0.6623015 -0.53084075 0.35035083 -0.33333218
0.45992333 -0.038528185 0.21932425 -0.21980034 -0.14000861 -0.2996521 0.5197393 -0.06989917
-0.7336385 -0.06987319 -0.7199591 -0.5470019 -0.19607554 0.8384187 0.117668584 1.11215
0.08563427 0.91441685 0.19640215 1.0678916 0.46307474 0.71282077 0.7126166 0.88299227
0.6306158 0.35019523 0.20002389 0.7184278 0.72829086 0.6280035 0.5389746 0.25980535
0.33725902 -0.15114187 0.018700106 0.21527821 -1.6243781 0.07174986 -0.66364413 0.080942795
-0.25663295 -0.25609237 -0.38937944 0.41112277 -0.4467574 0.42313308 -0.09247996 0.35745957
-0.16814148 0.37564054 -0.10552562 0.3298609 0.30099073 0.13855785 0.17977099 0.3908685
0.336699 0.15125144 -0.46489057 0.039744854 0.16650595 0.99060893 -0.57596725 0.3783571
-0.37360185 0.030285869 -0.53086853 -0.23231566 -0.153916 -0.2880784 -0.19454758 -0.51904345
-0.1256627 -0.46402064 -0.13503341 -0.4262442 -0.04276223 -0.5680153 -0.29469532 -0.5386065
0.07143896 0.33037427 -0.5250912 -0.43871054 -1.0179336 -0.13871491 -0.20368624 -0.82702595
-0.0015903153 -0.6607206 0.6200769 -0.9026598 0.28657898 -0.8513621 0.22434936 -0.10359167
0.3699487 -0.56240386 0.41997015 -0.32049784 0.30040225 -0.06454888 0.059252504 -0.06034882
-0.8178688 -0.18774208 0.30086154 -1.0685366 -0.8124622 -3.3081641 0.05182059 -1.3771281
0.37018472 -0.45318013 0.57432777 -0.05552687 0.036825325 0.27085146 0.29112104 0.54415345
0.007727414 0.20636237 -0.09838523 0.21186925 0.034944147 0.37354875 -0.036577605 0.62689084
0.18218228 -0.18163049 0.08989674 0.0052673197 0.021915324 0.6681358 -0.6700731 0.13610639
-0.23121995 -0.07035624 -0.37418982 0.23476982 -0.36241293 0.037552282 -0.24663894 -0.3121854
0.07191734 -0.44323257 -0.098383725 -0.22030531 -0.22621438 -0.13224573 -0.025756324 -0.07207551
0.3413917 -0.15875557 -0.34074467 0.37480333 0.7782097 1.0750469 0.083152816 0.14571042
-0.27295402 -0.10833505 -0.23192081 -0.020282514 -0.3413642 -0.24127689 -0.21322854 -0.2732594
00000000: 93ad e3be 1200 113d 59e9 3fbf 55f1 d6be
00000010: 8dd0 0b3c 206a 9b3e 9256 ecbc a7ed 833e
00000020: b279 79be 4149 903e 124b d73d 00b2 bd3e
00000030: 6ebc ff3d 2fd6 e23e 3ae4 223e 4697 44bd
00000040: d1bb 633e 8504 ae3e b6e8 44be 79ff 8fbe
00000050: b614 08bd 438e ccbd 6c37 7a3e 4c2b 75be
00000060: 580a a2be d249 2ebd ca81 8c3e 2901 683e
00000070: 8db2 273f 80ac 74bf 48b2 9f3e 79e0 93bf
00000080: 9797 193f b95c 62bf 86f1 323f a26a 86bf
00000090: e183 313f 4fea 27bf 10c0 f23e b4cd 84bf
000000a0: f8bd 0a3c 9d27 05bf 8697 fd3d e331 15bf
000000b0: adb7 a83e 677b 19bf 0210 52be e693 25bf
000000c0: 7d02 c0be 54ce 1f3e eda5 2bbe bf16 0cbf
000000d0: 582c b6bf 09a0 85be 8af4 86be 1d5a 9a3e
000000e0: cc7b 373e 9040 083f a231 d23e 4f6c 0c3f
000000f0: f78d 9fbd 44ee 603f e158 ac3e 43e4 cb3e
00000100: 6a72 403e fa2b be3e 5af1 863e b8a7 0a3f
00000110: 6586 22bd 5097 df3e cc92 993e c31e a43e
00000120: e079 b23e f2ec 363d 1f91 d7bc ce8e 5abe
00000130: ed54 0cbf ec04 f1be 12c3 4a3f 95ff 24bf
00000140: 6259 843f 8968 1bbf 89e3 553f 0a72 7ebe
00000150: 978c 293f 2ee5 07bf 2f61 b33e 84aa aabe
00000160: 127b eb3e bbcf 1dbd 8996 603e 5713 61be
00000170: 6b5e 0fbe 006c 99be a20d 053f 4c27 8fbd
00000180: bccf 3bbf ad19 8fbd 3d4f 38bf 5108 0cbf
00000190: 07c8 48be 9ca2 563f 3afc f03d ee5a 8e3f
000001a0: 0561 af3d 3917 6a3f a51d 493e acb0 883f
000001b0: 2218 ed3e 6c7b 363f 0b6e 363f c80b 623f
000001c0: 0970 213f ca4c b33e 10d3 4c3e e2ea 373f
000001d0: 4571 3a3f d6c4 203f 3dfa 093f 3505 853e
000001e0: 37ad ac3e efc4 1abe f730 993c e471 5c3e
000001f0: 9feb cfbf 97f1 923d 95e4 29bf 56c5 a53d
00000200: 6565 83be 8a1e 83be be5c c7be af7e d23e
00000210: 63bd e4be e6a4 d83e 2266 bdbd f104 b73e
00000220: 482d 2cbe f553 c03e d11d d8bd 87e3 a83e
00000230: 751b 9a3e 1ce2 0d3e e315 383e eb1f c83e
00000240: d063 ac3e a8e1 1a3e 2306 eebe 80cb 223d
00000250: 8980 2a3e 8c98 7d3f 9772 13bf 06b8 c13e
00000260: be48 bfbe 121a f83c 00e7 07bf 28e4 6dbe
00000270: 289c 1dbe 037f 93be 7b37 47be 08e0 04bf
00000280: b9ad 00be 1d94 edbe 3346 0abe ae3c dabe
00000290: 7327 2fbd 7369 11bf 4ee2 96be 1ee2 09bf
000002a0: 974e 923d d126 a93e 606c 06bf ab9e e0be
000002b0: a64b 82bf 480b 0ebe 2093 50be f9b7 53bf
000002c0: 2072 d0ba fc24 29bf 5cbd 1e3f b614 67bf
000002d0: 7bba 923e def2 59bf d7bb 653e df27 d4bd
000002e0: ea69 bd3e b3f9 0fbf 5406 d73e 4b18 a4be
000002f0: 53ce 993e 3432 84bd c1b2 723d 5330 77bd
00000300: da5f 51bf 763f 40be 860a 9a3e cfc5 88bf
00000310: 86fd 4fbf f6b8 53c0 d441 543d bc45 b0bf
00000320: da88 bd3e 3a07 e8be 2507 133f 2570 63bd
00000330: 27d6 163d 0bad 8a3e d10d 953e a44d 0b3f
00000340: 3f36 fd3b a850 533e 327e c9bd 41f4 583e
00000350: 9821 0f3d c841 bf3e 66d2 15bd eb7b 203f
00000360: fe8d 3a3e 58fd 39be c81b b83d 7b99 ac3b
00000370: c487 b33c f30a 2b3f e989 2bbf 795f 0b3e
00000380: ecc4 6cbe ef16 90bd cf95 bfbe 8067 703e
00000390: 308e b9be 6cd0 193d eb8e 7cbe c4d6 9fbe
000003a0: 6649 933d 61ef e2be 687d c9bd b797 61be
000003b0: bea4 67be 6d6b 07be edfe d2bc 539c 93bd
000003c0: e5ca ae3e d290 22be 1676 aebe 39e6 bf3e
000003d0: c038 473f 239b 893f 064c aa3d 1d35 153e
000003e0: a1c0 8bbe c4de ddbd a67c 6dbe 8427 a6bc
000003f0: 4ac7 aebe 4a11 77be 9558 5abe a8e8 8bbe

critic.0.bias f4 [64]
-0.5713421 -0.4144684 0.2409673 0.18811736 -0.47266576 0.33300743 -0.15660252 0.4566674
0.54955333 0.25215912 0.48055136 -0.5402672 0.46166468 0.32268703 0.17836283 -0.50866234
0.5246994 0.19115609 -0.45641118 -1.3972144 -0.7651188 -0.9430133 0.4477173 0.13529551
-0.23525792 -0.033471156 0.0056238654 -1.0516597 -1.008134 -0.82195014 -0.7895244 0.23276964
-0.3232049 0.19959822 0.42126012 -0.58402187 -1.5638318 0.26557124 0.0841055 0.599769
0.36800638 -1.0821459 -0.58352625 0.12732662 0.4307955 0.3474414 -0.042599324 -0.07605322
-1.2295558 -0.075463004 -0.06642861 -0.51785964 0.37371016 0.29970264 -0.09814747 0.21050246
0.598711 0.48478407 0.34437683 0.35093093 -0.84466225 0.2407723 0.15505585 -1.3616352
00000000: 7a43 12bf 3435 d4be 22c0 763e d6a1 403e
00000010: 3f01 f2be f37f aa3e 695c 20be 4fd0 e93e
00000020: 87af 0c3f 001b 813e d40a f63e f44e 0abf
00000030: 505f ec3e 3c37 a53e bfa4 363e b237 02bf
00000040: b352 063f 6cbe 433e baae e9be ecd7 b2bf
00000050: d3de 43bf 5269 71bf 343b e53e e88a 0a3e
00000060: 74e7 70be 0d19 09bd 6748 b83b c99c 86bf
00000070: 890a 81bf 536b 52bf 451e 4abf 2a5b 6e3e
00000080: 1d7b a5be 7a63 4c3e 68af d73e 7582 15bf
00000090: a42b c8bf f4f8 873e 813f ac3d 768a 193f
000000a0: 556b bc3e c283 8abf fa61 15bf e961 023e
000000b0: 3a91 dc3e d7e3 b13e a17c 2ebd cac1 9bbd
000000c0: 1662 9dbf 598c 9abd b90b 88bd 7392 04bf
000000d0: f056 bf3e a072 993e 8a01 c9bd f58d 573e
000000e0: 2045 193f 9e35 f83e 2952 b03e 38ad b33e
000000f0: c93b 58bf 048d 763e f6c6 1e3e 104a aebf

critic.2.weight f4 [32, 64]
-0.16409227 -0.11010104 -0.021295793 -0.2041487 5.541546e-05 0.16685091 -0.25786608 -0.3763328
0.27991337 -0.1534707 -0.31965697 -0.10627522 -0.394367 -0.34579748 -0.57902336 0.18767932
-0.50687903 -0.31212378 -0.15441869 -0.2190157 0.17954108 0.2062509 -0.584345 0.081784226
-0.27685758 -0.268913 -0.24759322 -0.10313425 0.01724663 0.08497772 0.038915303 -0.3196527
-0.0442175 -0.374261 -0.4341493 -0.02069804 -0.039077707 -0.0591139 -0.3509111 -0.37908074
-0.18681514 0.21359903 -0.36754498 -0.35398543 0.078321256 0.027152497 0.29944476 -0.13749449
0.10218694 -0.400316 -0.102309585 -0.012776931 -0.32672536 -0.105532765 -0.28781328 0.047921225
-0.15417065 0.008322136 -0.12515852 -0.081216425 0.022725858 -0.105464034 -0.20208627 0.3034575
-0.6501084 0.3614034 0.10356499 -0.41785824 -0.9144115 -2.1989982 -0.67743003 -1.6396161
0.8119696 0.054738104 -0.28104106 -0.06579949 -0.43270844 -0.3666671 -0.5006284 -0.69436336
-0.1958803 0.061671518 -0.047514353 0.12554695 0.60179216 0.3135882 -0.90458006 0.45268437
0.0032203607 -1.3465316 -1.5522745 0.3241142 0.8326208 -0.67758703 0.12885408 -0.7495106
-0.45423967 -0.30251822 -1.4294419 0.08620703 -0.64930797 -1.0013394 -0.049921684 -0.42832747
-0.5592444 0.7605971 -1.6170938 0.059220176 0.07522177 -0.61837393 0.39029977 0.86337566
-0.020741172 -0.8148865 0.28124428 0.4663313 0.07793882 -0.24344426 1.3962198 -2.5343022
-1.3223617 0.65186465 -0.2461355 0.7742486 -0.036500268 -0.39160562 -0.6155006 0.5100792
-0.12983578 0.50653505 -0.17460036 0.49296042 -0.5216023 0.022320593 -0.3202296 0.53501433
0.21746488 -0.12843509 0.34842825 -0.28095162 0.11338493 0.18028213 0.06334608 -0.38758773
-0.33688965 -0.11710219 0.25970167 -0.3952179 0.1902145 -0.44368905 0.23375379 0.26258203
0.20817657 -0.23003246 -0.15214512 -0.6358261 -0.35974258 -0.04022058 0.17990237 0.44039708
0.0141435 0.3882637 0.39357036 -0.07315426 1.0461801 0.26891574 0.11083477 0.28137752
0.2707866 -0.32268426 0.3962086 0.4392841 0.07225557 0.03985141 0.10443993 -0.6239128
-0.22266693 -0.13024141 0.19089676 -0.12557611 0.02422555 0.26946402 -0.6185642 0.17810993
0.35080808 -0.06019731 0.2686164 -0.27517235 0.35143608 0.4444908 0.00611892 -0.70479584
-0.16100964 0.15356168 0.18656904 -0.5728218 -0.8865973 -0.57968676 0.21599385 -0.24581999
0.29970574 -0.22701208 -0.06936754 0.33000156 0.3695014 0.14798893 -0.13597667 -0.88498753
-0.17052738 0.36651918 -0.08473663 -1.2830378 -0.5297125 -0.84396696 0.21995932 0.005622562
0.58332497 0.047048066 -0.037460536 -1.0176346 -0.7328721 -0.31357163 -0.090809524 -0.044640664
0.105003536 0.507071 0.39257005 -0.41677764 -0.35723084 0.25678897 -0.01888386 -0.054857485
-0.19509125 -0.8962905 -0.10705008 0.16037229 0.43339866 -0.20304133 0.091017134 -0.18746305
-1.0349518 -0.06804759 0.42176375 -0.6002715 -0.11752956 -0.44054508 -0.74215555 -0.31655854
0.1802009 0.055056926 -0.08471285 -0.16845572 -0.9132576 0.22299264 0.18452227 -1.3734086
00000000: ce07 28be a77c e1bd 8474 aebc 5b0c 51be
00000010: e66d 6838 f7da 2a3e 0607 84be b1ae c0be
00000020: ce50 8f3e 6c27 1dbe 14aa a3be d3a6 d9bd
00000030: 79ea c9be 5e0c b1be e03a 14bf 022f 403e
00000040: d3c2 01bf b0ce 9fbe ef1f 1ebe a745 60be
00000050: 9ed9 373e 7033 533e a297 15bf 7d7e a73d
00000060: 47c0 8dbe f7ae 89be 1489 7dbe 0d38 d3bd
00000070: ce48 8d3c cd08 ae3d a765 1f3d 85a9 a3be
00000080: 691d 35bd 239f bfbe d148 debe f08e a9bc
00000090: f20f 20bd 6b21 72bd 9faa b3be df16 c2be
000000a0: 784c 3fbe b4b9 5a3e db2e bcbe 943d b5be
000000b0: e566 a03d ea6e de3c d350 993e 5bcb 0cbe
000000c0: 6347 d13d 38f6 ccbe b087 d1bd 5556 51bc
000000d0: 8c48 a7be 9021 d8bd 435c 93be 0c49 443d
000000e0: e9de 1dbe 9159 083c 8e29 00be cc54 a6bd
000000f0: 942b ba3c 87fd d7bd b4ef 4ebe c85e 9b3e
00000100: 816d 26bf de09 b93e e219 d43d 84f1 d5be
00000110: df16 6abf 63bc 0cc0 0e6c 2dbf f1de d1bf
00000120: 3ddd 4f3f 1035 603d 9de4 8fbe e2c1 86bd
00000130: f68b ddbe cabb bbbe 2f29 00bf ccc1 31bf
00000140: d894 48be 469b 7c3d 699e 42bd 618f 003e
00000150: 0d0f 1a3f a28e a03e 8f92 67bf 3fc6 e73e
00000160: b00c 533b 265b acbf eeb0 c6bf 4cf2 a53e
00000170: a326 553f 5876 2dbf 53f2 033e eddf 3fbf
00000180: 1a92 e8be abe3 9abe f4f7 b6bf 508d b03d
00000190: 0c39 26bf e42b 80bf ae7a 4cbd bd4d dbbe
000001a0: a42a 0fbf 7eb6 423f eefc cebf db90 723d
000001b0: df0d 9a3d c14d 1ebf 5fd5 c73e 3006 5d3f
000001c0: 64e9 a9bc 679c 50bf 40ff 8f3e fac2 ee3e
000001d0: 639e 9f3d 7449 79be 55b7 b23f 0232 22c0
000001e0: 2643 a9bf 9ae0 263f f20a 7cbe 2835 463f
000001f0: 4e81 15bd 8880 c8be 7391 1dbf 8d94 023f
00000200: acf3 04be 48ac 013f 70ca 32be 4f65 fc3e
00000210: ba87 05bf add9 b63c 22f5 a3be b3f6 083f
00000220: 1daf 5e3e 7d84 03be 3065 b23e e4d8 8fbe
00000230: 5c36 e83d e19b 383e 97bb 813d e671 c6be
00000240: cd7c acbe 46d3 efbd 9ef7 843e 005a cabe
00000250: 97c7 423e 362b e3be 275d 6f3e 2771 863e
00000260: 3d2c 553e a18d 6bbe eecb 1bbe 80c5 22bf
00000270: 2e30 b8be 56be 24bd 5438 383e ba7b e13e
00000280: 23ba 673c 80ca c63e 0e82 c93e e7d1 95bd
00000290: 3be9 853f 53af 893e 57fd e23d b710 903e
000002a0: 8ba4 8a3e df36 a5be dbdb ca3e d8e9 e03e
000002b0: bafa 933d 3b3b 233d 9ae4 d53d c0b8 1fbf
000002c0: cd02 64be 015e 05be 717a 433e 0697 00be
000002d0: a974 c63c 30f7 893e 395a 1ebf 7362 363e
000002e0: 1e9d b33e 7491 76bd 1788 893e 64e3 8cbe
000002f0: 6eef b33e 4c94 e33e 3981 c83b 806d 34bf
00000300: b6df 24be 463f 1d3e f40b 3f3e 73a4 12bf
00000310: 0af8 62bf 5a66 14bf 7e2d 5d3e 3cb8 7bbe
00000320: 0873 993e db75 68be 9210 8ebd f7f5 a83e
00000330: 4a2f bd3e 698a 173e 783d 0bbe 8b8e 62bf
00000340: bb9e 2ebe 67a8 bb3e 668a adbd 953a a4bf
00000350: 3d9b 07bf 380e 58bf 043d 613e 783d b83b
00000360: c954 153f 79b5 403d 3870 19bd da41 82bf
00000370: 829d 3bbf 768c a0be 58fa b9bd 21d9 36bd
00000380: 180c d73d 68cf 013f f1fe c83e e163 d5be
00000390: f6e6 b6be d879 833e 53b2 9abc 3eb2 60bd
000003a0: 00c6 47be 4b73 65bf 133d dbbd a238 243e
000003b0: 6ee6 dd3e 11ea 4fbe 3167 ba3d 50f6 3fbe
000003c0: 4d79 84bf 895c 8bbd 6bf1 d73e 65ab 19bf
000003d0: 57b3 f0bd 208f e1be e8fd 3dbf f613 a2be
000003e0: 9686 383e 5f83 613d ee7d adbd a87f 2cbe
000003f0: 40cb 69bf 2f58 643e 68f3 3c3e dacb afbf

critic.2.bias f4 [32]
-0.33937126 0.018064562 0.35771364 0.41182134 0.39505088 0.33919632 0.09729898 -0.18917167
0.4929384 0.6214266 -0.18810527 -0.2473015 0.51786876 0.37663 0.49215278 0.32679954
-0.20572418 0.41110152 0.4026118 0.52183634 0.57401264 0.33010572 -0.29821926 -0.18671544
-0.2904271 0.22594985 -0.35495144 0.43109682 -0.18210806 -0.11343788 -0.09011141 -0.22065967
00000000: 12c2 adbe 22fc 933c 3e26 b73e 3fda d23e
00000010: 1c44 ca3e 24ab ad3e b044 c73d 38b6 41be
00000020: 6c62 fc3e d015 1f3f ab9e 40be 9b3c 7dbe
00000030: 0c93 043f a6d5 c03e 73fb fb3e 4552 a73e
00000040: 5ca9 52be e67b d23e 2223 ce3e 1197 053f
00000050: 7ef2 123f 9e03 a93e 32b0 98be 5532 3fbe
00000060: dcb2 94be 665f 673e 32bc b5be b9b8 dc3e
00000070: 897a 3abe 1f52 e8bd 558c b8bd 9cf4 61be

critic.4.weight f4 [1, 32]
-0.40316322 -1.5052251 0.20863084 0.4023703 0.33686295 0.5137227 -0.2665798 -0.43943596
0.4260017 0.57332623 -1.0149081 -0.4161942 0.62217444 0.42224973 0.3220017 0.31926486
-0.33858806 0.39132163 0.41033965 0.34884316 0.46410906 0.4690557 -0.5152139 -0.38692385
-0.7188931 0.23031007 -0.8803622 0.43428057 -0.9781155 -0.34273827 -1.8699322 -0.7383064
00000000: 696b cebe 37ab c0bf 53a3 553e 7b03 ce3e
00000010: 4d79 ac3e 5583 033f 267d 88be c0fd e0be
00000020: e51c da3e 82c5 123f 82e8 81bf 6817 d5be
00000030: d346 1f3f 1e31 d83e 68dd a43e af76 a33e
00000040: 6a5b adbe 4f5b c83e 0a18 d23e 929b b23e
00000050: b49f ed3e 1228 f03e 0fe5 03bf e21a c6be
00000060: 6109 38bf 67d6 6b3e 6b5f 61bf 065a de3e
00000070: c765 7abf 647b afbe f059 efbf a601 3dbf
