logs/exp/model_5.pt (torch, 34660 bytes, 12 tensors)

log_std f4 [3]
0	0xbcb585ce	-0.02215853
1	0xbb185e69	-0.0023249632
2	0xbd00778a	-0.031364

actor.0.weight f4 [64, 24]
0	0xbe8e7aec	-0.27828157
1	0xbcabe18a	-0.020981569
2	0x3eac3751	0.33635953
3	0xbde83594	-0.11338344
4	0x3e0c94ae	0.13728592
5	0x3e0c24dc	0.13685936
6	0x3d22b9ea	0.039728083
7	0x3e8f1191	0.2794309
8	0x3e777bb9	0.2416829
9	0xbe8407d7	-0.2578723
10	0x3d0c9317	0.034319963
11	0xbdd357c1	-0.10319472
12	0xbea18858	-0.31549335
13	0x3e231a94	0.15928108
14	0xbe1f6322	-0.1556516
15	0xbeb3c4d6	-0.3511111
16	0x3c16a83c	0.009195384
17	0x3d2208cd	0.039559174
18	0x3e8f8ee4	0.28038704
19	0xbeaf0d87	-0.34190008
20	0x3e10d2e6	0.14142951
21	0xbc41467e	-0.011796592
22	0xbce5a56e	-0.028032985
23	0x3dcd870a	0.10035522
24	0xbcca49cc	-0.024693392
25	0x3e14d93f	0.14535998
26	0x3dc8ff89	0.098143645
27	0xbeb6a1e8	-0.356704
28	0xbe8cc005	-0.2749025
29	0x3d7976e1	0.060904387
30	0x3c5e99ec	0.0135865025
31	0x3e310dae	0.17290375
32	0xbd4c7c89	-0.049923453
33	0xbc566b8b	-0.013087164
34	0x3d3d8a7f	0.04627466
35	0xbdf5f1dd	-0.120090224
36	0x3e5e179b	0.21688692
37	0xbe56d208	-0.20978558
38	0x3e8ba6f0	0.272758
39	0xba94f8c3	-0.0011365641
40	0x3d96f057	0.0737006
41	0xbe08fdcb	-0.13378064
42	0xbcae8e81	-0.021308186
43	0xbda9662f	-0.08271443
44	0xbe304f9e	-0.17217872
45	0x3dc77285	0.0973864
46	0x3e1a3850	0.15060544
47	0x3c36e464	0.011162851
48	0x3db6ad81	0.08919812
49	0xbe259016	-0.16168246
50	0x3dce6c98	0.10079306
51	0x3c9c5897	0.019085212
52	0x3dd49201	0.103794105
53	0x3e9a0f89	0.30089977
54	0x3dcaf099	0.099091716
55	0xbe7b1a6c	-0.24521798
56	0x3ec07783	0.3759118
57	0xbd846592	-0.064646855
58	0x3df29357	0.11844509
59	0xbe3470b2	-0.17621115
60	0x3e0a3aaf	0.13498949
61	0xbe24959a	-0.16072693
62	0x3eb3257b	0.34989533
63	0xbeaecf6f	-0.34142634
64	0xbeb35d75	-0.3503224
65	0xbcb2c8c4	-0.021824248
66	0xbe45be47	-0.19310866
67	0x3e1acb21	0.1511655
68	0xbcfac007	-0.030609144
69	0x3deaf46c	0.11472401
70	0xbd8e9ddb	-0.06963702
71	0xbe4341ac	-0.1906802
72	0xbd9eaf45	-0.07748274
73	0x3e9c2327	0.3049557
74	0xbd30bc10	-0.0431481
75	0xbe96bd1a	-0.29441148
76	0xbe4f92b6	-0.2027081
77	0xbc43e8e5	-0.011957382
78	0xbe55d544	-0.20882136
79	0xbec45277	-0.38344166
80	0x3d627301	0.055285458
81	0x3e04218a	0.12903419
82	0xbe66118f	-0.22467636
83	0x3d72e364	0.059298888
84	0x3d0bdf57	0.03414854
85	0x3e574245	0.21021374
86	0x3d9225ae	0.07136093
87	0xbe967f21	-0.29393867
88	0xbd43e707	-0.047827747
89	0xbd4929aa	-0.049112
90	0xbc22e7bb	-0.009942944
91	0x3d10b039	0.03532431
92	0x3d3c6740	0.045996904
93	0xbe60f0a2	-0.21966794
94	0xbe1991d2	-0.14997032
95	0x3d2f53b4	0.042804435
96	0xbe19fc43	-0.15037636
97	0xbc7cba43	-0.015425268
98	0x3e0c149b	0.13679735
99	0xbebea8dc	-0.37238204
100	0x3f128c51	0.57245356
101	0x3f22a8f2	0.6353904
102	0x3d4ee26c	0.0505089
103	0x39752925	0.00023380348
104	0xbdb1c556	-0.08680217
105	0x3d0d4932	0.034493633
106	0xbcb99ddd	-0.022658283
107	0xbdd139b8	-0.10216087
108	0xbe07d38a	-0.1326429
109	0xbd39c783	-0.045356285
110	0xbe844e74	-0.25841105
111	0xbcb6c463	-0.022310441
112	0xbe24465a	-0.16042462
113	0x3d78e947	0.060769346
114	0xbd429c67	-0.04751244
115	0x3e36bfe8	0.17846644
116	0x3dfa8684	0.12232688
117	0xbdaacdf4	-0.08340064
118	0x3d84ba48	0.06480843
119	0xbc41f9e5	-0.011839365
120	0xbeaff3a8	-0.34365582
121	0xbe3ff2e8	-0.18745005
122	0x3e1cdcf4	0.15318662
123	0x3e34128b	0.17585199
124	0xbea21f02	-0.31664282
125	0x3f0b813b	0.54494065
126	0x3e2e444e	0.17018244
127	0x3d6d53a7	0.057941105
128	0x3d4bbb6f	0.049739297
129	0x3e2d2006	0.16906747
130	0x3b70d7d9	0.003674975
131	0x3df9fe41	0.12206698
132	0x3da34167	0.07971459
133	0x3d3798a0	0.04482329
134	0x3c866a46	0.016408097
135	0x3eac2fb7	0.33630154
136	0xbd9380ad	-0.07202277
137	0x3e087391	0.13325335
138	0x3e41544f	0.18879817
139	0xbdf92857	-0.12165897
140	0xbdeab855	-0.1146094
141	0xbda107f9	-0.07862849
142	0xbd3633ad	-0.044482876
143	0x3cbae1d3	0.02281276
144	0x3e779b5c	0.24180359
145	0x3e5ec8e4	0.21756321
146	0xbe349d11	-0.17638041
147	0xbe19e273	-0.1502779
148	0x3e47ebd6	0.19523558
149	0x3bbaa19b	0.0056955344
150	0x3edc5694	0.43034804
151	0xbe9bd538	-0.3043611
152	0x3ea2460c	0.31694067
153	0xbe1df925	-0.15427072
154	0x3de2f8fd	0.11082647
155	0xbdd87902	-0.105699554
156	0xbbf6be14	-0.0075299833
157	0xbe14477c	-0.14480394
158	0x3eaeafcb	0.34118494
159	0x3e0c1c42	0.13682655
160	0xbe944549	-0.2895911
161	0x3dafbdff	0.08581161
162	0xbdda07a5	-0.10645989
163	0xbe36467b	-0.17800324
164	0xbd37e6a3	-0.044897687
165	0x3e115238	0.1419152
166	0x3c96c081	0.01840234
167	0x3ac9e512	0.0015403351
168	0x3e0c60e6	0.13708839
169	0xbe46f81d	-0.19430585
170	0xbc977541	-0.018488528
171	0xbf1d6afb	-0.61491364
172	0x3e37da0a	0.17954269
173	0x3c28572f	0.010274692
174	0xbe440a83	-0.19144635
175	0x3e8f8a3f	0.2803516
176	0x3db1415d	0.08655045
177	0x3e3c3eca	0.18383327
178	0x3e5ca176	0.21545967
179	0x3e72a23e	0.23694703
180	0xbde732c9	-0.112889834
181	0xbdbb8737	-0.091566496
182	0x3d87946e	0.066201076
183	0xbd6b0d1a	-0.05738554
184	0x3ecd6592	0.40116554
185	0xbe3ba3e6	-0.18324241
186	0xbda46233	-0.080265425
187	0xbe14054f	-0.1445515
188	0xbe408ca8	-0.18803656
189	0x3bdfce1b	0.0068299896
190	0xbe97703d	-0.2957782
191	0x3e250fc1	0.16119291
192	0x3e5df748	0.21676362
193	0x3d43f7f4	0.04784389
194	0x3e1feb99	0.15617217
195	0x3e515a34	0.20444566
196	0x3ef45aba	0.4772547
197	0x3cb00dd3	0.021490967
198	0x3d1d4172	0.03839249
199	0xbd097698	-0.033560365
200	0x3ecbdd94	0.39817488
201	0x3da7b580	0.08188915
202	0xbe39a49c	-0.181292
203	0x3e621db5	0.22081645
204	0x3e043951	0.1291249
205	0x3e9df340	0.30849648
206	0xbe2b2919	-0.16714896
207	0xbcbdcd50	-0.02316919
208	0xbd193bfc	-0.03741072
209	0xbd6302c4	-0.05542256
210	0x3e040ffd	0.12896724
211	0xbd9fc2c3	-0.0780082
212	0x3e32730f	0.17426704
213	0x3cf6827e	0.03009152
214	0xbe321056	-0.17389044
215	0x3d822c72	0.063561335
216	0x3dcaed77	0.09908574
217	0xbd00a541	-0.0314076
218	0xbc5d6a20	-0.013514072
219	0xbe9ba678	-0.30400443
220	0xbe4433e8	-0.19160426
221	0xbe9c8d46	-0.30576533
222	0x3d0180a0	0.031616807
223	0x3e34579d	0.17611547
224	0xbd5f6636	-0.054540835
225	0xbddb9e16	-0.10723512
226	0xbe51e4ac	-0.20497388
227	0x3e14428a	0.14478508
228	0xbe028677	-0.12746607
229	0x3e2a7923	0.16647772
230	0xbe5616d2	-0.20907143
231	0x3e940c65	0.28915706
232	0xbe30f8fe	-0.17282483
233	0xbe86d5ad	-0.26334897
234	0xbdb6c916	-0.08925073
235	0x3dc34e62	0.09536435
236	0xbded9525	-0.11600713
237	0x3d328292	0.043581553
238	0x3e52970f	0.20565437
239	0x3d3f73e2	0.046741374
240	0xbe1b181c	-0.15145916
241	0xbdd859d8	-0.10564011
242	0xbe499e76	-0.19689354
243	0xbc95fc34	-0.018308736
244	0xbe81da1c	-0.25361717
245	0xbd9b7a86	-0.07591729
246	0x3e3d5d94	0.18492728
247	0x3e4a3648	0.19747269
248	0x3e773ac2	0.24143508
249	0xbe03778e	-0.12838575
250	0xbe1904ba	-0.1494321
251	0xbe0466fc	-0.1292991
252	0xbdaf3a2f	-0.085560195
253	0x3d97c246	0.074101016
254	0xbd102ff3	-0.035201978
255	0x3d880fb6	0.066436216

actor.0.bias f4 [64]
0	0x3caf8526	0.021425795
1	0xb84581a4	-4.7089197e-05
2	0xbdd6c640	-0.10487032
3	0xbdba8283	-0.091069244
4	0x3da6b44a	0.08139856
5	0x3e54934d	0.20759316
6	0xbda6e1f5	-0.08148567
7	0x3d7e4445	0.062076826
8	0xbe5cf7b5	-0.21578868
9	0xbe763da2	-0.24046949
10	0x3de967dd	0.113967635
11	0xbe372062	-0.17883447
12	0xbdcf3e1f	-0.101192705
13	0x3e81580c	0.25262487
14	0xbe7850cd	-0.24249573
15	0x3d83e4e6	0.06440143
16	0xbc1d5dfa	-0.009604925
17	0xbe1d3d71	-0.1535547
18	0x3aa330c3	0.0012450445
19	0xbe3e7ba2	-0.1860185
20	0x3e0fce82	0.1404362
21	0xbdc85c73	-0.09783258
22	0xbd0b6821	-0.034034852
23	0x3bf60fdf	0.007509216
24	0xbe453e57	-0.19262062
25	0xbe7f18d8	-0.24911821
26	0xbe784b5b	-0.24247496
27	0x3ceed355	0.029153505
28	0xbe310acc	-0.17289275
29	0x3de079f7	0.10960763
30	0xbe27e0f2	-0.16394404
31	0xbe2a126d	-0.16608591
32	0xbe16c686	-0.14724168
33	0xbe5669a8	-0.20938742
34	0x3d353430	0.044239223
35	0xbe25b206	-0.16181192
36	0xbeb89c03	-0.36056527
37	0x3cdcb8fd	0.026943678
38	0xbe013595	-0.12618096
39	0xbd9f3747	-0.07774215
40	0xbd427d8f	-0.047483023
41	0xbdfee8c2	-0.12446739
42	0xbddd35fb	-0.108013116
43	0x3dd31ed9	0.10308618
44	0xbd74b7bf	-0.059745546
45	0x3e3acbd6	0.1824182
46	0xbd66ada0	-0.056317925
47	0xbd94fa29	-0.07274277
48	0x3cc28cc9	0.023748772
49	0xbe89bf6b	-0.26903853
50	0x3d22193e	0.039574854
51	0xbe3d51e7	-0.18488275
52	0xbe81d40a	-0.25357085
53	0xbc2d47fe	-0.010576246
54	0xbdf0f0de	-0.11764692
55	0xbd1184bd	-0.03552698
56	0x3d743b15	0.059626658
57	0x3d517178	0.051133603
58	0x3c958750	0.018252999
59	0xbe43009d	-0.19043203
60	0xbdce753e	-0.10080956
61	0x3da5b759	0.080916114
62	0x3e2a6cdf	0.16643094
63	0xbd22c5de	-0.039739482

actor.2.weight f4 [32, 64]
0	0x3c64e134	0.013969708
1	0x3dc84a9e	0.09779857
2	0xbeace352	-0.33767182
3	0xbd504f8b	-0.050857108
4	0xbd210b5c	-0.039317474
5	0xbe4de134	-0.2010544
6	0xbe83b5f6	-0.25724763
7	0xbda2bf6e	-0.079466686
8	0xbe3e4b9f	-0.18583535
9	0xbe56a36c	-0.20960778
10	0x3d333f1e	0.043761365
11	0xbe6c1116	-0.23053393
12	0xbde21567	-0.110392384
13	0xbdbe892e	-0.09303509
14	0xbea0693f	-0.31330296
15	0xbd93520f	-0.07193386
16	0xbed70148	-0.41993165
17	0x3f0017e2	0.5003644
18	0xbeb2326e	-0.348041
19	0x3d8d2b55	0.068930306
20	0x3e0dd4bb	0.13850681
21	0x3e08b164	0.13348919
22	0x3dc66ded	0.096889354
23	0xbe74d15e	-0.23907992
24	0x3d89074b	0.06690844
25	0x3d14b08a	0.036301173
26	0x3e727a7b	0.23679535
27	0xbe945a7b	-0.2897528
28	0xbd080cdb	-0.033215385
29	0xbd6040b6	-0.054749213
30	0xbe979b8d	-0.29610863
31	0xbe5f5cda	-0.21812764
32	0xbeb147c5	-0.34625068
33	0x3e0d4992	0.13797596
34	0xbce21f44	-0.0276028
35	0x3dbd03c0	0.09229231
36	0xbc670860	-0.014101118
37	0xbe5179b2	-0.2045658
38	0xbd7ed372	-0.06221337
39	0xbdb97c90	-0.090569615
40	0xbce31f57	-0.027724905
41	0x3dfd1745	0.12357954
42	0xbc732a23	-0.014841589
43	0xbd436822	-0.04770673
44	0xbde10f61	-0.109892614
45	0xbe28f0e4	-0.16498142
46	0x3e650322	0.22364476
47	0xbe32b73e	-0.17452714
48	0xbe4bc3a2	-0.19898847
49	0xbdadd7b5	-0.084884085
50	0xbe892749	-0.26787785
51	0x3eb1b766	0.34710234
52	0xbd19cace	-0.037546925
53	0xbd32afda	-0.043624736
54	0xbdc92391	-0.09821237
55	0x3d8aa254	0.06769243
56	0x3e2fccdd	0.17167993
57	0xbd90b978	-0.07066625
58	0x3e387b92	0.18015888
59	0x3e5e589c	0.2171349
60	0x3e0c9fff	0.13732909
61	0xbe84d03a	-0.25940114
62	0xbe4a8ac9	-0.19779505
63	0x3ec89d16	0.39182347
64	0xbe657a7e	-0.22410008
65	0x3c834afc	0.016026966
66	0xbd1a16c6	-0.037619375
67	0x3e3173a5	0.17329271
68	0xbd56af15	-0.052413065
69	0x3d7aadf2	0.061201043
70	0xbe57e16a	-0.21082082
71	0xbdfe258f	-0.124095075
72	0x3d6d1c63	0.0578884
73	0x3e30dd19	0.17271842
74	0x3e7504ac	0.23927563
75	0x3e49dcae	0.19713089
76	0xbe0e65ba	-0.13905993
77	0xbd4cb845	-0.04998042
78	0x3d1c8bc4	0.03821923
79	0xbf066131	-0.5249205
80	0xbc320075	-0.010864367
81	0x3e7a3a0d	0.24436207
82	0x3e83f1f9	0.25770548
83	0x3d64dd51	0.055875126
84	0xbe3ef22a	-0.18647066
85	0x3e25995b	0.16171782
86	0xbd8f52d5	-0.06998221
87	0xbe20d0e0	-0.1570468
88	0xbd9aa525	-0.0755103
89	0x3e4ea161	0.20178749
90	0x3e88ad40	0.2669468
91	0xbd24dd82	-0.04025031
92	0xbdba44b9	-0.09095139
93	0xbef71fd4	-0.4826647
94	0x3d1fa5d2	0.038976498
95	0xbe07853e	-0.13234422
96	0xbd3a41e4	-0.045472994
97	0x3e0030a8	0.12518561
98	0x3d763949	0.060113225
99	0x3e0c167f	0.13680457
100	0x3e31cbcc	0.17362899
101	0xbc07bd5f	-0.008284896
102	0x3e9c3955	0.3051249
103	0xbd1a8a39	-0.037729476
104	0xbdfce042	-0.12347461
105	0xbe3ee5db	-0.1864237
106	0x3e8fe838	0.28106856
107	0xbd89eea2	-0.06734969
108	0xbd8a9b2b	-0.06767877
109	0xbe28ab70	-0.16471648
110	0x3e0dbb0c	0.13840884
111	0x3e18a35f	0.14906071
112	0x3e64257f	0.22279929
113	0x3c17e041	0.009269775
114	0xbd8fddbf	-0.070247166
115	0xbe921ad0	-0.2853608
116	0x3d728b95	0.059215147
117	0x3eaf361c	0.3422097
118	0x3dcfa62f	0.10139119
119	0xbd8e3a02	-0.06944658
120	0xbe04a5a8	-0.12953818
121	0x3d3e9435	0.04652806
122	0x3cba0a37	0.022709949
123	0xbc6e8ac0	-0.014559448
124	0x3e1c15fb	0.1524276
125	0xbe47c9e0	-0.19510603
126	0xbd74255b	-0.059605937
127	0xbcf31b09	-0.029675977
128	0xbe69da38	-0.2283715
129	0xbe1abc43	-0.15110879
130	0x3dfb84e1	0.12281204
131	0xbe286b86	-0.16447267
132	0xbea27c99	-0.31735685
133	0x3e60c292	0.21949223
134	0xbd656b26	-0.056010388
135	0x3dc32559	0.09528608
136	0xbddce85e	-0.10786508
137	0xbe2e936f	-0.17048429
138	0xbd808300	-0.06274986
139	0xbe183d8e	-0.14867231
140	0x3e825b9e	0.25460523
141	0xbe970e17	-0.29502937
142	0xbe4068b9	-0.18789949
143	0xbddb5885	-0.10710243
144	0xbd832fc9	-0.06405599
145	0x3ca51b9d	0.020154769
146	0x3dbf6055	0.09344546
147	0xbd94cb70	-0.07265365
148	0xbde2239e	-0.1104195
149	0x3ea94a16	0.33064336
150	0xbde1a186	-0.11017136
151	0x3cf9201b	0.030410817
152	0xbeaffa08	-0.34370446
153	0xbd995db0	-0.074885726
154	0xbd2a786c	-0.04161875
155	0x3e13acab	0.14421336
156	0xbdc029c4	-0.09382966
157	0xbd267ca7	-0.04064622
158	0xbe221194	-0.15827018
159	0xbe71912a	-0.23590532
160	0x3e44cbf7	0.19218431
161	0xbd972ca5	-0.07381562
162	0x3d45f29d	0.048327077
163	0xbd3241ed	-0.043519903
164	0xbc18635e	-0.009301035
165	0x3e3520c4	0.1768828
166	0x3d90dc71	0.07073296
167	0xbc79c1bc	-0.015243944
168	0xbbcc7521	-0.006239549
169	0x3bf451bd	0.007456033
170	0xbb4fa61f	-0.003168471
171	0x3dd61514	0.10453239
172	0xbee0276e	-0.43780082
173	0xbcc2338e	-0.023706224
174	0x3e60eb48	0.21964753
175	0x3ea97a70	0.33101225
176	0x3e2f6c01	0.17131044
177	0x3da604f9	0.08106417
178	0xbdb3385c	-0.08750984
179	0x3eaa609d	0.33276835
180	0xbc4d4371	-0.012528286
181	0xbeaa4748	-0.33257508
182	0xbe133e77	-0.14379297
183	0xbd440074	-0.047851995
184	0x3e8b2774	0.27178538
185	0x3d05cc99	0.032665823
186	0xbe3975a1	-0.18111278
187	0x3dbfc9d9	0.09364671
188	0x3db601d5	0.08887068
189	0x3d37a27f	0.044832703
190	0x3dd70d48	0.1050058
191	0xbda4c1ff	-0.08044814
192	0x3d93abb0	0.07210481
193	0xbcb0bab2	-0.021573398
194	0x3df17d81	0.11791516
195	0x3cf42d28	0.029806688
196	0x3ddb8964	0.107195646
197	0xbd291bc6	-0.041286252
198	0x3ecc95f5	0.39958158
199	0x3deb69de	0.11494802
200	0x3e8c78b1	0.2743583
201	0xbe833727	-0.25628015
202	0xbcd97326	-0.026544165
203	0x3d58823e	0.052858584
204	0xbd8cc4c4	-0.068734676
205	0xbe168160	-0.1469779
206	0xbc828bb2	-0.015935753
207	0xbe220499	-0.15822066
208	0xbd887ed7	-0.06664818
209	0xbd96baff	-0.073598854
210	0xbd930efd	-0.07180593
211	0xbe139ec2	-0.1441603
212	0xbe772d40	-0.24138355
213	0xbd31e862	-0.04343451
214	0xbdfb4baf	-0.12270295
215	0x3df05a31	0.11735953
216	0x3eaabce4	0.33347237
217	0x3ea5593b	0.3229464
218	0x3de96314	0.11395851
219	0x3e55cb8e	0.20878431
220	0x3d5eb583	0.05437232
221	0xbe867dbe	-0.2626781
222	0xbe229b10	-0.15879464
223	0xbdcdc60d	-0.10047541
224	0x3e85eb6b	0.26156172
225	0xbd10b24f	-0.0353263
226	0xbb2b0e0a	-0.0026100897
227	0xbd1e0a91	-0.038584296
228	0x3d9752d5	0.07388846
229	0xbec37eb1	-0.38182595
230	0xbe5c2a08	-0.21500409
231	0xbda20270	-0.07910621
232	0xbd8bb277	-0.06821149
233	0x3dec5dde	0.11541341
234	0x3ab5e6a1	0.0013877937
235	0x3dba56a6	0.09098558
236	0xbe8a65bb	-0.2703074
237	0xbdb15722	-0.086591974
238	0x3e55103d	0.20806976
239	0xbbaa1f1c	-0.005191697
240	0x3e2de907	0.16983424
241	0xbda117ce	-0.078658685
242	0x3d94cdf4	0.07265845
243	0xbe569376	-0.2095469
244	0x3e1bca67	0.15213929
245	0x3d533f64	0.051574126
246	0x3e4e588d	0.20150967
247	0xbd9efbcc	-0.0776287
248	0x3e6b474f	0.22976421
249	0x3de1b1cd	0.11020241
250	0x3e7b9675	0.24569114
251	0x3d98e649	0.074657984
252	0x3e2f2d14	0.1710704
253	0xbc031c3e	-0.008002339
254	0xbea265dc	-0.31718338
255	0x3c99616e	0.018723216

actor.2.bias f4 [32]
0	0xbded6156	-0.11590831
1	0xbda1fbcc	-0.079093546
2	0xbda8b940	-0.08238459
3	0xbe2d6017	-0.16931187
4	0xbd6609ef	-0.056161817
5	0x3d69d7ca	0.057090558
6	0xbe18e281	-0.14930154
7	0x3db3e49a	0.08783837
8	0x3d4fa1d7	0.050691452
9	0x3b9f94aa	0.004870017
10	0x3db4fa41	0.08836795
11	0xbdffa760	-0.12483096
12	0xbe345364	-0.17609936
13	0x3dc6e27c	0.09711167
14	0x3d0c0bb1	0.034190837
15	0xbc3e85f8	-0.01162862
16	0x3d5efd50	0.054440796
17	0xbe029275	-0.12751181
18	0xbdaa23e1	-0.083076246
19	0xbde79812	-0.11308302
20	0xbe0af26e	-0.13569042
21	0xbdc305be	-0.095225796
22	0xbdaabcae	-0.08336769
23	0x3dbcc315	0.092168964
24	0xbdccf734	-0.10008088
25	0x3cdab153	0.026695883
26	0xbe06104b	-0.13092153
27	0x3dab66f0	0.08369243
28	0xbcbca07d	-0.023025746
29	0xbce9a303	-0.028520113
30	0xbd119838	-0.035545558
31	0xbd26e2ec	-0.040743753

actor.4.weight f4 [3, 32]
0	0x3b3d43a8	0.0028879438
1	0xbbad03e2	-0.005280004
2	0xbc9564c8	-0.018236533
3	0x3c025c25	0.007956539
4	0xbc06c70d	-0.008226168
5	0x3bf71b4b	0.0075410954
6	0x3c567a34	0.013090659
7	0xbbadedcb	-0.005307888
8	0xbb83be09	-0.0040204567
9	0xbbd95b58	-0.0066332035
10	0x3abbc9d2	0.0014327115
11	0xbbbb4753	-0.0057152896
12	0xbcb93d54	-0.022612251
13	0xbc9dc77f	-0.019260166
14	0x3bc9048f	0.0061345766
15	0x3c8ededa	0.017440248
16	0x3b98b09a	0.0046597244
17	0x3c0e21bc	0.008675035
18	0xba9ac750	-0.0011808667
19	0xbaf47d34	-0.0018653036
20	0x3c63a39d	0.013893989
21	0xbb4cf985	-0.0031276655
22	0xbc7596e3	-0.0149895875
23	0xbced076e	-0.028934207
24	0xba9fc0d9	-0.001218821
25	0x3c41152b	0.011784832
26	0x3bf2b4f8	0.007406827
27	0x3c47c338	0.01219254
28	0xbbad9375	-0.0052971193
29	0x3c4da1a1	0.012550742
30	0xbbbbcd3e	-0.005731254
31	0x3b990a1d	0.004670395
32	0x3cc4e038	0.024032697
33	0xbc10b922	-0.008833202
34	0x3c79ac9e	0.015238909
35	0xbc7ff238	-0.015621714
36	0xbbfbf9a2	-0.0076896707
37	0x3a481ab1	0.0007633372
38	0x3cbe386d	0.023220265
39	0x3cb29869	0.02180119
40	0x398710a7	0.00025761614
41	0x3bea7249	0.007154737
42	0xb9259773	-0.00015792045
43	0x3b098af5	0.0020987366
44	0x3d24d0b1	0.040238086
45	0x3b94e5fc	0.004544018
46	0xbcedad77	-0.029013379
47	0x3c91448b	0.01773288
48	0xbc55e736	-0.013055613
49	0xbc415123	-0.01179913
50	0x3cdfebdb	0.027334144
51	0xbb48a52f	-0.0030616035
52	0xbcdb89bb	-0.026799073
53	0xbd0b3463	-0.033985507
54	0x3b6c3cf7	0.003604708
55	0x3cad3684	0.02114416
56	0xbca8df55	-0.020614306
57	0xbcb3e76b	-0.021960935
58	0xbd008118	-0.031373113
59	0xbb4240ef	-0.0029640754
60	0xbb7ec8a4	-0.0038876915
61	0xbc802cec	-0.01564642
62	0xbb768e0d	-0.003762129
63	0xbce4fe57	-0.02795331
64	0xbcacd87c	-0.021099322
65	0x3a9b4c5a	0.0011848316
66	0x3cc4ccb6	0.024023395
67	0x3bbb110e	0.00570882
68	0xbbf8a248	-0.007587705
69	0x3c5d412f	0.0135043105
70	0xbaca98b0	-0.0015456881
71	0x3c99ae97	0.018760009
72	0x3c7fc38b	0.015610586
73	0x3c43f8d8	0.011961184
74	0xbc6d135c	-0.014469948
75	0x3c806832	0.015674684
76	0xbcdc8c7e	-0.02692246
77	0x3b48f931	0.0030666108
78	0xbaf5cd82	-0.0018753263
79	0xbb6facdd	-0.003657154
80	0x3cdd59e9	0.027020412
81	0x3d28921f	0.041154977
82	0x3bb4fb6e	0.005523137
83	0xbb5ef435	-0.003402007
84	0xbc084108	-0.008316286
85	0x3cb5f798	0.022212788
86	0x39eeedfd	0.00045572213
87	0xbb81dfb5	-0.0039634355
88	0xbaaa1ccc	-0.0012978553
89	0xbbcf2de4	-0.0063226093
90	0x3cbc5923	0.022991722
91	0x3c4513c9	0.012028643
92	0x3c34ee45	0.011043136
93	0x3acea70b	0.0015766335
94	0x3bb2f3de	0.0054612
95	0x3c3bea95	0.011469503

actor.4.bias f4 [3]
0	0x3e277c3c	0.16355985
1	0xbd75cb80	-0.060008526
2	0x3e1af97a	0.1513423

critic.0.weight f4 [64, 24]
0	0xbe348184	-0.17627531
1	0xbc44457d	-0.011979458
2	0xbf168865	-0.5880187
3	0x3e110b3f	0.14164446
4	0x3e3a9780	0.18221855
5	0x3e8930ae	0.26794952
6	0x3e72153d	0.23640914
7	0x3dfde35f	0.12396883
8	0xbd2f1d64	-0.04275264
9	0x3e4ad3b0	0.19807315
10	0x3e4ee636	0.20205006
11	0x3eae4d9f	0.34043595
12	0x3e104169	0.14087452
13	0x3eee1473	0.46499977
14	0x3df0bf28	0.1175521
15	0x3cdf4d12	0.02725843
16	0x3e0aaadb	0.13541739
17	0x3eef28e9	0.467109
18	0xbea1afd8	-0.3157947
19	0xbdd9dc42	-0.10637714
20	0xbe3bbadc	-0.18333
21	0x3decb7a8	0.11558467
22	0x3da3a0cf	0.07989656
23	0x3c2623bb	0.010140355
24	0xbe90ed27	-0.28305933
25	0xbdf3b2e3	-0.11899354
26	0x3ee2fd69	0.44333962
27	0xbe8317ff	-0.25604245
28	0x3efad661	0.48991683
29	0xbeb65358	-0.3561046
30	0xbc536734	-0.0129030235
31	0xbf0b2446	-0.54352224
32	0x3e78c09f	0.24292229
33	0xbea886d2	-0.3291536
34	0x3eb785ca	0.3584426
35	0xbf09a4c5	-0.53767043
36	0x3ecb0ac1	0.39656642
37	0xbe450d61	-0.19243385
38	0x3e5cf01c	0.2157597
39	0xbf1f6205	-0.6225894
40	0xbe50a3e8	-0.20375025
41	0xbe1d625b	-0.15369551
42	0xbd8e5080	-0.06948948
43	0xbe892d02	-0.2679215
44	0x3e3ae533	0.18251495
45	0xbe98fb7c	-0.29879367
46	0xbe9d94ef	-0.3077769
47	0xbeb53f28	-0.35399747
48	0xbe3fe15d	-0.18738313
49	0x3ed0f4df	0.40811822
50	0xbdb5b57e	-0.088725075
51	0xbe6cfe3e	-0.2314386
52	0xbf83d349	-1.0298854
53	0xbeb0e224	-0.34547532
54	0xbd267b7c	-0.040645108
55	0x3e736eb8	0.23772705
56	0x3e818bc4	0.25301945
57	0x3efcb58e	0.49357265
58	0x3ee6aecc	0.45055234
59	0x3f0b44d4	0.544019
60	0xbd09b4e0	-0.03361976
61	0x3f638e9d	0.88889486
62	0x3ed070c8	0.40711045
63	0x3ed471e7	0.4149315
64	0x3e934050	0.28760004
65	0x3ec6166f	0.3868899
66	0x3ed1f583	0.41007623
67	0x3f10e9da	0.5660683
68	0x3e0e0c4f	0.13871883
69	0x3ee73a0b	0.4516147
70	0x3f00450c	0.5010536
71	0x3ea41501	0.32047275
72	0x3eaaea28	0.33381772
73	0x3e6e08db	0.23245566
74	0xbd450775	-0.048102815
75	0xbe921734	-0.28533328
76	0xbf770a23	-0.9649984
77	0x3e1e8080	0.15478706
78	0x3e81e205	0.25367752
79	0xbda1c667	-0.0789917
80	0x3eeed18e	0.46644253
81	0xbe4ad630	-0.19808269
82	0x3ec6cc8f	0.3882794
83	0x3d8b9a45	0.06816534
84	0x3eacbac0	0.3373623
85	0xbe8ef2ab	-0.27919516
86	0x3df7d90a	0.12101944
87	0xbe0e846f	-0.13917707
88	0x3e9b29cb	0.30305323
89	0x3dd726c8	0.10505444
90	0x3e03849c	0.12843555
91	0xbde51b28	-0.1118682
92	0xbe41aadf	-0.18912838
93	0xbe68f4cd	-0.22749634
94	0x3efd96d4	0.49529135
95	0xbce6a62c	-0.028155409
96	0xbde6ce28	-0.1126979
97	0xbea10135	-0.31446233
98	0xbef6a307	-0.48171255
99	0xbc8177ee	-0.015804257
100	0xbe877f39	-0.2646425
101	0x3f2ac994	0.66713834
102	0x3e311a0b	0.17295091
103	0x3f6a07a8	0.9141793
104	0x3e2969c6	0.16544256
105	0x3f378c65	0.716986
106	0x3e5e7e22	0.21727803
107	0x3f6087ef	0.8770742
108	0x3ed9a76d	0.42510548
109	0x3f0f43d5	0.5596288
110	0x3f20e316	0.62846506
111	0x3f49fe23	0.78903407
112	0x3f00e03b	0.5034215
113	0x3ea40709	0.32036617
114	0x3d33e21a	0.0439168
115	0x3f41766e	0.75571334
116	0x3f0bde7c	0.5463636
117	0x3f389779	0.7210613
118	0x3ea9e4b3	0.33182296
119	0x3eca514a	0.39515144
120	0x3e608472	0.21925524
121	0xbdea4c74	-0.114403635
122	0x3c96c34e	0.018403675
123	0xbe69431a	-0.22779503
124	0xbf43f908	-0.76551867
125	0x3eebaf6b	0.4603227
126	0xbd735ff0	-0.059417665
127	0x3edca3b4	0.43093646
128	0x3dd40d99	0.10354156
129	0xbdcb90ba	-0.09939714
130	0xbe3c42ea	-0.183849
131	0x3edea76a	0.43487102
132	0xbeac31f4	-0.3363186
133	0x3eb6423e	0.35597414
134	0xbce9af0c	-0.028525852
135	0x3e72fd56	0.23729452
136	0xbe092a4a	-0.13395038
137	0x3e6382ad	0.22217818
138	0xbd93864b	-0.07203349
139	0x3e378de0	0.17925215
140	0x3ea34174	0.31885874
141	0xbcd2ffa2	-0.02575666
142	0x3e3bceae	0.18340561
143	0x3e63d187	0.22247897
144	0x3e8de785	0.27715698
145	0xbe149a33	-0.14511947
146	0xbe7d9971	-0.24765565
147	0xbe5936e4	-0.21212345
148	0x3eb848e1	0.35993102
149	0x3f064369	0.5244661
150	0xbec553d1	-0.3854051
151	0x3df7633a	0.12079473
152	0xbe4cbd47	-0.19994079
153	0xbd29916e	-0.04139846
154	0xbec55c81	-0.38547137
155	0xbe352960	-0.17691565
156	0xbd168919	-0.03675184
157	0xbe1bc10c	-0.1521036
158	0xbdd84038	-0.10559124
159	0xbeaacd46	-0.33359736
160	0xbd82ccaf	-0.063866965
161	0xbe7e60d2	-0.24841622
162	0xbdc6131b	-0.09671613
163	0xbe434a51	-0.19071318
164	0xbcd4c5c4	-0.025973208
165	0xbea3d343	-0.31997117
166	0xbe9900a4	-0.298833
167	0xbe9110f0	-0.28333235
168	0x3e13c7e3	0.1443172
169	0x3e8dbf5f	0.27685067
170	0xbeee91f5	-0.4659573
171	0xbeb1fdde	-0.34763998
172	0xbf66aa98	-0.90104055
173	0x3ed1301c	0.40857017
174	0xbe2735b2	-0.16329077
175	0xbe65fac7	-0.22458945
176	0xbd41175b	-0.047141414
177	0xbe05ca69	-0.13065495
178	0x3f0c558d	0.5481804
179	0xbee75804	-0.45184338
180	0x3e63d645	0.22249706
181	0xbeed5372	-0.46352726
182	0x3e34420b	0.17603318
183	0x3e60e788	0.21963322
184	0x3eaf1394	0.34194624
185	0xbe97e7d8	-0.2966907
186	0x3edc1a76	0.42988938
187	0xbdcab911	-0.0989858
188	0x3eac90b0	0.33704138
189	0x3dda99e1	0.10673881
190	0x3ded9ee9	0.11602575
191	0x3d85dbcf	0.06536066
192	0xbd9f0563	-0.07764699
193	0xbe32785a	-0.17428723
194	0x3dfe2f28	0.12411338
195	0xbee18519	-0.44046858
196	0x3e260969	0.16214527
197	0xbf601a6e	-0.8754033
198	0x3e58fda4	0.21190506
199	0x3dde0456	0.10840671
200	0x3d73ebb6	0.059550963
201	0x3e902f6d	0.28161183
202	0x3e7221de	0.23645732
203	0x3e9b298a	0.3030513
204	0xbe8065d0	-0.25077677
205	0x3ed38c4d	0.41317979
206	0x3d9bd09e	0.0760815
207	0x3f0c4551	0.5479327
208	0xbe09e593	-0.13466482
209	0x3de771ea	0.11301024
210	0xbe26c686	-0.16286668
211	0x3d7463cd	0.05966549
212	0x3d018ecc	0.031630322
213	0x3e32e60e	0.17470571
214	0x3c570e3a	0.0131259505
215	0x3eca9729	0.3956845
216	0x3e36f449	0.17866625
217	0xbea819a6	-0.32832068
218	0xbdb99c88	-0.09063059
219	0xbef3700f	-0.4754643
220	0x3e4d7f20	0.20068026
221	0x3ef513e4	0.47866738
222	0xbeff3e6c	-0.49852312
223	0xbd09bd3d	-0.033627737
224	0xbda955af	-0.08268296
225	0xbe517187	-0.20453463
226	0xbe81d6b1	-0.2535911
227	0x3e036ae0	0.12833738
228	0xbe8977ed	-0.2684931
229	0xbd54a785	-0.05191757
230	0xbe2f884b	-0.17141835
231	0xbec7595c	-0.38935363
232	0x3e059c78	0.1304797
233	0xbf03ab0e	-0.51432884
234	0xbd5048fa	-0.050850846
235	0xbe927c97	-0.2861068
236	0xbe432c67	-0.19059907
237	0xbe477f1c	-0.19482082
238	0xbab76d41	-0.0013994352
239	0xbe05c42a	-0.13063112
240	0x3ec4745e	0.3837003
241	0xbe822f5b	-0.25426754
242	0xbea157de	-0.3151235
243	0xbd968a01	-0.07350541
244	0x3f1a89fb	0.6036679
245	0x3f27ee01	0.6559754
246	0x3cba04d0	0.022707373
247	0xbe23be74	-0.15990621
248	0xbe8791bd	-0.26478377
249	0xbe9a93a6	-0.30190772
250	0xbe4ee2ee	-0.20203754
251	0xbe14f27f	-0.1454563
252	0xbe9d4086	-0.3071329
253	0xbea6026e	-0.3242373
254	0xbe3b0380	-0.18263054
255	0xbea945d7	-0.33061096

critic.0.bias f4 [64]
0	0xbe8e55eb	-0.27799925
1	0xbe407aba	-0.18796816
2	0x3e3f575f	0.18685673
3	0x3e3ef6e0	0.18648863
4	0x3dbb250b	0.09137925
5	0x3e440499	0.19142379
6	0xbdc3d58d	-0.09562216
7	0x3eb62117	0.3557212
8	0x3e4ebfd0	0.20190358
9	0x3e67709e	0.22601554
10	0x3ec28fb3	0.3800026
11	0xbe933f23	-0.28759107
12	0x3eb4b327	0.35292932
13	0x3e03ba43	0.12864022
14	0x3e61e383	0.22059445
15	0xbe0971ff	-0.13422392
16	0x3eda7c1f	0.42672822
17	0x3dc825b8	0.09772819
18	0x3d08c2de	0.033388965
19	0xbeedb9a8	-0.46430707
20	0xbce9f138	-0.028557405
21	0xbe813f44	-0.2524358
22	0x3ecdfcff	0.40232083
23	0x3e0e18e0	0.13876677
24	0xbe1168d6	-0.14200148
25	0x3ca9f70b	0.020747682
26	0xbdc50ef3	-0.09621992
27	0xbe720d02	-0.23637775
28	0xbed0ad51	-0.4075723
29	0xbec816a1	-0.39079764
30	0xbe84768b	-0.2587169
31	0x3d8c5e51	0.06853927
32	0xbd248dc3	-0.040174257
33	0x3ddc504f	0.10757505
34	0x3ebee18c	0.37281454
35	0xbe37743d	-0.17915435
36	0xbe68aa1c	-0.22721142
37	0x3e242eec	0.16033524
38	0xbd580ab9	-0.0527446
39	0x3efbd999	0.4918945
40	0x3ea80f54	0.32824194
41	0xbedb2a6a	-0.42805797
42	0xbe9a19de	-0.3009786
43	0x3d417942	0.04723478
44	0x3ea117b9	0.3146341
45	0x3df3b1d4	0.118991524
46	0x3e058835	0.1304024
47	0x3e1d3039	0.15350427
48	0xbecf3855	-0.40472665
49	0x3dfe027e	0.12402819
50	0xbe1a1ed8	-0.15050828
51	0xbe866347	-0.26247618
52	0x3e3ec425	0.1862951
53	0x3e2bf448	0.16792405
54	0xbe279b81	-0.16367914
55	0xbdd9bb66	-0.106314465
56	0x3e8fc089	0.2807658
57	0x3ebf78c3	0.3739682
58	0x3e8b9efd	0.27269736
59	0x3e1fa957	0.15591942
60	0xbe99d52d	-0.30045453
61	0x3e1db7f2	0.15402201
62	0x3c71e944	0.0147650875
63	0xbeb6a3bf	-0.35671803

critic.2.weight f4 [32, 64]
0	0xbe2658f4	-0.1624487
1	0xbdce0ce1	-0.1006105
2	0xbcb11f0c	-0.02162125
3	0xbe542f82	-0.20721248
4	0xbbebe220	-0.007198587
5	0x3e206685	0.15664108
6	0xbe836311	-0.2566152
7	0xbebeaf71	-0.37243226
8	0x3e89a006	0.268799
9	0xbe1be77b	-0.15225022
10	0xbea341c3	-0.3188611
11	0xbdd63037	-0.10458415
12	0xbec4fd09	-0.384743
13	0xbeb08679	-0.34477594
14	0xbf13f2f6	-0.57792604
15	0x3e448a85	0.19193466
16	0xbf0258c9	-0.50916725
17	0xbea35c7d	-0.319065
18	0xbe1c82db	-0.15284292
19	0xbe442a8f	-0.1915686
20	0x3e394b71	0.18095185
21	0x3e54a64a	0.20766559
22	0xbf14e370	-0.5815954
23	0x3da9b52e	0.082865104
24	0xbe8bed8b	-0.27329668
25	0xbe8a0038	-0.26953292
26	0xbe8517b0	-0.25994635
27	0xbdd0a238	-0.10187191
28	0x3c9e3ffe	0.019317623
29	0x3dafd1f4	0.08584967
30	0x3d22369d	0.039602865
31	0xbea3a7fb	-0.31964096
32	0xbd3a88a7	-0.045540478
33	0xbebf3372	-0.37343937
34	0xbeddf0be	-0.43347734
35	0xbc99fda2	-0.0187977
36	0xbcb506ef	-0.022098033
37	0xbd68db81	-0.05684996
38	0xbeb2f539	-0.34952715
39	0xbec22320	-0.37917423
40	0xbe393e6e	-0.18090221
41	0x3e6eff3f	0.23339556
42	0xbebb0f00	-0.36534882
43	0xbeb3e02f	-0.35131976
44	0x3da59782	0.080855384
45	0x3ce46e53	0.027884638
46	0x3e7f95ad	0.2495944
47	0xbe0e1ecb	-0.13878934
48	0x3dd24a92	0.102681294
49	0xbece1430	-0.40249777
50	0xbdcd4ea3	-0.100247644
51	0xbc3233db	-0.010876621
52	0xbea6dc51	-0.32589963
53	0xbdd50660	-0.104016066
54	0xbe9294ca	-0.28629142
55	0x3d1df122	0.03856004
56	0xbe234bef	-0.15946935
57	0x3b183c50	0.0023229308
58	0xbdf91ff1	-0.121642955
59	0xbdbc0272	-0.09180154
60	0x3cc68ff3	0.024238562
61	0xbdd674bf	-0.10471486
62	0xbe46edde	-0.19426677
63	0x3ea1db9e	0.31612867
64	0xbeb989a1	-0.36237815
65	0x3d82d3df	0.063880675
66	0xbc3e57e9	-0.011617639
67	0xbe18652b	-0.14882343
68	0xbe4a8c4c	-0.19780082
69	0xbe7c2622	-0.24623922
70	0xbedeedba	-0.43540746
71	0xbf09e251	-0.53860956
72	0x3e722c75	0.23649772
73	0x3de5bf43	0.11218121
74	0xbe49b15e	-0.19696566
75	0x3cce2908	0.02516605
76	0xbdc2df81	-0.09515286
77	0xbeac7f21	-0.33690742
78	0x3d9c3c67	0.07628708
79	0xbe500b96	-0.2031692
80	0xbea31b18	-0.31856608
81	0xbdadf8ae	-0.084946975
82	0x3dfec92f	0.124407165
83	0x3de33605	0.11094288
84	0xbb025503	-0.0019887097
85	0xbde6233f	-0.112371914
86	0xbda88c07	-0.08229833
87	0x3e260afe	0.1621513
88	0xbe908193	-0.28223857
89	0xbf08f559	-0.5349937
90	0xbe74e863	-0.23916773
91	0xbe3b0571	-0.18263794
92	0x3e3f5863	0.1868606
93	0xbe1d4189	-0.15357031
94	0xbcab4765	-0.020908067
95	0xbe5bf5a1	-0.21480419
96	0x3e3a37ea	0.18185392
97	0xbdffa980	-0.124835014
98	0xbf0e8d2a	-0.5568415
99	0xbe312e4e	-0.1730282
100	0xbda9df35	-0.082945265
101	0xbe919d9d	-0.28440562
102	0xbe0f8080	-0.14013863
103	0xbe8eba5b	-0.27876553
104	0xbe87611a	-0.2644127
105	0x3e9c1817	0.3048713
106	0xbebe9db8	-0.37229705
107	0x3dd2ddd3	0.10296216
108	0xbda54689	-0.08070094
109	0xbee3f37e	-0.44521707
110	0x3d0df9f7	0.034662213
111	0x3e9171ad	0.2840704
112	0xbe2a3a33	-0.16623764
113	0xbe6ee9c0	-0.23331356
114	0x3deb8832	0.115005866
115	0x3a5a8a4a	0.0008336647
116	0x3c609561	0.01370749
117	0x3d368a76	0.04456564
118	0x3f16f900	0.58973694
119	0xbf68e254	-0.9097035
120	0x3cb94594	0.022616185
121	0x3dfb0f1e	0.12258743
122	0xbe059988	-0.13046849
123	0x3ec43f9c	0.3832978
124	0xbe5ab1fb	-0.21356957
125	0xbee525ce	-0.44755405
126	0xbe344ba0	-0.17606974
127	0x3e7701a0	0.24121714
128	0xbea1b421	-0.3158274
129	0x3ee17260	0.44032574
130	0xbdf2f551	-0.11863197
131	0x3ef6b4b7	0.4818475
132	0xbf102031	-0.5629912
133	0xbd0d5fa9	-0.034515057
134	0xbeb14ce0	-0.34628963
135	0x3efb59a4	0.49091828
136	0x3e3fa8c9	0.1871673
137	0xbca5ce94	-0.020240106
138	0x3ecb889a	0.39752656
139	0xbe8a79a4	-0.2704593
140	0x3d210478	0.039310902
141	0x3e480f49	0.19537081
142	0x3e477d16	0.1948131
143	0xbe9185df	-0.28422448
144	0xbe49e425	-0.19715936
145	0xbd140de1	-0.03614605
146	0x3e81ae5c	0.25328338
147	0xbe1eb258	-0.1549772
148	0x3d95db74	0.07317248
149	0xbeb47408	-0.35244775
150	0x3e656f68	0.2240578
151	0x3e8a7313	0.2704092
152	0x3e1bc57c	0.15212053
153	0xbd5eb126	-0.05436816
154	0xbe208b62	-0.1567817
155	0xbefd6c2d	-0.49496594
156	0xbe09070d	-0.13381596
157	0x3e4cd34e	0.20002481
158	0xbe483512	-0.19551495
159	0x3ebfdc59	0.374728
160	0x3e09b359	0.13447322
161	0x3ec0c828	0.37652707
162	0x3ee9bdd6	0.45652646
163	0xbc4b46a5	-0.01240698
164	0x3e5d62c9	0.21619715
165	0x3e66113c	0.22467512
166	0x3e32eb5c	0.17472595
167	0x3e8b471c	0.2720269
168	0x3e853b03	0.26021585
169	0xbe2145dd	-0.15749307
170	0xbe0bd521	-0.13655521
171	0x3eccb753	0.39983615
172	0x3dc90a28	0.0981639
173	0x3e0fac8f	0.1403067
174	0xbbda12c2	-0.006655068
175	0xbea36ad1	-0.31917432
176	0xbe59ad50	-0.2125752
177	0xbe72c2b7	-0.2370709
178	0x3e50c08c	0.20385951
179	0xbe66bbdd	-0.22532602
180	0x3db114ad	0.08646522
181	0x3e4c8b90	0.19975114
182	0xbf04d2a1	-0.51883894
183	0xbc19c090	-0.009384289
184	0x3e37675e	0.17910525
185	0xbdbc625b	-0.09198447
186	0x3eab30ec	0.33435762
187	0xbe47f624	-0.19527489
188	0x3e379fb6	0.17932019
189	0x3f08835b	0.5332543
190	0xbd98eb2e	-0.07466732
191	0xbecdf368	-0.40224767
192	0xbe77e712	-0.2420924
193	0x3ecca1ed	0.3996729
194	0x3db76ce3	0.08956315
195	0xbeed2b45	-0.46322075
196	0xbf27ba96	-0.6551908
197	0xbe863fd5	-0.26220575
198	0x3e80e691	0.25175908
199	0xbca20231	-0.019776436
200	0x3e872454	0.26394904
201	0xbdb81267	-0.08987885
202	0xbd20390a	-0.039116897
203	0x3e467a9f	0.19382714
204	0x3e91950b	0.28434023
205	0x3e9147d4	0.28375113
206	0xbc2e6319	-0.010643744
207	0xbf13e7f8	-0.5777583
208	0xbe3e9d86	-0.18614778
209	0x3e283b4c	0.1642887
210	0x3e3e79a6	0.18601093
211	0xbea1cf0a	-0.3160327
212	0xbd1b4a51	-0.03791267
213	0xbe8376f3	-0.2567669
214	0x3ea568c1	0.32306483
215	0x3e043c7f	0.12913702
216	0x3ed30f4c	0.41222608
217	0x3e0237c7	0.1271659
218	0x3e5cd793	0.2156661
219	0xbecc6a83	-0.39925012
220	0xbea75d74	-0.32688487
221	0xbe30330f	-0.17206977
222	0xbe32c84c	-0.1745922
223	0x3c22eed0	0.009944633
224	0x3d348670	0.044073522
225	0x3f05de47	0.52292293
226	0x3eeff382	0.4686547
227	0xbeb7122b	-0.3575605
228	0x3de05138	0.10952991
229	0x3eb35e2c	0.35032785
230	0x3d30ab66	0.04313221
231	0x3d521566	0.05128994
232	0xbe4e5be2	-0.20152238
233	0xbe84289a	-0.25812227
234	0xbd848c9e	-0.06472133
235	0x3e2c016d	0.16797419
236	0x3ed1f8e0	0.4101019
237	0xbdd03314	-0.101659924
238	0xbd0321cc	-0.032014653
239	0xbe871db5	-0.26389852
240	0xbf14fa04	-0.58193994
241	0xbe1395b1	-0.14412571
242	0x3e8b40dd	0.27197924
243	0xbeda1c26	-0.425996
244	0xbdeb23e1	-0.11481453
245	0xbe842093	-0.25806102
246	0xbf3f3430	-0.74689007
247	0xbe9c0e5f	-0.30479714
248	0x3d838e74	0.06423655
249	0x3ce31748	0.027721062
250	0xbd7b0b49	-0.06129006
251	0xbe3bf8c2	-0.18356612
252	0xbf0e1163	-0.5549528
253	0x3e8c160b	0.27360567
254	0x3c53424d	0.012894225
255	0xbeab190f	-0.33417556

critic.2.bias f4 [32]
0	0xbeae4748	-0.34038758
1	0xbe4b9f9b	-0.19885103
2	0x3e776536	0.24159703
3	0x3e81f830	0.25384665
4	0x3e8a5616	0.27018803
5	0x3e88d64c	0.26725996
6	0x3e2e3a39	0.17014398
7	0xbd260524	-0.040532246
8	0x3ea516a7	0.32243845
9	0x3e9bc56b	0.30424055
10	0xbd654308	-0.05597213
11	0xbe092be1	-0.13395645
12	0x3eac9063	0.33703908
13	0x3e247ba5	0.16062792
14	0x3e56ed3c	0.20988935
15	0x3e08df66	0.1336647
16	0xbe284fa3	-0.16436629
17	0x3e756c0c	0.23966998
18	0x3e9f636e	0.31130546
19	0x3e713c49	0.23558153
20	0x3e8693d5	0.26284662
21	0x3e1876ee	0.14889118
22	0xbe96f908	-0.2948687
23	0xbe3b88a3	-0.18313842
24	0xbe93e757	-0.28887436
25	0x3e42dddf	0.1902995
26	0xbe46d8fb	-0.19418709
27	0x3eb8029e	0.35939497
28	0xbe58eb4f	-0.21183513
29	0xbde010a6	-0.109406754
30	0xbdfe3c1b	-0.12413808
31	0xbd0079fc	-0.031366333

critic.4.weight f4 [1, 32]
0	0xbe9dc8ec	-0.30817354
1	0xbe92ba44	-0.28657734
2	0x3e73dedb	0.23815481
3	0x3e8680fd	0.26270285
4	0x3e7adf99	0.24499358
5	0x3edd60c5	0.43237892
6	0xbdd6e2ad	-0.10492454
7	0xbe801b97	-0.2502105
8	0x3eb5eb45	0.3553106
9	0x3eb5e6e8	0.3552773
10	0xbe16c8a3	-0.14724974
11	0xbef4fc3e	-0.47848696
12	0x3eddbf0b	0.43309817
13	0x3ec296bc	0.38005626
14	0x3e436742	0.19082358
15	0x3e460848	0.19339097
16	0xbebf94e6	-0.37418288
17	0x3e959281	0.29213336
18	0x3ee1cdd5	0.4410235
19	0x3e06e493	0.13173132
20	0x3e8946d5	0.26811853
21	0x3e8aea22	0.27131754
22	0xbed54bac	-0.41659296
23	0xbe94f2ac	-0.29091394
24	0xbf1f6bae	-0.6227368
25	0x3e7c3f55	0.24633534
26	0xbe8d6342	-0.2761479
27	0x3ebc5b75	0.36788526
28	0xbf08cfef	-0.5344228
29	0xbe79f240	-0.24408817
30	0xbf122caa	-0.570994
31	0xbe823f4b	-0.25438914
