logs/exp/model_34.pt (torch, 34660 bytes, 12 tensors)

log_std f4 [3]
00000000: 645a 39be 6dca 26bd 4d0d 5dbd
-0.18100888 -0.040720392 -0.053967763

actor.0.weight f4 [64, 24]
00000000: 21cf b3be 4234 433d 55ab 073f 68c3 c0bd
00000010: 42d3 cebd 70c5 b5be 0e60 dfbd 4a7d dfbd
00000020: 9831 0e3e 5834 03bf ce22 62bd e6b0 a5be
00000030: 90d7 cdbe d763 8dbd a675 83be 10f0 1dbf
00000040: d697 cbbd 8d1d 86be 7cf1 2c3e e47f 2dbf
00000050: 298a e03c e029 c2be ab3f 17be e6f7 98be
00000060: 9ef4 c9bc 307b 4e3d 2be3 3c3e 04d3 11be
00000070: 6a5d 6dbe b50f 13b9 1fd4 bc3b 73bf e13d
00000080: b4c1 b1bd 5547 a9bd e484 f6bb 077d 4ebe
00000090: ea1c 133e 4670 9dbe bc40 363e a1f3 e2bd
000000a0: 36fb 1dbd c59a 7ebe d3fa 11be 9c60 48be
000000b0: cda0 9abe e8fa 9bbc aa1f 7c3c 019e d4bd
000000c0: 46c7 953d 8f6e 3cbe af4f 1e3e 6499 a9be
000000d0: 020f 073e bf09 333e 4b42 3c3e cd98 a1be
000000e0: f4d8 003f 5ef1 a7bd 3c7e 803e 0869 32be
000000f0: 72e3 863e 67ac 1ebe 9455 f13e a162 b1be
00000100: 9a85 78be db00 53bd 90e9 c2bd 3654 c63d
00000110: 3024 813d e7a1 363d 5dec 8d3c 3840 8cbe
00000120: 3656 80be 4092 a73e e476 bebc a4c7 cf3d
00000130: 3a5c 33be bd1e c1bd 1206 2fbe 2992 f8be
00000140: d4fa bf3d e909 143c 1e6d 38be 8f45 7fbd
00000150: 8030 a23d 1884 b63d c8de d83d f26e d4be
00000160: 6360 92bc 0f3e 1bbe 5ffe cd3a 59d2 5ebd
00000170: ed42 283d 92ac 98be a08c 33be 78ed 05bd
00000180: 0fce 1fbe db09 373d 186f ed3d f1b5 56bf
00000190: 92e4 0d3f 5ac2 3c3f eebb 783d 163d 983d
000001a0: f526 92bd 3198 7f3d ee44 ffbb 0a9b dbbd
000001b0: eaf3 01be 45d8 a7bd c1ad 82be 9952 adbd
000001c0: 7c28 2bbe 4306 0bbd 6832 6fbd e9d9 5a3d
000001d0: e52f e03d 7fa7 73be 1605 523d 25e5 44be
000001e0: 3b94 f9be 34c7 fcbd a406 0e3d c20a 11be
000001f0: ccf8 e7be 7bfe b23e 5941 493d d995 01be
00000200: 3ae3 d3bc 8905 5c3d 03bf 5cbd c3a5 5c3d
00000210: 0202 2a3d 686b ba3c 775d c6bb 4af3 b33e
00000220: 8235 a2bd 5edf 353e 8d1e 483e 573e 4fbd
00000230: f26f c1bd ae51 a93c c577 59bc 70fe 173e
00000240: 525f f73d e77e ef3e 424c 85be 31e1 c5be
00000250: d00d a93e 9c86 f0bb cecf 0f3f 80e1 8fbe
00000260: fc56 e83e 4a07 b8bd 5eb4 6c3e e2a2 18bc
00000270: 5080 9c3d 329f febc e018 c33e 30cd 833e
00000280: a41f 95be 9026 553e b71e 1bbe 59e5 81bd
00000290: 848d ffbd 00f0 7e3e 82ed c5bd dbf3 cb3d
000002a0: f6b0 df3d 4241 273c 920e b7bd 35d4 80bf
000002b0: ccb0 83bc 3330 02be 9fc7 b3be cb50 333e
000002c0: 1406 b1bc f6d3 183e 491c 093e cf9e 833e
000002d0: 30db 3cbe 1ad4 f4bc 6c72 b53a e7e8 073d
000002e0: 1990 ac3e 30e9 99bd 539f 12be 6d76 d1bc
000002f0: 772f 7dbe 42de 0a3e 1ddf b4be 4543 983e
00000300: 3449 b03d 3078 223d 2678 553e 62b7 a43e
00000310: e5e9 273f f6d9 1a3e 1e6f 453e 3724 8b3d
00000320: 8a28 013f 3d45 103e a4fe e2bd 030b 813e
00000330: b30e 263e 761e a23e b506 26be cb8e 0dbd
00000340: 2c7e 85bd fee7 d3bd f41d 8a3d 1e4e 2dbe
00000350: aca9 ab3d f89e e6bd 39b8 93be a633 09be
00000360: 80cb e83d a12b 0d3e 782d f63c 5503 7cbf
00000370: acba 90be bf7c e7be 80a4 59bd e4bf 333d
00000380: 2ae0 09be 6545 51be 0f2b 8fbe 9442 923d
00000390: de87 51be b561 cc3d 582b 94be 9d9a 613e
000003a0: ff5f 84be 4a1e afbe 4d21 31be 8e6f c13b
000003b0: 8032 45be 4346 63bd ca20 083e bd2d 78bd
000003c0: 8748 86be 3f71 17be 0de8 61be 4c8b 70bd
000003d0: fde4 c2be a6a0 2cbd f427 f03d abb4 793e
000003e0: 0379 653e 5f22 b8bd 792a e6bd 367a dcbd
000003f0: 9d2e 3f3c f236 b83d 007e ed3d 5307 a93d
-0.35118964 0.04765726 0.52995807 -0.09412271 -0.10098888 -0.35502195 -0.10906993 -0.10912569
0.13886106 -0.51251745 -0.055208974 -0.32361525 -0.40203524 -0.069038086 -0.25675696 -0.6169443
-0.0994107 -0.2619442 0.16888994 -0.6777327 0.02740963 -0.37922573 -0.14770381 -0.29876631
-0.024652775 0.05041045 0.18446033 -0.14240652 -0.23180166 -0.00014024864 0.0057625915 0.11022844
-0.08679524 -0.08265559 -0.007523166 -0.20164882 0.14366499 -0.3074972 0.17798132 -0.11081625
-0.03856965 -0.24863727 -0.14255838 -0.19568104 -0.30200806 -0.01904054 0.015388409 -0.10381699
0.07313399 -0.1840155 0.15460084 -0.3312484 0.13189319 0.17484187 0.18384664 -0.3156189
0.50331044 -0.08200334 0.2509631 -0.17422879 0.26345402 -0.15495454 0.47135603 -0.3464556
-0.24269715 -0.051514488 -0.09517205 0.09684031 0.0630573 0.044587996 0.01732462 -0.27392745
-0.25065774 0.32728767 -0.02325005 0.101455 -0.1751565 -0.09429691 -0.1709216 -0.4854901
0.093740135 0.009035566 -0.18010375 -0.062322196 0.07919407 0.08911914 0.10589367 -0.41490895
-0.017868226 -0.15160392 0.0015716067 -0.054399822 0.04107945 -0.2981916 -0.17534113 -0.03269717
-0.15605949 0.044687133 0.11593455 -0.8387137 0.55426896 0.73734057 0.0607261 0.07433526
-0.07136337 0.062401 -0.0077901995 -0.10722931 -0.12690702 -0.08195547 -0.2552319 -0.0846302
-0.16714662 -0.03394152 -0.05839768 0.05343047 0.10946635 -0.23794363 0.05127438 -0.19228037
-0.48745903 -0.123426825 0.0346743 -0.1416426 -0.45307004 0.34959778 0.049134586 -0.12654819
-0.025865186 0.053716216 -0.0538931 0.05386902 0.04150582 0.022756293 -0.0060536223 0.35146552
-0.07920362 0.17760989 0.19542904 -0.05059656 -0.0944518 0.02066883 -0.013273184 0.14843154
0.12078728 0.46776506 -0.26034743 -0.3864837 0.3301835 -0.0073402654 0.5617646 -0.2810173
0.45378864 -0.08985765 0.2311568 -0.009316178 0.07641661 -0.03108177 0.38104916 0.25742483
-0.29125702 0.20815492 -0.15148436 -0.06342573 -0.12478164 0.2489624 -0.09664442 0.09958621
0.109224245 0.01020843 -0.08938326 -1.006476 -0.016075514 -0.12713699 -0.35113236 0.17511289
-0.021609344 0.14924607 0.13389696 0.257071 -0.18442988 -0.029886294 0.0013843304 0.033181097
0.33703688 -0.0751518 -0.1431859 -0.025569165 -0.24725138 0.13561347 -0.35326472 0.29738823
0.086077124 0.0396654 0.20846614 0.3217116 0.6559127 0.15122208 0.19280669 0.06794017
0.5045248 0.14088912 -0.11083725 0.25203714 0.16216545 0.31663865 -0.16213496 -0.034560006
-0.06518206 -0.103469834 0.06743994 -0.1692433 0.08381972 -0.1126079 -0.28851488 -0.13398609
0.113669395 0.13786174 0.030050978 -0.98442584 -0.2826742 -0.4521236 -0.053135395 0.043884173
-0.13464418 -0.20436628 -0.2796254 0.07141605 -0.20461985 0.09979574 -0.2893932 0.22031637
-0.2585449 -0.34202796 -0.1729786 0.005903191 -0.19257545 -0.05548693 0.13293758 -0.060590494
-0.2622721 -0.14789294 -0.22061177 -0.058726594 -0.3806533 -0.042145394 0.117263705 0.24385326
0.22409444 -0.08990931 -0.1123857 -0.107654974 0.011668828 0.08994855 0.11596298 0.0825335

actor.0.bias f4 [64]
00000000: f080 303e 6ec5 ddbc a720 2dbe 01df 61bd
00000010: 2d4a 61bb beac ddbc 91a0 e1bd 831f b43c
00000020: d1bb b4be 4992 98be 8b91 073d 17eb 45be
00000030: 8bb3 b0bd 89a6 683e da7d 8dbe 8a9d 113d
00000040: da4d a93c cbfd 96be d5a4 613d bf64 2dbe
00000050: 931b 723d fb28 70be 5acd d7bd 4875 d7bd
00000060: 5109 5dbe da7f d7be b0d2 86be 9354 923e
00000070: b20d 2bbe e152 33bc 9d6d 97be 94c9 b8be
00000080: 736f 08be ebfe 82be 0e05 4ebd cdb1 17be
00000090: 4f37 11bf fe66 853d 6f2c 6ebe 914c 56bd
000000a0: a3b1 9bbd bdd9 3ebe b478 18be cd64 0a3e
000000b0: b09a debd e9f1 4f3e d773 15be afbe 4cbe
000000c0: b0bf 90bc 0294 b9be dc3c eebc 6403 52be
000000d0: abac c3be d168 4abd 7e1f 30be f2cb dfbd
000000e0: 5246 0e3d 8098 a23d 664d 613d 4e9b a7be
000000f0: d98e 28be c88d 5d3d 6d7e 2d3e 504a 9bbd
0.17236686 -0.02707168 -0.16906987 -0.055144314 -0.0034376488 -0.027059909 -0.11016954 0.021987682
-0.35299543 -0.29799107 0.033097785 -0.19327961 -0.08627995 0.22719778 -0.2763508 0.03555063
0.020667005 -0.29490504 0.055088837 -0.16932963 0.059108328 -0.23453133 -0.105372146 -0.105204165
-0.21585585 -0.4208973 -0.26332617 0.2858015 -0.16704443 -0.010945053 -0.29575816 -0.36091292
-0.13323765 -0.25585112 -0.05029779 -0.1481392 -0.5672502 0.06513785 -0.23259138 -0.052319113
-0.07602241 -0.18637748 -0.14889795 0.13515015 -0.10869348 0.20307125 -0.1459497 -0.19994615
-0.017669529 -0.36245733 -0.029081754 -0.20509106 -0.38217673 -0.049416367 -0.17199513 -0.10927571
0.03473503 0.07939243 0.055005454 -0.32735676 -0.16460742 0.05409029 0.16942759 -0.07582533

actor.2.weight f4 [32, 64]
00000000: 6d8b d2bd 399d a9bd e251 94be c943 0abe
00000010: 6d5b c33c 3828 11be be22 a7be 7afc 59bd
00000020: 65c7 75be 6735 a3be e2b6 63bd fafc c4be
00000030: 0e78 59bc 6845 98be f5e2 a2be 69a9 70be
00000040: 9832 b5be cefe e33e 7c90 8dbe 3f90 9cbe
00000050: dae4 193e fbbf 573d 83d0 8f3d 385e 1fbe
00000060: ecb6 f43d 0210 573d de9b 293e 6cb6 c6be
00000070: 180e 17be 496b 02be f169 9abe ad91 37be
00000080: 4216 cfbe 600c 0c3e 0478 aebd 3361 973d
00000090: 2bc5 7fbc 0c15 87be 984e e4bd 481e f73c
000000a0: 434d 183d a780 343e ac1b 173c 6fa2 14be
000000b0: e0ac 3dbe b36e 83be 7f5e 303e 6545 5fbe
000000c0: 8ad6 61bd 3b51 34be c91a bbbe 1c02 a73e
000000d0: ae72 86bd a5de 5abd d2e7 e5bd 3a0d 32bc
000000e0: d104 3d3e 110b 87be 5f42 da3d d77d 843e
000000f0: 1711 863e 0afa dcbe 38c7 a4be 5cd4 783e
00000100: ecc6 05bf a999 ad3c 24ae f3bd f0fa 92bd
00000110: 1cff 03be 704f 0dbe 0124 9fbe 3971 eeba
00000120: 8169 f53d 87c2 503e c7be f6bc 218b 143e
00000130: 9248 05be 3d94 cfbe e1b3 bb3c 3a59 22bf
00000140: 4343 cdbc 7d3f 673e 923a 193e c3ac 50bd
00000150: e808 57be 380e 83b8 cc7a 8cbd 6504 24be
00000160: 7241 66bd 2557 fe3d bb18 483c 84b2 0fbe
00000170: 5e52 ccbe 6487 ebbe db80 f23c aae8 37be
00000180: 5195 0bbd 342a 503e 9ec4 36be e16e f53d
00000190: 510a 273e b47f dd3b 1c6f 923e f4bd d2bd
000001a0: 44d4 0cbe 7c00 8dbe 03d6 8c3e d282 51be
000001b0: 7c61 abbd 8cd5 42be 1802 1c3a 50d6 763d
000001c0: 6cff 533c e21a c83d c0bc 94be 00f1 06bf
000001d0: 9f92 8e3d 4953 2a3d 137a 17be e32e 2abe
000001e0: b3f5 73be 5b9e 503d 4f29 26be 877f 01be
000001f0: 8fdf 303e 0bee 80be e9ab 7bbe bfd5 2b3d
00000200: c7ac 02bf 94ce 47be fd04 b7bc 256e fabd
00000210: fe18 89be ccf0 473e a15a fbbd ea2f 24bd
00000220: 6bec 54be 2f31 62be 7ac4 7dbd 2603 d3be
00000230: 268a f33d b3b1 6bbe f3ff 71be 9fbb 8bbe
00000240: 68ab e6bd fc70 bebc 74b8 cd3d 7599 14bd
00000250: 33a3 86be 2c38 a03e 45e3 59be 1c38 80be
00000260: b6ca 96be 6c6a 58bc f526 0fbd b715 ff3d
00000270: 86e6 06be b7a3 a6bd 120a babb ddb0 11be
00000280: 8409 db3c cf1d e2bd 6e4e 363d 0302 1cbe
00000290: d26b 053e b571 babd e708 233d 02cc 35be
000002a0: 5ad9 b3bd f013 91bd 715e 09be a77b 4d3e
000002b0: 0775 fabe 00df e5bc e05d 843d 1dd3 8c3e
000002c0: 05d9 843e a3b1 91bc cf7a d6bd c122 ed3e
000002d0: 2ba6 21bd c158 93bd bcd1 063e 4cc4 1dbe
000002e0: 2855 9c3e 5b1f 4dbe 38f5 afbc 18ab 6d3e
000002f0: 5001 9d3e 9a9e 69bd 6b25 203e 9a90 bdbe
00000300: 2cb9 0abe 6421 10be 742b d2bb 1370 94bd
00000310: 04a9 923d 3465 503e 5a12 ad3e 5f31 9c3d
00000320: 04ff 4b3e 976a 0dbf 1a45 18be df4a 7abd
00000330: 0733 a3be 6ea7 0ebf 6894 12be 5cbc 84be
00000340: f86e 803d 8231 c0bd f71f 26be c58c 9dbe
00000350: ad39 07bf 3d44 34be 33d9 71bc f107 3ebd
00000360: 154c a03e 36d2 b73e 5c6e 873e 59ea 5e3e
00000370: 3744 573d 7177 5bbe 22ec 61be 0221 f7bd
00000380: 9862 8e3e 96d1 52be 8d07 5fbe a50e f2bd
00000390: 637f aabc 7166 34bf 2e15 75be 02eb 4d3e
000003a0: f39b 66be 2895 003d e699 943d 1d94 603e
000003b0: 20eb a6be 0ec9 df3d 1240 803e 97c9 babd
000003c0: f4ef de3a 90c2 66be dd26 34be 7361 c3be
000003d0: 2528 c73d b0cd 38be f51a 2fbc ace3 00be
000003e0: 719f d03e 79c3 073e 8a89 2b3e 6338 453d
000003f0: e896 443e a8a0 663d a18c a4be 08df 84bc
-0.102804996 -0.08281941 -0.28968722 -0.1350242 0.023847306 -0.14175498 -0.32643694 -0.053219296
-0.24001844 -0.3187668 -0.055594333 -0.38474256 -0.013273252 -0.29740453 -0.3181378 -0.23502125
-0.35390162 0.44530338 -0.27649295 -0.305788 0.15028706 0.05267332 0.07022192 -0.15563285
0.11948952 0.0525055 0.16563365 -0.38811052 -0.1475147 -0.12736239 -0.30158952 -0.17926665
-0.4044667 0.13676596 -0.08518985 0.07391586 -0.015610973 -0.26383245 -0.11147803 0.030165806
0.037183058 0.17627202 0.009222906 -0.14515088 -0.18522978 -0.25670394 0.17223547 -0.21803816
-0.05513624 -0.17609112 -0.36543873 0.32618797 -0.06564842 -0.053434987 -0.11225857 -0.010867411
0.18458869 -0.2637563 0.106571905 0.25877258 0.26184914 -0.43159515 -0.32183242 0.24299759
-0.52256656 0.021191435 -0.11898449 -0.07176769 -0.12890285 -0.13799834 -0.31082156 -0.0018191702
0.11983014 0.20386706 -0.030120267 0.14506198 -0.13015965 -0.40542784 0.022912921 -0.634174
-0.025056487 0.22582813 0.14963749 -0.05094601 -0.20999491 -6.249215e-05 -0.06859359 -0.16017301
-0.056214757 0.12418965 0.012212927 -0.14032942 -0.3990659 -0.46001732 0.029602459 -0.17959848
-0.034077946 0.20328599 -0.17848441 0.11984039 0.16312529 0.006759608 0.28600395 -0.10290137
-0.13752848 -0.27539432 0.27507028 -0.2046006 -0.08368203 -0.19026774 0.000595124 0.060262978
0.012939315 0.097707525 -0.29050255 -0.52711487 0.069615595 0.041583333 -0.14792661 -0.16619448
-0.23824196 0.05093227 -0.16226695 -0.12646304 0.17272781 -0.25181612 -0.24577297 0.04195189
-0.5104489 -0.19512397 -0.022341246 -0.1222804 -0.2677688 0.1952545 -0.122731455 -0.040084757
-0.20793311 -0.22089075 -0.061954953 -0.4121334 0.11891584 -0.23017006 -0.23632793 -0.2729158
-0.11263162 -0.023247235 0.10044947 -0.03627916 -0.26296386 0.31292856 -0.21278103 -0.25042808
-0.2945153 -0.013208967 -0.03494926 0.12455314 -0.13173875 -0.08136695 -0.00567747 -0.14227624
0.026737936 -0.11040842 0.04450839 -0.15235142 0.13029411 -0.09103719 0.03980341 -0.17753604
-0.08781691 -0.07083881 -0.13414933 0.20066701 -0.4891741 -0.028060436 0.06463218 0.27504817
0.25946823 -0.0177849 -0.10472643 0.46315578 -0.03946511 -0.07194663 0.13165945 -0.15406913
0.3053372 -0.20031492 -0.021479234 0.23209798 0.30665064 -0.05703602 0.15639274 -0.37024385
-0.135472 -0.14075238 -0.0064138714 -0.07247939 0.071611434 0.20351106 0.33803064 0.07626604
0.199215 -0.5524077 -0.1487011 -0.06110656 -0.31874868 -0.5572423 -0.14314425 -0.25924957
0.062711656 -0.09384443 -0.16223131 -0.3077146 -0.5282238 -0.17604156 -0.014761257 -0.046394292
0.31308046 0.35902566 0.26451385 0.21769084 0.05255529 -0.21432282 -0.22062734 -0.120668426
0.27809596 -0.20587763 -0.21780224 -0.118191995 -0.020812696 -0.70468813 -0.2393386 0.2010918
-0.22520427 0.031392246 0.07255916 0.219315 -0.3260126 0.1092702 0.25048882 -0.091204815
0.0017008767 -0.22535157 -0.1759295 -0.38160285 0.09724454 -0.18047214 -0.010687579 -0.1258685
0.40746644 0.1325816 0.16751686 0.048149478 0.19198191 0.056305557 -0.3213854 -0.01621963

actor.2.bias f4 [32]
00000000: 23f2 33be 66a7 30be cfc1 23be 94a4 48be
00000010: dcd5 81bd d9a5 90bd 5ece 2abe 0a12 bf3c
00000020: 757c 683d 77d8 ae3c 6201 89bd b9af 55be
00000030: 2e5b efbd bbb7 1e3e 305a 99bc f913 74bd
00000040: f6d9 d13c 4138 24be 1e5d c8bd 8935 15be
00000050: 8353 63be 220e f1bd f923 00be 9154 df3c
00000060: a135 aabd 9815 d7bd 6591 4abe 8168 3ebe
00000070: 8934 06bd 86ed f0bd fd57 2dbe 5a20 a3bc
-0.17572837 -0.17251357 -0.15991901 -0.19594032 -0.063396186 -0.07062883 -0.16680285 0.023324031
0.056759316 0.021343453 -0.06689717 -0.20867814 -0.11687313 0.15499775 -0.018719763 -0.05958936
0.025616627 -0.16037084 -0.09783386 -0.14571203 -0.22199826 -0.11770274 -0.12513722 0.027262004
-0.0831101 -0.105021656 -0.19782026 -0.18594553 -0.032764945 -0.11764054 -0.16928096 -0.019912887

actor.4.weight f4 [3, 32]
00000000: 84bc 233b 3183 7cbb c5a4 82bd d799 803d
00000010: ac57 f5bd b7d9 b83c 12dd f73d 2b9a 5ebc
00000020: c6d0 05bd ec2d abbc 5d96 26bd 6dd7 983d
00000030: 7746 28bc ad54 21bb a67f 68bb 47e5 e83c
00000040: bdb6 52bd 3e74 38bb add7 923b b6a1 2a3a
00000050: ad36 8d3d c7e9 87bc 679e 24be f2be bebd
00000060: 7e5f 283c 0de1 723d 5c1b 1d3d 5250 e6bc
00000070: 14f4 0ebc f2b9 4f3d 8bd2 fb3a d451 02bd
00000080: 1c72 a83d d9c4 e23c 614f 9dbd 054a 28bd
00000090: 025c 8f3c fea4 6a3d 5489 6f3d 3171 81bc
000000a0: 24b4 36bd 792e 46bc 9b4b 783b 0cde 723b
000000b0: 3ef8 c1bc 4e9e 1abd 0521 2939 576c 9e3b
000000c0: 0ef0 a13b 975b 83bb abe7 0fbc 5b02 7c3c
000000d0: 034f a5bb 39b9 e13c 7b17 8f3b c03a 3a3d
000000e0: 6940 13bc e8cb de3c 0cc6 3ebd 7bff bd3c
000000f0: c469 2bbc 4e40 9fbc ac05 093d 7dc8 78bd
00000100: 27e4 00be 9c49 00bd eae3 a53c d15e 9f3d
00000110: ba7d 14bc 3f7d a1bd 8967 013d 680c 33bd
00000120: 5ac3 823d 9916 733c f027 d1bc 317f 95bc
00000130: fd68 4c3d eac4 403b da0e db3c f504 083c
00000140: 3033 dfbc 2bff 193c 240c 903b f7fe e0bb
00000150: 7b73 333b dc85 863d 2f79 ec3c 1c69 123d
00000160: d223 29ba 550d 6fbb 1e30 513c 1b60 f1bd
00000170: 8178 47bd 5f1b c33c 9acc 0bbd 0156 b9bc
0.002498419 -0.0038530345 -0.063790835 0.062793426 -0.11979613 0.022564752 0.12102713 -0.013586561
-0.032669805 -0.02089592 -0.04067074 0.07462964 -0.010270706 -0.002461712 -0.0035476475 0.02842964
-0.051443804 -0.0028145458 0.004481277 0.0006509082 0.06895194 -0.016590966 -0.1607605 -0.09313764
0.010276673 0.059296656 0.03835617 -0.028114472 -0.008725185 0.05071444 0.0019212527 -0.03181632
0.0822489 0.027681755 -0.07681156 -0.041086216 0.017499927 0.057286255 0.058480576 -0.015801044
-0.04460539 -0.012096041 0.0037886861 0.003705862 -0.023677941 -0.037748627 0.00016129397 0.0048346925
0.004941947 -0.004008721 -0.008783261 0.015381421 -0.0050448193 0.027554141 0.0043668128 0.045466185
-0.008987525 0.02719684 -0.04657559 0.023193112 -0.010462228 -0.019439843 0.033452675 -0.060738076
-0.12587033 -0.0313202 0.02025028 0.07781757 -0.009063179 -0.07885217 0.03159288 -0.043713003
0.063849166 0.014836931 -0.025531739 -0.018249126 0.049904812 0.0029414245 0.02674048 0.008301963
-0.027246088 0.009399216 0.0043959785 -0.0068663317 0.0027382064 0.065685004 0.028866379 0.03574477
-0.0006452176 -0.0036476452 0.01276782 -0.11785909 -0.048698906 0.023816762 -0.03413067 -0.022624018

actor.4.bias f4 [3]
00000000: d58c fc3d 5341 b6bd d89b 533e
0.12331549 -0.08899178 0.20664918

critic.0.weight f4 [64, 24]
00000000: 560e d2be 113e ea3c 9aa2 48bf 47ec 85be
00000010: 6fb9 9e3d fcc4 ee3e 8688 613c 7a78 ac3e
00000020: 0c19 6abe 605c a43e 6104 e13d c90e c63e
00000030: ad8b 043e 6c64 e33e 35ed 2d3e 1a08 68bd
00000040: 5c68 753e 5264 a63e b3c8 2ebe 975a 99be
00000050: ae50 23bc b164 f3bd 6932 883e 30aa 83be
00000060: 2a45 96be 91b1 3e3b 3344 ac3e 4919 caba
00000070: 9167 3c3f 27e9 7cbf d589 ca3e e7cf 8ebf
00000080: 39ab 283f 6767 58bf ef80 3d3f 0f85 82bf
00000090: 1dd2 393f 4e47 22bf 5313 003f 7007 83bf
000000a0: 108f 0f3d 1de0 02bf 663f 0f3e 1093 14bf
000000b0: 1f9a ae3e 024c 19bf 1641 44be 00e8 24bf
000000c0: 3a33 b2be 9351 ea3d df2f a9bd 7562 eebe
000000d0: 45d4 abbf 7470 73be eca4 57be dd51 ac3e
000000e0: 921c 523e 218a 123f 17a5 db3e e346 183f
000000f0: 327a 7bbd 6dc5 6d3f 0557 b53e 3420 e73e
00000100: 87a2 533e c247 d93e 277d 953e c6d1 193f
00000110: fade 82bb 8bb0 fe3e 0d33 ac3e 4c5f c13e
00000120: ce30 a53e 9d81 d8bc f613 a8bd e1bd 26be
00000130: 9b2a 02bf eba3 13bf c753 4f3f 61fb 41bf
00000140: e61e 843f a318 33bf 8033 533f fbda a3be
00000150: 2747 253f 70f4 15bf 571e a83e e92d c0be
00000160: 1aef de3e 37ea 8fbd 4aab 4b3e 9401 77be
00000170: e9a2 21be e484 a1be b4de 003f 979c aabd
00000180: 191d 1cbf 1a76 17be 67f3 48bf 31db 97be
00000190: 4919 d9bd f7d7 6a3f d8d7 4e3e fc94 983f
000001a0: 26cc 1d3e 0529 7b3f 00c1 853e e0a9 8f3f
000001b0: 53ee 073f 9c97 423f dfb0 493f 1909 6e3f
000001c0: 3498 353f 11f3 cb3e 4290 8f3e a60d 463f
000001d0: 22fd 4e3f 0b8c 313f 3ab9 1d3f 0225 ad3e
000001e0: 6955 983e e264 f8bd f945 cbba 5ea0 9d3e
000001f0: a972 c9bf 384a 133e d787 15bf 6d9b 3f3e
00000200: ecc0 2fbe a441 18be 0cfb 9dbe ad16 013f
00000210: 8f5d bfbe 80ab fe3e 9057 acbc f524 d83e
00000220: 6aa8 cabd 2ba3 dc3e b972 04bd fbb0 c63e
00000230: fedb bf3e 824d 493e 68cf 7f3e 0626 e63e
00000240: 24c8 aa3e 9eaa 113e 4089 f4be 0bb1 933d
00000250: eda6 c13d bb0d 533f 2312 20bf 7347 703e
00000260: 18dc ccbe 7023 98bd 7dbf 0abf e8a0 9cbe
00000270: e586 1fbe 3234 adbe 2139 45be 1c5a 0dbf
00000280: 3922 fbbd 6480 f8be d057 06be c16e e1be
00000290: cf65 14bd b111 14bf 734e 91be c45d 0cbf
000002a0: 8c88 ad3d 5cf3 863e 28a5 07bf bbda 8bbe
000002b0: c92e 82bf eb73 60be 1ebd 33be 7267 67bf
000002c0: fce0 063d 3942 38bf 51f3 263f 14e9 70bf
000002d0: 1828 a33e 6dc1 5ebf f16f 813e 807d dfbd
000002e0: d5cb c93e 2383 0fbf 121e e43e d8e9 9ebe
000002f0: c172 a73e 9a87 51bd d90c b03d bc9e 3cbd
00000300: 44af 54bf 3492 85bd 2467 793e f6bd aebf
00000310: 77ba 28bf 9807 50c0 0a46 563e 0c9c aebf
00000320: 3e53 ff3e 78ad f2be a91d 313f 4499 c6bd
00000330: 0803 1b3e 3dac 5f3e 208a ce3e d951 f73e
00000340: ff24 f33d 9bc8 0c3e 8ac3 993c e939 0f3e
00000350: 738c 1b3e 803b 943e 5b44 a33d 9f36 073f
00000360: 29aa 293e fd91 36be 6190 8f3d 78bf 29be
00000370: 0100 65bd a4e8 143f 7725 3cbf ba73 833d
00000380: 1725 8fbe 948a f5bd 553e d2be ad1d 513e
00000390: 45c5 c9be e8c1 9b3c 0a8b 8bbe 5f27 a4be
000003a0: e63e 4a3d 7845 e4be 1c80 ecbd b86f 5fbe
000003b0: 0ab6 75be 9e7f 03be fdd5 15bd a2b2 8abd
000003c0: d491 cc3e 9842 20be 078d 96be bca5 cd3e
000003d0: 6599 253f a3e0 533f 91c5 c23c bc8f a7bc
000003e0: af85 91be baba 57be 9c2b 64be 6d17 a9bd
000003f0: 87e2 a5be 94f8 8cbe 62f8 45be bcd3 92be
-0.41026562 0.028594049 -0.7837311 -0.26156828 0.077502124 0.46634662 0.01376546 0.33685666
-0.22861117 0.32101727 0.10987163 0.38683155 0.12943907 0.44412553 0.16985019 -0.05664835
0.23965591 0.32498413 -0.17068748 -0.29951927 -0.009967966 -0.1188444 0.2660096 -0.2571578
-0.29349643 0.0029097537 0.33645782 -0.0015418913 0.7359553 -0.9879326 0.39558282 -1.1157197
0.65886265 -0.8453278 0.7402486 -1.0196856 0.7258623 -0.6339005 0.50029486 -1.0236645
0.035048544 -0.5112322 0.13989028 -0.580369 0.3410196 -0.59881604 -0.19165453 -0.64416504
-0.34804708 0.1144134 -0.08261084 -0.46559492 -1.3424155 -0.23773366 -0.21059006 0.33656207
0.20518711 0.5724202 0.4289939 0.59483165 -0.06139583 0.9287937 0.35417953 0.45141757
0.20667468 0.4243756 0.29197046 0.60085714 -0.003993866 0.49744067 0.336327 0.37768018
0.32263798 -0.026428992 -0.08206932 -0.1628337 -0.5084626 -0.57671994 0.8098721 -0.757742
1.032193 -0.6995947 0.8250046 -0.32003006 0.64561695 -0.5857611 0.32835647 -0.37535027
0.43541795 -0.07027095 0.1988956 -0.24121696 -0.15784802 -0.315467 0.5033982 -0.083306484
-0.609819 -0.14791146 -0.784964 -0.29659417 -0.10600526 0.91735786 0.20199525 1.1920466
0.15409908 0.98109466 0.2612381 1.1223717 0.5309803 0.7601259 0.7878551 0.9298263
0.7093537 0.39833882 0.28039747 0.77364576 0.80855 0.69354314 0.6161076 0.33817297
0.29752663 -0.12128617 -0.0015508524 0.30786413 -1.5738117 0.14383781 -0.584104 0.18711634
-0.17163438 -0.1486879 -0.30855596 0.50425225 -0.37376067 0.4974022 -0.021037847 0.42215696
-0.09895404 0.43093237 -0.03233597 0.388069 0.37472528 0.19658473 0.24981463 0.44950885
0.3335582 0.14225242 -0.47760963 0.07211503 0.09455667 0.82442826 -0.62527674 0.23464756
-0.40011668 -0.07428634 -0.5419844 -0.30591512 -0.15578802 -0.33828884 -0.19260074 -0.5521562
-0.12262387 -0.48535454 -0.13119435 -0.4402981 -0.036229905 -0.57839495 -0.28380165 -0.54830575
0.0847331 0.26357543 -0.52986383 -0.27315316 -1.0170528 -0.21919219 -0.17552611 -0.9039222
0.032929406 -0.7197605 0.6521502 -0.9410565 0.31866527 -0.87013894 0.25280717 -0.10912609
0.39413324 -0.56059474 0.44554192 -0.31037784 0.32704738 -0.05115471 0.085962005 -0.04604982
-0.83079934 -0.06522027 0.24355751 -1.3651721 -0.6590952 -3.2504635 0.20925155 -1.3641372
0.49868196 -0.4739797 0.6918588 -0.09697202 0.15137875 0.21843047 0.40339756 0.48304632
0.11872291 0.137484 0.018769998 0.13986935 0.15190296 0.28951645 0.07972022 0.5281772
0.16568817 -0.17829128 0.0700996 -0.16576946 -0.055908207 0.5816748 -0.73494667 0.064185575
-0.27957985 -0.11989322 -0.4106318 0.20421477 -0.39408317 0.01901336 -0.27254516 -0.32061288
0.04937639 -0.4458425 -0.115478724 -0.21819961 -0.23995224 -0.12841651 -0.03658103 -0.06772353
0.39955008 -0.15650403 -0.2940447 0.40165508 0.64687186 0.82764643 0.023775848 -0.02045428
-0.28422305 -0.21067324 -0.2228226 -0.08256421 -0.3239939 -0.275334 -0.19333032 -0.28677166

critic.0.bias f4 [64]
00000000: 028c 00bf 2446 babe 4fb7 703e f0f6 223e
00000010: 7935 a3be 81a4 b93e e21e 5cbe 434a ea3e
00000020: d7ff d03e 791b 663e 5a13 da3e b121 edbe
00000030: df25 bb3e 2e2e 7c3e a3b3 2a3e c3b4 c6be
00000040: 444e ea3e bbf8 403e 1034 9fbe cec5 9bbf
00000050: 5db9 24bf 9bfa 5abf 1b26 d93e c82b fb3d
00000060: 653c a3be d363 ab3b 71b4 b53c 0684 6abf
00000070: 45c4 6ebf 8a70 44bf 0969 2fbf 5bb6 643e
00000080: ac13 7bbe 5815 123e 17d5 c53e 7e4f 02bf
00000090: 87d1 adbf 3dfc 823e b189 9e3d f3c4 103f
000000a0: 1ec4 a53e 4ba5 74bf 1b26 d2be 780a 983d
000000b0: 1220 b63e d311 8f3e f3b0 15be 3443 46bc
000000c0: f307 8dbf 2d69 a63c cc55 c6bd 9dd4 f1be
000000d0: 7973 a13e 7d0f 743e 6bc7 b6bc 0474 2a3e
000000e0: 1e09 f23e 6976 d33e e454 913e 2ad7 823e
000000f0: 9b27 42bf 7551 3d3e d3d4 023e db9e 98bf
-0.50213635 -0.36381638 0.23507427 0.15914512 -0.31876734 0.3625832 -0.21496156 0.45759782
0.4082019 0.22471417 0.4259289 -0.46314767 0.3655233 0.24626991 0.16670088 -0.38809785
0.45762837 0.18844883 -0.31094408 -1.216974 -0.6434534 -0.85538644 0.42411885 0.1226421
-0.31882015 0.005230406 0.022180768 -0.916077 -0.93268234 -0.7673422 -0.68519646 0.22335188
-0.24519223 0.14265954 0.38639137 -0.50902545 -1.3579568 0.25583068 0.07741106 0.5655052
0.32376188 -0.9556472 -0.41044697 0.07423872 0.35571343 0.27943286 -0.14618282 -0.012100983
-1.1018051 0.020313824 -0.09684333 -0.47232524 0.3153341 0.23834033 -0.022311887 0.16645819
0.4727258 0.41301277 0.2838508 0.25554782 -0.75841683 0.18488105 0.12776498 -1.1923479

critic.2.weight f4 [32, 64]
00000000: 906b 23be 559c cabd 13dc 16bd 51ae 60be
00000010: ea3a dcbc 0f71 173e 8213 82be 58de c5be
00000020: f2b9 833e 707b 18be 4f57 a2be c402 cebd
00000030: 2ce4 c6be abde afbe 499a 13bf 32b8 373e
00000040: b4bd 08bf 187b adbe 1663 18be dbbe 3bbe
00000050: 03cb 3a3e 6d43 563e 3f52 14bf 7b36 ac3d
00000060: f121 8abe 2e3e 88be d6c0 8abe b631 cebd
00000070: 533b ad3c f766 b43d 5c7b 2f3d 09fa a6be
00000080: ec59 32bd 9cce bebe c353 ddbe 752d c7bc
00000090: 23bf b0bc 9bfa 61bd 84be b1be 5e09 cabe
000000a0: a063 4abe ec6c 733e d3bc b8be 5826 b3be
000000b0: 236e a73d eac5 f13c 752d 6d3e 8c36 1cbe
000000c0: 9a74 d93d ef2c ccbe bbc7 cabd f9eb 19bc
000000d0: ce32 b3be e0c6 06be 93ba 91be 53a1 a93c
000000e0: 528b 35be ee9b a6bc 29e2 fcbd 32ca e0bd
000000f0: 8dde df3c 7aca d3bd 3dbe 4fbe 5c6e a13e
00000100: 13a0 06bf 6ac5 c83e 7fc2 7a3c 4c87 e3be
00000110: a8d7 80bf 04c6 07c0 3c86 39bf 937c d3bf
00000120: 9dc5 2a3f 815e b63d 72a2 75be 57e8 58bd
00000130: c527 e0be 17bd b1be 9f7f 03bf 5aef 1dbf
00000140: 6ecc b5be 3400 4ebd 258c 293c ee5d 523e
00000150: 5b5e 113f 4158 933e 80e6 5cbf e4e4 d53e
00000160: be65 c43d 8b59 9bbf 8c12 c0bf 4a23 8e3e
00000170: adf4 5e3f d7d4 1bbf 8565 543e fb5b 45bf
00000180: 8577 49be 4ff5 42be 144a a5bf af33 c13d
00000190: c6cd 05bf 0cd1 73bf 531b 6abb 0d31 eabe
000001a0: 8b30 00bf a12b 4a3f 037d c6bf 91e5 0c3e
000001b0: c2e2 ea3d b48f 0cbf dad6 963e 0da5 503f
000001c0: 0f74 5e3c 1251 1abf d8bf ad3e 18bf d73e
000001d0: d924 b63c 7f0e 80be 67c9 b03f f1a1 12c0
000001e0: 3923 88bf 3233 043f d596 08be 3074 2f3f
000001f0: 96cd 52bc cb6b c5be 52ff 17bf f121 0f3f
00000200: 1ea6 1fbe bd46 d83e ade7 12be 2aaa f93e
00000210: d762 0dbf e28a aa3c 6f38 a6be 41b2 0a3f
00000220: 0711 383e 6b3e 01be 4150 ad3e 781b adbe
00000230: b506 c43d 1ee1 443e c55c 9a3d 0d8d b7be
00000240: 2740 dabe 2b88 dabd 837a 9b3e 4d44 a5be
00000250: 5d2c 6b3e f0c4 c7be b348 743e 5851 903e
00000260: 6f15 5d3e b6e1 5fbe 94a5 51be 8406 12bf
00000270: f0b3 9dbe 60c7 71bd 892c 403e 7d9a ff3e
00000280: 8d88 e23b fac7 d83e a04b d23e 7355 adbd
00000290: de68 973f 6237 853e 678f 143e 5191 923e
000002a0: 6d3b 853e a35f 88be d9a3 cb3e d7df f13e
000002b0: 79b3 933d 893d 723d 4127 ef3d b7f4 1fbf
000002c0: 18ea 53be d578 10be 4f72 5a3e 6f28 1fbe
000002d0: 38d4 813d cc37 883e 05c4 22bf 7330 583e
000002e0: b969 d03e 417a 00be c9b2 9a3e 0941 b0be
000002f0: 2955 b93e a6c3 e43e 37be 6f3d 16a1 1fbf
00000300: 74fa 34be ca64 cc3c c0c9 693e eec5 17bf
00000310: cfe0 77bf bda4 0ebf ba23 5a3e 9f12 70be
00000320: 49f0 9d3e 79e2 5dbe 8f55 aebd d101 833e
00000330: 7c8f a43e 7e83 303e 3208 04be edb7 51bf
00000340: 3993 92be ab54 a43e 548a d8bc db1c 99bf
00000350: 769d f0be 0261 46bf 3543 6a3e 46d8 993c
00000360: 27ff 173f 86ba 673d 8afd 98bd 9a44 74bf
00000370: 34da 2bbf 9643 adbe f98a 29bd 5881 88bc
00000380: a56f d63d 774e 0a3f f30e d13e 32c0 bfbe
00000390: f31d 9abe 9630 823e 7500 8f3c c2ac 8abd
000003a0: 5565 40be 92b9 53bf 922a 1abe c4fa 413e
000003b0: 6771 dc3e ca48 38be 76be 16bd c9fa 3ebe
000003c0: 9ec4 76bf 7cf9 9dbd 9a14 dc3e e68b 2cbf
000003d0: 2a13 9fbd 0008 e2be 1608 47bf df4a 5ebe
000003e0: 100e 9a3e 54fd 64bd 9714 58bd 5fde 80be
000003f0: 24b4 58bf aee3 633e acbf 443e 2129 a3bf
-0.15959 -0.09893099 -0.036830973 -0.21941496 -0.026883561 0.14789222 -0.25405508 -0.38646197
0.25727803 -0.14890838 -0.31707236 -0.10059121 -0.38845956 -0.3434957 -0.57657295 0.17941359
-0.53414464 -0.33882976 -0.14881548 -0.18334524 0.18241505 0.20924158 -0.57938 0.08408829
-0.2697902 -0.2660994 -0.27100247 -0.10068075 0.021146452 0.088087015 0.042842254 -0.32612637
-0.043542787 -0.37267005 -0.43227968 -0.024313668 -0.021575516 -0.055170637 -0.34715664 -0.39460272
-0.19764566 0.23772019 -0.3608156 -0.3499019 0.08175304 0.029513318 0.23161872 -0.15255183
0.10617943 -0.39878032 -0.09901377 -0.009394639 -0.34999698 -0.13161802 -0.28462657 0.020706808
-0.17728928 -0.020338025 -0.12347824 -0.10976066 0.0273278 -0.10341354 -0.20287414 0.3152951
-0.52588004 0.39213115 0.015305161 -0.4443916 -1.0065813 -2.121461 -0.7247045 -1.6522392
0.66707784 0.08904744 -0.23987749 -0.05295595 -0.43780342 -0.34714577 -0.5136661 -0.61693347
-0.3550753 -0.050293162 0.0103483545 0.20543644 0.567846 0.2877827 -0.86289215 0.41776192
0.09589718 -1.2136701 -1.500566 0.27761298 0.87092096 -0.6087164 0.20741852 -0.77093476
-0.196745 -0.1903889 -1.2913232 0.09433686 -0.5226711 -0.95240855 -0.0035721853 -0.45740548
-0.5007407 0.7897282 -1.55069 0.13759448 0.11469032 -0.54906774 0.29460794 0.8150185
0.013577475 -0.60279953 0.33935428 0.4213798 0.022234367 -0.2501106 1.3811463 -2.291134
-1.0635749 0.5164062 -0.13338788 0.68536663 -0.012866398 -0.38558802 -0.5937396 0.55911165
-0.15590712 0.4224147 -0.1434619 0.48762637 -0.5522894 0.020818178 -0.3246493 0.54178244
0.17975245 -0.12621467 0.3385029 -0.3381002 0.09571592 0.192265 0.07537226 -0.358498
-0.4262707 -0.10670503 0.30366907 -0.32278672 0.22966142 -0.3901744 0.23855858 0.2818706
0.21590208 -0.21863446 -0.2047332 -0.5704119 -0.30801344 -0.05902803 0.18766989 0.49922553
0.006913251 0.4234007 0.41073322 -0.08463564 1.1828878 0.26018816 0.14507829 0.28626493
0.260219 -0.26635465 0.39773443 0.4724109 0.07211966 0.059140716 0.11677409 -0.6248278
-0.20694768 -0.14108594 0.21332668 -0.15542768 0.06339306 0.2660507 -0.6358035 0.21112232
0.4070566 -0.12546636 0.30214527 -0.34424618 0.36197785 0.44680518 0.058531012 -0.6235517
-0.17673665 0.024950404 0.22830868 -0.5928639 -0.96827406 -0.5572012 0.21302691 -0.23444603
0.30847386 -0.21668424 -0.08512413 0.25587323 0.3214072 0.1723766 -0.12893751 -0.81921273
-0.28627947 0.32095847 -0.026433147 -1.1961931 -0.46995133 -0.7749177 0.228772 0.018779885
0.59373707 0.056574367 -0.07470234 -0.9541718 -0.67129827 -0.33840626 -0.0413923 -0.016663238
0.10470513 0.5402598 0.40831718 -0.3745132 -0.30100974 0.25427693 0.017456273 -0.06771232
-0.18788655 -0.8270503 -0.15055302 0.18943316 0.4305527 -0.17996517 -0.03680273 -0.18650354
-0.96393764 -0.07713601 0.42984468 -0.6740097 -0.07767327 -0.4414673 -0.77746713 -0.21708249
0.30088854 -0.055905655 -0.05275401 -0.25169656 -0.8464987 0.22254822 0.19213742 -1.2746927

critic.2.bias f4 [32]
00000000: 7b3d b0be 7313 e9bd 3c0d 973e 9c91 af3e
00000010: 8f47 9e3e ed89 9f3e 0a40 183e 647c adbd
00000020: e868 db3e 37a9 0c3f 481d 1fbe c2f9 49be
00000030: 8785 e23e a2b2 9d3e 3c07 d83e ed74 813e
00000040: a243 23be 14e9 a93e 8a6c a83e 4af0 e63e
00000050: 457e 003f 5b7e 8a3e 0bb5 98be 4405 3dbe
00000060: 5717 95be 4201 523e 8826 cfbe d187 c93e
00000070: c235 38be 3e89 e5bd 5161 75bd 61e4 46be
-0.34421906 -0.11380663 0.29502285 0.3429078 0.3091397 0.31159917 0.14868179 -0.08470991
0.42853475 0.549457 -0.15538514 -0.19724181 0.44242498 0.3080035 0.4219302 0.2528452
-0.15943769 0.33185637 0.3289531 0.451052 0.5019267 0.27049527 -0.29825625 -0.1845904
-0.2911937 0.20508292 -0.40459085 0.39361432 -0.17989257 -0.112078175 -0.05990726 -0.19423057

critic.4.weight f4 [1, 32]
00000000: 1c82 b2be d501 acbf a4a5 793e 560c ca3e
00000010: da8e ad3e f855 0b3f 26b0 97be 7569 f0be
00000020: fe19 e03e 1359 113f 73f7 53bf 06c0 dfbe
00000030: 11d1 1b3f 8fd5 d93e 2df8 a63e 875b a73e
00000040: aea6 b3be 9ff5 c03e 0277 e03e be8c a93e
00000050: ab25 ee3e b24d d73e c7f6 eabe 6ba9 a9be
00000060: 30eb 29bf b535 9c3e 1e06 51bf bef4 f53e
00000070: 8824 5cbf ca5d 92be ac81 ecbf 94e2 1fbf
-0.3486489 -1.3438059 0.24379593 0.39462537 0.3389805 0.5442805 -0.29626578 -0.46955457
0.4376983 0.5677654 -0.8279945 -0.4370119 0.60865885 0.42545745 0.32611218 0.32687017
-0.35088104 0.37687394 0.43840796 0.3311519 0.46513113 0.42051464 -0.458914 -0.33137068
-0.6637449 0.30509725 -0.8164996 0.48038286 -0.8599324 -0.2858718 -1.8477073 -0.62455106
