logs/exp/model_44.pt (torch, 34660 bytes, 12 tensors)

log_std f4 [3]
000000 74 99 50 be 06 96 9d bd db 5d 94 bd
       -0.20371038 -0.0769463 -0.07244464

actor.0.weight f4 [64, 24]
000000 af 67 b2 be 6b f2 17 3d d9 d6 0b 3f b3 4e 6d bd
       -0.3484473 0.037096422 0.54624707 -0.05793638
000010 46 f9 48 be 42 07 c8 be 15 d5 15 be 7a 00 1b be
       -0.1962634 -0.39068037 -0.14632066 -0.151369
000020 fc fc ed 3d 99 d3 02 bf c1 b3 96 bd b8 e0 9a be
       0.116205186 -0.5110412 -0.07358504 -0.30249572
000030 38 98 d6 be 55 9a 54 bd a7 f0 8b be 27 87 1c bf
       -0.4191301 -0.051904995 -0.2733204 -0.61143726
000040 04 66 eb bd 26 0f 8b be e2 41 20 3e dd 41 34 bf
       -0.11494067 -0.27159995 0.15650132 -0.70413
000050 1c f7 98 3c 58 c0 d7 be 9a cb 1a be 9f bb b4 be
       0.018672518 -0.42138934 -0.1511673 -0.35299394
000060 30 b1 13 bd fd ab 84 3d 5c 5f 1d 3e c7 7f 9c bc
       -0.03605765 0.06478117 0.15368408 -0.019103898
000070 bb 03 76 be 4f f1 f0 3b 46 6f 1f 3b e0 f8 ba 3d
       -0.2402486 0.007352985 0.0024327799 0.091295004
000080 6c b4 9f bd 45 8d f4 bd e7 a9 75 3b c9 85 7c be
       -0.077980846 -0.119410075 0.0037485303 -0.2466041
000090 d7 69 1b 3e 2b 24 b7 be f7 66 3b 3e 24 9f 26 be
       0.15177093 -0.3576978 0.18300997 -0.16271645
0000a0 ba c1 1a bd 6c 43 9a be e7 f1 17 be 9d 13 7d be
       -0.03778241 -0.30129564 -0.14838372 -0.24714513
0000b0 b3 c0 a0 be a8 1e 8c bd 2a ad 46 bb 9d 9c 1c be
       -0.31397018 -0.06841785 -0.0030315616 -0.15294118
0000c0 d5 98 2e 3d 15 57 44 be 9d 6b 02 3e f6 84 7d be
       0.04262622 -0.19173844 0.12736364 -0.24757752
0000d0 32 09 0d 3e 2c 54 6a 3e 45 2e 48 3e 5f 27 95 be
       0.13773039 0.22883672 0.195489 -0.291316
0000e0 72 68 03 3f dc 4a 97 bd d9 0d 81 3e 77 97 32 be
       0.51331246 -0.07387325 0.25205877 -0.17440592
0000f0 d0 72 81 3e 1b 8b 26 be e0 86 e6 3e ab a1 b9 be
       0.25282907 -0.16264002 0.45024776 -0.36256155
000100 8a ed 8b be 1f d6 a0 bd fa 61 08 be 2e 92 72 3d
       -0.27329665 -0.0785334 -0.13318625 0.05922144
000110 68 8b 91 3c c5 42 b0 bb 17 eb 0d bd 19 a0 ac be
       0.01776667 -0.0053790533 -0.034648027 -0.33715895
000120 38 f8 8c be e3 42 af 3e 5f 4b 01 bd f8 aa 70 bd
       -0.27533126 0.34230718 -0.03156602 -0.0587568
000130 10 d1 e4 bd 46 e4 42 bd f5 9e ef bd 91 1e e2 be
       -0.11172688 -0.04758098 -0.117002405 -0.44163945
000140 1d 12 0e 3e d2 67 46 3d 3c ed 14 be 55 55 f6 bc
       0.13874097 0.048438855 -0.14543623 -0.030069986
000150 eb d5 d8 3d 0d d5 ec 3d 58 40 05 3e b2 13 c8 be
       0.105876766 0.11564074 0.13012826 -0.39077526
000160 31 c8 8d 3b 25 b0 04 be 0c 10 be 3c 0b f9 04 bd
       0.004326843 -0.12957819 0.023201011 -0.03246407
000170 21 bf 82 3d 8a 6f 8c be 01 e2 1b be a4 67 b9 bb
       0.06384111 -0.27428848 -0.15222932 -0.005658107
000180 af 62 0e be 95 0c f9 3c b7 5c 0f 3e cb 31 59 bf
       -0.13904832 0.030401507 0.14000212 -0.84841603
000190 9c e5 0a 3f 74 87 33 3f 8b cc 52 3d ae 2b 3d 3d
       0.54256606 0.7012856 0.0514646 0.046184234
0001a0 24 90 97 bd cc be 4b 3d bd 6b 14 bc 75 a7 e7 bd
       -0.074005395 0.049742505 -0.00905889 -0.11311237
0001b0 e1 b9 03 be 06 da ab bd d5 a4 84 be f1 0b af bd
       -0.12863876 -0.08391194 -0.25907007 -0.085471995
0001c0 29 7e 32 be cd da 0b bd 23 3d 90 bd 52 65 65 3d
       -0.17430939 -0.03414421 -0.07042911 0.05600483
0001d0 12 6c bb 3d 7b 0c 6e be 0f e4 c0 3c 8c 70 3f be
       0.09151472 -0.23246948 0.023546247 -0.18695277
0001e0 f9 2d fe be 7a c2 f9 bd e5 5c c3 3c 75 84 64 bd
       -0.4964445 -0.121952966 0.023848007 -0.055790383
0001f0 c4 be e9 be 51 99 a9 3e db df 2c 3d c3 44 08 be
       -0.45653355 0.33124784 0.042205673 -0.1330748
000200 6d 9b 14 bd bb 97 5b 3d 10 0c 89 bd ae a8 5f 3d
       -0.036281038 0.0536115 -0.06691754 0.054604225
000210 74 34 e5 3c c6 a9 ba 3c 3a 9b 92 bc 57 38 b4 3e
       0.027979113 0.022786032 -0.017896283 0.35199234
000220 7d 08 b7 bd 9d eb 38 3e f8 72 3f 3e 81 6a 35 bd
       -0.08937166 0.1805863 0.18696201 -0.044291023
000230 7e fe cf bd fd 95 fb 3c 8d 72 99 bc c9 40 26 3e
       -0.101559624 0.030711168 -0.01873138 0.16235651
000240 fd 45 00 3e 60 0a f7 3e 7e 89 a2 be b3 00 cb be
       0.12526698 0.48250103 -0.31745523 -0.3964897
000250 e5 1e c0 3e 43 ae 7b bd b1 01 1d 3f 6a df a5 be
       0.3752357 -0.061445486 0.61330706 -0.32397014
000260 5d 8c fe 3e 7a a0 fb bd 6a fb 87 3e 70 22 16 bd
       0.49716464 -0.12286468 0.26559 -0.036653936
000270 87 c2 c6 3d f2 ac 67 bd 4d c3 c9 3e 26 e8 6e 3e
       0.09705072 -0.056561418 0.39406815 0.23330745
000280 bf 60 94 be 03 07 39 3e 60 25 24 be 4b 22 c4 bd
       -0.2898006 0.18069081 -0.16029882 -0.09576853
000290 cc 0c 11 be 3d 97 58 3e 69 7d f1 bd d1 35 6d 3d
       -0.14165038 0.21151443 -0.11791498 0.05791265
0002a0 d4 6a c6 3d 1c 41 10 3d e5 89 c8 bd e6 00 8b bf
       0.096883446 0.035218343 -0.09791926 -1.0859649
0002b0 fe 9a 59 bd 33 23 4e be 24 68 b7 be 66 5c d8 3d
       -0.053126328 -0.20130615 -0.3582164 0.105644986
0002c0 1a d0 88 bc 0d af bb 3d 5f 02 16 3e 8b 47 5a 3e
       -0.016700793 0.09164248 0.14649342 0.21316354
0002d0 b6 de 2d be c9 af 81 bd ff e1 81 3c 31 9f 09 3c
       -0.16979489 -0.063323565 0.015854834 0.008399771
0002e0 a3 e6 b2 3e 6c 22 be bd b8 39 08 be d6 d9 1c bd
       0.34941587 -0.09283909 -0.13303268 -0.038293682
0002f0 a5 86 76 be 28 32 01 3e 06 72 b2 be 27 2b 95 3e
       -0.240748 0.1261679 -0.34852618 0.29134485
000300 10 1d b4 3d da df 81 3d 04 7b 1c 3e c9 db db 3e
       0.08794606 0.063415244 0.15281302 0.4294112
000310 1d f1 22 3f 58 3a 2a 3e 4f 68 39 3e d3 17 51 3d
       0.6364916 0.16623819 0.18106197 0.05104811
000320 c1 ac fd 3e e3 1c d9 3d f2 bf e6 bd 5e 4e 5d 3e
       0.49545863 0.10601213 -0.112670794 0.21611926
000330 b2 36 1f 3e 99 2f 8f 3e 64 a0 2c be 99 e4 91 bd
       0.15548208 0.27966002 -0.16858059 -0.0712368
000340 e1 9e 9a bd 1b 24 11 be 63 07 56 3d 4f 77 57 be
       -0.07549835 -0.1417393 0.05225314 -0.21041606
000350 e3 7e 84 3d f6 f7 20 be 01 e5 9d be 4e 31 3b be
       0.06469514 -0.1571959 -0.3083878 -0.18280527
000360 76 3a 01 3e 2d c2 e5 3d 33 cd f0 3c ed 72 92 bf
       0.12619957 0.11218677 0.029394722 -1.1441323
000370 21 b2 b1 be da 66 03 bf 20 5d f4 bd 91 ce 93 bc
       -0.34706214 -0.51328814 -0.11931825 -0.018042834
000380 4f 16 4b be 50 8f 82 be 85 67 ad be 76 a4 16 3d
       -0.19832729 -0.25499964 -0.33868042 0.036777936
000390 81 00 8b be 0b 31 8f 3d 99 66 b7 be d8 a9 4b 3e
       -0.27148822 0.06991776 -0.35820463 0.19889009
0003a0 07 be a7 be 74 f4 b5 be 02 a0 76 be b6 66 84 ba
       -0.32762167 -0.35538065 -0.24084476 -0.0010101411
0003b0 03 99 83 be e5 28 67 bd 1c 3f 9a 3d bd f8 66 bd
       -0.25702676 -0.056435484 0.075315684 -0.05638956
0003c0 ec 4d 90 be f1 fd 23 be 8d b6 53 be b5 d4 1f be
       -0.2818445 -0.1601484 -0.20675106 -0.15608485
0003d0 26 e5 c9 be ef e3 6f 3b 18 2f db 3d 4b 91 8e 3e
       -0.3943264 0.0036604365 0.10702342 0.27845225
0003e0 13 dc 62 3e 0d 5b 8b bd e5 13 db bd c6 41 ba bd
       0.22154264 -0.06804476 -0.10697154 -0.090945765
0003f0 55 91 c5 3c 55 58 d6 3d 40 9c 08 3e f0 e8 c4 3d
       0.024117151 0.10466067 0.13340855 0.09614742

actor.0.bias f4 [64]
000000 a4 c2 13 3e 5b c5 99 bc 20 f0 4a be bb dc a5 bd
       0.14429718 -0.018770864 -0.19818163 -0.080987416
000010 49 0e 54 3d 45 dc 3d bc 32 a6 d6 bd a1 45 1f 3c
       0.051771436 -0.011588161 -0.10480918 0.009721191
000020 41 fc c1 be 69 9f 9c be 38 60 c8 3b 3c c9 5a be
       -0.37887767 -0.3059037 0.006114986 -0.21365827
000030 2b 7f e8 bd 33 59 40 3e e9 68 a3 be f3 8c 05 3d
       -0.1135238 0.18784027 -0.31915978 0.032605123
000040 f6 e4 2a 3d 9b 28 7d be 65 5d 49 3d 30 29 4c be
       0.04172226 -0.24722521 0.049161334 -0.19937587
000050 1b b9 31 3d 1d 13 a7 be 35 03 0f be bd 90 19 be
       0.04338942 -0.3263177 -0.13966067 -0.1499662
000060 ef bc 45 be 3e be e0 be 5a 35 75 be 12 ce 9f 3e
       -0.19310354 -0.43895143 -0.23946133 0.31211907
000070 a8 f8 37 be ba a0 ef bc bd ed b2 be 37 00 a9 be
       -0.17965949 -0.029251445 -0.34947005 -0.33007976
000080 7e e6 2d be 2f 90 8e be db 8b cf bd 18 12 32 be
       -0.16982457 -0.27844378 -0.10134097 -0.17389715
000090 af 7e 11 bf f7 f4 8b 3d e6 b9 93 be b6 99 eb bc
       -0.5683393 0.06833833 -0.28852767 -0.028759819
0000a0 88 f1 d1 bd 87 2d 7f be 75 47 26 be f5 ff cf 3d
       -0.102511466 -0.24919711 -0.16238196 0.10156242
0000b0 71 aa 08 be 9c 34 03 3e 99 01 0f be aa 64 83 be
       -0.13346268 0.12813038 -0.13965453 -0.25662738
0000c0 24 60 f9 bc 4a f0 c7 be 7e fc 74 bd 76 a3 73 be
       -0.030441351 -0.39050514 -0.059811108 -0.23792824
0000d0 61 f9 d9 be 17 3c 83 bd 4c 42 5e be c3 15 0c be
       -0.42573074 -0.064079456 -0.21704978 -0.13680176
0000e0 f2 1b ad 3d ea 9c 3d 3d d5 71 4e 3d bc b4 c7 be
       0.08452596 0.046292223 0.050401527 -0.39005077
0000f0 cf 39 91 be 22 48 b7 3d 01 18 38 3e d8 95 90 bd
       -0.28364417 0.08949305 0.17977907 -0.070598304

actor.2.weight f4 [32, 64]
000000 1e 9d 0d be 69 54 03 be 4f d1 8e be f0 2f 14 be
       -0.13829467 -0.12825169 -0.27894065 -0.14471412
000010 e7 a4 8e 3c ff f1 1f be 92 bd b1 be 5b d5 5b bd
       0.017412616 -0.15619658 -0.34714943 -0.05367027
000020 08 68 86 be 05 e6 ae be c4 e4 81 bd e0 5d ca be
       -0.26251245 -0.34159866 -0.06342462 -0.39524746
000030 eb 05 e1 3c 72 0e a7 be d1 45 9c be a4 40 80 be
       0.027468642 -0.32628208 -0.30522016 -0.25049317
000040 06 ca b3 be 36 d3 d2 3e 49 5f 85 be 5e d7 af be
       -0.3511507 0.41176766 -0.2604926 -0.34344
000050 4f 5b 2e 3e 45 42 60 3d 02 59 a1 3d 88 c3 49 be
       0.17027019 0.0547507 0.07878305 -0.19703496
000060 7a cd ef 3d bf 27 11 3d 70 8e 24 3e 28 f7 d1 be
       0.117091134 0.035438295 0.1606996 -0.41008878
000070 61 66 1e be 52 97 12 be 57 91 8f be 00 9b 42 be
       -0.15468742 -0.14315537 -0.28040573 -0.1900444
000080 ed 6d cc be bb e0 18 3e 6b 5c a7 bd ef 18 c3 3d
       -0.39927617 0.14929478 -0.08171924 0.0952624
000090 0d 8f 07 bd 76 d1 87 be f3 0d cd bd a9 20 3d 3c
       -0.03309541 -0.26526994 -0.10012426 0.011543431
0000a0 c2 b8 7d 3d 10 52 46 3e d3 4f 5d bc 9e 3e 0e be
       0.061943777 0.19367242 -0.013507801 -0.13891074
0000b0 10 37 42 be 8c fb 81 be 07 96 31 3e 44 2e 38 be
       -0.18966317 -0.25387228 0.17342387 -0.17986399
0000c0 a8 76 86 3b a7 77 3c be 84 2e bb be bc 0b a1 3e
       0.0041035004 -0.18405019 -0.36558926 0.31454265
0000d0 21 96 48 bd 4a 1e 1d bd 26 37 8e bd 4a 81 23 bc
       -0.0489713 -0.038358964 -0.069441125 -0.009979555
0000e0 b7 0c 2b 3e 7d b6 94 be ba 48 d7 3d aa 8e 90 3e
       0.16704069 -0.29045478 0.10511918 0.28233844
0000f0 63 71 9e 3e 72 71 e3 be 67 a2 a2 be 90 02 61 3e
       0.30945882 -0.4442249 -0.31764528 0.21973634
000100 be 29 13 bf 0d 1e 3f 3c 7b 69 dd bd 3d 2d 04 be
       -0.5748557 0.0116648795 -0.108111344 -0.12907882
000110 60 48 06 be 1e 63 3c be ee 91 a4 be e8 60 95 3d
       -0.13113546 -0.18397185 -0.32142586 0.07293874
000120 3f be ce 3d 36 ca 7d 3e 3e 17 2b be d6 e5 89 3d
       0.1009488 0.24784169 -0.16708085 0.06733291
000130 b6 46 42 be 69 7b e6 be 46 94 15 3c ac a5 43 bf
       -0.18972287 -0.4501603 0.009129589 -0.7642467
000140 80 8a e6 38 f4 e6 4a 3e 6d 10 d7 3d 93 66 28 bd
       0.00010993052 0.19814664 0.1050118 -0.041113447
000150 c3 78 47 be 7f 5e 5c bc ac 07 a0 bd 52 fc 4d be
       -0.1947966 -0.013450264 -0.07813963 -0.20115784
000160 ee d6 88 bd 39 d6 25 3d 0b cc b7 3c 5d f8 0b be
       -0.066816196 0.0404875 0.022436162 -0.13668962
000170 7a 03 d8 be a4 38 e4 be 9c c4 c1 3c 24 00 3d be
       -0.42190152 -0.44574463 0.023653321 -0.18457085
000180 01 02 3f bd c8 39 58 3e b9 3e 6e be 8f 0e 9b 3d
       -0.04663277 0.21115792 -0.23266114 0.07571136
000190 2c 93 cf 3d 53 07 95 bc 47 22 7a 3e d0 a3 d7 bd
       0.10135493 -0.018191969 0.24427138 -0.10529292
0001a0 13 5b 26 be d4 09 a1 be a7 00 50 3e 16 c3 44 be
       -0.1624568 -0.3145281 0.20312749 -0.19215044
0001b0 9f 9b b3 bd a3 3e 85 be 51 c1 08 bd 0c 75 d2 3d
       -0.08769917 -0.2602435 -0.033387486 0.10276231
0001c0 cf 91 18 3d 2d 51 c1 3d d6 28 95 be 9e cc 27 bf
       0.03724843 0.09439311 -0.29132718 -0.65546596
0001d0 f5 e9 82 3d 7e d9 6b 3c 3d 4d 46 be f3 49 13 be
       0.0639228 0.014395116 -0.19365402 -0.14383678
0001e0 ba ad 84 be c3 3f b5 3d 73 66 39 be ad 42 3c be
       -0.25913793 0.08850052 -0.18105488 -0.1838481
0001f0 4c 17 6f 3e 6d 21 53 be ad 42 89 be 0b 8c 97 3d
       0.23348731 -0.2061822 -0.26808682 0.07399758
000200 cd c9 fb be 34 78 11 be d6 16 04 bd 1b 69 01 be
       -0.491774 -0.1420601 -0.03224834 -0.12637751
000210 b0 45 6d be 12 1c 4b 3e 31 6c 31 be 66 b3 02 bd
       -0.23171115 0.19834927 -0.17326428 -0.03190937
000220 85 ad 32 be 6c 44 c6 bd d2 8b 46 bd cd fc e6 be
       -0.17449005 -0.09681019 -0.048473187 -0.45114747
000230 f6 88 e1 3d c1 cc 5e be 10 e4 87 be c7 63 a4 be
       0.11012451 -0.21757795 -0.26541185 -0.32107374
000240 41 ea 9a bd 75 5d 5e 3d 6a 66 c5 3d ea 61 29 bd
       -0.07564212 0.054288346 0.096386746 -0.041353144
000250 31 10 92 be fa c0 81 3e c1 7a 3f be 48 e2 14 be
       -0.28527978 0.25342542 -0.1869917 -0.14539444
000260 05 92 7b be 09 32 4a bb 80 e0 7f bc da 30 26 3e
       -0.24567421 -0.0030852577 -0.01561749 0.16229573
000270 8b e4 f8 bd 64 08 93 bd 9c 94 11 bc ad 13 e0 bd
       -0.12152966 -0.07179335 -0.008885529 -0.10941253
000280 ac e5 8f 3b 8d f2 12 be eb 44 bf bb b6 37 1d be
       0.0043913927 -0.14350338 -0.005837073 -0.15353283
000290 76 77 13 3e 20 74 4e be 4c 51 90 3b 4b 80 1c be
       0.1440104 -0.20161486 0.0044042226 -0.15283315
0002a0 49 2e c8 bd 85 72 94 bd 83 79 06 be 3d 11 5c 3e
       -0.09774453 -0.07248405 -0.1313229 0.21490951
0002b0 fe 4c c6 be 91 d0 8b 3b f7 ef ce 3d ee 42 8f 3e
       -0.38730615 0.0042668064 0.101043634 0.2798075
0002c0 5a ce 60 3e ef 2e b4 3c 31 20 0c be 9b e8 d5 3e
       0.21953717 0.021995036 -0.13684155 0.41779026
0002d0 69 b4 64 bd 8b 1c 31 bd 70 55 da 3d d6 56 2d be
       -0.055836115 -0.04324011 0.10660827 -0.16927657
0002e0 52 71 a8 3e a2 46 43 be fa 63 00 3d d5 48 3a 3e
       0.32898957 -0.19069913 0.031345345 0.18191846
0002f0 e2 31 88 3e 1b d5 55 bd c8 40 23 3e 18 7f b7 be
       0.26600558 -0.052205186 0.15942681 -0.35839152
000300 97 cd 03 be 4c 9b c5 bd f3 60 be bc c2 db cc 3b
       -0.12871395 -0.09648761 -0.023239588 0.006251783
000310 87 eb ed 3d 67 fc 65 3e 70 85 bf 3e 8b 77 c6 3d
       0.11617189 0.22459565 0.37406492 0.0969077
000320 4b d5 40 3e 05 7f 07 bf fa 2c 14 be dc 68 81 bd
       0.18831365 -0.5292819 -0.14470282 -0.063188285
000330 f9 4c 99 be 5c bf 14 bf 03 1e 21 be 4b 97 70 be
       -0.29941538 -0.5810449 -0.15734105 -0.23495214
000340 54 19 f2 3d c5 4a ba 3b 45 1b 2f be 1c 1a ac be
       0.11821237 0.0056851828 -0.17100246 -0.3361367
000350 fb b7 09 bf 79 57 03 be c8 36 ea 3d e1 0b b5 3c
       -0.53796357 -0.12826337 0.1143623 0.02210039
000360 fe 05 ae 3e 80 f5 a2 3e 3b 6a 8a 3e b4 6a 83 3e
       0.33988947 0.31827927 0.27034172 0.25667346
000370 22 3c 23 3e 84 6c 1d be 83 62 49 be 15 f3 ae bd
       0.15940908 -0.15373427 -0.19666485 -0.08542458
000380 92 27 9d 3e 0d 47 53 be ef 2d 1e be 1a b5 cf bd
       0.30694252 -0.20632572 -0.1544721 -0.10141964
000390 60 62 cd bc 2c d2 41 bf fe 21 77 be cc 5d ac 3e
       -0.025071323 -0.7571132 -0.2413406 0.3366531
0003a0 69 e7 79 be 8c 73 30 3d 01 ed b8 3b 24 24 36 3e
       -0.24404682 0.043078944 0.0056434874 0.17787224
0003b0 0f 96 ab be 1b 70 ff 3c 29 75 8b 3e 5e 72 a9 bd
       -0.33512923 0.031181386 0.27237824 -0.08273767
0003c0 36 b7 d7 3b 98 dc 60 be 11 2e 26 be f6 46 67 be
       0.0065831197 -0.2195915 -0.1622851 -0.22585663
0003d0 03 88 18 3e 9a 21 44 be 19 d3 cc bd a5 e7 96 bd
       0.14895634 -0.19153443 -0.10001201 -0.073684014
0003e0 75 0c dc 3e e1 fb f7 3d 96 05 15 3e f5 ce 89 3c
       0.42978254 0.12108589 0.14552912 0.016822318
0003f0 1e 58 67 3e f2 97 9f 3c c5 06 8a be 70 63 da 3a
       0.22592208 0.019481633 -0.2695829 0.0016661715

actor.2.bias f4 [32]
000000 00 bf 37 be ad 7b 35 be d4 e6 48 be 43 08 55 be
       -0.17943954 -0.1772296 -0.19619304 -0.20803933
000010 35 c7 71 bd 9d 78 8c bd 2f aa 2d be ac 13 c6 3c
       -0.05902787 -0.06858943 -0.16959451 0.024179302
000020 e1 e8 bc 3d cc 7b 34 3d 02 e1 8b bd 33 42 7d be
       0.092241056 0.044063374 -0.06830026 -0.24732284
000030 22 09 0f be bb a7 07 3e f1 26 00 3a 5e 9c 5a bd
       -0.13968328 0.13247578 0.0004888615 -0.05337178
000040 ba 71 6a 3b ea 91 0a be 6d be d8 bd 18 f9 f1 bd
       0.0035773353 -0.13532224 -0.10583196 -0.11815089
000050 1f 03 5d be 1a f8 ca bd 9a 1f 01 be 38 af fd 3c
       -0.21583222 -0.09910603 -0.12609711 0.03096734
000060 03 1f 9f bd 19 d0 b8 bd a7 ef 56 be 97 8e 34 be
       -0.07769587 -0.090240665 -0.20989858 -0.17632519
000070 31 f0 81 bd bc 4c 06 be dd 0c 0d be d3 1f bb bc
       -0.06344641 -0.1311521 -0.13774438 -0.022842323

actor.4.weight f4 [3, 32]
000000 f3 c4 60 38 34 99 48 bc 90 99 82 bd 99 01 78 3d
       5.3589185e-05 -0.012243558 -0.06376946 0.0605484
000010 fd 9e e8 bd c8 d3 93 3c 4c 5b 07 3e e8 62 a3 bc
       -0.113584496 0.018045321 0.1321842 -0.019944623
000020 d3 26 7c bd 8c 76 a0 3a a6 0d 1b bd 94 35 df 3c
       -0.061560463 0.0012242361 -0.037854813 0.027247228
000030 e4 fa 16 bd 63 2f 8b bc c2 91 99 3a 56 9b 3f 3d
       -0.03686036 -0.01699037 0.0011716413 0.046779
000040 59 94 52 bd ca b9 5e 3c 70 ad 26 bc 76 80 31 3b
       -0.051411007 0.0135941 -0.010173187 0.0027084625
000050 e6 7b 96 3d 61 84 ea bc b4 98 09 be dc da a0 bd
       0.073478505 -0.028627576 -0.13437158 -0.07854244
000060 f7 4c 8c 3b 6f 1b ba 3c a9 1f 0e 3d 2b 2e c2 3b
       0.004281636 0.02271816 0.034698162 0.005925914
000070 bc 08 cc bc 15 25 9d 3d c4 8f f4 b9 a3 a0 fa bb
       -0.024906509 0.076730885 -0.0004664642 -0.007648544
000080 2d 5c a1 3d 68 14 23 3c 46 fa da bc 00 d8 95 bc
       0.07878909 0.009953596 -0.026730668 -0.018291473
000090 2c 4c 3d 3d 47 ca 60 3d 73 33 2a 3d f3 68 0d bc
       0.04621522 0.054880407 0.041552972 -0.008630979
0000a0 c2 0d cc bc 04 3c b7 3b 2f 8c 36 bc 86 24 9f 3c
       -0.024908904 0.005591871 -0.011141821 0.019426595
0000b0 43 55 53 bd a4 d4 57 3c 7f 3e 3d 3c 33 9b 86 bc
       -0.051594984 0.013173256 0.011550545 -0.016431427
0000c0 0b c4 05 ba 07 45 40 3c 3f 05 e3 39 df 77 3e 3b
       -0.000510276 0.011735207 0.00043300723 0.0029063148
0000d0 3e 54 c1 3c 37 c3 8b ba 5e 5c f5 bc 86 fb 2e 3d
       0.02359974 -0.0010663037 -0.02995127 0.04272034
0000e0 74 d5 3b bb 28 6c 0a 3d d0 e6 53 bd f7 b8 04 3d
       -0.0028661164 0.033794552 -0.05173379 0.03240296
0000f0 ef dd 69 ba 08 f4 cf bc db 5e 40 3c fd 7d 6d bd
       -0.00089213153 -0.025384918 0.011741365 -0.05798148
000100 5c 7d fd bd 30 d5 3d bd 51 ee 59 3b 64 25 8a 3c
       -0.12377426 -0.04634589 0.003325362 0.016863532
000110 69 fd 17 bc 46 b1 9a bd 65 3f 7c 3d a1 36 ca bc
       -0.009276726 -0.075533435 0.061583895 -0.024684252
000120 7f fd 85 3d 84 be e8 ba 7f 41 94 bd 24 81 47 3b
       0.06542491 -0.0017756973 -0.07239055 0.0030441964
000130 91 d4 5a 3d 07 85 00 bd 70 60 44 3d 7c 7f f8 3a
       0.053425375 -0.031376865 0.047943532 0.0018958892
000140 37 af ee bc 30 b9 d0 3c 56 dc a5 bc ca 31 75 3c
       -0.029136283 0.02547893 -0.020246666 0.014965484
000150 9e d9 25 3d 49 6f 8f 3d 44 2e 43 3d 08 a7 99 3d
       0.04049074 0.07003648 0.047651544 0.07502562
000160 c9 9a 51 3c 42 b4 8e 3c 8c 2c 8e bb e3 60 17 bd
       0.012793251 0.017419938 -0.0043388065 -0.036957633
000170 59 03 25 bc 4e 6a e0 3c d4 2a 3c bd 85 38 af 3c
       -0.010071599 0.02739444 -0.04593928 0.021389255

actor.4.bias f4 [3]
000000 ba 02 01 3e 91 e3 ac bd e6 ad 53 3e
       0.12598696 -0.08441842 0.20671806

critic.0.weight f4 [64, 24]
000000 75 02 d9 be 8a b0 74 3d 99 3f 42 bf ad ba bd be
       -0.42384687 0.059738673 -0.7587829 -0.37056485
000010 ea 3d 81 3d 78 69 ae 3e d3 55 2d 3d 11 4b 92 3e
       0.06310637 0.3406484 0.042318176 0.28572896
000020 b0 38 3b be 7b 5b 99 3e 7f 19 21 3e 33 ac c2 3e
       -0.18283343 0.29952607 0.15732382 0.38022003
000030 16 ee 30 3e f7 a6 e4 3e 8b cb 52 3e d4 ab 47 bd
       0.17278323 0.44658634 0.20585458 -0.048747852
000040 dc cc 89 3e d5 25 ac 3e a3 8f 16 be ef e8 92 be
       0.26914108 0.33622614 -0.1470323 -0.2869334
000050 82 71 13 3c 37 98 da bd e8 45 90 3e 8c dc 7c be
       0.00899923 -0.10673564 0.28178334 -0.24693507
000060 ca 55 95 be 69 f6 f1 bc d2 4a ac 3e 3b 4a 91 3e
       -0.29167014 -0.029536443 0.33650833 0.28376946
000070 2f a5 32 3f c1 7d 89 bf 37 b9 c6 3e a7 64 94 bf
       0.697833 -1.0741502 0.38813183 -1.1593217
000080 78 0b 2c 3f ed 6b 5d bf 83 c4 42 3f 37 38 83 bf
       0.67205 -0.86492807 0.76081103 -1.025153
000090 c6 11 40 3f 3e 16 21 bf fa 0f 06 3f 0e 9c 81 bf
       0.7502712 -0.62924564 0.5236813 -1.0125749
0000a0 2b e2 54 3d 80 ed fe be c3 ad 20 3e e1 c2 10 bf
       0.051973503 -0.49790573 0.15691285 -0.5654736
0000b0 71 e0 b5 3e ad e1 15 bf ac f1 3a be ea 65 22 bf
       0.35522798 -0.5854748 -0.18256253 -0.6343676
0000c0 47 b8 b3 be 80 5c ea 3d 13 ca 7a bd 39 ec 04 bf
       -0.3510153 0.11443424 -0.06122787 -0.5192295
0000d0 b1 a9 b0 bf c8 9a 8f be 4b 0e 6d be 9a 21 9c 3e
       -1.3801786 -0.28047776 -0.23149984 0.30494386
0000e0 e0 f3 4d 3e fb 6e 0c 3f 86 98 dc 3e 55 40 12 3f
       0.20112562 0.5485684 0.43085116 0.5712941
0000f0 58 5a 6b bd 72 da 66 3f 44 72 b9 3e 9f 8c d8 3e
       -0.057459205 0.9017707 0.3621999 0.42294785
000100 05 77 5f 3e d2 0b cb 3e 9e 86 9a 3e e8 45 12 3f
       0.21822746 0.39657456 0.3018083 0.5713792
000110 dd 2e da 3b 26 71 f1 3e b7 4e b3 3e 4c 43 b7 3e
       0.0066584186 0.47156638 0.35020992 0.3579353
000120 1c 3c a7 3e 18 9a 2e 3d fe c9 63 bd bc 00 92 be
       0.32663047 0.042627424 -0.055612557 -0.28516185
000130 c8 ac 08 bf 6f 0c ee be 95 0f 4a 3f 75 53 27 bf
       -0.53388643 -0.4649386 0.78930026 -0.6536172
000140 3e 99 82 3f c0 2a 1e bf fd c3 51 3f a3 33 83 be
       1.0203016 -0.6178398 0.8193968 -0.25625333
000150 86 c9 24 3f 57 50 09 bf 09 cc aa 3e 0b cc ab be
       0.6437 -0.53638214 0.3335879 -0.3355411
000160 87 5c e4 3e 20 78 19 bd 36 fa 58 3e 7e 33 5b be
       0.44601843 -0.037468076 0.21189198 -0.21406361
000170 8e 59 11 be 28 e3 94 be 00 c8 05 3f 35 ba 70 bd
       -0.14194319 -0.29079556 0.522583 -0.05877133
000180 ef 94 2e bf b7 18 09 be d5 f5 42 bf b7 25 02 bf
       -0.68196005 -0.13388334 -0.7615636 -0.508388
000190 2a a6 0a be 29 e5 53 3f 78 fb 2a 3e e6 b5 8d 3f
       -0.13539949 0.82771546 0.1669749 1.1071136
0001a0 23 32 f9 3d fb 99 68 3f 41 df 6b 3e fb d3 87 3f
       0.12167766 0.90859956 0.23034383 1.0611566
0001b0 b7 be fe 3e 3e 40 34 3f bb 47 40 3f 42 d0 5f 3f
       0.4975488 0.70410526 0.7510945 0.8742715
0001c0 f2 11 2c 3f 76 33 af 3e 66 cf 78 3e df 82 36 3f
       0.6721488 0.3421895 0.24297866 0.71293443
0001d0 e2 92 45 3f ee 4c 20 3f 04 b2 14 3f 10 65 86 3e
       0.7717725 0.62617385 0.5808413 0.2624898
0001e0 29 d2 92 3e 5e 3a e6 bd 8d bf 5e bc 26 11 4b 3e
       0.28675964 -0.112416014 -0.013595474 0.1983076
0001f0 f9 df d3 bf 5f ba f8 3d 14 27 2c bf 17 8e 25 3e
       -1.6552726 0.121449225 -0.6724713 0.16167484
000200 86 89 83 be fd 80 32 be d0 fa c4 be 96 df f4 3e
       -0.2569086 -0.17432018 -0.38472605 0.47826833
000210 6b 1d e3 be cd 68 ee 3e 09 86 aa bd 3a 3a c5 3e
       -0.44358382 0.46564332 -0.083263464 0.38520986
000220 1e 78 1b be 2d 3c c9 3e 4e 03 a5 bd ff 8d b0 3e
       -0.1518254 0.39303723 -0.08057271 0.34483334
000230 e8 0a aa 3e 08 5e 1b 3e 22 66 5b 3e 92 d7 ce 3e
       0.33211446 0.15172589 0.2142568 0.40398842
000240 d3 9b a7 3e 30 8f ed 3d fa c3 ee be cc 0b 20 3d
       0.32736072 0.115995765 -0.46633893 0.03907375
000250 4f 46 0b 3e 49 28 6c 3f ac 3e 1a bf 06 03 a1 3e
       0.1360104 0.9224897 -0.6025188 0.3144762
000260 f1 bd ca be f8 17 98 bc 7e 06 0d bf 9b 33 89 be
       -0.3959804 -0.018566117 -0.5508803 -0.26797184
000270 59 ae 31 be a3 70 a0 be c9 7e 5c be 5e 4d 09 bf
       -0.17351665 -0.31335935 -0.2153274 -0.5363368
000280 91 d1 17 be 99 84 f3 be 47 07 22 be 52 22 de be
       -0.14826037 -0.475621 -0.15823089 -0.4338556
000290 ce 4a 84 bd 1e b7 12 bf a2 b7 a0 be b7 df 0a bf
       -0.0645958 -0.57310665 -0.313901 -0.5424761
0002a0 7f 55 a8 3d cb 66 9f 3e 23 d4 03 bf 48 95 c3 be
       0.08219432 0.31133112 -0.5149557 -0.3819983
0002b0 89 63 7d bf 62 c6 3f be 45 64 25 be b6 ba 5d bf
       -0.98980004 -0.18728021 -0.16151531 -0.86613023
0002c0 e3 79 26 3d 2f f6 2f bf f9 01 29 3f 3b 49 6b bf
       0.040643584 -0.6873502 0.66018635 -0.91908616
0002d0 ca 85 a7 3e 45 37 5c bf f4 a4 88 3e 62 3b db bd
       0.3271926 -0.86021835 0.2668835 -0.10704686
0002e0 0d 34 d4 3e 70 f5 0f bf 23 c3 ef 3e 9f b5 a1 be
       0.41445962 -0.5623388 0.46828565 -0.31583878
0002f0 56 ed b4 3e d9 a5 65 bd 78 c3 ee 3d b3 42 44 bd
       0.35337323 -0.056066368 0.116583765 -0.04791517
000300 df 20 61 bf 54 e3 9b bd 62 2b 6e 3e 2e cd ac bf
       -0.8794078 -0.07611719 0.23258737 -1.3500116
000310 80 44 4b bf 13 1d 50 c0 64 0c f9 3d b0 3f ac bf
       -0.794014 -3.2517745 0.121605664 -1.3456936
000320 c5 94 e5 3e c9 fa e2 be 9e dd 27 3f a4 d4 75 bd
       0.44840065 -0.4433196 0.65572536 -0.060017243
000330 c9 dc f8 3d 2c 03 84 3e 54 08 c1 3e ae ed 05 3f
       0.121514864 0.2578367 0.37701666 0.52315795
000340 02 b0 c2 3d eb 21 36 3e b7 3f af bb f8 d1 36 3e
       0.09506227 0.17786376 -0.0053481716 0.17853534
000350 ec 41 04 3e 0b d4 a8 3e 6d 34 74 3d 28 7a 12 3f
       0.12915772 0.32974276 0.05962031 0.57217646
000360 d8 4f 34 3e 2f 76 31 be ce 8b 9c 3d 07 65 bd bd
       0.17608583 -0.1733024 0.07643853 -0.09247785
000370 02 d1 0e bd a2 16 29 3f d0 bd 37 bf 24 f0 09 3e
       -0.034867294 0.6605016 -0.71774006 0.13470513
000380 39 4b 89 be ac 2e 83 bd ea 44 ce be 7f 69 7d 3e
       -0.26815203 -0.06405386 -0.40286952 0.24747275
000390 28 30 c7 be 94 a4 56 3d ab e8 89 be e8 de 96 be
       -0.38903928 0.052403048 -0.26935324 -0.2946694
0003a0 01 b9 56 3d ed 83 d9 be 21 7f e7 bd 9c 00 4e be
       0.052422527 -0.42483464 -0.11303545 -0.2011742
0003b0 df 60 73 be fe ad e9 bd 4c 69 0b bd 8d 42 61 bd
       -0.23767422 -0.114101395 -0.034035966 -0.05499511
0003c0 3c a8 c2 3e 1a 07 1c be 0d 7d 9d be b7 3b b4 3e
       0.38018978 -0.15237084 -0.3075947 0.3520181
0003d0 bb 49 32 3f 4b 2e 79 3f 22 30 10 3d 72 ee 9a 3d
       0.69643754 0.9733626 0.035202153 0.07565011
0003e0 1d 09 97 be 00 b4 19 be 96 7d 78 be 9c aa 2d bd
       -0.2949914 -0.15010071 -0.24266657 -0.042399034
0003f0 ae 26 b2 be 76 b6 7e be ac 29 60 be 1b 44 8a be
       -0.34795135 -0.24874291 -0.21890897 -0.27005085

critic.0.bias f4 [64]
000000 03 9a 0a bf ae 49 c7 be 9b fc 81 3e ae b1 2b 3e
       -0.54141253 -0.389234 0.25388035 0.16766998
000010 fd 3f d0 be 35 41 af 3e f2 ac 47 be fa c6 ee 3e
       -0.4067382 0.34229437 -0.19499567 0.46636182
000020 75 2c eb 3e 93 11 75 3e df c4 e5 3e b5 bd 00 bf
       0.45932356 0.23932485 0.44876763 -0.5028947
000030 d3 71 ca 3e c2 4e 8e 3e cd 32 29 3e 51 f3 e7 be
       0.39539966 0.27794462 0.16523285 -0.45302823
000040 60 6d fd 3e 3f fb 3c 3e db 7f ad be 0a 4e a7 bf
       0.4949751 0.18455218 -0.33886608 -1.3070691
000050 f3 63 30 bf 39 24 66 bf 2c 87 e0 3e 98 5e 18 3e
       -0.6890251 -0.8989902 0.43853128 0.14879835
000060 11 6a 99 be 9e 39 c6 bc ed 63 12 bd d5 1d 7b bf
       -0.29963735 -0.024197396 -0.035739828 -0.98092395
000070 57 1a 7a bf 4d 7b 4a bf 4b 74 3f bf 4e ee 61 3e
       -0.9769644 -0.7909439 -0.74786824 0.22063562
000080 4e ff 90 be 71 cd 25 3e 47 d7 ca 3e 0d 1f 08 bf
       -0.28319782 0.16191651 0.3961737 -0.5317238
000090 b8 c2 ba bf 31 1a 7a 3e 7c bb 88 3d 55 0e 13 3f
       -1.4590673 0.24424054 0.06676385 0.57443744
0000a0 a1 c8 b5 3e 4a a1 80 bf 08 23 f7 be 56 0f d2 3d
       0.3550463 -1.0049222 -0.48268914 0.10256831
0000b0 3b e8 c3 3e 67 a5 9a 3e 30 52 6d bd 8a 8e 4e bc
       0.38263115 0.30204317 -0.05793971 -0.012607226
0000c0 52 87 96 bf b8 93 c3 bc c0 da 81 bd fe f7 fa be
       -1.1760046 -0.023874149 -0.063405514 -0.49017328
0000d0 ba 00 ad 3e c7 ae 84 3e 20 63 08 bd 82 de 52 3e
       0.33789617 0.25914595 -0.033297658 0.20592692
0000e0 8b 24 17 3f 1a 65 eb 3e 3c 03 9f 3e a8 79 9f 3e
       0.59040135 0.45975572 0.31057155 0.31147504
0000f0 d7 8f 52 bf 40 a3 52 3e d4 32 1c 3e c3 76 9d bf
       -0.8225073 0.20570087 0.15253764 -1.2301868

critic.2.weight f4 [32, 64]
000000 98 b2 23 be ad 31 ce bd 0e c3 16 bd 78 9d 61 be
       -0.15986097 -0.10068069 -0.036807112 -0.22032726
000010 f8 2d da bc 1a c0 18 3e 83 0f 82 be c6 a1 c6 be
       -0.026633248 0.14917031 -0.2540246 -0.38795298
000020 90 3d 83 3e a1 76 18 be 34 54 a2 be 48 ef cd bd
       0.25632906 -0.14889003 -0.31704867 -0.10055405
000030 e9 19 c7 be 0f df af be 00 9b 13 bf 72 93 37 3e
       -0.38886955 -0.34349868 -0.57658386 0.1792734
000040 21 a9 08 bf 62 7f ad be 64 46 18 be 78 ee 3d be
       -0.5338307 -0.33886248 -0.14870602 -0.18548
000050 e6 c0 3a 3e a8 3e 56 3e e3 56 14 bf 58 2d ac 3d
       0.18237647 0.20922339 -0.5794508 0.08407086
000060 65 24 8a be fe 2d 88 be 22 f2 89 be a7 33 ce bd
       -0.26980892 -0.2659759 -0.26942545 -0.10068446
000070 af 7f ac 3c 3b 7d b4 3d 8a 9b 2f 3d e3 4b a7 be
       0.021056978 0.08812948 0.042872943 -0.32675084
000080 c1 7c 33 bd ff c9 be be 2e 4f dd be 5c 97 ca bc
       -0.043820146 -0.37263486 -0.43224472 -0.024730377
000090 78 4a b3 bc 1e 55 61 bd dd c2 b1 be b7 66 ca be
       -0.021886095 -0.055012815 -0.3471898 -0.3953149
0000a0 d7 ea 49 be db a7 71 3e b7 fa b7 be 37 28 b3 be
       -0.1971849 0.23599188 -0.35933468 -0.3499162
0000b0 9a fa a6 3d 53 d4 f1 3c f1 9e 6b 3e fd fc 1c be
       0.08153267 0.02952019 0.2300985 -0.15330882
0000c0 14 7f d9 3d a7 67 cc be 74 91 cc bd 7b 52 1b bc
       0.10619941 -0.3992283 -0.099886805 -0.009480114
0000d0 29 63 b3 be ff 06 09 be 1d c4 91 be 79 0b ab 3c
       -0.3503659 -0.13381575 -0.28469935 0.020879494
0000e0 e0 50 35 be 68 17 a6 bc af 8a fc bd f6 1b e1 bd
       -0.17706633 -0.020274833 -0.12331139 -0.10991661
0000f0 7c e0 df 3c c3 c3 d3 bd 46 6c 50 be 13 f4 a0 3e
       0.027328722 -0.10340073 -0.20353803 0.31436214
000100 93 a4 20 bf e9 d3 b9 3e 48 57 84 3d 36 14 d5 be
       -0.6275112 0.36294487 0.0646196 -0.41616982
000110 93 2c 82 bf cf 11 0b c0 41 e8 39 bf 9e 6a da bf
       -1.0169853 -2.172962 -0.72620016 -1.7063787
000120 cf 05 47 3f b5 3a 2f 3d 89 fd 92 be ca 8d d0 bd
       0.7774324 0.042780597 -0.28709057 -0.10183294
000130 87 a8 c5 be 1e e6 bf be 49 3a 0b bf 3f 29 2e bf
       -0.3860514 -0.37480253 -0.5438581 -0.68031687
000140 b8 02 5c be aa af 8b 3d 98 09 30 bd 63 51 dd 3d
       -0.21485412 0.06820615 -0.0429779 0.10806539
000150 a4 24 0e 3f 8c f3 8a 3e 42 9a 71 bf 70 99 d5 3e
       0.5552466 0.27138937 -0.94376004 0.41718626
000160 a5 79 bb 3d 49 f9 98 bf 39 20 c3 bf b1 01 8e 3e
       0.09154061 -1.1951076 -1.5244209 0.27735665
000170 cc e7 4e 3f ba 52 29 bf 41 e5 13 3e 96 2e 32 bf
       0.80822444 -0.66141856 0.14442922 -0.69602334
000180 7a 4b c9 be 6d f2 4e be 8f 97 b1 bf b7 8e f6 3d
       -0.39315397 -0.20209666 -1.3874377 0.120389394
000190 42 71 21 bf e7 a8 7c bf 2c 50 74 3c c2 c9 e1 be
       -0.6306344 -0.98695225 0.014911693 -0.44099241
0001a0 bf 02 11 bf 8d 70 3d 3f c3 5c cf bf 78 42 f2 3d
       -0.56644815 0.73999864 -1.6200184 0.11829084
0001b0 61 27 14 3e 5d 36 16 bf df 0b d8 3e b4 f9 5d 3f
       0.14468147 -0.586767 0.42196557 0.8670914
0001c0 67 ed 09 bd 83 40 40 bf 46 ff c1 3e c9 75 d0 3e
       -0.03367367 -0.7509844 0.3789007 0.40714863
0001d0 1a 04 f5 3d 35 09 82 be c6 63 b1 3f c8 f6 1e c0
       0.11963673 -0.2539765 1.3858573 -2.4838123
0001e0 44 70 9f bf c0 95 24 3f 13 ee 14 be 67 42 49 3f
       -1.2456136 0.64291 -0.14543943 0.78616947
0001f0 f6 fa 6a bd 6d 8a d2 be 17 0c 11 bf 5b 2f f7 3e
       -0.05736824 -0.41121235 -0.5665907 0.48278317
000200 d9 3d 0a be 0b b7 d8 3e 6c 9f 1c be 54 b5 fa 3e
       -0.13500156 0.4232715 -0.1529519 0.48966467
000210 14 cb 0b bf df 5e f0 3c 4c 64 a5 be fd 13 0a 3f
       -0.5460675 0.029342113 -0.32303083 0.5393675
000220 de a2 4d 3e 43 38 fc bd 61 e9 b0 3e 40 40 a6 be
       0.2008166 -0.123154186 0.34553054 -0.32470894
000230 1c a1 b7 3d 39 75 42 3e b1 c8 8d 3d ce 89 bc be
       0.08966276 0.1899003 0.069230445 -0.36823887
000240 83 22 cc be 7f 77 fe bd 3d 08 96 3e 69 cf bd be
       -0.3987008 -0.12425136 0.2930316 -0.37072304
000250 75 12 63 3e b3 84 d0 be e2 c0 6f 3e 36 6f 8b 3e
       0.2217501 -0.4072624 0.23413423 0.27233285
000260 14 f6 5d 3e f2 d2 5a be 70 49 41 be c2 2b 19 bf
       0.21675903 -0.21369532 -0.1887567 -0.59832394
000270 cf 8f a6 be 30 02 4c bd 5c 3f 56 3e ab 2b e9 3e
       -0.32531592 -0.049806774 0.20922607 0.4554113
000280 88 cd 3a 3c 0f 1a d6 3e 83 d4 ce 3e 0c cd de bd
       0.0114015415 0.41816756 0.4039651 -0.10878953
000290 51 18 88 3f 54 bf 86 3e fc 4b 05 3e da 9b 90 3e
       1.0632421 0.26317847 0.13017267 0.28243905
0002a0 03 25 8b 3e 10 e4 96 be 4a b2 c6 3e 04 1c ee 3e
       0.27176675 -0.29470873 0.388079 0.4650575
0002b0 4c ea 9a 3d b8 48 5e 3d 3c ed e4 3d 3b 99 19 bf
       0.0756422 0.05426857 0.11178061 -0.59999436
0002c0 4e 93 3c be 3a 3d 10 be a9 2c 61 3e ba 72 17 be
       -0.18415567 -0.14085856 0.21989693 -0.14789858
0002d0 3e 5c 3e 3d cc fa 88 3e 0e f6 1f bf 99 20 40 3e
       0.046474688 0.26753843 -0.62484825 0.18762435
0002e0 a2 42 ba 3e ad 33 e4 bd 79 62 97 3e dd 2f 9e be
       0.36378962 -0.11142669 0.29567316 -0.30895892
0002f0 fd 86 c4 3e 19 50 e4 3e a9 f0 d6 3c 0f e0 2f bf
       0.38384238 0.4459236 0.026237803 -0.6870126
000300 a6 7b 1c be 1b a2 0d 3d 9f 06 2f 3e 79 53 12 bf
       -0.15281543 0.034578424 0.1709237 -0.5715862
000310 70 7c 70 bf 65 2c 16 bf 8d eb 5e 3e 81 b0 69 be
       -0.93939877 -0.5866149 0.21769543 -0.22821237
000320 2b 34 8c 3e 63 63 61 be fb 52 9b bd c0 67 8d 3e
       0.2738355 -0.2201057 -0.07584187 0.27618217
000330 5a 48 ac 3e 41 64 29 3e 45 ef 07 be ac b9 58 bf
       0.3364895 0.1654215 -0.13274868 -0.8465831
000340 74 84 80 be 7d 5c 9b 3e 5b a5 cd bd 69 14 a0 bf
       -0.25101054 0.30344 -0.10041305 -1.2506229
000350 fa 70 fd be e8 54 4d bf 2a f9 6b 3e b1 8c 51 3c
       -0.49500257 -0.8020768 0.23044267 0.012789891
000360 18 f7 16 3f d7 be 6f 3d 3a 27 a9 bd a1 f8 7a bf
       0.58970785 0.05853161 -0.08259435 -0.9803563
000370 59 df 32 bf 2d e0 a7 be f3 fb 5f bd 33 b6 e5 ba
       -0.6987205 -0.3278822 -0.054683637 -0.0017525613
000380 66 fb ee 3d f6 ea 04 3f 33 23 ce 3e fd db ea be
       0.11669044 0.5192102 0.4026123 -0.45870963
000390 fe 2e a5 be de 93 7d 3e d7 d8 48 3a e7 81 53 bd
       -0.32262415 0.24763438 0.0007661706 -0.051637556
0003a0 83 fc 6e be 05 9c 5d bf 77 b4 53 be 70 90 2b 3e
       -0.23338513 -0.8656619 -0.2067431 0.16754317
0003b0 7e a5 db 3e 44 a9 3a be ab ba fa 3c 28 d0 5b be
       0.42899698 -0.18228632 0.030606588 -0.21466124
0003c0 bd 1d 7d bf 07 96 76 bd 15 6b d7 3e f5 bb 22 bf
       -0.988735 -0.06020167 0.42073885 -0.6356805
0003d0 0a 47 aa bd 28 23 dc be 6a ae 41 bf 58 a0 a7 be
       -0.08314331 -0.42995572 -0.7565676 -0.3273952
0003e0 89 1f 37 3e 7d d7 cc bc 57 4b 97 bd 1c cd 64 be
       0.17883123 -0.025005097 -0.07387417 -0.22343868
0003f0 60 4f 5e bf 88 34 65 3e ce f8 55 3e 75 d8 ab bf
       -0.86839867 0.2238332 0.20895693 -1.3425432

critic.2.bias f4 [32]
000000 47 45 b0 be 29 2b e1 bb a2 83 a4 3e ee 59 be 3e
       -0.34427854 -0.0068716 0.32131678 0.37177986
000010 8b 55 b4 3e 01 14 ab 3e f9 5a e6 3d 38 a8 06 be
       0.35221514 0.334137 0.112478204 -0.13150108
000020 f8 2a e9 3e 63 71 14 3f 80 67 19 be 7d ea 69 be
       0.45540595 0.57985514 -0.14980888 -0.22843356
000030 cb 68 f0 3e 7d db ac 3e 98 47 e7 3e d8 36 93 3e
       0.4695495 0.33761206 0.4517181 0.2875278
000040 ad 9c 3b be 87 be bd 3e de 13 b8 3e 89 07 fa 3e
       -0.18321486 0.37059423 0.35952657 0.48833874
000050 2d 49 08 3f 10 f1 90 3e 72 b7 98 be 40 df 3d be
       0.5323666 0.28308916 -0.29827458 -0.18542194
000060 04 0f 95 be ba 92 4d 3e e9 bd b7 be 9b b7 d2 3e
       -0.2911302 0.20075503 -0.35887077 0.41155705
000070 bd db 3c be 0f 43 e7 bd c1 b5 b5 bd 85 26 40 be
       -0.18443199 -0.11292087 -0.088725574 -0.18764694

critic.4.weight f4 [1, 32]
000000 34 a0 bd be e7 d9 b8 bf 13 af 66 3e 7d f8 ca 3e
       -0.37036288 -1.4441499 0.22527723 0.39642707
000010 71 08 ae 3e 23 b0 07 3f ee 97 8a be d8 06 e7 be
       0.33990815 0.5300314 -0.27069038 -0.4512241
000020 3c 00 de 3e 56 52 13 3f d3 eb 59 bf c7 e3 cd be
       0.43359554 0.5754751 -0.85125464 -0.40212843
000030 ed f6 1c 3f b5 40 d9 3e 4e 21 a5 3e 71 0c a8 3e
       0.6131428 0.4243218 0.32251972 0.32821992
000040 ac 7b aa be 78 18 c5 3e 1d 2b dc 3e 94 60 aa 3e
       -0.3329748 0.3849523 0.43001643 0.33276808
000050 e5 5c ed 3e a6 0a e1 3e 79 80 f6 be 71 08 b5 be
       0.46359935 0.43953437 -0.48144892 -0.35358003
000060 96 8d 2f bf ee f5 88 3e 98 2b 5a bf ef 51 ef 3e
       -0.6857542 0.2675013 -0.8522277 0.46742198
000070 f3 f7 79 bf c0 fc 9d be 8c 1c ed bf 63 9b 24 bf
       -0.97643965 -0.30856895 -1.8524337 -0.642996
