logs/exp/model_16.pt (torch, 34660 bytes, 12 tensors)

log_std f4 [3]
000000 b7 90 98 bd a5 13 b5 bc 07 02 31 bd
       -0.07449477 -0.022104094 -0.043214824

actor.0.weight f4 [64, 24]
000000 d9 b4 b3 be e3 62 90 bb 77 5d 02 3f 09 b1 74 bd
       -0.35098913 -0.0044063195 0.50923866 -0.059739146
000010 57 e0 1f 3e 7c 65 20 bd 4a ca 52 3d 7d 0b d5 3d
       0.15612923 -0.039159283 0.05146245 0.10402582
000020 c3 14 7a 3e f5 50 d5 be 3c 0d b1 3c 46 88 86 be
       0.24421982 -0.41663328 0.021612756 -0.26275843
000030 ae 6d ad be f0 bb 2d bc f0 f9 4c be 24 c2 0b bf
       -0.3387274 -0.01060389 -0.20017219 -0.5459311
000040 ff dd 51 bd fb 93 35 be e4 1a 5a 3e 03 52 13 bf
       -0.051237103 -0.17732231 0.2129932 -0.57547015
000050 09 59 86 3d 5d 5e 86 be 81 04 e4 bd f1 7d 28 be
       0.06559951 -0.26243868 -0.111336716 -0.16454293
000060 97 62 45 bd fb 96 b3 3d b4 48 15 3e 3f b1 28 be
       -0.048189726 0.087690316 0.14578515 -0.16473864
000070 0e 52 b1 be 8d d4 c7 3c f8 68 bc bd 99 c9 12 3e
       -0.34632915 0.024393344 -0.09199709 0.14334716
000080 3a 3b 1d be 7d 88 05 bd 53 04 4c bd f4 b4 0d be
       -0.15354624 -0.03260087 -0.04980881 -0.1383856
000090 ca 81 05 3e 1b 62 69 be 4d 7e 42 3e 09 6d 91 bc
       0.13037792 -0.2279133 0.18993492 -0.017752187
0000a0 3f 1b 24 bb 2a 19 12 be 54 52 bb bd 9d 0b a6 bd
       -0.0025040654 -0.14267412 -0.09146562 -0.08107684
0000b0 0a 4b 74 be df 46 d6 3d 13 ec b3 3d f4 a6 c1 3c
       -0.2385675 0.10462736 0.08785262 0.02363918
0000c0 9f fe 41 3d a2 1b 41 be d7 e0 3f 3e 63 4d b1 be
       0.047361966 -0.18858197 0.18738113 -0.34629354
0000d0 c9 bf e6 bc 9b a8 92 3e d5 c5 8a 3c 3e f3 62 be
       -0.028167622 0.2864426 0.016940037 -0.22163102
0000e0 33 a4 ac 3e b4 f9 b4 bb af 73 d3 3d 5d b2 ce bd
       0.33719024 -0.005522931 0.10324799 -0.10092614
0000f0 eb 71 09 3e 2c 7f a3 bd 10 66 b7 3e cd 60 88 be
       0.13422363 -0.079832405 0.35820055 -0.26636353
000100 fd 72 ab be fe e3 34 3d fb 44 31 be 32 ef 50 3e
       -0.33486167 0.044162743 -0.1731147 0.20403746
000110 9b ce ed bb 2b 71 1f 3e 48 2e 36 bd 90 cb 24 be
       -0.0072572953 0.15570514 -0.04447773 -0.16093278
000120 cf 39 30 be 68 6a d0 3e 71 72 6c bd 71 79 d8 bd
       -0.17209552 0.40706182 -0.057726327 -0.10570038
000130 b3 e1 61 be 51 96 68 bd 2c 34 66 be 7e 71 e4 be
       -0.22058754 -0.056783978 -0.2248084 -0.44617838
000140 41 8a 45 3d e4 99 66 3d 91 ea 63 be 0e 4e ac bc
       0.048227552 0.056299105 -0.22257449 -0.021033313
000150 5e 4f 35 3d b5 74 fe 3d 72 2b a3 3d 03 5a c5 be
       0.044265144 0.12424604 0.07967271 -0.38545236
000160 de 09 15 bd 40 90 06 be 8e 83 d5 39 0b 0e 22 bd
       -0.036386363 -0.13140965 0.00040724542 -0.039564174
000170 6e 94 63 3d ed b6 92 be e8 3f 14 be 22 a9 9d bc
       0.055561475 -0.28655186 -0.14477503 -0.019245688
000180 12 d0 1e be 3e 87 31 3d 16 1a 22 3e 81 5f 4f bf
       -0.1550906 0.043341868 0.15830263 -0.810051
000190 63 ea 0f 3f 37 14 01 3f 44 df 50 3d 96 6d da bd
       0.5621702 0.5042147 0.050994173 -0.10665433
0001a0 dc 6d b2 bd e5 dd 29 bd 2e 33 d4 bc 0c ef 26 be
       -0.0871236 -0.04147138 -0.02590331 -0.16302127
0001b0 f4 60 12 be eb 29 d8 bd 6b 2e 88 be 5a aa af bd
       -0.14294797 -0.1055487 -0.26597914 -0.08577414
0001c0 a1 53 2d be 5e 50 8e bc 92 ca 63 bd 42 04 a8 3d
       -0.16926433 -0.017372306 -0.055613108 0.08203937
0001d0 57 c7 ee 3d ae 54 4c be 67 ca 80 3d fb 64 15 be
       0.11659115 -0.19954178 0.06288605 -0.14589302
0001e0 9d 3f ca be f3 70 5f be 62 e3 9d 3d 6a d4 dc bd
       -0.39501658 -0.2182043 0.077093855 -0.10782702
0001f0 02 43 c0 be 0e 71 cc 3e 2b 3d 04 3e ef 9d a8 bd
       -0.37551123 0.39930004 0.12913959 -0.082332484
000200 9b c1 dd 3c 06 14 76 3d 59 a8 9c bb 29 9a 4e 3d
       0.027069857 0.06007769 -0.004780811 0.050439987
000210 9f bc ac 3d de b2 30 3c 23 20 ee 3c 9b d7 aa 3e
       0.08434414 0.010784833 0.029068058 0.3336762
000220 54 b1 58 bd aa b0 23 3e 40 ad 58 3e bb 54 8c bd
       -0.05290349 0.1598536 0.2115984 -0.068520986
000230 16 2d b8 bd 8e 8f 88 b9 69 88 94 bc b2 5e 00 3e
       -0.089929745 -0.00026046898 -0.018131452 0.12536123
000240 42 3e 57 3e c8 a1 e3 3e 39 49 c1 be 95 7e 34 bf
       0.21019843 0.44459367 -0.37751177 -0.7050565
000250 1a 0a 48 3e e8 39 0e bd 88 2d ec 3e d9 02 a7 be
       0.19535103 -0.034723192 0.46128488 -0.3261936
000260 f4 e4 b8 3e d7 1b 24 be 74 2e 1e 3e 6b 9e c7 bd
       0.36112177 -0.16026245 0.15447408 -0.09747013
000270 55 77 c5 3c d9 c0 06 be a7 92 b2 3e d4 4e 13 3e
       0.024104754 -0.13159503 0.34877512 0.1438554
000280 26 ae 99 be 11 9a b2 3d 93 dc 0b be 93 42 3f be
       -0.30015677 0.08720792 -0.13658361 -0.1867774
000290 59 17 be bd 6f 5a fe 3d 2a 28 38 bd d7 4a bc bc
       -0.09281797 0.124195926 -0.04496018 -0.022984905
0002a0 10 76 14 3e 89 44 45 bd 5c 40 aa bd eb 60 83 bf
       0.14498162 -0.048161063 -0.08313057 -1.0263952
0002b0 6f cc c4 3d 61 e5 9f bd d4 53 7b be e8 24 61 3e
       0.09609305 -0.078074224 -0.24543697 0.21986735
0002c0 01 da 6b 3d 4e d3 27 3e f6 76 4c 3e d8 3e 81 3e
       0.05758095 0.163892 0.19967255 0.25243258
0002d0 a4 ef fe bd 23 91 46 bd 2d f1 63 3d 2f 80 40 3b
       -0.124480516 -0.048478257 0.055649925 0.0029373278
0002e0 3f 96 c7 3e db eb e2 bd 9d 2f c2 bd f3 5b 85 bd
       0.38981816 -0.11080142 -0.09481738 -0.065116785
0002f0 79 e1 50 be 1e b1 c0 3d 73 24 a1 be 75 0c 82 3e
       -0.20398511 0.094087824 -0.3147312 0.2540013
000300 bd af 52 3e 9b 37 19 3e 4d 7d c3 3d 9b 84 eb 3e
       0.20574851 0.14962618 0.095453836 0.45999607
000310 3c 1c 03 3f 73 6d 58 3e f8 37 b3 3d 27 14 fb 3d
       0.5121496 0.21135502 0.087509096 0.12259703
000320 0e fc e3 3e 80 10 3d 3e 35 15 0f be 8f 0f 90 3e
       0.4452824 0.18463326 -0.13972934 0.2813687
000330 b0 dd 23 3e fb 9a ac 3e de 48 0e be c7 ee 31 bc
       0.16002536 0.3371199 -0.13894984 -0.010860152
000340 85 a5 92 bc 90 f7 92 bd d5 2a 11 3e 46 03 fb bd
       -0.017901191 -0.07176125 0.14176495 -0.12256484
000350 bf f4 39 3e 87 cc 42 bd af b2 2c be 59 39 38 bd
       0.1815977 -0.047558334 -0.16865037 -0.044976566
000360 34 88 b0 3d 66 4f 8c 3d 8b 52 4b 3d b8 ec 3f bf
       0.08619729 0.068510816 0.049639266 -0.7497058
000370 33 1b 21 be 89 9a d7 be 1e df 9f 3d a6 59 a8 3d
       -0.15733032 -0.42110088 0.07806228 0.08220224
000380 5f 69 ec bb e6 cb 2c be c6 ea 28 be 9b 6f d8 3d
       -0.0072147097 -0.16874656 -0.16495809 0.10568162
000390 90 6b cc bd e7 9d 0c 3e 6c 5a 47 be 2a c4 85 3e
       -0.099814534 0.1373211 -0.19468087 0.26126224
0003a0 1f 39 2f be 20 6d 96 be 86 82 ca bd 0b 22 73 3d
       -0.17111634 -0.2938013 -0.098881766 0.059358638
0003b0 93 fc 09 be 86 21 9d 3a d3 fe 35 3e 84 54 72 ba
       -0.13475256 0.001198814 0.17772989 -0.0009244161
0003c0 1e 9a 49 be 22 28 f9 bd 8b 17 82 be d4 e6 ae 3e
       -0.19687697 -0.12165858 -0.25408587 0.34160483
0003d0 62 70 80 be e7 d2 32 bd 60 56 49 3e 9f f8 5d 3e
       -0.2508574 -0.043658163 0.19661856 0.21676873
0003e0 a5 be 89 3e 09 8a 05 be ee 4b cb bd 18 f6 16 be
       0.26903263 -0.13040937 -0.09926592 -0.14742315
0003f0 ef 04 26 bc ad 33 3f 3d 7e b0 89 3d c2 bc 11 3d
       -0.010133012 0.04668014 0.06723116 0.035580404

actor.0.bias f4 [64]
000000 9b 55 f3 3d b2 14 cf bc 08 2f 2d be 63 da 96 bc
       0.11881562 -0.025278423 -0.16912472 -0.018414682
000010 bb e8 1c bd 09 ec 12 3e 54 ac 86 bd 42 11 8e 3d
       -0.038307887 0.14347853 -0.06575838 0.069368854
000020 9e 25 9b be a5 e3 6f be bb 32 8a 3d e0 97 65 be
       -0.30302137 -0.23426683 0.06747957 -0.22421217
000030 5f 48 b2 bd 2a b5 70 3e 06 35 85 be e8 16 a0 3d
       -0.0870521 0.23506609 -0.26017016 0.07816869
000040 42 74 02 3d 0f fc 4f be cb b3 51 bd b2 3a 07 be
       0.031849153 -0.20310996 -0.051196855 -0.13205984
000050 06 2c 0b 3e 62 85 01 be f3 3e 81 3c 9c 55 28 bd
       0.13591012 -0.12648538 0.015777087 -0.04109727
000060 2a e9 90 be 76 15 c1 be 19 91 89 be 16 9c 33 3e
       -0.2830289 -0.37711686 -0.26868513 0.17540011
000070 9d 2e 70 be e2 30 9b 3d 3e d1 70 be 0c cd ac be
       -0.23455282 0.07577683 -0.2351732 -0.33750188
000080 42 09 33 be 96 52 61 be 60 05 9e 3c f5 e3 fb bd
       -0.17484 -0.2200416 0.019289672 -0.12299339
000090 41 bf 03 bf a1 c7 a2 3d c9 4b 23 be f3 96 a0 bd
       -0.51463705 0.079482324 -0.15946878 -0.07841291
0000a0 a3 bd a7 bd da fb 00 be ae 1c 0a be 9f 29 20 3e
       -0.08190467 -0.12596074 -0.13487503 0.15640877
0000b0 6b 7b a7 bd 27 97 5b 3e e6 d0 58 bd 8c 8e 20 be
       -0.08177837 0.21444379 -0.052933596 -0.15679377
0000c0 fb 28 c7 bc 52 34 91 be 40 54 39 bd 3f 16 05 be
       -0.024311533 -0.2836023 -0.045246363 -0.12996767
0000d0 c5 38 6c be f5 73 18 bd ca 8a 23 be a8 93 4e 3c
       -0.23068531 -0.03721996 -0.15970913 0.012608446
0000e0 e5 43 a1 bd b9 7b ad 3d 79 60 93 3c 04 28 91 be
       -0.07874278 0.08470864 0.017990338 -0.28350842
0000f0 c9 dc 42 be 35 2c ac 3d 61 3a 1f 3e c5 5a 43 bc
       -0.19029535 0.08406869 0.15549614 -0.011923497

actor.2.weight f4 [32, 64]
000000 28 b7 80 3c 4b 05 5b 3d 89 10 9d be b3 5c 24 bd
       0.015712336 0.053471845 -0.30676678 -0.040127467
000010 2f 53 fb 3b 47 a8 3a be 82 40 85 be c7 9e 64 bd
       0.0076698284 -0.18228255 -0.26025778 -0.055815484
000020 ee c0 68 be 0c a0 86 be a8 9a 5f bd b4 28 af be
       -0.22729847 -0.2629398 -0.05459085 -0.34210742
000030 c4 9e 5e be 41 b3 64 be 40 23 9d be e2 c7 2b be
       -0.21740252 -0.22334005 -0.30690956 -0.16775468
000040 0c a0 e0 be dc a4 fe 3e 89 46 bd be f3 8c e9 bd
       -0.43872106 0.49735153 -0.36967877 -0.11403837
000050 bf 6c 0f 3e ee b2 b3 3d a0 f1 b3 3d be 1e 22 be
       0.14006327 0.087743625 0.08786321 -0.1583204
000060 6a 64 8b 3d dd f4 2b 3c cc 77 53 3e 70 d9 cf be
       0.06806262 0.010495392 0.20651168 -0.4059558
000070 57 15 4c bd 3a 3d c2 bd 46 63 bb be 8e 1e 7e be
       -0.04982504 -0.09484334 -0.36599177 -0.24816343
000080 d3 34 d2 be e8 da 24 3e 9f 3d 71 bd da 68 5a 3d
       -0.41055927 0.16099131 -0.058896657 0.05332265
000090 c0 89 4d bd b0 b9 4d be 62 cf d5 bd eb 71 ce 3c
       -0.050180197 -0.20090365 -0.10439946 0.025200805
0000a0 e0 ee ad bc 14 20 06 3e eb 9e f3 bb f0 cb 16 be
       -0.021232069 0.13098174 -0.007434716 -0.14726233
0000b0 8b 10 0b be 3f de 87 be 2a 24 1d 3e bb 35 89 be
       -0.1358053 -0.26536748 0.15345827 -0.26798806
0000c0 fd 41 2d be 29 bd fe bd 49 97 a3 be 3f b8 c4 3e
       -0.16919704 -0.12438423 -0.3195136 0.3842182
0000d0 7c d7 80 bd 69 38 a9 bd 59 13 20 be 2e e6 8d 3d
       -0.062911004 -0.082627125 -0.1563238 0.06928669
0000e0 0b 9c 13 3e 85 c6 2a be 6a 50 de 3d d9 6c 49 3e
       0.14414994 -0.16677292 0.108551815 0.19670428
0000f0 f2 7e 05 3e 3d 24 ba be 69 e6 93 be 49 8f 8e 3e
       0.13036707 -0.36355773 -0.28886726 0.27843693
000100 5d 4b 69 be d2 40 fc 3d 3d 37 93 bd 9a 68 33 3e
       -0.22782655 0.12317051 -0.0718827 0.17520371
000110 c9 20 b8 bd 07 07 09 bd f1 ed 3d be 86 ec 1b be
       -0.08990628 -0.033453967 -0.18547799 -0.15226945
000120 10 7d f9 3d 16 a8 db 3d 1f a4 3f 3e 0d 15 67 3e
       0.12182057 0.10725419 0.18714951 0.22566624
000130 2c 0c d3 bd ac 69 68 be 03 e9 7b 3d 9e ea 02 bf
       -0.10305056 -0.2269656 0.061501514 -0.5113925
000140 44 c4 00 be 1d 9f 8d 3e 0a 13 3d 3e 14 a3 f4 3d
       -0.1257487 0.27660456 0.18464294 0.11945167
000150 35 15 40 be e4 59 cc 3d a4 93 03 be d2 db 3d be
       -0.1875809 0.09978083 -0.12849289 -0.18540886
000160 85 89 ad bd bc 6e 2d 3e c7 96 81 3e 91 e3 d3 bd
       -0.084734954 0.16936773 0.25310346 -0.10346139
000170 51 13 02 3b f8 04 ea be 67 3f ed 3c ff 4c 03 be
       0.001984794 -0.45706916 0.028960897 -0.1282234
000180 4e 51 b4 3c fc fe 2e 3e 53 89 62 3d 5a 86 0b 3e
       0.022011425 0.17089456 0.055306744 0.1362547
000190 5c 05 32 3e c8 80 18 3d da 5e b1 3e f9 4d eb bd
       0.17384857 0.03723219 0.34642678 -0.114894815
0001a0 09 c5 0c be f8 a1 92 be 94 e0 84 3e 19 87 c7 bd
       -0.13747038 -0.28639197 0.2595259 -0.09742565
0001b0 46 fb ac 3c 10 8f 21 be ab 9b 10 3e e1 b8 a7 3d
       0.02111591 -0.1577723 0.14121883 0.0818956
0001c0 b9 dd 13 3e 85 9c b3 3d 73 04 13 be 3f b5 ab be
       0.14440049 0.08770088 -0.14357166 -0.33536717
0001d0 2f 7a 54 ba f1 d8 86 3e d5 4f bf 3d 3b 0c dc bd
       -0.0008105365 0.26337388 0.093413986 -0.1074452
0001e0 f9 6a 14 be 08 21 05 3e f1 b5 96 3c e7 4d e0 bc
       -0.14493932 0.13000882 0.018397303 -0.027380897
0001f0 b8 5d 17 3e de bc 26 be a9 b5 c7 bd 9a 15 c8 3d
       0.14781845 -0.16282985 -0.09751446 0.09769745
000200 32 65 dc be d0 90 58 be 0a da ec 3d 21 6b 04 be
       -0.43045956 -0.21148992 0.11565025 -0.12931491
000210 53 c6 90 be cf 8e 85 3e 30 07 af bd 92 83 a4 3d
       -0.2827631 0.26085517 -0.08546293 0.080329075
000220 25 ae 14 be 9e 0e 38 be 4a a5 4d be 1e 75 58 be
       -0.14519556 -0.17974326 -0.20082584 -0.21138427
000230 8f 57 4e 3e 88 6f 84 be 9c 04 85 be 85 2a 78 be
       0.20150588 -0.25866342 -0.2598008 -0.2423497
000240 8a d1 13 be 5d 7c b4 3d b7 af 80 3d 36 62 08 3a
       -0.14435402 0.08812783 0.06283515 0.0005202623
000250 19 4d 38 be 9f 46 9c 3e 28 a8 18 be ba b6 df bc
       -0.1799816 0.3052263 -0.14907897 -0.02730881
000260 45 85 b4 be 73 9a 41 3d 34 bf 12 bd 1a 5e dd 3d
       -0.35257927 0.047266435 -0.035826877 0.10808964
000270 3e 53 a3 bd 62 c7 a9 bd cf 8a 1f be 06 13 5c be
       -0.079748616 -0.082899824 -0.15580295 -0.21491632
000280 e0 2c a1 3d 4d e8 ce bd 52 6d 1a bd 0c ac bd bd
       0.07869887 -0.101029016 -0.037701912 -0.09261331
000290 ee d7 67 3d e1 71 ff 3d a5 b6 c9 3d 93 c8 24 bd
       0.05660241 0.124728926 0.0984929 -0.040230345
0002a0 19 d7 ce 3b 5d 4c d4 bd 06 c6 18 bb c2 01 17 3e
       0.0063122627 -0.10366128 -0.002331139 0.14746764
0002b0 cb 17 e7 be cc 8a 5c bd f2 82 03 3e 47 16 5a 3e
       -0.4513534 -0.053843305 0.1284292 0.2129756
0002c0 5b 9b 3c 3e 71 f2 cc bd a8 20 10 be 60 c1 df 3e
       0.18418638 -0.100071795 -0.14074957 0.4370222
0002d0 d9 c5 e3 bc c9 8f a4 be 8e 96 b0 3c 32 4e 63 bd
       -0.027804302 -0.3214095 0.021556165 -0.055494495
0002e0 2c e2 ad 3e ac d3 2e be 47 19 40 be b7 f5 15 3e
       0.33961618 -0.17072934 -0.18759643 0.14644514
0002f0 40 6c 66 3e ac cb 88 bc 44 a5 af 3d a5 05 b3 be
       0.22502232 -0.01669868 0.08576444 -0.34965244
000300 6a d5 e9 3c eb be ed bd ea ac bb 3d 0d 90 06 bd
       0.028544147 -0.1160868 0.0916384 -0.03285222
000310 8c e8 a8 3d 85 50 02 bd 59 ec c6 3e ea dd c6 3d
       0.0824748 -0.03181507 0.38852194 0.097102955
000320 83 ed 90 3e 55 fa d2 be d6 9a 1b be a6 fa 5c bc
       0.28306207 -0.41206613 -0.15195784 -0.013487494
000330 32 4b 48 be 2d f4 ab be 98 53 86 bd 80 c9 79 be
       -0.19559935 -0.3358473 -0.06558913 -0.24393272
000340 0d 22 09 bd 73 a5 74 bd 0c 57 12 be be 0a 9a be
       -0.03347974 -0.059728097 -0.14291018 -0.3008632
000350 7e c5 b3 be ea 05 d8 bd ca 4a 25 be d3 1f 22 3d
       -0.35111612 -0.10548003 -0.16141811 0.03958113
000360 30 5c bb 3e f7 3e a3 3e 46 85 05 3e d4 01 51 3e
       0.3659377 0.31883976 0.13039121 0.20410854
000370 e0 ea ca bd 41 c9 85 be 78 58 46 be 3b 98 3f be
       -0.0990808 -0.26130107 -0.19369686 -0.18710415
000380 81 17 82 3e ac b9 b5 bd 9f 02 c5 bd 7b 7d 01 be
       0.25408557 -0.08873305 -0.096196406 -0.12645523
000390 99 bb 40 3d d4 19 f8 be aa 27 67 be 72 7a 1c bc
       0.047053907 -0.48457205 -0.22573724 -0.009550678
0003a0 3f 01 a9 bd 6c 50 b7 3d 41 96 ea 3c 2b 25 00 3e
       -0.08252191 0.08950886 0.0286361 0.12514178
0003b0 ab bc b1 be ad ee 26 bd 24 19 42 3e 36 06 76 bd
       -0.34714255 -0.040754963 0.18954903 -0.060064517
0003c0 74 ba ac 3d d1 2b 07 be 06 eb b1 bd 4d c1 91 be
       0.084340006 -0.13200308 -0.08687405 -0.2846779
0003d0 de ab e9 3d 7c b5 07 be ce 3c e6 3d 21 16 87 bd
       0.11409734 -0.13252825 0.11242066 -0.06596018
0003e0 73 7a 6e 3e 38 52 b4 3d 69 d7 21 3e 4a df 3e 3d
       0.23288898 0.088047445 0.15804829 0.046599664
0003f0 13 76 36 3e 02 de 6a bd f8 c2 b3 be bd 1d a9 bc
       0.17818479 -0.05734063 -0.35109687 -0.020644063

actor.2.bias f4 [32]
000000 ad 82 fc bd d5 26 c3 bd 4a ce fc bd 64 a6 74 be
       -0.12329612 -0.09528891 -0.12344034 -0.23891598
000010 79 f3 31 bd 55 8e d9 3b bd 2d 2c be 6f 80 a6 3d
       -0.043445084 0.0066392818 -0.16814323 0.081299655
000020 01 a6 58 3d f4 4e da 3a 39 8f ce 3c de bb 05 be
       0.05289269 0.001665561 0.025214778 -0.13059947
000030 ff c8 e7 bd 26 8d ef 3d b4 df 05 bd f0 f7 67 bc
       -0.11317634 0.11696844 -0.032684043 -0.014158234
000040 6a b0 66 3c cf 87 1e be 73 31 c0 bd eb 5d e8 bd
       0.014080146 -0.15481494 -0.09384432 -0.113460384
000050 e8 a3 52 be 13 38 1a be d9 5d bf bd 78 22 61 3d
       -0.20570338 -0.15060453 -0.09344072 0.054964513
000060 3e eb 2b be 06 4d 63 bd 6e 71 60 be 82 1e 93 bb
       -0.16788957 -0.055493377 -0.2191827 -0.004489721
000070 15 73 4e bd ea b9 e3 bd 25 a4 98 bd 36 87 54 bd
       -0.05040272 -0.11119445 -0.07453183 -0.05188676

actor.4.weight f4 [3, 32]
000000 ad b3 f5 bb 58 1d 0a bc d1 e4 3d bd 00 11 13 3d
       -0.0074982257 -0.008429848 -0.046360794 0.035904884
000010 18 b0 1e bd 18 d7 d6 3c 06 a7 c5 3d e8 f9 cd bc
       -0.038742155 0.026225612 0.09650998 -0.025143579
000020 eb 38 f3 bc df b3 6f 3c c3 88 77 3b 58 bf 59 bb
       -0.029690227 0.014630287 0.0037770725 -0.0033225622
000030 fa 35 f9 bc da be da b9 c2 e0 a5 bc 7e b8 e6 3c
       -0.030421246 -0.00041722396 -0.020248774 0.028164145
000040 64 b2 3b bd 3c 59 30 3c 40 53 38 3c fc 5d ca bb
       -0.045824423 0.010763463 0.011250317 -0.0061757546
000050 a0 dc 4a 3d d6 85 dd bc 00 cc d8 bd a4 d6 d5 bd
       0.04952681 -0.027041357 -0.10585785 -0.1044133
000060 62 72 bb 3c 4a 97 11 3d 58 ed 5a 3d 32 e4 cb 3a
       0.02288169 0.03554467 0.053449005 0.0015555678
000070 01 53 3a 3c f9 44 bd 3c 91 95 34 3d c9 ca 0f bd
       0.011372329 0.023104178 0.04408795 -0.0351055
000080 1f 5b 64 3d dd ac cc 3b e2 d2 96 bb b4 d8 c7 bc
       0.055750962 0.006246193 -0.004602776 -0.024395324
000090 16 bb ae bc 16 6e 95 3c 04 60 c4 3c 6e 17 fd 3c
       -0.021329444 0.01824097 0.023971565 0.030894961
0000a0 5b 0f 81 bc fc 8c f7 3b 91 26 31 3d 3b ce 8d bb
       -0.015754392 0.0075546484 0.04324967 -0.004327563
0000b0 1e 7a 9b 3c 51 f8 36 3c b9 c5 1b bd 72 84 57 3d
       0.018979128 0.011167602 -0.03803036 0.052616544
0000c0 8e 91 c0 bc c1 db 84 bb 13 4b 2a 3d 05 37 61 bb
       -0.023506906 -0.004054517 0.041575503 -0.003436507
0000d0 ce 19 e0 bc 79 6d 39 bd d5 d8 bf bc 69 d6 78 3c
       -0.027356055 -0.045270417 -0.023418823 0.015187838
0000e0 87 4b 51 3a 47 7d 6e bd 37 69 d2 bc 30 3d 57 bc
       0.0007983972 -0.058224943 -0.025684936 -0.013137147
0000f0 c3 e1 58 3c 16 a0 24 bd ef 85 e5 3c 63 44 1d bd
       0.01323742 -0.040191732 0.028017966 -0.038395297
000100 fd 61 81 bd 91 aa a9 bc 96 6f d4 3c 2f f5 81 3d
       -0.06317518 -0.020711215 0.025932115 0.06345593
000110 62 0f b7 bc 8f fe a0 bb 27 b8 8b 3c 03 3d 81 3c
       -0.022346202 -0.0049131582 0.017055584 0.015776163
000120 06 ff 28 3d 85 af 02 bc 1f 80 10 bd 03 c7 d3 3a
       0.041258834 -0.007976417 -0.035278436 0.0016157333
000130 b5 b4 19 ba a5 fc 8b 3c 0d 45 c9 bc 12 2b b6 b9
       -0.0005863414 0.017088244 -0.024569059 -0.00034745835
000140 a9 56 9f bc 34 d6 b9 39 5c 95 7c 3a 6d 84 b5 ba
       -0.019450502 0.00035445543 0.00096352934 -0.001384867
000150 f6 0f ab 3c dc 19 94 3c 03 e4 0b bc 28 8d cb 3c
       0.020881634 0.018078737 -0.008538249 0.024847582
000160 6c a0 ac bb dd b7 91 bc 1a 83 b2 3b ed 47 c9 bc
       -0.005268147 -0.017787868 0.0054477574 -0.02457043
000170 c7 29 68 bc 16 89 28 bc 26 b7 83 3a af d8 fa 3c
       -0.014170117 -0.01028659 0.0010049089 0.0306209

actor.4.bias f4 [3]
000000 3c a0 f7 3d d9 39 5b bd 33 44 1d 3e
       0.12091109 -0.053521965 0.15358047

critic.0.weight f4 [64, 24]
000000 70 51 84 be 46 82 86 bd fd ba 48 bf a4 b4 63 be
       -0.25843382 -0.065678164 -0.7841032 -0.22236878
000010 e5 c7 d4 3e 69 c7 4f 3f b0 7c c8 3e 3d 1b 01 3f
       0.41558757 0.8116365 0.3915763 0.5043219
000020 8f d4 7b 3d 05 75 d6 3e d4 f2 8c 3e 38 6f df 3e
       0.06148201 0.41886154 0.27529013 0.4363954
000030 c6 41 4a 3e 78 60 ef 3e ca 7a 2d 3e 74 28 35 bd
       0.19751653 0.46753287 0.16941372 -0.044228032
000040 3d 85 40 3e 7c 25 aa 3e 4b 43 85 be a7 be 97 be
       0.18800826 0.33231723 -0.26027903 -0.29637644
000050 a9 e4 00 be c7 fc f6 bd 10 0b 0b 3e 60 82 87 be
       -0.12587227 -0.12059932 0.13578439 -0.26466656
000060 44 8e b1 be a8 c2 77 bc 14 ec ea 3e 8a 70 f0 be
       -0.34678853 -0.015122093 0.45883238 -0.4696086
000070 4f 97 57 3f c4 43 c2 be d4 2f a1 3e f9 b7 34 bf
       0.84215254 -0.37942326 0.31481802 -0.7059322
000080 31 35 02 3f 19 b6 1c bf 81 83 14 3f a9 b5 62 bf
       0.50862414 -0.6121536 0.5801316 -0.8855844
000090 1b 0c 16 3f 05 8e 0d bf 29 ce b9 3e 1f 71 7c bf
       0.5861222 -0.5529483 0.362901 -0.9861011
0000a0 fe fb b1 bd d5 0e ff be 25 5f f8 3c aa 6d 14 bf
       -0.08690642 -0.49816003 0.030318806 -0.57979834
0000b0 cf 69 78 3e 7d 98 1a bf f0 84 8e be 3f d7 25 bf
       0.24259113 -0.6038893 -0.27835798 -0.64781564
0000c0 35 b9 b0 be c1 bc 4d 3e b3 2f f2 bd 3f 38 1c bf
       -0.34516302 0.20091535 -0.11825504 -0.61023325
0000d0 f4 dd 87 bf 7e fd a3 be 52 1a 45 bd a4 2a 9e 3e
       -1.061461 -0.32029337 -0.048120804 0.30891907
0000e0 80 49 85 3e 44 1e 10 3f fa 80 ec 3e 91 7a 1e 3f
       0.2603264 0.5629618 0.4619215 0.6190577
0000f0 66 5c ee bc a5 4b 79 3f 7e e1 cd 3e 18 3a 03 3f
       -0.029096793 0.9738105 0.402111 0.5126052
000100 23 09 88 3e c9 7e fa 3e 2d d0 ba 3e e8 23 2b 3f
       0.2656947 0.48924854 0.3648695 0.66851664
000110 f4 ff a1 3d 30 74 10 3f 4f 6d da 3e d6 01 e2 3e
       0.07910147 0.5642729 0.4266152 0.44142026
000120 5b 3e 96 3e c5 7a f0 3d 95 b4 c1 bd 67 45 d7 be
       0.29344448 0.117421664 -0.094582714 -0.42045137
000130 fc 88 d2 be 50 43 c4 be ef b9 34 3f db e7 12 bf
       -0.41120136 -0.38332605 0.7059621 -0.57385033
000140 e5 80 4b 3f 0d 10 14 bf df c9 20 3f 2f a0 53 be
       0.7949355 -0.5783699 0.6280803 -0.20666574
000150 b4 11 04 3f ff 5e f4 be 44 a4 85 3e ca 39 8e be
       0.5158951 -0.47728726 0.26101887 -0.27778465
000160 8e 85 d3 3e 12 d6 24 3c 69 16 5a 3e b3 d8 32 be
       0.41312832 0.010060804 0.21297611 -0.17465477
000170 30 8e f3 bd 56 72 85 be f8 30 0e 3f 1e 65 19 bd
       -0.118923545 -0.26063794 0.5554347 -0.03744995
000180 a9 04 dc be 0a c2 77 be c1 36 38 bf 83 3f c9 3c
       -0.42972305 -0.24195114 -0.7195855 0.024566418
000190 bc d0 b2 be 4a d3 9e 3f 46 aa 5c 3e 8a c1 b7 3f
       -0.34924877 1.240823 0.21549329 1.4355938
0001a0 e7 ea 92 3e d2 bc 96 3f 06 37 be 3e 84 e4 a1 3f
       0.2869484 1.1776373 0.37151355 1.2647862
0001b0 d2 1f 19 3f 01 66 5d 3f ce c4 52 3f ad 22 82 3f
       0.5981418 0.8648377 0.8233155 1.0166832
0001c0 50 99 36 3f 3f da f0 3e a8 03 87 3e 03 7f 55 3f
       0.71327686 0.4704151 0.26369977 0.8339693
0001d0 ce 6a 46 3f d9 60 3d 3f 7e 54 12 3f e7 98 bc 3e
       0.7750672 0.739759 0.57160175 0.36835405
0001e0 22 1b 74 3e 6d 07 2e be 0f 12 6b bd 45 d9 06 bd
       0.23838475 -0.1699502 -0.05739027 -0.032922048
0001f0 8c 04 a9 bf d7 80 55 3e c6 18 d2 be a5 f5 6a 3e
       -1.3204513 0.2084993 -0.41034526 0.22945268
000200 d2 6d 93 bd 7f 82 27 be a0 1f 85 be f3 6e ee 3e
       -0.07198681 -0.16358374 -0.2600069 0.46569023
000210 a1 02 b7 be 36 e7 e2 3e 01 10 e9 bb 76 37 bc 3e
       -0.35744193 0.44317025 -0.0071125035 0.36761063
000220 ae 90 b9 bd 0d 6b ba 3e d8 41 b3 bc 0a 31 9f 3e
       -0.090607986 0.36409798 -0.021881983 0.310921
000230 a8 41 c6 3e cc 09 da 3d 75 ae 87 3e d4 96 b0 3e
       0.38721967 0.106464 0.26500288 0.34490073
000240 8d 0f 8d 3e 88 95 33 3e 41 59 eb be 62 8f 3f 3e
       0.27550927 0.1753751 -0.45966533 0.1870704
000250 c3 f6 16 3e 50 a1 f7 3e 8f d4 15 bf 63 dd b9 3c
       0.1474257 0.4836526 -0.58527464 0.022688573
000260 03 fe bd be ab 61 31 be db 5f 05 bf 6b dc a4 be
       -0.37107858 -0.17322414 -0.5209939 -0.32199416
000270 e4 8f 0b be 5f ff 98 be 34 fc 30 be 3a 54 f4 be
       -0.13629109 -0.29882333 -0.17283708 -0.4772051
000280 28 46 d2 bd c1 9a c6 be 0c db e3 bd 01 bb a7 be
       -0.102672875 -0.38789943 -0.11125764 -0.3275986
000290 29 1e 8e bc 85 43 e9 be a0 20 89 be da d5 d6 be
       -0.017348366 -0.45559326 -0.26782703 -0.4196003
0002a0 f9 b3 9e 3d fd 79 82 3e 28 d5 04 bf 01 65 02 bf
       0.07749171 0.25483695 -0.5188775 -0.5093537
0002b0 03 84 8b bf 5e 6e b5 be c1 56 8e be 2a 03 76 bf
       -1.0899662 -0.35435766 -0.27800563 -0.9609858
0002c0 e7 6d bd bd 18 dd 3b bf 9d ce 09 3f 9a 5b 6b bf
       -0.09249478 -0.7338424 0.5383089 -0.9193665
0002d0 c9 7a 69 3e a1 eb 54 bf 58 95 4c 3e 93 ce 81 bd
       0.22800745 -0.8317204 0.19978845 -0.06338229
0002e0 f6 68 bd 3e 2e b0 05 bf 77 ed e9 3e 0a e9 8d be
       0.3699414 -0.52221954 0.45688984 -0.27716857
0002f0 b7 17 bc 3e 6f 79 c8 bc 2c 14 1b 3e 90 31 c6 bc
       0.36736843 -0.024471967 0.15144414 -0.024193555
000300 43 5b a1 be de 33 ab bd f5 5b 05 3e 07 ef 6a bf
       -0.3151494 -0.08359502 0.1302336 -0.91770977
000310 97 19 23 3e 1b 94 10 c0 93 ee b5 3e 6e bb 5e bf
       0.1592773 -2.2590396 0.3553358 -0.87004745
000320 c1 0f 7d 3e f8 0a a4 be aa 83 df 3e 96 aa ba bd
       0.24713041 -0.32039618 0.4365514 -0.09114568
000330 96 02 5e bd 90 e5 13 3e fd 01 85 3e b3 e3 b8 3e
       -0.054201685 0.1444304 0.2597808 0.3611122
000340 e7 e4 ef 3c 9d 60 8d bc 6e de b4 bc c3 a0 ff bc
       0.029283954 -0.017257983 -0.022078719 -0.031204587
000350 d6 db 1b 3e 08 9c e8 3d a3 d6 e4 3d 78 7f b5 3e
       0.1522058 0.113578856 0.11173751 0.35448813
000360 14 e7 2f 3e aa 15 4a be 22 f9 e8 bc ea d8 fc bd
       0.17177993 -0.19734827 -0.028439108 -0.123460606
000370 fa 27 47 3c b6 a1 e0 3e 62 4c 2d bf 8d 96 a6 bd
       0.012155527 0.43873376 -0.67694676 -0.08134184
000380 c4 16 68 be 25 32 7f be 06 54 b8 be c7 1f c3 3d
       -0.22664934 -0.24921472 -0.36001605 0.095275454
000390 33 27 af be c0 8f 8f bd 1f 4a 5f be 76 1b c9 be
       -0.34209594 -0.0700984 -0.21805619 -0.39278764
0003a0 7b 1d d9 3d 7d 38 01 bf e8 6c 69 bd bb 70 88 be
       0.10601326 -0.5047682 -0.056988627 -0.26648507
0003b0 54 3f 37 be 12 3c 2b be fd eb d7 3c 0b ec c9 bd
       -0.17895252 -0.16722134 0.026357645 -0.09859475
0003c0 41 fa cc 3e 7f ff 2a be 62 11 b2 be 46 39 e5 3e
       0.4003468 -0.16699027 -0.34778887 0.4477026
0003d0 54 2d f3 3e fa 20 2d 3f 25 23 d1 bd 41 0e 25 be
       0.4749552 0.67628443 -0.102117814 -0.16118719
0003e0 1f 51 b5 be fb 0f a2 be 63 da 83 be 19 20 23 be
       -0.35413453 -0.31652817 -0.25752553 -0.15930213
0003f0 e3 09 ac be ae 17 a9 be e1 26 43 be b8 38 a7 be
       -0.33601293 -0.3302588 -0.190578 -0.3266046

critic.0.bias f4 [64]
000000 2b 07 0f bf e7 a5 ac be 4b ea 8f 3e 66 4a 4f 3e
       -0.5587031 -0.33720323 0.2810844 0.20243225
000010 dc d3 83 be 1a 4d 9b 3e 72 aa 1b be 8d ca da 3e
       -0.25747573 0.3033226 -0.15201738 0.4273266
000020 c1 d7 94 3e c6 f2 48 3e 38 a9 bf 3e fb 02 eb be
       0.29070857 0.1962386 0.3743379 -0.4590071
000030 64 6d af 3e 0a 21 27 3e ef d1 3f 3e b3 02 80 be
       0.34263146 0.16321197 0.18732427 -0.2500206
000040 49 ea 01 3f 32 1b 88 3e 44 33 2c be 96 cc 63 bf
       0.50748116 0.26583248 -0.16816431 -0.8898405
000050 e2 1e ca be 66 f6 32 bf 89 1c eb 3e ca 86 aa 3d
       -0.39476687 -0.69907224 0.45920208 0.0832649
000060 47 97 a7 be f9 79 b9 bd 82 1a 4a 3d 98 f3 23 bf
       -0.32732603 -0.090564676 0.049341686 -0.6404357
000070 2e 5d 3b bf 1e 10 36 bf af 84 17 bf ef 1e 09 3e
       -0.73189056 -0.7111834 -0.59186834 0.13390706
000080 75 e0 92 be 78 11 08 3e f2 9e bf 3e fd 11 c1 be
       -0.28686872 0.13287914 0.37425953 -0.37709036
000090 bf 5b 73 bf fc 26 67 3e 54 e5 3f 3d c5 58 0a 3f
       -0.9506187 0.22573465 0.046849564 0.540417
0000a0 a4 df ce 3e 2a 99 26 bf c3 9b c9 be 5e ac 14 3e
       0.40405 -0.6507746 -0.3937665 0.14518878
0000b0 6c 2d ae 3e 0d d9 34 3e d2 2c a7 3b 85 16 d1 3d
       0.3401903 0.17660923 0.0051017785 0.102093734
0000c0 aa de 68 bf 49 b4 e0 ba 45 a6 f4 bd d5 1b e2 be
       -0.9096476 -0.0017143573 -0.11945776 -0.4416186
0000d0 7f 13 95 3e 2f 63 49 3e 55 59 80 bd e3 ca 34 3e
       0.29116437 0.19666742 -0.06267039 0.1765552
0000e0 91 87 c1 3e 3e d5 fb 3e f8 e2 b8 3e c2 dc a4 3e
       0.3779874 0.49186128 0.36110663 0.32199675
0000f0 08 62 2a bf 42 d2 12 3e e3 6f 9e 3d df 33 5d bf
       -0.66555834 0.1433802 0.077361844 -0.86407274

critic.2.weight f4 [32, 64]
000000 4d 30 26 be 4b 67 c4 bd 1d 8a 0a bd 7f ed 5a be
       -0.16229363 -0.09590014 -0.03382312 -0.2137966
000010 4c f3 c7 bc 3c 21 18 3e 6f 7e 82 be 4f 63 c3 be
       -0.024408005 0.14856428 -0.25487086 -0.38161704
000020 b3 2d 87 3e 3f 88 19 be 7c 9e a2 be ac 90 d0 bd
       0.26402053 -0.1499338 -0.3176154 -0.10183844
000030 1b 48 c6 be 15 1b b0 be d6 b7 13 bf 1d 95 3a 3e
       -0.38726887 -0.34395662 -0.57702386 0.18220945
000040 31 30 07 bf fc c3 aa be c9 d6 19 be 6b 3c 38 be
       -0.5280791 -0.3335265 -0.1502334 -0.17991798
000050 09 3b 3a 3e 64 9c 55 3e b0 73 14 bf 00 3b ab 3d
       0.18186583 0.2086044 -0.57989025 0.08360863
000060 2c 83 8a be dd c3 88 be ec f2 89 be 91 21 cf bd
       -0.270532 -0.26711932 -0.26943147 -0.10113824
000070 72 ae ab 3c 64 db b2 3d bc 4b 26 3d 67 e5 a4 be
       0.020957205 0.08733252 0.04059957 -0.3220627
000080 09 84 34 bd 97 d2 be be 57 89 dd be 34 8b a6 bc
       -0.04407123 -0.37270042 -0.43268844 -0.02033005
000090 f3 7f d2 bc 00 20 67 bd f1 23 b2 be b5 32 c7 be
       -0.025695777 -0.056427002 -0.34793046 -0.38905874
0000a0 b0 d6 47 be c0 1c 78 3e 54 f6 bb be 2d 4e b3 be
       -0.1951549 0.24229717 -0.3671137 -0.3502058
0000b0 08 6a a8 3d 8e 4d ed 3c b4 3f 78 3e 49 ed 14 be
       0.08223349 0.028967645 0.24243051 -0.14543642
0000c0 ff 01 d5 3d f6 1e cd be 1a 57 c5 bd 37 56 23 bc
       0.10400771 -0.40062684 -0.09635754 -0.009969286
0000d0 97 de ae be 34 a5 ee bd 99 0e 92 be 06 8f c6 3c
       -0.34154198 -0.11652604 -0.28526762 0.02423812
0000e0 6d 93 33 be 3b 00 73 bc e3 1a fd bd 36 89 d5 bd
       -0.17536707 -0.014831598 -0.12358644 -0.104265615
0000f0 04 c0 d1 3c 87 b2 d4 bd 10 5f 4d be 19 2b a2 3e
       0.025604255 -0.10385614 -0.20055795 0.31673506
000100 db e9 09 bf ec 7e ab 3e 89 e0 f5 3d f5 e6 cb be
       -0.5387246 0.3349527 0.12005717 -0.39824644
000110 b9 4c e1 be 58 34 d1 bf 8f 60 3c bf 16 d2 c1 bf
       -0.44003847 -1.6344099 -0.73584837 -1.5142238
000120 8d 9b 8a 3e 6f 25 e2 3d 0d 1e 6b be ad 80 62 bd
       0.270718 0.11042296 -0.22960682 -0.055298496
000130 a6 01 c4 be 0c 3e af be 51 58 c6 be 2b 22 04 bf
       -0.38282508 -0.34227026 -0.38739255 -0.51614636
000140 b5 c0 da be 0c 43 18 3d 2d 52 89 bb 50 12 eb 3d
       -0.4272515 0.037173316 -0.0041907043 0.11478102
000150 f0 41 e8 3e ee c9 41 3e 80 47 38 bf 92 ec d2 3e
       0.45362806 0.18924686 -0.719841 0.41196114
000160 6b 79 a7 3d 19 64 49 bf d7 b6 6a bf 5f 78 39 3e
       0.081774555 -0.7866836 -0.9168524 0.18112324
000170 91 13 44 3f 47 ba f1 be a7 6e 79 bd 2e 09 08 bf
       0.76592356 -0.4721243 -0.060896542 -0.5313901
000180 f7 6d 68 3d 53 78 2e 3c 18 08 75 bf 82 01 2b 3e
       0.056745496 0.010648805 -0.95715475 0.16699794
000190 9f 7f 7b be be d4 5d bf 70 a0 82 3d 66 34 b5 be
       -0.24560402 -0.86652744 0.06378257 -0.3539154
0001a0 68 00 65 be b3 62 1b 3f f2 77 bc bf d6 2d 91 3e
       -0.22363436 0.6069748 -1.4724104 0.28355283
0001b0 27 b5 fa 3d 1c 77 e4 be ae 69 58 3e de 3b 3b 3f
       0.12241583 -0.44622123 0.21134064 0.73138225
0001c0 c8 1f 77 be 18 14 00 bf 0f 14 c8 3e 2f df cc 3e
       -0.24133217 -0.5003066 0.39077803 0.40014026
0001d0 42 89 63 3d 41 ee 08 be 01 22 a1 3f c4 61 b4 bf
       0.05555082 -0.13372137 1.2588502 -1.4092336
0001e0 cf 5d c3 bd a5 0d bd 3e e7 9a 15 3d 28 dc 11 3f
       -0.09539377 0.36924472 0.03652468 0.56976557
0001f0 53 8e 4c be 99 fe b6 be 72 9c a4 be eb d0 c0 3e
       -0.19976167 -0.35741118 -0.32150608 0.37659392
000200 c6 db 8c be c1 9c 8d 3e d9 6a 15 be cf 77 f6 3e
       -0.27511424 0.27658656 -0.1459154 0.48138282
000210 26 db 3e bf ab e2 df 3b 44 39 b8 be 82 42 12 3f
       -0.74553144 0.006832441 -0.3598119 0.5713273
000220 a7 ef 42 3d e1 e5 ef bd 81 27 af 3e 00 a8 ca be
       0.04759183 -0.11713768 0.34209827 -0.395813
000230 49 dc bb 3c fd 3a 34 3e 5d 5c fb 3d 08 c9 a3 be
       0.022932189 0.17600627 0.12273476 -0.31989312
000240 87 6c ee be ab 1e c9 bd 73 ab 63 3e 31 96 95 be
       -0.46567175 -0.098203026 0.22233371 -0.2921615
000250 6a c0 43 3e 01 48 b9 be 3f 6f 6d 3e 79 cd 8b 3e
       0.19116369 -0.36187747 0.23186968 0.273052
000260 19 f1 24 3e bb a9 6e be 34 97 9d be 86 be f7 be
       0.16107596 -0.23306935 -0.3077942 -0.48387545
000270 96 d7 98 be a9 a6 b8 bd 90 9e 66 3c 5c 06 f8 3e
       -0.2985198 -0.09016163 0.01407589 0.48442352
000280 99 b6 16 3c d0 0f c0 3e b1 5a d6 3e 77 39 f5 bd
       0.009198808 0.37512064 0.41866067 -0.11973851
000290 95 4c 76 3f 9d 98 49 3e 90 67 0a 3e 94 d8 9b 3e
       0.96210605 0.19687124 0.13516068 0.30438673
0002a0 da a2 58 3e fe 56 88 be 21 f7 8d 3c 1d 88 d1 3e
       0.21155873 -0.2662887 0.017329754 0.4092416
0002b0 0d c1 32 3d e3 74 82 3d 4b 2c 8f 3d 2e c3 14 bf
       0.04364114 0.063699506 0.0699087 -0.5811032
0002c0 32 7a 68 be 76 92 36 be 5d 0e 16 3e 9c f5 5a be
       -0.22702864 -0.17829308 0.14653917 -0.21382755
0002d0 bd 40 74 3d 1b e8 88 3e b5 c3 3d bf e8 7f 54 3e
       0.05963205 0.26739582 -0.7412675 0.20751917
0002e0 fc 7b 8c 3e 5e 29 21 be b0 27 8a 3e eb 98 ae be
       0.27438343 -0.15738437 0.26983404 -0.34101042
0002f0 3e b3 a3 3e 88 70 ea 3e c2 05 bc 3d 00 8a 1e bf
       0.31972688 0.4578898 0.09180786 -0.6192932
000300 f3 06 98 be 9f 5a 1a be 99 a3 16 3e 21 d9 35 bf
       -0.29692802 -0.15073632 0.14710845 -0.7103444
000310 06 e7 89 bf be b6 e0 be ba d2 81 3e da 98 6e be
       -1.0773628 -0.4388942 0.25356084 -0.23300496
000320 98 59 4d 3e 03 7d 22 be 59 b7 4c bd 64 90 3a 3e
       0.20053709 -0.15868 -0.04997954 0.18219143
000330 72 c6 8f 3e 36 2d 7e 3e e8 01 bb bd 72 fb 48 bf
       0.2808109 0.24821934 -0.09131223 -0.78508675
000340 b7 5b 9d be bd ec 31 3e be 16 0a 3e 07 51 90 bf
       -0.30734035 0.17375465 0.13485238 -1.1274728
000350 92 dc 97 be 01 73 20 bf 3c f7 83 3e 5b 16 87 3d
       -0.2966047 -0.6267548 0.25774562 0.06596061
000360 8c 8f 0c 3f 0a bf 44 3d a5 61 13 bd 8f 40 41 bf
       0.54906535 0.04803375 -0.035981793 -0.75489134
000370 0d 21 20 bf 87 31 bf be ca f8 bb 3c 75 a8 e3 bd
       -0.6255043 -0.37342474 0.02294578 -0.11116115
000380 42 1a 03 3d 52 16 06 3f 65 5a d6 3e 64 59 1c bf
       0.032007463 0.5237781 0.4186584 -0.610739
000390 ad ee b6 be e3 9e 92 3e d0 0c 12 3d 11 36 01 be
       -0.3572897 0.28636846 0.03565675 -0.12618281
0003a0 f2 22 80 be 83 fa 4c bf cf 7f 41 be 06 5f 32 3e
       -0.2502666 -0.8006975 -0.18896411 0.17419061
0003b0 94 85 cb 3e b6 de 0d be 10 1b e8 bd 34 39 bf be
       0.3975035 -0.13854489 -0.11333287 -0.3734833
0003c0 66 3a 56 bf b0 9e d6 bd c1 29 aa 3e bb d6 35 bf
       -0.8368286 -0.10479486 0.3323498 -0.7103078
0003d0 e8 d5 25 be 07 95 05 bf 7f db 5b bf 97 1d b4 be
       -0.1619488 -0.5218052 -0.858818 -0.35178825
0003e0 aa a5 b5 3d 65 94 d0 bd 2f 30 79 bd d0 ca 96 be
       0.088694885 -0.10184554 -0.060836967 -0.2945161
0003f0 fb e3 31 bf 8a 7e 7a 3e ea 1f 90 3d 55 d2 97 bf
       -0.69488496 0.24462333 0.07037337 -1.1861063

critic.2.bias f4 [32]
000000 cb ae af be b4 9f b7 bd 5b f7 75 3e 30 33 8e 3e
       -0.34313044 -0.08966008 0.2402014 0.27773428
000010 95 df 85 3e 40 9d a1 3e 60 f8 29 3e 2d dd 9d bd
       0.26147142 0.31565285 0.16598654 -0.077082016
000020 bb fc be 3e 4d 82 ef 3e 9b c4 ae bd 69 44 47 be
       0.37302193 0.467791 -0.08533593 -0.1945969
000030 77 52 cb 3e 82 1c 78 3e 96 94 b5 3e 60 17 32 3e
       0.39711353 0.24229625 0.35464925 0.1739173
000040 99 b8 17 be a8 75 a8 3e 0b c1 8e 3e 0b 91 d0 3e
       -0.14816512 0.32902265 0.27881655 0.4073566
000050 18 55 df 3e e0 6f 5e 3e 72 86 98 be ee a6 3c be
       0.4361961 0.21722364 -0.29790074 -0.18423054
000060 56 80 94 be 6b ef 50 3e aa 64 82 be 60 42 cc 3e
       -0.29004163 0.2040383 -0.25467426 0.3989439
000070 6a 25 48 be 65 4c e3 bd fa 58 7d be 8b 9e ee bd
       -0.19545522 -0.110985555 -0.24740973 -0.116513334

critic.4.weight f4 [1, 32]
000000 e5 d4 a3 be 92 94 62 bf f6 cc 7f 3e 8b 56 d2 3e
       -0.31998363 -0.8850795 0.2498053 0.41081652
000010 87 85 b7 3e 59 58 03 3f 16 e9 95 be 78 f8 fe be
       0.3584406 0.5130668 -0.29279393 -0.49798942
000020 9d aa da 3e 86 f8 06 3f ff 97 d6 be 1a d7 ee be
       0.42708293 0.52722967 -0.4191284 -0.46648484
000030 d5 d1 05 3f 8b 59 d5 3e 2b b5 9e 3e a7 ac b4 3e
       0.52273303 0.41669878 0.30997595 0.35287973
000040 a3 88 b1 be 61 f4 cf 3e ae 1c df 3e 42 82 97 3e
       -0.34674558 0.40616134 0.43576568 0.29591566
000050 0d ec dd 3e 2e 67 bb 3e 5a 94 db be 4e 7f 9a be
       0.43344155 0.36602157 -0.4288662 -0.3017525
000060 6c 79 22 bf de d1 99 3e db d1 23 bf 20 5d e1 3e
       -0.63466525 0.30042928 -0.6399209 0.4401636
000070 fe 40 12 bf 2a cb 82 be d5 78 a6 bf 0f bb 96 be
       -0.5713042 -0.25545627 -1.3005625 -0.2943959
