logs/exp/model_98.pt (torch, 34660 bytes, 12 tensors)

log_std f4 [3]
-0.43328905 -0.13853037 -0.14864428
00000000: 10d8 ddbe e8da 0dbe 3536 18be

actor.0.weight f4 [64, 24]
-0.40502793 0.010991236 0.5329821 -0.65926546 -0.6218867 -0.57641447 -0.35918757 -0.38755143
-0.02593098 -0.696034 -0.18436407 -0.41446477 -0.5083595 -0.118880905 -0.34996682 -0.6600034
-0.18289073 -0.3143744 0.0954931 -0.74458367 -0.037230786 -0.4582293 -0.20157027 -0.37957028
-0.13232805 0.103941336 0.107089855 0.24409714 -0.38175768 0.051896803 -0.123844996 0.057281252
-0.16240986 -0.21943632 -0.056193102 -0.38748482 0.10754616 -0.5179153 0.1489029 -0.32887846
-0.062800296 -0.4660709 -0.17268147 -0.41261747 -0.33815068 -0.22974037 -0.02984214 -0.31026193
-0.0790132 -0.1516225 0.12037397 -0.49518433 0.18419024 0.21269254 0.22656225 -0.3195719
0.5232454 -0.101971835 0.2415375 -0.19951198 0.23763889 -0.17880836 0.4271986 -0.3731912
-0.29840788 -0.08211059 -0.18736176 0.04904394 -0.047235057 -0.016715188 -0.11046872 -0.35091218
-0.45623046 0.19971585 0.050039507 0.06992422 -0.12002464 -0.08872279 -0.13294286 -0.44201148
0.105231576 0.07131147 -0.18695965 0.011739416 0.052114096 0.1658714 0.07353622 -0.33237267
-0.04996456 -0.06263026 -0.03165218 0.042625517 0.011638827 -0.18967816 -0.20125021 0.08916144
-0.2322286 -0.027890302 0.21326932 -1.318375 0.50578165 0.9724796 -0.02613771 0.2317015
-0.14769238 0.14298408 -0.07648469 -0.0739965 -0.18465552 -0.07094781 -0.31067163 -0.09241607
-0.21668464 -0.052378695 -0.10892591 0.023945149 0.05777104 -0.275265 -0.004391124 -0.23379593
-0.53760433 -0.15539594 0.07458805 0.112829074 -0.24755362 0.8456714 0.22465917 0.31944582
0.10278019 0.41831577 0.03687241 0.33772567 0.11007499 0.2325895 0.05217091 0.49578267
-0.022850225 0.26414475 0.2559706 -0.011770131 -0.028830687 0.01674295 0.05856454 0.10740654
0.06699848 0.40675965 -0.28549767 -0.56564707 0.61163765 -0.09737847 0.8403032 -0.34054837
0.70819664 -0.11758653 0.45868525 -0.006742947 0.26356432 -0.0052773785 0.54051083 0.30755228
-0.16671567 0.273717 -0.057799328 0.013420805 -0.061501417 0.33070844 -0.053815145 0.18384872
0.03449201 0.025487421 -0.0976486 -1.3482057 -0.015131472 -0.16665882 -0.30920765 0.1636264
0.027047953 0.14889987 0.18068062 0.26759207 -0.14528315 -0.004182424 0.030628238 0.078257605
0.3527071 -0.010802559 -0.13951087 0.056491926 -0.2563125 0.2296647 -0.37067834 0.39971212
-0.039341822 0.09730675 0.040659495 0.3506917 0.68253386 0.264062 0.17767993 0.03800621
0.4624878 0.014896138 -0.15645531 0.09414427 0.10462277 0.15151374 -0.22566034 -0.19464602
-0.13549492 -0.25555333 -0.027706986 -0.32635033 -0.021519864 -0.26956657 -0.4036327 -0.29837164
0.030006528 0.12007673 0.0629165 -1.152735 -0.58173263 -0.58337957 -0.35233903 -0.08386973
-0.3878318 -0.3034272 -0.49384874 -0.00017728211 -0.40450376 0.041611113 -0.4792716 0.18097557
-0.44595057 -0.3652129 -0.3589542 -0.0013958059 -0.3784489 -0.04997827 -0.047556568 -0.042974275
-0.25740483 -0.23258118 -0.24057816 -0.08869543 -0.2614308 0.07465757 0.23937684 0.3474795
0.3439717 -0.012323624 0.009233556 -0.050669417 0.13519213 0.12714629 0.24623694 0.10365185
00000000: d25f cfbe 9614 343c 8471 083f 9fc5 28bf
00000010: f733 1fbf e68f 13bf 6fe7 b7be 246d c6be
00000020: 356d d4bc 492f 32bf efc9 3cbe ba34 d4be
00000030: d923 02bf d577 f3bd da2e b3be fcf5 28bf
00000040: b547 3bbe aef5 a0be e391 c33d 099d 3ebf
00000050: 4f7f 18bd 089d eabe 7068 4ebe 0957 c2be
00000060: 0181 07be 32df d43d ed51 db3d 9af4 793e
00000070: be75 c3be be91 543d 72a2 fdbd bf9f 6a3d
00000080: c54e 26be eab3 60be bd2a 66bd 6964 c6be
00000090: 2941 dc3d 1996 04bf 007a 183e c262 a8be
000000a0: 719d 80bd d8a0 eebe 69d3 30be 9942 d3be
000000b0: 1622 adbe 0f41 6bbe 8177 f4bc a7da 9ebe
000000c0: acd1 a1bd ee42 1bbe a186 f63d cd88 fdbe
000000d0: 5e9c 3c3e 13cc 593e efff 673e ee9e a3be
000000e0: 69f3 053f 9cd6 d0bd 9b55 773e de4c 4cbe
000000f0: 9c57 733e 8a19 37be c6b9 da3e eb12 bfbe
00000100: ebc8 98be 9929 a8bd c3db 3fbe 4ce2 483d
00000110: 8c79 41bd 4aee 88bc 6d3d e2bd c3aa b3be
00000120: 0a97 e9be 5082 4c3e 3af6 4c3d 6e34 8f3d
00000130: 7acf f5bd 4bb4 b5bd 2c22 08be 544f e2be
00000140: a783 d73d bf0b 923d 5a72 3fbe ae56 403c
00000150: 9775 553d 31da 293e 289a 963d c02c aabe
00000160: a3a7 4cbd 4b44 80bd b7a5 01bd 1898 2e3d
00000170: c7b0 3e3c fe3a 42be 8914 4ebe 469a b63d
00000180: 56cd 6dbe 347a e4bc 4663 5a3e 83c0 a8bf
00000190: e87a 013f 6cf4 783f c01e d6bc 2843 6d3e
000001a0: ac3c 17be 6b6a 123e 01a4 9cbd 7a8b 97bd
000001b0: 5616 3dbe 164d 91bd 5a10 9fbe a344 bdbd
000001c0: 94e2 5dbe 0b8b 56bd 8c14 dfbd 9e28 c43c
000001d0: 53a1 6c3d 89ef 8cbe 6be3 8fbb 3368 6fbe
000001e0: 70a0 09bf 1d20 1fbe 9fc1 983d ee12 e73d
000001f0: b27e 7dbe ec7d 583f 0e0d 663e 678e a33e
00000200: 6c7e d23d 7c2d d63e 8607 173d 61ea ac3e
00000210: ff6e e13d f12b 6e3e 2ab1 553d 3ad7 fd3e
00000220: 6530 bbbc fb3d 873e 940e 833e 82d7 40bc
00000230: 552e ecbc 8328 893c 5fe1 6f3d f6f7 db3d
00000240: 8036 893d cd42 d03e c02c 92be 3fce 10bf
00000250: 4994 1c3f 5d6e c7bd 1c1e 573f 5b5c aebe
00000260: 604c 353f 35d1 f0bd cbd8 ea3e f0f3 dcbb
00000270: e7f1 863e dced acbb eb5e 0a3f 7e77 9d3e
00000280: 83b7 2abe a224 8c3e fdbe 6cbd f0e2 5b3c
00000290: e9e8 7bbd 9e52 a93e 456d 5cbd d742 3c3e
000002a0: 7e47 0d3d ffca d03c fdfb c7bd 0192 acbf
000002b0: fee9 77bc 9ca8 2abe 7750 9ebe ae8d 273e
000002c0: ab93 dd3c 3579 183e 5704 393e d401 893e
000002d0: 1bc5 14be b70c 89bb 12e8 fa3c 8645 a03d
000002e0: 0696 b43e 37fd 30bc f0db 0ebe 1464 673d
000002f0: 643b 83be 392d 6b3e 8dc9 bdbe 11a7 cc3e
00000300: e424 21bd c348 c73d 928a 263d dd8d b33e
00000310: 8aba 2e3f 2233 873e baf1 353e 66ac 1b3d
00000320: 33cb ec3e ee0e 743c d235 20be b6ce c03d
00000330: 7644 d63d 6b26 1b3e 8113 67be 4951 47be
00000340: 2ebf 0abe e3d7 82be c3f9 e2bc 6417 a7be
00000350: 6d4a b0bc a104 8abe f2a8 cebe 2bc4 98be
00000360: 40d0 f53c caea f53d 5eda 803d d28c 93bf
00000370: 6eec 14bf 5d58 15bf c865 b4be e5c3 abbd
00000380: e491 c6be cf5a 9bbe bed9 fcbe cee4 39b9
00000390: 1e1b cfbe 6a70 2a3d 1663 f5be a951 393e
000003a0: a253 e4be 2ffd babe d8c8 b7be 79f3 b6ba
000003b0: 0ec4 c1be 04b6 4cbd adca 42bd cb05 30bd
000003c0: 91ca 83be c329 6ebe 1f5a 76be f3a5 b5bd
000003d0: 42da 85be 11e6 983d 341f 753e d5e8 b13e
000003e0: 0f1d b03e 07e9 49bc 5748 173c bc8a 4fbd
000003f0: ce6f 0a3e a332 023e 8925 7c3e 6c47 d43d

actor.0.bias f4 [64]
0.13904409 -0.097884364 -0.2898971 -0.16726077 -0.056284547 -0.1321447 -0.23993826 -0.05997085
-0.45620602 -0.3878766 -0.03129492 -0.27038416 -0.14902353 0.08544425 -0.23689985 0.019144967
0.09195902 -0.13297634 0.026940614 -0.22822551 -0.024883086 -0.44982854 -0.20017281 -0.24502604
-0.33370143 -0.49745628 -0.13594012 0.3345788 -0.15683998 -0.15087242 -0.4669892 -0.5063847
-0.2802093 -0.3391946 -0.12000034 -0.24789801 -0.6364902 0.043041468 -0.3736054 -0.06617807
-0.22427279 -0.33854905 -0.23515394 0.06452852 -0.18847558 0.038241714 -0.19110534 -0.25836363
-0.009188122 -0.46815586 -0.099519335 -0.27385464 -0.41383445 -0.1011295 -0.30022582 -0.29128596
0.030594409 -0.11406363 -0.12336711 -0.47563744 -0.4056274 0.04940091 0.19924967 -0.29023257
00000000: 9361 0e3e 9977 c8bd 656d 94be 6846 2bbe
00000010: a08a 66bd f150 07be 60b2 75be fea3 75bd
00000020: d693 e9be c397 c6be 1a2f 00bd cb6f 8abe
00000030: a099 18be 65fd ae3d e095 72be e8d5 9c3c
00000040: 0355 bc3d f32a 08be 90b2 dc3c f3b3 69be
00000050: 9dd7 cbbc ed4f e6be 1afa 4cbe 1be8 7abe
00000060: eada aabe 97b2 febe e333 0bbe ea4d ab3e
00000070: a99a 20be 4d7e 1abe 3519 efbe 6da2 01bf
00000080: 9877 8fbe eaaa adbe bdc2 f5bd fad8 7dbe
00000090: 06f1 22bf 404c 303d 3549 bfbe 5e88 87bd
000000a0: c4a7 65be 4d56 adbe 32cc 70be 8727 843d
000000b0: beff 40be 58a3 1c3d 1eb1 43be 3d48 84be
000000c0: c789 16bc 20b2 efbe cbd0 cbbd ad36 8cbe
000000d0: 1ce2 d3be fc1c cfbd 33b7 99be 6f23 95be
000000e0: 20a1 fa3c 319a e9bd e5a7 fcbd c086 f3be
000000f0: 65ae cfbe 9c58 4a3d 1b08 4c3e 5d99 94be

actor.2.weight f4 [32, 64]
-0.1736243 -0.08054673 -0.35431054 -0.11818634 0.17674561 -0.08567159 -0.3708903 -0.064610854
-0.2890792 -0.38046908 0.021229582 -0.33917975 0.020239335 -0.4485186 -0.34686717 -0.2250702
-0.32947078 0.5140196 -0.35462478 -0.34391165 0.0789627 0.089798614 0.11787197 -0.24318865
0.22192524 0.09376499 0.24751212 -0.5209727 -0.16178519 -0.03540261 -0.31838226 -0.09028276
-0.30846217 0.07615308 -0.01190215 0.17002048 0.01761316 -0.35093322 -0.01692456 0.13782881
-0.056723822 0.18103619 -0.058129534 -0.32696927 -0.077249736 -0.40492678 0.07804156 -0.24854285
0.1649127 -0.18343355 -0.39831597 0.32783943 -0.05891014 0.05973328 -0.045135096 0.040982377
0.25948298 -0.2542306 0.20845284 0.23904555 0.21308249 -0.35818198 -0.42083985 0.25124606
-0.9895257 0.50047594 -0.11107209 -0.17641266 -0.14254218 -0.22382483 -0.3930262 0.17308769
0.12778851 0.19488005 -0.50431895 -0.24007285 -0.03197967 -0.5201308 -0.016832113 -1.2754097
0.06611604 0.25301746 0.13527225 -0.21441114 -0.24600568 -0.024803236 -0.026972398 0.02838229
-0.071170874 0.012752034 -0.040628824 -0.122317046 -0.46074116 -0.19478771 0.011561512 -0.12361301
-0.17369215 0.15204851 -0.3208563 0.02287286 0.039232895 -0.2036393 0.06458783 0.02090467
-0.27291206 -0.10419027 0.087378226 -0.1551677 -0.24421714 -0.16806278 0.014908035 0.24388754
-0.015924223 0.11210001 -0.24577197 -0.6551828 -0.055136256 -0.14812616 -0.34795102 -0.26223427
-0.2857503 0.18327785 -0.18580358 -0.16842812 0.25230795 -0.22658092 -0.28018814 0.08706191
-0.6566926 -0.16325378 0.07736054 -0.22090453 -0.33188003 -0.023579612 -0.23208383 0.05212305
-0.18325797 -0.2537968 -0.13429411 -0.53236353 -0.0030842104 -0.15253702 -0.27156335 -0.41718403
-0.007129389 0.080633245 0.11641122 0.019561036 -0.20700252 0.1527323 -0.15307997 0.007902646
-0.34508863 -0.123191684 -0.079559006 0.2907901 -0.21156548 -0.1583131 -0.01761715 -0.17480972
-0.038496953 -0.13490477 -0.059240613 -0.13656628 0.06363713 -0.11961359 -0.008694766 -0.16008843
-0.027574146 -0.034288324 -0.21693273 0.20033586 -0.36058316 0.05551044 0.1746041 0.26267758
0.110780835 -0.04539089 -0.051139783 0.26609367 -0.09727842 -0.1678623 0.010244566 -0.124572374
0.25522724 -0.28706464 0.010850241 -0.0012898992 0.20708598 -0.113966815 0.17061429 -0.45218605
-0.413524 -0.1785506 0.032652363 0.042753756 0.14156127 0.3758968 0.3635362 0.19638991
0.008458387 -0.53114754 -0.11974997 -0.14774024 -0.19194007 -0.5152416 -0.430744 -0.25210726
0.21548523 0.005940633 -0.06287742 -0.18005127 -0.4611321 -0.096074 0.19998352 0.15549363
0.44789022 0.40526256 0.3634838 0.3384443 0.19294696 -0.061417807 -0.15576296 -0.04952612
0.4818255 -0.43823275 -0.07611461 -0.1143006 0.013349174 -0.9438149 0.0039500147 0.33484453
-0.1690196 0.050673775 0.11291181 0.27963954 -0.21938266 0.11836375 0.43950152 0.093409844
0.039090402 -0.3109212 -0.2878357 -0.1568288 0.22027627 -0.19830462 -0.02025528 0.001992012
0.5111472 0.114947595 0.2304164 0.122383475 0.42037874 -0.020495856 -0.1895179 0.08063439
00000000: 92ca 31be aff5 a4bd 3168 b5be ae0b f2bd
00000010: cdfc 343e 9674 afbd 55e5 bdbe b252 84bd
00000020: 3002 94be d8cc c2be a9e9 ad3c f8a8 adbe
00000030: f6cc a53c 3ba4 e5be 9398 b1be cd78 66be
00000040: 65b0 a8be ca96 033f 6191 b5be 3015 b0be
00000050: 32b7 a13d 56e8 b73d dc66 f13d 7206 79be
00000060: 5f40 633e dc07 c03d d173 7d3e 785e 05bf
00000070: 04ab 25be 5402 11bd 0003 a3be 2be6 b8bd
00000080: c1ee 9dbe 25f6 9b3d 3c01 43bc d919 2e3e
00000090: 7949 903c 85ad b3be 60a5 8abc ff22 0d3e
000000a0: 3d57 68bd 8d61 393e 3c19 6ebd 8468 a7be
000000b0: 1c35 9ebd 9052 cfbe 41d4 9f3d 0482 7ebe
000000c0: e0de 283e 01d6 3bbe 12f0 cbbe 92da a73e
000000d0: c24b 71bd e2aa 743d 94df 38bd 23dd 273d
000000e0: f4da 843e 832a 82be a974 553e 5bc8 743e
000000f0: 4c32 5a3e a163 b7be 5278 d7be 53a3 803e
00000100: 8e51 7dbf 311f 003f c479 e3bd 85a5 34be
00000110: 94f6 11be 5632 65be bb3a c9be e63d 313e
00000120: feda 023e a38e 473e 0c1b 01bf a8d5 75be
00000130: 1dfd 02bd 4b27 05bf 80e3 89bc a040 a3bf
00000140: d967 873d 818b 813e cf84 0a3e 988e 5bbe
00000150: eae8 7bbe 2830 cbbc 38f5 dcbc fa81 e83c
00000160: 09c2 91bd e8ed 503c 696a 26bd 5c81 fabd
00000170: 44e6 ebbe 6e76 47be 7f6c 3d3c d128 fdbd
00000180: 5bdc 31be 9bb2 1b3e 4747 a4be dd5f bb3c
00000190: acb2 203d d286 50be a046 843d 4540 ab3c
000001a0: 21bb 8bbe b561 d5bd 5bf3 b23d 48e4 1ebe
000001b0: 0f14 7abe a618 2cbe d540 743c a8bd 793e
000001c0: 8473 82bc b194 e53d a6ab 7bbe 0fba 27bf
000001d0: 8ed6 61bd 62ae 17be a326 b2be 9243 86be
000001e0: dd4d 92be 30ad 3b3e 4b43 3ebe 6c78 2cbe
000001f0: 822e 813e d404 68be d274 8fbe 844d b23d
00000200: 021d 28bf 002c 27be 346f 9e3d cc34 62be
00000210: 2eec a9be 082a c1bc 62a7 6dbe fb7e 553d
00000220: faa7 3bbe a7f1 81be 6584 09be fa48 08bf
00000230: 7720 4abb aa32 1cbe 5a0a 8bbe 2599 d5be
00000240: a69d e9bb 0b23 a53d 0169 ee3d 773e a03c
00000250: 78f8 53be db65 1c3e ffc0 1cbe 1a7a 013c
00000260: 75af b0be ec4b fcbd d5ef a2bd 71e2 943e
00000270: 9fa4 58be d41c 22be d751 90bc 5201 33be
00000280: fbae 1dbd 7a24 0abe 49a6 72bd 08d8 0bbe
00000290: 2f54 823d f8f7 f4bd 7e74 0ebc 39ee 23be
000002a0: 2de3 e1bc ea71 0cbd 9d23 5ebe d824 4d3e
000002b0: 5b9e b8be ea5e 633d 6bcb 323e ad7d 863e
000002c0: 10e1 e23d cceb 39bd f377 51bd 6e3d 883e
000002d0: e939 c7bd 18e4 2bbe d3d8 273c cd1f ffbd
000002e0: 25ad 823e 23fa 92be 36c5 313c d611 a9ba
000002f0: 590e 543e 6f67 e9bd 83b5 2e3e ee84 e7be
00000300: 6bb9 d3be f8d5 36be 7cbe 053d 901e 2f3d
00000310: 70f5 103e 8c75 c03e 6b21 ba3e 701a 493e
00000320: 0c95 0a3c 49f9 07bf 793f f5bd 3849 17be
00000330: f08b 44be e0e6 03bf 7a8a dcbe 3414 81be
00000340: 29a8 5c3e a4a9 c23b e0c5 80bd 5c5f 38be
00000350: 8219 ecbe 72c2 c4bd 7bc8 4c3e b939 1f3e
00000360: de51 e53e 937e cf3e 8c1a ba3e 9248 ad3e
00000370: e393 453e 3d91 7bbd 5380 1fbe e7db 4abd
00000380: d5b1 f63e 0b60 e0be fae1 9bbd 6f16 eabd
00000390: 7eb6 5a3c da9d 71bf 206f 813b be70 ab3e
000003a0: 7913 2dbe 4e8f 4f3d 4f3e e73d ea2c 8f3e
000003b0: d9a5 60be b268 f23d 5806 e13e a94d bf3d
000003c0: 421d 203d 1031 9fbe 335f 93be bb97 20be
000003d0: 1a90 613e 5e10 4bbe 67ee a5bc 6a8c 023b
000003e0: 8bda 023f a569 eb3d 47f2 6b3e 30a4 fa3d
000003f0: e23b d73e ede6 a7bc fb10 42be a523 a53d

actor.2.bias f4 [32]
-0.26884064 -0.11770001 -0.17001145 -0.32495996 -0.04869241 -0.028230833 -0.27777028 0.04908572
0.14446081 0.04843527 -0.061202075 -0.32636827 -0.14480732 0.08019587 -0.09680112 -0.14447756
-0.0027489658 -0.15819226 -0.10775436 -0.13035662 -0.24315284 -0.10821414 -0.113265716 0.026411042
-0.10603873 -0.12390515 -0.20784646 -0.3292996 -0.328065 -0.15731522 -0.13669217 -0.061500352
00000000: 7ba5 89be b40c f1bd 7b17 2ebe 2761 a6be
00000010: b171 47bd 5944 e7bc e837 8ebe 1c0e 493d
00000020: 89ed 133e 1064 463d 07af 7abd be19 a7be
00000030: 5f48 14be bb3d a43d aa3f c6bd edf1 13be
00000040: fe27 34bb 27fd 21be 51ae dcbd 357c 05be
00000050: 0ffd 78be 609f ddbd dbf7 e7bd f85b d83c
00000060: d52a d9bd fcc1 fdbd b4d5 54be f599 a8be
00000070: 23f8 a7be 3e17 21be 08f9 0bbe cbe7 7bbd

actor.4.weight f4 [3, 32]
0.024067942 -0.042056706 -0.04497647 0.08186221 -0.07716891 0.039734673 0.10886236 -0.013460164
-0.06907615 0.010800019 -0.015116009 0.043841705 -0.04288928 0.0032575063 0.0011392393 -0.0004063819
-0.03872444 0.00032955865 0.025527567 -0.031679265 0.11252387 -0.010582031 -0.10798368 -0.09268817
0.0030983177 0.02905139 0.052063465 0.044513583 0.052148458 0.051876526 0.0047497908 0.0070645115
0.058698222 0.021280242 -0.008135834 -0.033541076 0.017887425 0.02449669 -0.0035481348 0.013973178
-0.06687451 0.008935635 0.02043357 0.062351525 -0.09902335 0.014316432 0.008222474 0.03222573
0.009105314 -0.007198964 0.0038209483 -0.0070836795 0.0033183086 -0.02633238 0.053224884 0.055451576
-2.3683726e-05 -0.0103119975 -0.009148074 0.17119336 -0.07752278 -0.09347539 1.8235822e-05 -0.10257098
-0.026232123 -0.02964638 0.01119796 0.103165135 0.0023927393 -0.041254684 0.09030394 -0.06463539
0.09673369 -0.014669385 -0.037186574 -0.0348062 0.12195546 -0.034130003 0.114299946 0.0689592
0.04048025 0.041271396 -0.031371146 -0.036289234 -0.028297817 0.037868313 0.059066754 -0.006399795
-0.0074489103 0.071561836 0.098521516 -0.041768517 0.100706436 0.16411892 -0.015117101 0.030937001
00000000: 222a c53c a743 2cbd 3f39 38bd 60a7 a73d
00000010: bc0a 9ebd d3c0 223d 3bf3 de3d 0588 5cbc
00000020: cc77 8dbd 90f2 303c 23a9 77bc 5c93 333d
00000030: abac 2fbd e37b 553b 8752 953a a80f d5b9
00000040: 859d 1ebd 9dc8 ac39 301f d13c 1ec2 01bd
00000050: ea72 e63d 4160 2dbc 8c26 ddbd 4cd3 bdbd
00000060: 250d 4b3b 2efd ed3c 8040 553d e053 363d
00000070: 9f99 553d 7b7c 543d 22a4 9b3b 6b7d e73b
00000080: 8c6d 703d e753 ae3c 294c 05bc 5e62 09bd
00000090: a688 923c 48ad c83c d387 68bb c2ef 643c
000000a0: 81f5 88bd c566 123c 4d64 a73c 5064 7f3d
000000b0: c1cc cabd 788f 6a3c 8eb7 063c 21ff 033d
000000c0: 742e 153c 49e5 ebbb e068 7a3b 361e e8bb
000000d0: fb77 593b 01b7 d7bc 5602 5a3d 3121 633d
000000e0: 6aac c6b7 a7f3 28bc cee1 15bc 504d 2f3e
000000f0: 43c4 9ebd 0670 bfbd 21f9 9837 bc10 d2bd
00000100: c0e4 d6bc f7dc f2bc a677 373c 3e48 d33d
00000110: 81cf 1c3b acfa 28bd 46f1 b83d 8f5f 84bd
00000120: 501c c63d dc57 70bc f350 18bd f290 0ebd
00000130: c9c3 f93d e7cb 0bbd 1716 ea3d 7b3a 8d3d
00000140: 9ece 253d 320c 293d 087f 00bd 05a4 14bd
00000150: d3d0 e7bc ce1b 1b3d fbef 713d 5fb5 d1bb
00000160: fd15 f4bb 038f 923d a6c5 c93d 7715 2bbd
00000170: 2d3f ce3d ca0e 283e b8ad 77bc 986f fd3c

actor.4.bias f4 [3]
0.101608895 -0.06875632 0.12755851
00000000: 5318 d03d 1dd0 8cbd b39e 023e

critic.0.weight f4 [64, 24]
-0.19653262 0.035584323 -0.7604879 -0.7212509 -0.5271316 -0.019526595 -0.54463017 0.12205314
-0.61037016 0.20806828 -0.19361345 0.32292283 -0.15232839 0.40629342 -0.11885244 -0.08536883
-0.066855125 0.29350907 -0.49628934 -0.34111 -0.350621 -0.17544055 -0.08247364 -0.33118367
-0.22245647 0.014698541 0.17262553 0.35378405 -0.36121842 -1.6062384 -0.35270235 -1.5885504
0.14262702 -1.1727204 0.3305997 -1.2558151 0.36315897 -0.8099997 0.15542156 -1.1617277
-0.30185246 -0.62290895 -0.18643677 -0.6736113 0.007086289 -0.68903935 -0.5354655 -0.735981
-0.4413087 0.17675702 -0.43943116 -0.44060844 -1.2405666 -0.050799426 -0.18396658 0.3384483
0.19949359 0.46827808 0.4082198 0.4492941 -0.091877334 0.7787047 0.31229222 0.30332223
0.16379672 0.27894488 0.24515067 0.43953142 -0.04004696 0.32384172 0.3258506 0.19923323
0.06981381 -0.12023766 -0.019747308 -0.43242916 -0.74613386 -0.39557603 0.72070223 -0.52403045
1.0264387 -0.5061674 0.8627266 -0.17531241 0.72177273 -0.4831438 0.4449176 -0.3097921
0.59322 -0.03962019 0.4007168 -0.23926371 0.10290222 -0.3220039 0.8219452 -0.085684925
-0.67154026 -0.09263682 -0.64585495 -1.2323495 -0.08250572 1.2728066 0.16468577 1.4601803
0.048965897 1.1604325 0.10744815 1.247122 0.33727586 0.847919 0.5540378 0.9836842
0.45333022 0.42608792 0.011336265 0.7738337 0.5366008 0.66786474 0.3499285 0.28851342
0.5349804 -0.02254797 -0.08974365 0.09089374 -2.3315742 -0.026262065 -1.0819416 0.059786465
-0.4888969 -0.11765361 -0.5464867 0.67705137 -0.57221425 0.75403845 -0.21997686 0.65441066
-0.285702 0.5716546 -0.18393889 0.39812484 0.29244462 0.0818182 0.2639993 0.23569146
-0.10655658 -0.003408374 -0.6294306 -0.1606688 -0.25564006 0.8899428 -1.0027993 0.29965457
-0.7473951 -0.077022396 -0.84367275 -0.38614 -0.40696266 -0.48562327 -0.39064825 -0.7505913
-0.26912323 -0.71913487 -0.2305422 -0.69589496 -0.09742953 -0.84640414 -0.31364718 -0.8208368
-0.16567227 0.1882627 -0.45386106 -0.48638627 -1.1275083 -0.4490991 -0.3632915 -1.1025144
-0.15629894 -0.8905375 0.4836607 -1.1001608 0.16798499 -1.0338514 0.12635438 -0.28472015
0.3042534 -0.7491919 0.39473414 -0.5167905 0.3216345 -0.26689708 0.13131347 -0.2584864
-1.0422453 0.06096048 0.2822972 -1.4319245 -1.4752377 -3.5487986 -0.46457696 -1.7320904
-0.013813884 -0.8381415 0.2557666 -0.40765375 -0.25298962 -0.020608567 0.026639568 0.3366155
-0.27274942 0.058472026 -0.4000102 0.116797596 -0.2690503 0.3407141 -0.34707916 0.637667
0.1120635 0.0045654867 0.19744422 -0.2504561 -0.19112417 0.72212636 -0.8463627 0.19026782
-0.39581868 -0.03784219 -0.53844005 0.24277373 -0.5287719 0.023818295 -0.41840407 -0.34560516
-0.10632257 -0.49352795 -0.28128317 -0.28287026 -0.4161581 -0.20646203 -0.22542904 -0.15782398
-0.17024815 -0.11631602 -0.44869876 0.14012994 0.92231846 1.470148 0.18053369 0.3503159
-0.21560971 -0.039070226 -0.18744603 -0.0382957 -0.28991854 -0.3187291 -0.14396122 -0.38888982
00000000: d93f 49be dec0 113d 56af 42bf e6a3 38bf
00000010: 19f2 06bf 3df6 9fbc e26c 0bbf fff6 f93d
00000020: 3841 1cbf da0f 553e 9b42 46be 2456 a53e
00000030: f9fb 1bbe b105 d03e e868 f3bd dad5 aebd
00000040: 57eb 88bd d246 963e a319 febe f8a5 aebe
00000050: 9984 b3be b0a6 33be f1e7 a8bd e890 a9be
00000060: a1cb 63be 26d2 703c bfc4 303e 2f23 b53e
00000070: 9ff1 b8be 3899 cdbf 6795 b4be 9f55 cbbf
00000080: d10c 123e b41b 96bf 5d44 a93e 8dbe a0bf
00000090: f9ef b93e 245c 4fbf d426 1f3e 7eb3 94bf
000000a0: 688c 9abe f676 1fbf 48e9 3ebe ca71 2cbf
000000b0: 1a34 e83b e264 30bf 4414 09bf 4069 3cbf
000000c0: 37f3 e1be cbff 343e 1ffd e0be 6e97 e1be
000000d0: e3ca 9ebf 0f13 50bd bc61 3cbe 1849 ad3e
000000e0: 0c48 4c3e 25c2 ef3e 3002 d13e e009 e63e
000000f0: 2f2a bcbd 3159 473f c4e4 9f3e 0d4d 9b3e
00000100: 54ba 273e ddd1 8e3e c708 7b3e 430a e13e
00000110: 4808 24bd 95ce a53e e4d5 a63e cc03 4c3e
00000120: 8bfa 8e3d 2a3f f6bd 1bc5 a1bc 5b67 ddbe
00000130: a102 3fbf f188 cabe f17f 383f dc26 06bf
00000140: 5862 833f 3094 01bf a7db 5c3f 1985 33be
00000150: 19c6 383f a05e f7be 3dcc e33e 129d 9ebe
00000160: 44dd 173f c848 22bd c12a cd3e 8c01 75be
00000170: 66be d23d b2dd a4be 006b 523f 947b afbd
00000180: 10ea 2bbf 60b8 bdbd c056 25bf a1bd 9dbf
00000190: c2f8 a8bd 54eb a23f 63a3 283e 30e7 ba3f
000001a0: 7790 483d 0d89 943f c70d dc3d b2a1 9f3f
000001b0: 6caf ac3e 3811 593f 6cd5 0d3f bad2 7b3f
000001c0: e61a e83e 3228 da3e bebb 393c f719 463f
000001d0: ac5e 093f 2ff9 2a3f d429 b33e 08b8 933e
000001e0: 7af4 083f 85b6 b8bc 85cb b7bd 7f26 ba3d
000001f0: 8338 15c0 8b23 d7bc 107d 8abf a7e2 743d
00000200: b250 fabe 60f4 f0bd 8de6 0bbf 3d53 2d3f
00000210: a27c 12bf aa08 413f 9d41 61be 7587 273f
00000220: 8847 92be f557 123f 7a5a 3cbe 05d7 cb3e
00000230: 4dbb 953e 4d90 a73d eb2a 873e 1a59 713e
00000240: 563a dabd 075f 5fbb 5d22 21bf 5d86 24be
00000250: 41e3 82be 4bd3 633f ba5b 80bf 536c 993e
00000260: 4955 3fbf ebbd 9dbd f0fa 57bf 24b4 c5be
00000270: 695d d0be 9da3 f8be 0c03 c8be c026 40bf
00000280: 85ca 89be 3919 38bf 4113 6cbe 2c26 32bf
00000290: 2289 c7bd f1ad 58bf 5d96 a0be 5c22 52bf
000002a0: fea5 29be f0c7 403e 7a60 e8be 9f07 f9be
000002b0: 3152 90bf 51f0 e5be 5801 babe 311f 8dbf
000002c0: d40c 20be 44fa 63bf 60a2 f73e 12d2 8cbf
000002d0: 4204 2c3e 3e55 84bf 0b63 013e d7c6 91be
000002e0: 1ac7 9b3e 0acb 3fbf 981a ca3e 624c 04bf
000002f0: 47ad a43e bca6 88be 0a77 063e 5458 84be
00000300: 4b68 85bf b2b1 793d 4289 903e 4d49 b7bf
00000310: 97d4 bcbf 841f 63c0 08dd edbe 23b5 ddbf
00000320: a153 62bc 7190 56bf d7f3 823e feb7 d0be
00000330: db87 81be 4cd3 a8bc 393b da3c de58 ac3e
00000340: d0a5 8bbe 5d80 6f3d 23ce ccbe 9433 ef3d
00000350: f6c0 89be 1472 ae3e 5cb4 b1be 253e 233f
00000360: 8c81 e53d 149a 953b d12e 4a3e c83b 80be
00000370: 0eb6 43be 46dd 383f 3aab 58bf 91d5 423e
00000380: bfa8 cabe 6a00 1bbd 35d7 09bf ad99 783e
00000390: 985d 07bf 961e c33c 0f39 d6be 29f3 b0be
000003a0: a6bf d9bd b2af fcbe 5904 90be 5fd4 90be
000003b0: ad12 d5be c86a 53be dfd6 66be 9c9c 21be
000003c0: 8855 2ebe 1837 eebd d8bb e5be 397e 0f3e
000003d0: 101d 6c3f cf2d bc3f d3dd 383e 9b5c b33e
000003e0: cbc8 5cbe 1a08 20bd daf1 3fbe f4db 1cbd
000003f0: 3470 94be 7630 a3be 926a 13be 911c c7be

critic.0.bias f4 [64]
-0.796155 -0.5619682 0.2665577 0.17789994 -0.5212023 0.3638816 0.050189406 0.44859585
0.63908744 0.27858 0.5941886 -0.36167926 0.65994835 0.386883 0.20393476 -0.7187053
0.8583702 0.12308336 -0.8111611 -1.6881859 -1.0559386 -1.0941142 0.56548667 0.27100337
-0.07064528 -0.14584939 -0.08529013 -1.2532986 -1.625862 -0.86158276 -0.96619844 0.2766891
-0.44274232 0.22747363 0.48135635 -0.91838646 -2.4418063 0.32033932 0.12088328 0.6619319
0.2598829 -1.3832884 -0.59180623 0.20528612 0.42833596 0.34163085 -0.33745927 -0.20827909
-1.5278099 -0.20607184 -0.42113122 -1.4525893 0.37664396 0.39836133 -0.28987724 0.13588096
0.66649586 0.7220558 0.22037035 0.42652434 -1.1158776 0.25002655 0.18689153 -2.1171591
00000000: d0d0 4bbf 26dd 0fbf 407a 883e 672b 363e
00000010: 846d 05bf b04e ba3e 6893 4d3d 5bae e53e
00000020: 3c9b 233f 0aa2 8e3e be1c 183f 062e b9be
00000030: 60f2 283f 8715 c63e 46d4 503e 12fd 37bf
00000040: 26be 5b3f 2113 fc3d 41a8 4fbf 7a16 d8bf
00000050: ff28 87bf ef0b 8cbf bcc3 103f f4c0 8a3e
00000060: 79ae 90bd 8b59 15be 97ac aebd 176c a0bf
00000070: 3f1c d0bf b090 5cbf c858 77bf 32aa 8d3e
00000080: 1faf e2be d9ee 683e 5774 f63e 601b 6bbf
00000090: 8e46 1cc0 8403 a43e a791 f73d 5e74 293f
000000a0: 5f0f 853e 980f b1bf 9d80 17bf 8636 523e
000000b0: da4e db3e 3dea ae3e 76c7 acbe 1d47 55be
000000c0: 468f c3bf 7f04 53be 839e d7be 72ee b9bf
000000d0: 7ad7 c03e 04f6 cb3e ca6a 94be 6124 0b3e
000000e0: 799f 2a3f a6d8 383f c4a8 613e 6661 da3e
000000f0: 14d5 8ebf 7b03 803e 7e60 3f3e 897f 07c0

critic.2.weight f4 [32, 64]
-0.19732167 -0.21931677 -0.10812824 -0.46888655 -0.2173877 0.23289901 -0.22344448 -0.47647068
0.4449609 -0.12344405 -0.28368437 -0.091907725 -0.58798534 -0.3604158 -0.5755689 0.04772757
-0.42489308 -0.4209899 -0.13629404 -0.5750015 0.1550744 0.2317644 -0.5694739 0.07683015
-0.13114221 -0.26821336 -0.16281946 -0.06548212 -0.03910508 0.1080724 0.11332598 -0.5936941
-0.13946153 -0.33385995 -0.3983077 0.06424385 -1.0820808 -0.06785741 -0.29642445 -0.5824753
-0.29721075 0.10335296 -0.69282424 -0.2765137 0.23472095 0.04121945 -0.19649264 -0.12052082
0.18927282 -0.44564512 0.17767009 -0.102217175 -0.36833265 -0.3326863 -0.31298074 -0.00019436877
-0.18498585 -0.16475983 -0.08847313 -0.104799606 0.08618482 -0.083522186 -0.39328134 -0.5341955
-0.60998946 0.31902277 0.1791288 -0.37699655 -0.76934147 -2.4139233 -0.7582321 -1.6704664
0.64409417 -0.028806334 -0.3227642 -0.31580278 -0.33396032 -0.4006461 -0.52866936 -0.64095604
-0.25248575 0.030916337 -0.08461563 0.18212783 0.43025392 0.17202131 -1.0243397 0.3407507
-0.21467654 -1.2628206 -1.5882256 0.16642167 0.7024778 -1.0235169 0.13402048 -0.7945652
-0.3541157 -0.47584108 -1.469078 -0.036873136 -0.73271894 -0.9996835 -0.12717532 -0.46199867
-0.63893974 0.77448297 -1.8234837 -0.14722782 -0.16463189 -0.6872928 0.42053422 0.82185346
-0.13340007 -0.721662 0.24211024 0.27370018 0.06155732 -0.29268387 1.1720175 -2.5948977
-1.51551 0.73813164 -0.35202548 0.7462894 -0.19901496 -0.48492664 -0.7057264 0.52746135
-0.191341 0.6220929 -0.009654616 0.49278325 -0.27802554 -0.20894441 -0.45163292 0.43897444
0.13543399 -0.2739523 0.26689398 -0.083285436 0.069049925 -0.040016226 0.035878092 -0.40014842
-0.583998 -0.21910754 0.29136473 -0.40453386 0.15945199 -0.5058985 0.14006065 0.24503188
0.24753802 -0.36776772 -0.2023086 -0.69963276 -0.5156225 -0.25289613 0.16538918 0.2957455
0.18499969 0.29793215 0.26890826 -0.115726605 0.83051693 0.26823294 0.014726958 0.27052993
0.30136427 -0.35068038 0.4839731 0.34641796 -0.088002026 -0.12382912 -0.1800267 -0.6691269
-0.18027233 -0.15633206 0.09705287 -0.5981914 -0.23826002 0.23270607 -0.6671529 0.095238365
0.23096524 -0.23059988 0.17666385 -0.5300045 0.37644222 0.34237912 -0.07913744 -0.7896092
-0.15842338 0.24364918 0.14916044 -0.5707143 -0.9054761 -0.65634894 0.24957645 -0.29115862
0.1098044 -0.27326268 -0.021499729 0.5457429 0.19766138 0.0037061116 -0.10024962 -1.043346
-0.16414458 0.21456029 0.023978693 -1.4389529 -0.66239333 -0.9968859 0.23885033 0.064523734
0.5534493 0.04750812 -0.114154026 -1.1660069 -1.1956007 -0.3189718 -0.2338228 -0.2548661
0.23869047 0.3745151 0.32739046 -0.51613694 -0.8708867 0.3015058 -0.10025133 -0.09293328
-0.40033928 -1.0415524 -0.04562606 -0.003770766 0.060349308 -0.30835187 -0.25727788 -0.27930522
-1.1590742 -0.122565284 0.23714675 -1.3739325 -0.3958415 -0.4877307 -0.7168963 -0.8537443
-0.09881087 -0.14673214 -0.21019815 -0.23022473 -1.0508238 0.27279338 0.013833282 -1.6318169
00000000: b10e 4abe 9394 60be 5772 ddbd e611 f0be
00000010: e29a 5ebe 147d 6e3e a1ce 64be f7f3 f3be
00000020: ead1 e33e 3cd0 fcbd 143f 91be 1e3a bcbd
00000030: 3586 16bf 6b88 b8be 7c58 13bf fc7d 433d
00000040: 968b d9be fd8b d7be aa90 0bbe 4c33 13bf
00000050: d3cb 1e3e a653 6d3e 0bc9 11bf 2059 9d3d
00000060: 254a 06be 4353 89be 25ba 26be 7d1b 86bd
00000070: a62c 20bd 1055 dd3d 7417 e83d 56fc 17bf
00000080: 01cf 0ebe b1ef aabe fdee cbbe 4892 833d
00000090: a081 8abf d3f8 8abd f2c4 97be 1a1d 15bf
000000a0: 022c 98be b7aa d33d ee5c 31bf 3493 8dbe
000000b0: b05a 703e bad5 283d 5e35 49be 9fd3 f6bd
000000c0: bcd0 413e 992b e4be 26ef 353e 3d57 d1bd
000000d0: 1996 bcbe dc55 aabe 033f a0be 78cf 4bb9
000000e0: ee6c 3dbe cdb6 28be 6631 b5bd 2da1 d6bd
000000f0: ab81 b03d ae0d abbd 2c5c c9be 09c1 08bf
00000100: 4528 1cbf f456 a33e 8a6d 373e b105 c1be
00000110: 90f3 44bf b87d 1ac0 801b 42bf d8d1 d5bf
00000120: 5be3 243f 43fb ebbc 5941 a5be e7b0 a1be
00000130: d9fc aabe 7c21 cdbe e056 07bf b215 24bf
00000140: d045 81be 4244 fd3c f64a adbd b87f 3a3e
00000150: 3e4a dc3e 5b26 303e 901d 83bf e076 ae3e
00000160: 2bd4 5bbe 1ba4 a1bf fa4a cbbf 716a 2a3e
00000170: 96d5 333f 9a02 83bf aa3c 093e a068 4bbf
00000180: a74e b5be 71a1 f3be bf0a bcbf 4908 17bd
00000190: 7893 3bbf 42eb 7fbf 3f3a 02be 178b ecbe
000001a0: 8e91 23bf 8444 463f ea67 e9bf e4c2 16be
000001b0: 4395 28be 6cf2 2fbf 4350 d73e fd64 523f
000001c0: 079a 08be d7be 38bf bfeb 773e 6e22 8c3e
000001d0: 8723 7c3d a9da 95be ab04 963f ce12 26c0
000001e0: 3bfc c1bf 32f6 3c3f af3c b4be d20c 3f3f
000001f0: 94ca 4bbe 4e48 f8be 7caa 34bf b507 073f
00000200: e5ee 43be 7b41 1f3f 652e 1ebc 164e fc3e
00000210: 5d59 8ebe 86f5 55be 6e3c e7be 42c1 e03e
00000220: 35af 0a3e 7a43 8cbe 54a6 883e 8e91 aabd
00000230: 0c6a 8d3d 0ee8 23bd e8f4 123d 41e0 ccbe
00000240: e580 15bf ba5d 60be c22d 953e 101f cfbe
00000250: 6247 233e 9082 01bf 0f6c 0f3e a3e9 7a3e
00000260: 9b7a 7d3e 0d4c bcbe fc29 4fbe 221b 33bf
00000270: d6ff 03bf 9a7b 81be c85b 293e f46b 973e
00000280: 8f70 3d3e 908a 983e 58ae 893e 1202 edbd
00000290: c29c 543f d455 893e 5749 713c e682 8a3e
000002a0: 6b4c 9a3e 618c b3be 52cb f73e b25d b13e
000002b0: 683a b4bd 1f9a fdbd eb58 38be e74b 2bbf
000002c0: 4f99 38be 8315 20be a8c3 c63d 1223 19bf
000002d0: 6ffa 73be 804a 6e3e 88ca 2abf 550c c33d
000002e0: 2782 6c3e 6022 6cbe 5ee7 343e 60ae 07bf
000002f0: 09bd c03e 514c af3e cf12 a2bd d423 4abf
00000300: bd39 22be 2c7f 793e 84bd 183e 551a 12bf
00000310: 48cd 67bf 7c06 28bf f890 7f3e be12 95be
00000320: 21e1 e03d 16e9 8bbe 3320 b0bc cfb5 0b3f
00000330: bf67 4a3e 3ce2 723b ac4f cdbd 5d8c 85bf
00000340: 8415 28be b1b5 5b3e f76e c43c 9c2f b8bf
00000350: 9c92 29bf ea33 7fbf 2e95 743e 0525 843d
00000360: daae 0d3f e097 423d 96c9 e9bd b73f 95bf
00000370: 7209 99bf 4650 a3be 3e6f 6fbe cf7d 82be
00000380: 466b 743e 71c0 bf3e b99f a73e 8d21 04bf
00000390: 6ef2 5ebf f85e 9a3e 9250 cdbd ce53 bebd
000003a0: 45f9 ccbe 9751 85bf 64e2 3abd f51e 77bb
000003b0: d630 773d 4ce0 9dbe edb9 83be 1801 8fbe
000003c0: 8b5c 94bf 8203 fbbd 99d6 723e 05dd afbf
000003d0: bdab cabe d7b7 f9be 8486 37bf fd8e 5abf
000003e0: 5a5d cabd f340 16be 2f3e 57be 08c0 6bbe
000003f0: 6581 86bf 93ab 8b3e fda4 623c 60df d0bf

critic.2.bias f4 [32]
-0.44153288 -0.038531344 0.4316903 0.56326336 0.4700717 0.442004 -0.18840204 -0.39323476
0.61408967 0.78149813 -0.25995252 -0.41660124 0.5798246 0.48053944 0.61407304 0.498906
-0.38071167 0.6168936 0.52006775 0.59292215 0.7273345 0.44901448 -0.29999945 -0.8364
-0.29073188 0.34711036 -0.3899077 0.57150877 -0.019949071 -0.11457756 -0.10539594 -0.27666968
00000000: 9910 e2be 0bd3 1dbd 8306 dd3e 0732 103f
00000010: 3dad f03e 594e e23e 77ec 40be 1156 c9be
00000020: fb34 1d3f 4310 483f 7f18 85be c24c d5be
00000030: 636f 143f 4409 f63e e433 1d3f 9b70 ff3e
00000040: a4ec c2be bdec 1d3f 2923 053f bfc9 173f
00000050: 9832 3a3f 3ae5 e53e 8799 99be 4f1e 56bf
00000060: cfda 94be 73b8 b13e fba1 c7be 664e 123f
00000070: 3c6c a3bc a4a7 eabd d4d9 d7bd a6a7 8dbe

critic.4.weight f4 [1, 32]
-0.5062318 -1.5714681 0.16012032 0.56191885 0.36761668 0.61567426 -0.60599023 -1.288961
0.45182133 0.5986547 -1.0554359 -2.1170428 0.53877807 0.36612356 0.35368523 0.43000624
-1.3480777 0.59388715 0.29797524 0.44962493 0.48173276 0.507552 -0.6293142 -0.98825365
-0.83151704 0.23302375 -0.84856844 0.55552566 -0.85886246 -0.45795205 -1.9283322 -0.82540995
00000000: 6898 01bf de25 c9bf 95f6 233e ead9 0f3f
00000010: 4138 bc3e d49c 1d3f 2d22 1bbf adfc a4bf
00000020: 2055 e73e 6f41 193f 8618 87bf a17d 07c0
00000030: 5ced 093f 8c74 bb3e 3b16 b53e c729 dc3e
00000040: cf8d acbf fd08 183f 3690 983e 3d35 e63e
00000050: ada5 f63e eeee 013f bc1a 21bf 31fe 7cbf
00000060: 4dde 54bf c79d 6e3e c83b 59bf ee36 0e3f
00000070: 69de 5bbf b178 eabe 97d3 f6bf 114e 53bf
