logs/exp/model_19.pt (torch, 34660 bytes, 12 tensors)

log_std f4 [3]
000000 bf 80 b6 bd 51 0e 3b bc 41 36 4d bd
       -0.08911275 -0.0114169875 -0.05010057

actor.0.weight f4 [64, 24]
000000 c7 e0 ae be 70 50 f7 3c ca 07 0a 3f be 2b 1e bd
       -0.34155867 0.030189723 0.53918135 -0.038615935
000010 8c 77 8d 3d 06 0c bd bd 04 bf c1 bc 4e 77 81 3d
       0.069075674 -0.09230809 -0.023650654 0.06321584
000020 b3 df 3a 3e ce db e4 be 86 23 e7 bc 47 12 92 be
       0.18249397 -0.44698948 -0.028215181 -0.2852957
000030 47 e7 c2 be 9a 50 e4 bc 58 17 74 be d6 85 0f bf
       -0.38067076 -0.027870465 -0.2383703 -0.5606359
000040 dd c1 b0 bd ff ca 41 be 79 8d 38 3e da cd 15 bf
       -0.086307265 -0.18925093 0.18022718 -0.5851723
000050 83 15 13 3d f8 ae 89 be 75 fa 0f be b0 50 2e be
       0.035909187 -0.26891303 -0.14060386 -0.17022967
000060 7c 0d 3d bb 86 70 bb 3d 9a 7f 20 3e b2 d5 bc bd
       -0.0028847149 0.091523215 0.15673676 -0.09220447
000070 b1 bd bb be 08 53 58 3c 52 19 f9 bd 0c 45 05 3e
       -0.3666816 0.01320339 -0.121630326 0.1301462
000080 b0 d2 3b be f5 69 39 bd 4f f9 a5 bd 9f 50 1f be
       -0.1834209 -0.045267064 -0.081041925 -0.15558098
000090 62 4b ce 3d fa 43 7e be f1 24 24 3e f6 e2 2c bd
       0.10072972 -0.24830619 0.16029717 -0.042208634
0000a0 97 05 dd bc 67 05 2a be fc 9f e3 bd 4d e9 d2 bd
       -0.026980205 -0.16603623 -0.11114499 -0.10298405
0000b0 ea 79 82 be 0d e8 aa 3d 28 21 98 3d 75 25 1e 3b
       -0.25483638 0.083450414 0.07428199 0.0024131213
0000c0 2d 64 65 3d 72 03 3e be 20 1e 5f 3e 04 5c 92 be
       0.05600374 -0.18556002 0.21788836 -0.28585827
0000d0 02 27 04 bd f7 4c 35 3e 58 ed 94 3c 1d 6d 9e be
       -0.032263763 0.17705141 0.01817958 -0.30942622
0000e0 ec 18 b0 3e 2b 81 8b bd 9b 1b e8 3d a4 58 11 be
       0.34394014 -0.06811746 0.1133339 -0.1419397
0000f0 12 99 14 3e 73 34 da bd 08 f1 bd 3e ec 73 90 be
       0.14511517 -0.10654535 0.37097955 -0.2821344
000100 8e 0c a6 be e2 bf 04 3d 98 cb 27 be 55 7e 47 3e
       -0.32431453 0.032409556 -0.16386259 0.19481786
000110 8d 7c 0f 3b 20 4e 18 3e fe 18 10 bd a6 8a 2a be
       0.0021894306 0.14873552 -0.035180084 -0.16654453
000120 fd 2b 01 be 2d a9 c9 3e 98 40 d1 bb eb 11 dc bd
       -0.12614436 0.39386883 -0.006385874 -0.10745605
000130 62 3f 76 be c7 08 75 bd 10 cc 78 be e4 d0 e9 be
       -0.24047616 -0.059822824 -0.24296594 -0.45667183
000140 b6 e4 f5 3c 75 01 18 3d 2c 69 73 be a7 f4 29 bd
       0.030016284 0.037110765 -0.23770589 -0.041493084
000150 b0 7e 05 3d c4 b4 d4 3d 5a e8 91 3d 2e 1c d0 be
       0.03259152 0.10386041 0.07124396 -0.406465
000160 e6 d5 29 bd cb d1 1a be c1 25 c9 ba 1b 53 72 bd
       -0.041463755 -0.15119092 -0.0015346335 -0.059161287
000170 6e ca 67 3d 87 a5 9c be 88 f5 0f be 93 d7 1e bd
       0.056589536 -0.30595037 -0.14058506 -0.038779806
000180 0d 16 23 be 3d 4b 32 3d f1 1e 1f 3e b0 d9 5a bf
       -0.1592638 0.043528784 0.15539147 -0.85488415
000190 9a 6b 05 3f bf 24 05 3f 57 b4 bc 3c b7 f1 bc bd
       0.5211731 0.52009195 0.023035211 -0.09225791
0001a0 f3 74 e1 bd 0d ca 1b bd e7 a7 31 bd 25 da 28 be
       -0.110086344 -0.038034488 -0.043373015 -0.16489466
0001b0 3e af 20 be f2 7d e1 bd 52 4b 8e be ff ab bb bd
       -0.1569185 -0.1101035 -0.2779184 -0.09163665
0001c0 91 a3 39 be d2 20 cb bc aa 4f 8a bd 2e e6 96 3d
       -0.18128802 -0.024795923 -0.06753476 0.07368122
0001d0 2f 56 d7 3d de 5b 55 be 5a cf 52 3d 36 48 1f be
       0.10514485 -0.20835826 0.051467277 -0.1555489
0001e0 a0 e8 d0 be 53 80 31 be fc 4d c7 3d 20 7e 0b be
       -0.4080248 -0.17334108 0.09731671 -0.13622332
0001f0 d4 eb d2 be 9b 02 c6 3e 58 bf cc 3d f6 c0 b7 bd
       -0.41195548 0.38673863 0.099974334 -0.08972351
000200 35 cd d3 3c c2 b0 a4 3d 75 97 76 3b 00 84 aa 3d
       0.025854686 0.080415264 0.0037626897 0.08325958
000210 71 9d c8 3d 5d 82 52 3d 66 63 3a 3d 44 51 c2 3e
       0.097956546 0.051393855 0.04550495 0.37952626
000220 7d 34 10 bd 6d b6 52 3e 73 4b 6c 3e 50 c4 c0 bc
       -0.035206307 0.20577402 0.23075657 -0.02353111
000230 c4 21 8e bd 29 ac 2d 3d 20 37 45 3b 7e c0 28 3e
       -0.06940034 0.042400513 0.0030092672 0.1647968
000240 c2 b0 38 3e 11 9f e8 3e 4a cd b2 be 97 85 29 bf
       0.18036178 0.45433858 -0.34922248 -0.66219467
000250 2f d7 69 3e 75 fd 98 3c 50 17 f4 3e 2b ba 8e be
       0.22835992 0.018675545 0.47674036 -0.2787641
000260 92 02 bb 3e c3 c3 ee bd c4 b4 1e 3e 2f d3 54 bd
       0.36525398 -0.11658432 0.15498644 -0.051959213
000270 ef 32 ad 3c 67 44 ab bd 60 e5 af 3e d8 1e 48 3e
       0.021142451 -0.08362656 0.34354687 0.19543016
000280 2c 0b 9e be 3d fe 10 3e c4 07 18 be 50 30 06 be
       -0.30867898 0.14159484 -0.14846712 -0.13104367
000290 ff 8c de bd a7 6f 38 3e b6 d8 84 bd e7 c3 06 3d
       -0.108667366 0.18011342 -0.06486647 0.03290167
0002a0 6a 1a 0d 3e f6 d2 73 bd a9 d3 c2 bd ef c1 7b bf
       0.13779607 -0.05952736 -0.09513027 -0.98342794
0002b0 43 93 af 3d 85 82 bb bd 28 0a 89 be d4 78 4e 3e
       0.0857301 -0.09155754 -0.2676556 0.2016328
0002c0 d6 ae 05 3d 92 d3 19 3e d6 b2 34 3e 5f 55 7c 3e
       0.03263744 0.15022114 0.17646345 0.24641941
0002d0 90 10 1a be 03 f1 58 bd 48 13 f9 3c 61 e9 38 b8
       -0.1504538 -0.05296422 0.030404702 -4.408637e-05
0002e0 f7 b5 ba 3e 66 8a e9 bd 97 69 f5 bd 45 b9 8c bd
       0.36466953 -0.114033505 -0.1198303 -0.06871275
0002f0 3a 9c 69 be 4a 3a ba 3d dd 57 ad be 50 10 81 3e
       -0.22813502 0.09093149 -0.33856097 0.25207758
000300 f4 4b 43 3e 56 1b 0c 3e f0 1a fd 3d b0 ff c5 3e
       0.19071943 0.13682303 0.123586535 0.38671637
000310 40 35 17 3f dd d7 69 3e 6e f1 2b 3e 56 54 11 3e
       0.5906563 0.22836252 0.16791317 0.14192328
000320 68 6f 02 3f 62 e9 44 3e 90 df af bd 75 0b 92 3e
       0.5095124 0.19229653 -0.08587563 0.28524366
000330 af fb 52 3e 47 ae b0 3e 2a 5d d2 bd 99 a0 29 b8
       0.20603822 0.34507963 -0.10271676 -4.0442308e-05
000340 00 e3 20 3c 98 c2 70 bd c8 25 25 3e c7 e6 e1 bd
       0.009819746 -0.05877933 0.16127694 -0.110303454
000350 bc 17 47 3e f2 38 1e bd 17 59 26 be cf 99 31 bd
       0.19442648 -0.038628526 -0.16244923 -0.043359574
000360 94 db ce 3d ce 89 b0 3d 7b e6 84 3d b0 41 21 bf
       0.10100475 0.08620034 0.06489273 -0.62990856
000370 cd 65 18 be 32 ec bc be b2 24 98 3d 2f ca 00 3e
       -0.14882584 -0.36898953 0.07428874 0.12577127
000380 4d c0 47 bc aa 4e 04 be 6f ce 30 be f5 6e 0c 3e
       -0.012191844 -0.12920633 -0.17266248 0.13714202
000390 20 12 e1 bd fd 76 23 3e 87 8a 51 be 5c 9e 8d 3e
       -0.10989785 0.15963359 -0.20463 0.2765988
0003a0 ec 08 39 be b1 cb 91 be cb 99 d9 bd 28 0e 86 3d
       -0.1806981 -0.28475717 -0.10625037 0.06545669
0003b0 04 6c 0e be 45 20 cf 3b 05 a2 32 3e cd 6e 48 3b
       -0.13908392 0.0063209855 0.17444618 0.003058362
0003c0 c2 3e 54 be b1 db 23 be 10 17 78 be de 86 12 3e
       -0.20727065 -0.16001774 -0.24227548 0.1430926
0003d0 fd 51 90 be 56 fb 29 bd b5 35 3d 3e 2e 73 6b 3e
       -0.28187552 -0.04149946 0.18477519 0.22993156
0003e0 51 0b 89 3e 32 64 f0 bd 81 1b be bd 97 d0 0b be
       0.26766446 -0.11737861 -0.0928259 -0.1365379
0003f0 40 84 84 3b 88 a4 6a 3d 82 9e ae 3d 4a d2 3b 3d
       0.0040440857 0.057285815 0.08526327 0.045854844

actor.0.bias f4 [64]
000000 6e 8b 08 3e 6a 80 ab bc 13 84 1a be 7f 76 28 bd
       0.13334438 -0.020935256 -0.15089445 -0.04112863
000010 3d 8a d8 bc 9a 8e 0b 3e f8 5e b6 bd 7b 61 8d 3d
       -0.026433105 0.13628617 -0.089048326 0.069033585
000020 79 7c 9e be 6e ea 73 be dd 0a 8a 3d 9f d0 54 be
       -0.3095434 -0.23819897 0.06740353 -0.20782708
000030 85 a3 a8 bd 3c 0d 71 3e a0 da 81 be 40 bd 86 3d
       -0.08234314 0.23540205 -0.2536211 0.06579065
000040 3d f7 cc 3c cb e6 72 be ba fb 8d bb 9f c0 0a be
       0.025020236 -0.23720853 -0.0043329867 -0.13550042
000050 9c 17 f8 3d c2 5c 19 be 10 55 96 3b 1a e0 18 bd
       0.12113878 -0.1497679 0.004587777 -0.037323095
000060 ce 5a 79 be b9 22 cd be ce 6f 8f be 20 37 50 3e
       -0.24351045 -0.40065554 -0.28014988 0.20333529
000070 d4 3d 80 be 26 76 43 3d d3 26 8a be 13 1d b2 be
       -0.2504717 0.047720097 -0.26982746 -0.34787807
000080 f5 07 3e be f8 ee 66 be 4b d2 50 3b c4 a1 e9 bd
       -0.18557723 -0.22552097 0.0031863626 -0.114078075
000090 5b 2d 06 bf d3 26 af 3d 70 fa 29 be 41 67 a9 bd
       -0.52412957 0.08552327 -0.1659944 -0.08271647
0000a0 90 94 74 bd d3 d0 fc bd ba c3 07 be 43 ec 36 3e
       -0.059711993 -0.123445176 -0.13258258 0.17863564
0000b0 0f 93 e1 bd d0 3e 6e 3e 4e 1a 9d bd 02 24 3e be
       -0.11014377 0.23266149 -0.07671033 -0.18568423
0000c0 f8 dd 07 3c 35 ad 94 be f7 53 bb bc 9e 08 14 be
       0.008292668 -0.29038396 -0.022867186 -0.14456412
0000d0 b7 71 87 be 73 85 6f bd 3c 06 08 be 19 80 f8 3b
       -0.26453945 -0.058476876 -0.13283628 0.00758363
0000e0 23 1b 9e bd 9d 32 ea 3d 7b 5f ce bb a1 72 94 be
       -0.0772002 0.11435435 -0.0062980033 -0.28993705
0000f0 5f 86 4a be f8 fd 9c 3d 8c f5 22 3e 49 89 2f bc
       -0.19777821 0.07665628 0.15913981 -0.010713884

actor.2.weight f4 [32, 64]
000000 3e 4e 44 bd 48 9b 12 3d 09 b4 a1 be db 85 71 bd
       -0.04792618 0.03579262 -0.31582668 -0.058965545
000010 5c 8a 31 3c 7f d7 34 be 75 48 88 be 38 32 2c bd
       0.01083621 -0.1766033 -0.2661778 -0.04204008
000020 77 cb 76 be ad 81 78 be 99 b3 94 bd 32 59 b4 be
       -0.24101053 -0.24268217 -0.07260818 -0.352243
000030 7f 70 30 be b3 3c 5c be c9 a5 a1 be 8f ad 34 be
       -0.17230414 -0.2150753 -0.31571797 -0.17644332
000040 b7 9b dd be 3a a1 fa 3e 21 3a bb be 48 44 12 be
       -0.43282863 0.4895113 -0.36567786 -0.1428386
000050 91 2f 10 3e 24 b5 a9 3d 83 ee 97 3d 44 87 2e be
       0.14080645 0.08286503 0.074185394 -0.17043787
000060 19 d6 a8 3d 2f 52 8f 3c 23 ac 4e 3e 3a b5 df be
       0.08243961 0.017495243 0.20182852 -0.43692952
000070 81 20 77 bd 79 c5 d8 bd c5 b4 bb be 23 35 66 be
       -0.060333733 -0.1058454 -0.36661354 -0.22481208
000080 82 c7 d5 be a8 b8 1f 3e aa a7 4f bd fb 45 60 3d
       -0.41753775 0.15597785 -0.050697006 0.05475424
000090 17 96 21 bd 05 e7 66 be 88 d7 d9 bd 8b 59 5d 3d
       -0.039449777 -0.22549064 -0.106368124 0.054040473
0000a0 24 28 35 bc e0 65 04 3e 5d f8 be bb fb eb 38 be
       -0.011056934 0.12929487 -0.005827947 -0.1805877
0000b0 8e fe 10 be 63 ec 94 be 9a 73 10 3e 7e 24 93 be
       -0.14159605 -0.290866 0.14106598 -0.2873878
0000c0 51 2f 0f be 07 9e 06 be aa 22 ad be 95 3c bf 3e
       -0.13982894 -0.1314622 -0.3381551 0.37350908
0000d0 1c a0 77 bd e2 fb 47 bd c4 d0 18 be 43 d8 72 3d
       -0.060455427 -0.0488242 -0.14923388 0.059288274
0000e0 9c fb 18 3e 1c b9 4a be d6 cf c0 3d fd 55 4f 3e
       0.14939731 -0.19797176 0.094146416 0.20247646
0000f0 e9 f9 07 3e 22 51 c3 be ff cc ac be f8 0f 8d 3e
       0.13278927 -0.38147837 -0.3375015 0.27551246
000100 79 07 b7 be 3d 29 99 3d bc f8 f1 bd e4 2e c1 3d
       -0.3574789 0.07478569 -0.118150204 0.09432772
000110 f7 d5 07 be 87 cc 5d bd 97 8a 62 be 8f b7 27 be
       -0.13265215 -0.05415013 -0.2212318 -0.16378616
000120 75 ce f2 3d 73 d3 ac 3d a2 6a 11 3e 4f e6 80 3e
       0.11855785 0.08438768 0.14200833 0.25175712
000130 b2 4c 17 be e0 b2 85 be eb 26 0c 3d ba 8f e5 be
       -0.1477535 -0.26113033 0.034216803 -0.44836217
000140 0a 0f 2e be a5 bd 79 3e 61 98 15 3e f8 fe c9 3d
       -0.16997924 0.2438875 0.14608909 0.098630846
000150 52 2e 4c be f0 7e 2d 3d e8 f0 2d be e1 eb 62 be
       -0.19939545 0.042357385 -0.1698643 -0.22160293
000160 76 f2 b2 bd cd 36 27 3e e7 f1 77 3e 4a c3 29 be
       -0.08737652 0.16329499 0.24213372 -0.16578403
000170 b6 96 87 bd d0 56 e9 be ce fb da 3c cf ff 3e be
       -0.06620543 -0.45574045 0.026731398 -0.1865227
000180 a6 c7 96 3c 0d b1 28 3e 27 32 9f 3c 61 26 0c 3e
       0.018405747 0.1647379 0.019433094 0.13686515
000190 dd f6 3f 3e 4c 3f 18 3d 8f 5c b3 3e 77 dc 1e be
       0.18746515 0.03716974 0.35031554 -0.15513788
0001a0 03 86 14 be 8f b9 ab be 5c da 75 3e b3 30 15 be
       -0.14504246 -0.33540007 0.24009079 -0.14569359
0001b0 e5 5d 3d 3d e2 c0 48 be 1e 79 00 3e 60 24 06 3b
       0.046232123 -0.19604829 0.12546203 0.0020468459
0001c0 f1 f6 05 3e 4c 74 a2 3d fb 20 4b be d4 37 cb be
       0.13082482 0.07932338 -0.198368 -0.3969103
0001d0 a0 70 aa bc 81 89 55 3e 82 41 a6 3d 75 d5 0c be
       -0.020805657 0.20853235 0.081179634 -0.13753302
0001e0 90 33 1b be 99 32 c5 3d 2f ce af 3b 7a 31 bb bc
       -0.15156388 0.09628791 0.005365155 -0.02285074
0001f0 ec 40 07 3e 6c 0d 29 be 54 20 2b be 85 17 99 3d
       0.1320836 -0.16509026 -0.16711551 0.07475189
000200 fe 33 ec be 06 d1 5d be b6 75 e2 3d 3e e7 d2 bd
       -0.46133417 -0.21661767 0.11057608 -0.10298012
000210 ba 90 94 be 8b 2c 86 3e 37 0f 91 bd 22 72 5d 3d
       -0.29016668 0.2620586 -0.0708298 0.054063924
000220 5b aa 27 be 9b 9f 43 be c5 93 47 be 2b 90 9f be
       -0.16373579 -0.19103853 -0.19489963 -0.3116468
000230 3d c1 09 3e 8f 02 7a be e2 9b 7a be 55 97 9a be
       0.13452621 -0.24415039 -0.24473527 -0.30193582
000240 4e 31 ce bd ee aa 71 3d 36 e2 79 3d b6 39 f9 bc
       -0.10067998 0.059000902 0.061006747 -0.030423027
000250 c0 c1 3e be fc 4d 9e 3e e2 f8 23 be 98 40 26 bd
       -0.18628597 0.30918872 -0.1601291 -0.040588945
000260 65 1f c8 be 8d c3 35 3d 85 a7 47 bd 8a dd ed 3d
       -0.39086452 0.044375945 -0.048743743 0.11614521
000270 9c a2 12 be 0a d3 cc bd 9a 33 28 be 42 29 34 be
       -0.14319843 -0.1000119 -0.16425934 -0.17593864
000280 72 e5 46 3d 8a 0d db bd ea dc de bb 77 47 0d be
       0.04855866 -0.10695942 -0.0068012374 -0.13796793
000290 c4 b7 82 3d 78 a5 ef 3d 08 c1 40 3d 27 4d ca bd
       0.06382707 0.117014825 0.04705909 -0.09877997
0002a0 f6 f2 26 bb 3d 7b 91 bd 7e 5f 83 bb eb f4 3d 3e
       -0.0025474406 -0.07103584 -0.0040091863 0.1855046
0002b0 f3 d8 ff be 64 b4 92 bc fd 89 e4 3d 41 d6 5f 3e
       -0.49970207 -0.017908283 0.11159132 0.21859075
0002c0 64 31 35 3e 68 e5 ec bd 49 e8 fd bd d0 ec f7 3e
       0.17694622 -0.11567193 -0.123978205 0.4842286
0002d0 f3 d3 18 bd 0f d5 8c be b5 ae 14 3d 66 21 61 bd
       -0.037311506 -0.275063 0.036299426 -0.05496349
0002e0 b3 da a0 3e 02 92 1e be e7 b7 26 be 8a 79 07 3e
       0.31416854 -0.15485385 -0.1628109 0.13229957
0002f0 40 5d 64 3e 26 8a 2a bc 78 27 e9 3d 05 d3 b2 be
       0.22301197 -0.010408914 0.11384481 -0.3492662
000300 ca 8c 17 3d cb a9 cb bd 90 1d cc 3d c3 68 8a bd
       0.0369995 -0.09944495 0.09966576 -0.06758263
000310 12 b8 ce 3d 81 8f cc ba 81 ea c2 3e 04 67 c9 3d
       0.100937024 -0.0015606732 0.38069537 0.09834102
000320 5a 50 8d 3e e1 b3 dd be 9e fb 28 be a3 10 61 bb
       0.27600366 -0.433013 -0.16502234 -0.0034342192
000330 a0 3d 67 be 6e a4 be be dc 72 b3 bd 94 53 6a be
       -0.22582102 -0.37234825 -0.08762142 -0.22883445
000340 82 85 7d bd cd 5f 6a bd 66 05 28 be 83 9b 96 be
       -0.0618949 -0.05722027 -0.1640831 -0.2941552
000350 93 d1 c0 be 01 80 1c be dd bf 12 be 20 ff 36 3d
       -0.37659892 -0.15283205 -0.14331003 0.0446769
000360 ee 91 b5 3e 7e d5 99 3e d8 6d 2f 3e 10 b9 3a 3e
       0.35462898 0.30045694 0.17131746 0.18234658
000370 19 fc 88 bc 70 c1 89 be 03 d2 64 be af 13 74 be
       -0.016721772 -0.26905394 -0.22345738 -0.23835634
000380 bc 2a 8c 3e 17 45 d9 bd ae 39 14 be 7c 55 f7 bd
       0.27376354 -0.10608881 -0.14475128 -0.12076852
000390 8d da d6 3c 2e a2 01 bf 3c 59 63 be e8 09 b5 3d
       0.02622726 -0.5063809 -0.22202009 0.0883978
0003a0 82 e1 d8 bd 16 c3 92 3d b5 cc 42 3d 7f 63 07 3e
       -0.10589887 0.07166116 0.047558505 0.13221548
0003b0 d5 4a a4 be 08 e7 e4 bb 61 ee 2b 3e 81 ee 99 bd
       -0.32088342 -0.006985549 0.16790153 -0.07516194
0003c0 ac bd 75 3d c7 70 1d be 03 f7 d6 bd e6 e5 b3 be
       0.05999534 -0.15375052 -0.104963325 -0.35136336
0003d0 b1 15 bf 3d 35 6f 51 be 47 fd 9d 3d 07 a6 9c bd
       0.09330309 -0.20452578 0.077143244 -0.07648855
0003e0 02 8d 7f 3e 81 68 eb 3d df 62 06 3e 95 4f 11 3d
       0.24956134 0.11494542 0.13123654 0.035476286
0003f0 a4 ce 32 3e d8 66 05 3b 30 b1 c6 be 58 f7 d8 bc
       0.1746164 0.002035549 -0.38807058 -0.02648513

actor.2.bias f4 [32]
000000 37 40 ff bd 9b 49 c7 bd 6b c2 f9 bd b3 73 66 be
       -0.1246342 -0.09730836 -0.121952854 -0.22505073
000010 75 ce 46 bd 35 80 a3 3c aa 88 1e be 11 35 8c 3d
       -0.048536737 0.019958595 -0.1548182 0.06846059
000020 a5 a0 36 3d 39 15 aa ba 0c e4 e6 3c fc fe f8 bd
       0.044586796 -0.0012976296 0.028184913 -0.121580094
000030 20 94 e7 bd cb 7b e8 3d 50 13 55 bd 78 65 f0 bb
       -0.113075495 0.11351737 -0.05202037 -0.007336315
000040 8c b6 1f 3c a7 d3 1e be 0c f6 cd bd 9c 3f ea bd
       0.009748112 -0.15510426 -0.10056695 -0.11437914
000050 a0 fd 4d be 91 42 2b be 83 cb dd bd f9 10 4c 3d
       -0.20116282 -0.16724612 -0.108298324 0.049820874
000060 df b4 23 be 10 d6 8e bd e8 f7 5a be dd ed 24 bc
       -0.15986966 -0.06974423 -0.21383631 -0.010066477
000070 65 7e 55 bd d7 a9 e8 bd c3 d5 c9 bd 9f b8 5c bd
       -0.052122492 -0.113605194 -0.09855225 -0.053887006

actor.4.weight f4 [3, 32]
000000 54 c5 50 bc d2 c9 a4 bc 7f 44 32 bd ce 79 2e 3d
       -0.012742359 -0.020115767 -0.043522354 0.04259663
000010 65 cf 09 bd f1 92 e7 3c 91 a2 e3 3d f1 9d 74 bc
       -0.033645052 0.02826831 0.111149915 -0.014930234
000020 4a aa e9 bc 56 3f 68 3c 25 70 0b bd 3c e5 d3 3a
       -0.028523583 0.014175257 -0.034042496 0.001616634
000030 c4 e2 0c bd ef 69 dd bb 9a 0f 00 bd d2 8d 34 3d
       -0.034395948 -0.006757013 -0.03126488 0.044080563
000040 58 b1 5d bd 79 44 9b 3a 01 b0 3a 3c 36 1e da 39
       -0.054124206 0.0011845968 0.011394502 0.0004160271
000050 6d e9 64 3d 6e f6 cb bc ab 0d f3 bd 7d 58 e1 bd
       0.055886675 -0.02489778 -0.11867841 -0.11003206
000060 62 c1 a7 3c c5 e9 14 3d 59 32 5f 3d f3 23 a0 bb
       0.020477954 0.036355752 0.054491375 -0.004887098
000070 23 5a 12 ba c8 44 a9 3c 92 a5 6b 3c 20 c6 54 bc
       -0.00055828894 0.02066268 0.014382737 -0.01298669
000080 c6 6f 4e 3d 9c c6 85 3c 12 4d 99 3a 65 9d 39 bd
       0.050399564 0.016330056 0.0011695942 -0.04531612
000090 e6 4b b5 bc 18 59 be 3c 9e 5e 0b 3d 69 5d e5 3c
       -0.022130918 0.023235843 0.03402578 0.027998643
0000a0 8f fe 3b bc 68 0c 86 3c e3 0e 61 3d 16 12 69 3b
       -0.011474266 0.016363338 0.054945838 0.0035563759
0000b0 9d fc 23 3d 03 5a 5b ba 8a 3d 3b bd 9f 9d 1d 3d
       0.040035833 -0.00083676 -0.045712985 0.038480397
0000c0 e3 18 5b bc 94 7a 67 bc 32 cb 01 3d 06 31 9a bc
       -0.013372633 -0.014128346 0.031687923 -0.018822204
0000d0 2f 79 09 bd 9b 4c 1b bd ea a5 04 bc 7a 71 30 3c
       -0.033562835 -0.037914854 -0.008096198 0.010769242
0000e0 06 a3 4f b9 b4 35 3a bd 42 33 2f bd 6c 59 78 3c
       -0.0001980179 -0.04546137 -0.042773493 0.015158039
0000f0 c5 c8 7a 3c cd 6f 11 bd a0 82 0a 3d 4c 42 2a bd
       0.015306656 -0.035507012 0.03381598 -0.041567132
000100 39 87 a4 bd 05 f6 ae bc cb 71 91 3c 87 23 72 3d
       -0.08033604 -0.021357546 0.017754456 0.059115913
000110 cf 33 6d bc c4 6a 31 bd 7c 6a 9d 3c 65 8e 99 3c
       -0.014477684 -0.04331471 0.019215815 0.018744657
000120 6a ae 33 3d 0f 5b 94 bb fc 08 3c bd d2 d3 9a 38
       0.043867506 -0.0045274566 -0.045907006 7.382747e-05
000130 7d 4c 5f bc 27 73 b7 3c e6 7b 5b bc 8d d1 c5 bc
       -0.013629076 0.022393776 -0.013396239 -0.024147773
000140 df 43 09 3c 3b 16 75 3a bf 6e 50 ba 1c dd 74 3b
       0.008377998 0.0009349321 -0.0007951073 0.0037363237
000150 e7 af 41 3c 25 c1 dd 3c 73 3c 2a bc 2e 54 05 3d
       0.011821724 0.027069638 -0.010390389 0.032550983
000160 9c 75 9c bb 8a e0 92 bb 7f de 9c 3b f3 ba 30 bd
       -0.0047747623 -0.0044823335 0.004787266 -0.04314704
000170 6e 30 1f bc b0 ba 85 bc fa b5 7d 3b 96 36 32 3d
       -0.009716136 -0.016324371 0.0038713203 0.04350909

actor.4.bias f4 [3]
000000 61 03 ff 3d ca a0 63 bd 46 88 23 3e
       0.12451816 -0.055573262 0.15969953

critic.0.weight f4 [64, 24]
000000 ab ff be be 6d f9 03 3c 86 8f 50 bf a7 85 29 be
       -0.37304434 0.008055073 -0.81469 -0.1655489
000010 53 dc a0 3e c8 54 45 3f 0d c0 8f 3e 67 e0 f0 3e
       0.31418094 0.7708249 0.2807621 0.47046205
000020 9f 45 7e bc 9a 46 c5 3e 47 d5 80 3e 56 bc d2 3e
       -0.015519529 0.38530427 0.25162718 0.41159314
000030 30 f6 5f 3e e9 ac e6 3e e9 4a 60 3e 2a 47 6b bd
       0.21871257 0.45053795 0.21903576 -0.057440914
000040 9e 27 83 3e 90 df a4 3e 16 3a 3a be 74 cb 9a be
       0.25616163 0.32201815 -0.1818622 -0.30233347
000050 aa bf 32 bd 7a 4f f8 bd 61 d2 5c 3e e0 79 84 be
       -0.043639816 -0.12124534 0.21564628 -0.25874233
000060 62 84 b3 be 04 d5 5a 3c 8d ae ca 3e 78 f8 f0 be
       -0.35061938 0.013356451 0.39586297 -0.47064567
000070 e5 9f 78 3f 1a 5f c0 be f5 6e df 3e 87 7b 35 bf
       0.9711898 -0.37572557 0.4363934 -0.7089161
000080 d4 61 1c 3f 39 8c 1c bf b9 7d 2b 3f 43 b8 60 bf
       0.61086774 -0.6115146 0.6698871 -0.8778116
000090 73 a7 27 3f b3 a1 0b bf 45 a9 d9 3e e0 dc 78 bf
       0.6548988 -0.5454361 0.42511955 -0.9721203
0000a0 2b 24 fb bc 97 c9 f5 be e9 4b 98 3d eb 3c 10 bf
       -0.030656895 -0.48005363 0.07436354 -0.56342953
0000b0 83 f8 8f 3e 04 43 16 bf da e0 7b be af db 21 bf
       0.28119287 -0.5869601 -0.24597493 -0.63225836
0000c0 2e c3 97 be 34 46 e7 3d 69 86 27 bd 56 fa e5 be
       -0.29641098 0.11292687 -0.040899668 -0.44917554
0000d0 e4 c1 8e bf 21 3e b6 be f2 53 2f bd be 72 8b 3e
       -1.1152921 -0.35594276 -0.042804666 0.2723598
0000e0 5c e5 93 3e a1 6e 09 3f c6 90 f5 3e a6 ed 17 3f
       0.28885925 0.5368443 0.47962016 0.59347
0000f0 37 42 d4 bc 14 9e 73 3f fd 50 c7 3e ba e8 fb 3e
       -0.02591048 0.95163083 0.38928977 0.49200994
000100 55 18 75 3e 91 02 f0 3e c6 5a a9 3e b5 64 25 3f
       0.23935063 0.46876958 0.33077067 0.6460679
000110 6c 88 1f 3d 97 01 09 3f 50 b0 c4 3e f0 91 ce 3e
       0.03894846 0.5351805 0.38415766 0.40345716
000120 a6 16 cf 3e 05 e9 37 3d 96 42 f0 bd 5a 6e a0 be
       0.40446967 0.04489996 -0.1173145 -0.31334192
000130 97 7b af be 58 12 46 bf 02 74 5e 3f d6 0f 61 bf
       -0.3427398 -0.7737174 0.86895764 -0.8791479
000140 a5 2c 7c 3f a6 49 48 bf 9c c4 45 3f 52 db b4 be
       0.9850562 -0.7823738 0.7725313 -0.35323578
000150 c2 74 1b 3f 91 34 16 bf 3f 1d a0 3e f8 f8 b6 be
       0.60725033 -0.5867396 0.31272313 -0.35736823
000160 7f 0a e0 3e e8 07 46 bd f6 42 62 3e 2e 76 64 be
       0.43758008 -0.048347384 0.22095856 -0.22310707
000170 0d 1e f2 bd c1 e8 9c be d1 b9 0e 3f c9 e6 b1 bd
       -0.11822138 -0.30646327 0.55752283 -0.08686597
000180 53 a1 13 bf 17 9e 58 be 26 8e 39 bf b7 7e 02 3d
       -0.57668036 -0.21154056 -0.72482526 0.031859126
000190 61 cb 95 be ba 26 7e 3f 27 96 28 3e db 26 9c 3f
       -0.29256728 0.9927784 0.16463529 1.2199358
0001a0 44 96 4f 3e 80 97 7b 3f 7d 7b 9c 3e e2 f0 8b 3f
       0.20272166 0.98278046 0.30562964 1.0932887
0001b0 1a 07 0f 3f 1e 8a 36 3f 14 d7 4d 3f 05 e7 60 3f
       0.5587021 0.713045 0.8040631 0.8785251
0001c0 71 a7 35 3f 44 ca b0 3e 45 9a 8a 3e 61 77 39 3f
       0.7095862 0.34529316 0.27070823 0.7244778
0001d0 bf e1 49 3f cd d8 25 3f 56 46 16 3f 1a 28 97 3e
       0.78860086 0.64783937 0.58701074 0.29522783
0001e0 2b a0 6a 3e 15 ef 3e be 7d 1f ef bc d8 c9 33 3e
       0.22912662 -0.1864589 -0.02918982 0.17557466
0001f0 80 45 ae bf 45 7b 73 bc 8e 29 d4 be d6 50 f2 3b
       -1.361496 -0.014860933 -0.41437954 0.0073948903
000200 cb 39 6d bd a9 5a a4 be bf 28 76 be 4f 6a b2 3e
       -0.057916444 -0.32100418 -0.24038981 0.34846732
000210 9f 26 aa be b3 8a b6 3e e4 d4 65 3c 6c 1f 97 3e
       -0.3323259 0.35652694 0.014027808 0.2951616
000220 c0 3c 95 bd 2c 26 9b 3e 42 1f c4 bb 43 80 84 3e
       -0.07286978 0.3030256 -0.0059851715 0.25879106
000230 18 2f cd 3e 2b c3 72 3d 1f 90 8d 3e 5c c1 99 3e
       0.40074992 0.059268158 0.27649018 0.30030334
000240 38 75 cf 3e 6e e2 4e 3e da 7c 05 bf d9 be 25 3d
       0.40519118 0.20203564 -0.52143633 0.04046521
000250 58 56 9e 3d d3 d1 17 3f 4f a9 24 bf f5 e3 d2 3d
       0.077313125 0.5930454 -0.64320844 0.102973856
000260 86 b4 d2 be 3d 5b f4 bd 7d 6f 0b bf f0 b2 93 be
       -0.41153353 -0.11931465 -0.5446699 -0.28847456
000270 fa ee 15 be ee c5 8e be d2 a6 2e be 8b 35 ed be
       -0.14641944 -0.27885383 -0.17055824 -0.46329913
000280 b2 9d b4 bd b3 ea c0 be 96 96 b0 bd 7e 1d a3 be
       -0.088191405 -0.3767906 -0.08622472 -0.31858438
000290 ab d6 95 3c 19 f7 e4 be b2 a3 63 be 0a 9e d2 be
       0.018290838 -0.4471977 -0.22230414 -0.411362
0002a0 5d b2 d6 3d ae 78 76 3e 0d 6c ef be 89 e8 c1 be
       0.10483239 0.24069473 -0.46762124 -0.37872723
0002b0 a1 99 90 bf 61 f4 dc be 53 56 8f be 49 bc 83 bf
       -1.1296884 -0.43155196 -0.27995548 -1.0291835
0002c0 6d 8a 93 bd 0f d2 48 bf cc 35 0e 3f 8e f7 75 bf
       -0.07204137 -0.78445524 0.5555084 -0.96080863
0002d0 96 68 70 3e 03 e7 5d bf bb 6f 4a 3e 12 31 bb bd
       0.23477396 -0.8668062 0.19769184 -0.09140219
0002e0 d9 14 b9 3e 7a 46 0b bf 3d 89 e3 3e ed c8 97 be
       0.36148718 -0.54404414 0.44440642 -0.29645482
0002f0 d0 17 b5 3e 8e f1 30 bd 1d 8b 0d 3e 45 8c 3b bd
       0.3536973 -0.043199115 0.13822599 -0.04578807
000300 99 53 09 bf ce ba 85 bd 74 c2 84 3e ab 0f 93 bf
       -0.53643185 -0.06529771 0.25929606 -1.1489156
000310 c4 cf 31 be ab 3a 40 c0 2e 36 d5 3e 32 6a a1 bf
       -0.17364413 -3.0035808 0.41642898 -1.2610533
000320 f9 ba e3 3e b2 5f f5 be 61 2b 1b 3f b7 4c 0b be
       0.44478586 -0.47924572 0.60613066 -0.13603483
000330 f5 a4 89 3d af 47 27 3e e2 8e ab 3e b1 ee d4 3e
       0.06720916 0.16335939 0.33507448 0.41588357
000340 6c 4f 83 3d 3e 81 68 3d bd 98 88 bc c2 89 49 3d
       0.06411633 0.05676388 -0.016674394 0.04920364
000350 0c 5d 08 3e 79 17 41 3e bd 33 9f 3d c4 23 d6 3e
       0.13316745 0.1885661 0.0777354 0.41824162
000360 c2 24 2c 3e b6 19 4e be d3 a8 9e 3c d6 43 c8 bd
       0.16810897 -0.20126995 0.019367611 -0.09778564
000370 a0 44 a6 bc a8 a5 00 3f e8 c8 35 bf 7a 48 98 bc
       -0.020296395 0.5025277 -0.71009684 -0.018589247
000380 dd b5 84 be dd 35 4b be f9 fd c7 be 02 25 08 3e
       -0.2592 -0.19844766 -0.39060953 0.13295367
000390 ab 8a bd be 29 05 2f bd 34 b2 79 be d9 f3 be be
       -0.37019858 -0.04272953 -0.24384385 -0.37295416
0003a0 83 d3 a8 3d 04 c5 fa be 26 5f a1 bd a3 4e 82 be
       0.08243468 -0.48978436 -0.07879476 -0.2545062
0003b0 58 e2 4c be e3 2e 21 be 88 34 bb 3b 56 3e b8 bd
       -0.20008218 -0.15740542 0.0057130493 -0.08996265
0003c0 86 64 ce 3e f0 b8 22 be 4a 22 a9 be fa 7c ec 3e
       0.40311068 -0.1589086 -0.33033973 0.461891
0003d0 d0 16 01 3f 1f 37 3b 3f 12 74 b6 bd c7 86 d7 bd
       0.50425434 0.73130983 -0.089088574 -0.105237536
0003e0 4d 01 b6 be 7b de 8c be 6a 28 88 be 7e 45 06 be
       -0.35547867 -0.2751349 -0.26593333 -0.13112447
0003f0 4d ee b1 be e0 42 9f be b7 0e 50 be 62 0e a0 be
       -0.34752122 -0.3110571 -0.20318113 -0.31260973

critic.0.bias f4 [64]
000000 f5 f5 fc be 39 ba bb be 89 b5 86 3e 81 69 17 3e
       -0.494064 -0.36665514 0.26310375 0.1478634
000010 e5 0a 72 be a1 03 a3 3e a2 e0 26 be fd e2 d5 3e
       -0.23636968 0.31838706 -0.16296628 0.4177474
000020 a4 b2 bd 3e fe a1 4f 3e 7a c1 c6 3e c0 a3 e2 be
       0.37050354 0.20276639 0.38819486 -0.44265556
000030 4d 13 a0 3e 3c 4c 2f 3e a7 a3 26 3e a3 31 7a be
       0.31264725 0.17118925 0.16273366 -0.24432997
000040 27 79 fb 3e 35 2a 73 3e e2 37 5c be 30 88 79 bf
       0.4911587 0.2374657 -0.21505693 -0.9747343
000050 38 a0 f8 be f6 ed 3d bf 65 2b ef 3e 27 29 7b 3d
       -0.48559737 -0.74191225 0.46712795 0.061318543
000060 d4 65 c4 be 16 06 04 bd 37 f3 08 bc 5e 4b 33 bf
       -0.3835894 -0.032232367 -0.008358768 -0.70036876
000070 43 9d 45 bf 71 b0 37 bf eb 2a 21 bf b4 06 2b 3e
       -0.7719309 -0.71753603 -0.6295611 0.16701776
000080 b8 3c 28 be de 56 0d 3e 26 77 b5 3e 1b a5 da be
       -0.16429412 0.13802668 0.35442466 -0.4270409
000090 b7 17 8d bf fa 7f 46 3e fc 85 d9 3c ad 84 08 3f
       -1.1022862 0.19384757 0.026553147 0.5332745
0000a0 4b d9 b6 3e bf 8a 45 bf ab f5 d8 be 5a b0 c9 3d
       0.35712656 -0.77164835 -0.4237493 0.098480895
0000b0 33 01 9d 3e f3 d1 44 3e c5 af c3 bd 70 55 8a 3d
       0.30664977 0.19220714 -0.0955501 0.06754577
0000c0 08 1a 6c bf 0d 88 4d 3d c5 a8 27 be 29 f5 f0 be
       -0.9222722 0.050178576 -0.16372974 -0.47062042
0000d0 cd bd 8c 3e b2 55 51 3e b6 07 a1 bd 1e 8c 26 3e
       0.27488557 0.20442846 -0.07862799 0.16264388
0000e0 74 9c cd 3e 20 b9 ca 3e af 74 9b 3e 48 a9 84 3e
       0.40158427 0.39594364 0.3036246 0.259104
0000f0 55 9e 21 bf 41 ba 1a 3e 82 1b 2f 3d c2 2b 80 bf
       -0.6313222 0.15110113 0.042750843 -1.0013354

critic.2.weight f4 [32, 64]
000000 3d e2 25 be 4d 4f c3 bd 28 15 0f bd a7 e6 5b be
       -0.16199584 -0.0953661 -0.034932286 -0.21474706
000010 ac b1 d7 bc e6 22 17 3e 7f 62 82 be 68 b0 c3 be
       -0.026329838 0.14759406 -0.25465772 -0.38220525
000020 19 a6 86 3e f5 45 19 be c7 8c a2 be 8e ea cf bd
       0.26298597 -0.14968093 -0.3174803 -0.1015216
000030 37 6c c6 be ba 0a b0 be 8f ae 13 bf e6 ab 39 3e
       -0.38754436 -0.34383184 -0.5768823 0.1813198
000040 33 b3 07 bf a3 a3 ab be 06 7f 19 be d5 ed 36 be
       -0.5300781 -0.33523282 -0.14989862 -0.17864163
000050 36 63 3a 3e 4a c8 55 3e bc 67 14 bf ff 7d ab 3d
       0.18201908 0.20877185 -0.57970786 0.08373641
000060 cb 4e 8a be 62 a5 88 be c2 9d 8a be db da ce bd
       -0.2701324 -0.26688677 -0.27073485 -0.10100337
000070 db 9b ad 3c 8d 3e b3 3d 30 87 27 3d 2e 35 a5 be
       0.021192482 0.08752165 0.04090041 -0.32267135
000080 c8 4a 34 bd bf c4 be be 87 7b dd be de 2d aa bc
       -0.04401663 -0.3725948 -0.43258306 -0.020773824
000090 96 d6 d0 bc ac 6d 66 bd 4c 08 b2 be f8 bf c7 be
       -0.025492948 -0.056256935 -0.34771955 -0.39013648
0000a0 b1 2a 49 be 86 2f 79 3e f7 0c bc be 83 33 b3 be
       -0.19645192 0.24334535 -0.3672864 -0.35000238
0000b0 39 b8 a8 3d ab 7b ee 3c 72 03 76 3e b5 c2 15 be
       0.08238263 0.029111704 0.24024752 -0.14625056
0000c0 c1 bb d5 3d ea fd cc be dd 69 c4 bd 49 86 20 bc
       0.10436202 -0.4003747 -0.09590504 -0.009797641
0000d0 bf be af be e9 13 f3 bd 7d f7 91 be 33 3e b9 3c
       -0.34325215 -0.11869032 -0.2850913 0.022612667
0000e0 a9 d3 34 be 18 30 89 bc e8 ef fc bd 43 82 d8 bd
       -0.17658867 -0.016746566 -0.12350446 -0.105717205
0000f0 da 8e d4 3c c1 77 d4 bd 35 e6 4d be 3a 45 a2 3e
       0.025947023 -0.10374404 -0.20107348 0.3169344
000100 ea ca 03 bf 84 c1 82 3e 73 68 07 3e bb 64 00 bf
       -0.514815 0.25538266 0.13223438 -0.501537
000110 e0 d6 d9 be c0 48 d9 bf 73 89 47 bf 78 96 bd bf
       -0.4254675 -1.6975327 -0.77944106 -1.4811544
000120 f3 f8 6a 3e 1c d5 ba 3d 82 1d 7d be b1 45 89 bd
       0.22946529 0.09122679 -0.24718288 -0.06702746
000130 b5 48 05 bf 32 cb b5 be 54 ea e6 be ed 44 fd be
       -0.5206407 -0.35506588 -0.45100653 -0.4946665
000140 3c aa 01 bf 39 71 bd bb aa 5f d8 3c 1b 1e d5 3d
       -0.5065038 -0.0057813195 0.026412804 0.10406133
000150 89 7c fa 3e 95 72 60 3e ae d1 3e bf 5e 82 dc 3e
       0.48923138 0.2191871 -0.74538696 0.43068212
000160 a5 fb f8 3d 4a 77 67 bf 69 5d 66 bf 57 33 63 3e
       0.121573724 -0.90416396 -0.8998628 0.22187553
000170 a2 c5 47 3f 15 70 f3 be 25 4c 66 bb fe 9d 43 bf
       0.7803594 -0.4754645 -0.00351406 -0.7641295
000180 94 82 9e 3d f3 2c d1 3b 5f 86 85 bf a1 10 41 3e
       0.077397496 0.006383532 -1.0431632 0.18854
000190 21 f6 71 be d9 5c 52 bf 29 2b 2b 3d d0 6b d7 be
       -0.23629047 -0.82172924 0.041789208 -0.42074442
0001a0 80 84 5e be a9 0c 0f 3f 2b 80 a4 bf 08 a5 9c 3e
       -0.21730232 0.5587869 -1.2851614 0.3059466
0001b0 d4 d2 2f 3e 4e 3b ee be b8 b5 2e bd 00 0b 3d 3f
       0.17170268 -0.4652962 -0.04265377 0.7384491
0001c0 63 8e 0b be fe 1f fa be 16 ef c3 3e 30 8c d6 3e
       -0.13628535 -0.48852533 0.38268346 0.4190383
0001d0 51 6e ad bd fb 2f 56 be 11 24 a5 3f 50 50 ac bf
       -0.08468307 -0.2091674 1.2901632 -1.346201
0001e0 8e c9 a6 bc 1a 49 7e 3e 47 e1 d1 3c 01 e3 e4 3e
       -0.02035978 0.24832574 0.025620116 0.4470444
0001f0 58 8f 19 be af e2 b3 be 63 6a e1 be 58 f0 b3 3e
       -0.14996088 -0.35133883 -0.4402648 0.35144305
000200 76 76 5d be d7 4f 4a 3e 61 ac 0c be 69 37 df 3e
       -0.2162722 0.19757019 -0.13737632 0.43596962
000210 bb e3 23 bf d3 0f b8 3c 07 d3 ad be a0 76 0a 3f
       -0.64019364 0.022468483 -0.33950064 0.5408726
000220 86 89 94 bc b3 89 ec bd bf e5 af 3e b8 39 c1 be
       -0.018131983 -0.115497015 0.3435497 -0.37739348
000230 7e 3e 7a bc b6 a7 36 3e aa 69 b3 3d 1a b1 93 be
       -0.015273688 0.17837414 0.08760388 -0.28846055
000240 ec 81 ff be c2 47 f9 bd ab b6 8c 3e b1 87 de be
       -0.4990381 -0.1217189 0.27483115 -0.434629
000250 b2 02 44 3e 29 ca c2 be 6e 3b 68 3e 8a 9f 8e 3e
       0.19141653 -0.3804486 0.2267892 0.27856094
000260 1f 7d 32 3e 16 ac 6d be 87 dd 89 be 5d ee 03 bf
       0.17430542 -0.23210177 -0.26926824 -0.5153559
000270 70 43 b4 be 39 06 8e bd b7 de 2d 3e 0e da c8 3e
       -0.352077 -0.06934781 0.1697949 0.39228863
000280 2a 4c 52 3c 2e 03 c5 3e 41 35 cd 3e d3 ba ed bd
       0.012835542 0.38478988 0.40079692 -0.116078995
000290 f8 7d 8c 3f 37 77 6d 3e fc ab 05 3e 7e b3 89 3e
       1.0975943 0.23190008 0.13053888 0.26894754
0002a0 3b 18 68 3e 18 b7 bf be 19 87 93 3e 4c 07 d8 3e
       0.22665493 -0.37444377 0.2881401 0.42193067
0002b0 6e 63 15 3d b7 e6 71 3d 12 9f 17 be 55 e4 20 bf
       0.036471777 0.059057917 -0.14806774 -0.6284841
0002c0 2d cb 4c be 42 fc d0 bd 5c 43 06 3e ab b2 64 be
       -0.1999938 -0.10204364 0.13111633 -0.22333781
0002d0 2d fd a4 bc 49 fa 67 3e 70 f7 35 bf 8d bd 7a 3e
       -0.020140255 0.2265407 -0.71080685 0.2448637
0002e0 6a 5a bb 3e 1b 5b 5d be a7 41 89 3e 0e 07 df be
       0.36592418 -0.21616785 0.268079 -0.4356007
0002f0 03 20 b0 3e af c2 e9 3e 13 0f 3b 3c 8d e4 44 bf
       0.34399423 0.45656344 0.011417168 -0.7691124
000300 9f f4 97 be 10 81 c2 bc d2 ed 2e 3e 06 5b 21 bf
       -0.2967882 -0.023743182 0.17082909 -0.63029516
000310 18 88 88 bf 68 b0 ff be 61 a1 73 3e 96 c4 69 be
       -1.0666533 -0.49939275 0.2379203 -0.22828898
000320 0d c5 5d 3e 0e 79 3b be b9 0d 91 bd fd ee 49 3e
       0.216572 -0.18307897 -0.070826955 0.19720073
000330 bb c7 8e 3e 64 65 62 3e ba ba c0 bd 4a 66 4b bf
       0.27886757 0.2210899 -0.09410615 -0.79452956
000340 d5 6c 9c be 90 c4 62 3e 03 ce c7 3d 8e 59 92 bf
       -0.30551782 0.22145295 0.097560905 -1.143358
000350 70 b3 c3 be 07 9b 34 bf 55 81 82 3e 0b c6 2d 3d
       -0.38222837 -0.7054905 0.25489298 0.042425197
000360 3e cd 0f 3f cf bc 38 3d 42 91 8d bd c4 08 56 bf
       0.5617255 0.045101937 -0.06912471 -0.83607125
000370 d8 e7 22 bf f2 14 b6 be 21 86 fe bc 9e 18 90 bd
       -0.63635015 -0.35562855 -0.031069817 -0.07035945
000380 02 2e 31 3d 7c 20 05 3f 8a ae d6 3e 50 13 0b bf
       0.043256767 0.5200269 0.41930038 -0.54326344
000390 5f d9 98 be ea c0 88 3e e9 a1 f6 3c e4 c9 99 bd
       -0.2985334 0.26709682 0.030106502 -0.07509211
0003a0 b6 95 6f be a2 0d 47 bf cc bd 3f be fa 1e 2a 3e
       -0.23396954 -0.7775518 -0.18724746 0.16613379
0003b0 8d bb ca 3e 11 a3 1b be 1d 4f 69 bd 36 75 9d be
       0.39596215 -0.15198924 -0.056960214 -0.30753487
0003c0 fb 47 65 bf a7 0d 04 be c6 4f b8 3e fe a7 32 bf
       -0.8956296 -0.12895833 0.35998362 -0.69787586
0003d0 d3 78 00 be fc 57 de be 8a dd 56 bf dd 7e a0 be
       -0.12546091 -0.43426502 -0.8393179 -0.3134679
0003e0 b0 0a fd 3d 9a 35 7c bd 70 42 82 bd 66 a1 8a be
       0.12355554 -0.061574556 -0.06360328 -0.27076262
0003f0 fb b2 44 bf d1 ad 6b 3e cc 58 ed 3d ba b4 99 bf
       -0.768356 0.23015524 0.11589202 -1.2008278

critic.2.bias f4 [32]
000000 6c d3 af be cd e1 ee bd 4b 82 77 3e df 76 98 3e
       -0.3434099 -0.11664162 0.24170797 0.2977819
000010 ac 6f 84 3e 15 52 9a 3e 8d 3d 22 3e b9 51 c6 bd
       0.2586645 0.3014075 0.15843792 -0.09683556
000020 1b b9 c5 3e 36 7c 00 3f a5 b2 b3 bd 95 cb 41 be
       0.38617787 0.5018953 -0.08774308 -0.18925317
000030 b2 6d d5 3e 26 64 83 3e 14 53 bf 3e 3c 35 3b 3e
       0.41685253 0.25662345 0.3736807 0.18282026
000040 93 a0 10 be 73 2c aa 3e 4d a1 91 3e 12 63 c9 3e
       -0.14123754 0.33237037 0.28443375 0.39333397
000050 b6 2c e5 3e 44 c7 5b 3e 76 b5 98 be a8 cc 3c be
       0.44760674 0.21462733 -0.29825944 -0.18437445
000060 41 90 94 be e0 70 46 3e dd 55 b4 be 00 27 c8 3e
       -0.29016307 0.19378996 -0.35221758 0.39092255
000070 43 e7 4d be 5d 97 e3 bd df 67 15 be 49 0e d6 bd
       -0.2010775 -0.11112855 -0.14590405 -0.104519434

critic.4.weight f4 [1, 32]
000000 27 d2 a3 be b2 ef 65 bf c7 2a 76 3e 96 65 cb 3e
       -0.3199627 -0.8981887 0.24039756 0.3972594
000010 8e b2 b1 3e 90 7f fe 3e 21 9b 87 be f9 22 dc be
       0.3470654 0.49706697 -0.2648554 -0.42995432
000020 ae 81 db 3e a5 28 0a 3f b4 39 02 bf 46 b1 ee be
       0.42872375 0.5396827 -0.508693 -0.46619624
000030 3f fa 0c 3f 2e 26 d3 3e fd e9 9d 3e 70 63 ac 3e
       0.55069345 0.41240066 0.3084258 0.33669615
000040 d6 fb a5 be f0 86 c9 3e 3a ba dc 3e 2f 3f a4 3e
       -0.32418698 0.39360762 0.4311083 0.32079455
000050 24 37 e0 3e 87 08 cb 3e 2f 8e db be b9 7a 9a be
       0.4379207 0.39654943 -0.42881915 -0.30171755
000060 ca 77 22 bf 21 66 90 3e d3 dc 21 bf 98 69 df 3e
       -0.63464034 0.28202918 -0.63227576 0.4363525
000070 35 61 0c bf ee c0 82 be 3d 78 d7 bf f8 69 d6 be
       -0.54835826 -0.2553782 -1.6833569 -0.41877723
