logs/exp/model_83.pt (torch, 34660 bytes, 12 tensors)

log_std f4 [3]
-0.3583592 -0.10959055 -0.14804912
00000000: db7a b7be 0371 e0bd 309a 17be

actor.0.weight f4 [64, 24]
-0.40565193 0.010810255 0.51825 -0.5119771 -0.4207189 -0.5008799 -0.29954472 -0.27618256
0.0049273567 -0.6005122 -0.16447502 -0.34815794 -0.49486938 -0.06883821 -0.3405364 -0.61954224
-0.17679472 -0.28295177 0.09890363 -0.72239137 -0.035549115 -0.44484887 -0.20165384 -0.3765329
-0.06366305 0.099710084 0.09003089 0.25055867 -0.34446675 0.22679916 -0.08730076 0.22208288
-0.13371046 -0.08360073 -0.030485949 -0.28096294 0.13426177 -0.43267518 0.17332087 -0.26473343
-0.03892135 -0.41745117 -0.14742197 -0.37531027 -0.31013015 -0.20110147 -2.5517622e-05 -0.2899134
-0.055798206 -0.17536011 0.1390998 -0.31247672 0.066376336 0.31467184 0.11984139 -0.2341419
0.43593144 -0.03767806 0.17255676 -0.15023069 0.18543297 -0.13915561 0.38485163 -0.34222588
-0.3355685 -0.059574187 -0.21303828 0.067333736 -0.06422698 -0.0020422668 -0.12324233 -0.34009248
-0.45085326 0.18350734 0.014187985 -0.08167737 -0.011710413 -0.12740391 -0.02704537 -0.46953443
0.20328568 0.049717985 -0.09909402 -0.0063492795 0.12913086 0.14903593 0.13954636 -0.34979
0.0050186957 -0.08160083 0.014221985 0.021895489 0.049896907 -0.21246588 -0.16951816 0.06369437
-0.23133484 -0.020709693 0.1978719 -1.2491821 0.4801078 0.8911041 -0.035908867 0.15787451
-0.1543552 0.10332071 -0.08186316 -0.09236671 -0.18832357 -0.0770551 -0.31405756 -0.09391356
-0.2206756 -0.05465872 -0.112711065 0.019513834 0.0537842 -0.28441414 -0.008633356 -0.24912852
-0.50735855 -0.19399591 0.078888215 -0.09865083 -0.25173476 0.61594784 0.18905999 0.12088446
0.056586463 0.26136 -0.011873172 0.21980932 0.06031242 0.14614816 0.0015839806 0.43557328
-0.0745445 0.22663324 0.20209153 -0.030317288 -0.08342068 0.018532168 0.0038525462 0.13014129
0.06904208 0.42645642 -0.26487976 -0.60071117 0.50793296 -0.074249625 0.752052 -0.30220005
0.6404187 -0.07448515 0.40886384 0.0351042 0.22802515 0.03349938 0.5159874 0.34317115
-0.18268873 0.30703643 -0.06563772 0.046839066 -0.06337787 0.36580786 -0.050045773 0.22322297
0.052025083 0.044557944 -0.11911487 -1.3145112 -0.0023098795 -0.10344901 -0.30445907 0.18783005
0.028376468 0.1477601 0.18300723 0.25369662 -0.1390845 -0.024256222 0.039877646 0.05400233
0.36602616 -0.036186162 -0.12395741 0.030993082 -0.23941654 0.20630985 -0.3537902 0.3800569
0.005348224 0.07096931 0.03464752 0.42498675 0.6609674 0.23461042 0.17878102 0.019172356
0.47903082 0.0033118778 -0.1319201 0.085663915 0.13404648 0.14457427 -0.19496359 -0.20155834
-0.10410604 -0.26197326 0.005651503 -0.3310089 0.0128762545 -0.2717336 -0.3692582 -0.29783872
0.03153312 0.13355449 0.021619966 -1.108455 -0.4724865 -0.49830052 -0.2567436 -0.007870489
-0.3191737 -0.24605891 -0.44364712 0.03991482 -0.36530387 0.07013513 -0.44727176 0.20115855
-0.41867307 -0.3509144 -0.3351255 0.009202277 -0.35573545 -0.039931417 -0.028116124 -0.034581106
-0.29981464 -0.21273383 -0.23319857 -0.14048457 -0.19678225 -0.0053307186 0.2966633 0.30580446
0.3885522 -0.034114115 0.039096486 -0.06092718 0.15183471 0.1243749 0.25074983 0.1053152
00000000: 9cb1 cfbe 7f1d 313c 08ac 043f ee10 03bf
00000010: 7868 d7be aa39 00bf ed5d 99be cd67 8dbe
00000020: aa75 a13b 2bbb 19bf 246c 28be c241 b2be
00000030: 855f fdbe 0cfb 8cbd c95a aebe 529a 1ebf
00000040: ad09 35be 0edf 90be fd8d ca3d a4ee 38bf
00000050: f39b 11bd 3bc3 e3be 587e 4ebe ecc8 c0be
00000060: c661 82bd cd34 cc3d 1e62 b83d 3a49 803e
00000070: f25d b0be 0a3e 683e beca b2bd b269 633e
00000080: 65eb 08be dc36 abbd abbd f9bc 60da 8fbe
00000090: eb7b 093e 9a87 ddbe 077b 313e 248b 87be
000000a0: fe6b 1fbd 29bc d5be c9f5 16be ab28 c0be
000000b0: 61c9 9ebe 8bed 4dbe ad0e d6b7 876f 94be
000000c0: a98c 64bd 9a91 33be 2e70 0e3e f3fc 9fbe
000000d0: 51f0 873d ab1c a13e 676f f53d e5c2 6fbe
000000e0: 6832 df3e 4f54 1abd b8b2 303e 13d6 19be
000000f0: 24e2 3d3e cf7e 0ebe 460b c53e 3b38 afbe
00000100: a2cf abbe 1004 74bd b526 5abe 45e6 893d
00000110: 6f89 83bd 8dd7 05bb 7a66 fcbd 9a20 aebe
00000120: 3dd6 e6be 59e9 3b3e b974 683c 7746 a7bd
00000130: 08dd 3fbc 2c76 02be 408e ddbc d166 f0be
00000140: 1f2a 503e 16a5 4b3d cef1 cabd 9e0d d0bb
00000150: e13a 043e e09c 183e 3ee5 0e3e ad17 b3be
00000160: df73 a43b 561e a7bd 5403 693c 2b5e b33c
00000170: b360 4c3d a890 59be 2b96 2dbe 3272 823d
00000180: 0ae3 6cbe 60a7 a9bc ee9e 4a3e 33e5 9fbf
00000190: b1d0 f53e 661f 643f 2d15 13bd dba9 213e
000001a0: 4a0f 1ebe cf99 d33d dfa7 a7bd c22a bdbd
000001b0: e5d7 40be 10cf 9dbd 27cc a0be c155 c0bd
000001c0: c9f8 61be d2e1 5fbd 0fd5 e6bd 7adb 9f3c
000001d0: d24c 5c3d bb9e 91be eb72 0dbc 8c1b 7fbe
000001e0: 40e2 01bf dda6 46be 2590 a13d 7209 cabd
000001f0: 61e3 80be c2ae 1d3f f198 413e 4692 f73d
00000200: 35c7 673d fad0 853e b187 42bc b215 613e
00000210: 280a 773d dda7 153e 929d cf3a 7603 df3e
00000220: c9aa 98bd 8b12 683e 15f1 4e3e f65b f8bc
00000230: 76d8 aabd c6d0 973c 007b 7c3b c243 053e
00000240: ef65 8d3d 7f58 da3e 529e 87be 35c8 19bf
00000250: e507 023f 3010 98bd 7b86 403f f7b9 9abe
00000260: 7bf2 233f ac8b 98bd 9a56 d13e 6cc9 0f3d
00000270: 6d7f 693e a536 093d c017 043f 21b4 af3e
00000280: c112 3bbe e133 9d3e 126d 86bd 52da 3f3d
00000290: 42cc 81bd 2b4b bb3e ccfc 4cbd 9094 643e
000002a0: 4118 553d 6482 363d 7ff2 f3bd e741 a8bf
000002b0: 5961 17bb 13dd d3bd 0fe2 9bbe 8556 403e
000002c0: c475 e83c 6c4e 173e 3f66 3b3e 86e4 813e
000002d0: 2b6c 0ebe fcb4 c6bc be56 233d 8c31 5d3d
000002e0: c867 bb3e f137 14bd 62dd fdbd 34e5 fd3c
000002f0: 9c29 75be e442 533e fd23 b5be d196 c23e
00000300: 2840 af3b 5c58 913d 8fea 0d3d dd97 d93e
00000310: 2935 293f b73d 703e 5f12 373e 580f 9d3c
00000320: 8743 f53e 170c 593b 1016 07be 9070 af3d
00000330: 7b43 093e 470b 143e 89a4 47be 4f65 4ebe
00000340: 8c35 d5bd 5c21 86be 3e30 b93b 007a a9be
00000350: edf6 523c ab20 8bbe 690f bdbe 517e 98be
00000360: df28 013d 82c2 083e 5b1c b13c dae1 8dbf
00000370: c0e9 f1be 3f21 ffbe e673 83be 39f3 00bc
00000380: bc6a a3be def6 7bbe b725 e3be b97d 233d
00000390: 1c09 bbbe 02a3 8f3d ce00 e5be 82fc 4d3e
000003a0: 515c d6be 0dab b3be 9295 abbe 26c5 163c
000003b0: f522 b6be 208f 23bd c953 e6bc eba4 0dbd
000003c0: 4e81 99be e6d6 59be 9bcb 6ebe 30db 0fbe
000003d0: 4981 49be 4fad aebb 41e4 973e 6792 9c3e
000003e0: 50f0 c63e 3ebb 0bbd a323 203d c78e 79bd
000003f0: 8f7a 1b3e 44b8 fe3d 4862 803e 7faf d73d

actor.0.bias f4 [64]
0.13289846 -0.042576108 -0.27554294 -0.15623115 -0.049106434 -0.08010586 -0.19609869 -0.043713767
-0.43389064 -0.3836534 -0.053341858 -0.24379545 -0.16060306 0.097324885 -0.24082227 0.014800532
0.080067374 -0.17133965 0.048170645 -0.23533702 -0.021034151 -0.43216738 -0.17875876 -0.22251154
-0.28497753 -0.46398047 -0.1672356 0.33651504 -0.15445219 -0.14366409 -0.41120905 -0.42578974
-0.26870322 -0.34524116 -0.114522345 -0.22719571 -0.6477667 0.060052205 -0.3814841 -0.07670105
-0.20607987 -0.31318218 -0.21792196 0.0836201 -0.15002388 0.06164952 -0.1729019 -0.2584613
-0.017276734 -0.43085778 -0.10039411 -0.29295728 -0.3987494 -0.088773414 -0.27697468 -0.26486692
0.041325536 -0.07715424 -0.06225175 -0.46608567 -0.37166545 0.03709717 0.18971814 -0.24718213
00000000: 8916 083e 4964 2ebd f713 8dbe 0ffb 1fbe
00000010: d423 49bd 8b0e a4bd 18ce 48be 350d 33bd
00000020: ea26 debe 386e c4be fe7c 5abd 84a5 79be
00000030: 2175 24be 4552 c73d 1d9a 76be ee7d 723c
00000040: 5dfa a33d a973 2fbe 954e 453d 30fc 70be
00000050: d04f acbc 0b45 ddbe 890c 37be 11da 63be
00000060: 93e8 91be d98e edbe cf3f 2bbe b34b ac3e
00000070: b728 1ebe ae1c 13be fe89 d2be 1d01 dabe
00000080: 7893 89be 73c3 b0be b18a eabd fea5 68be
00000090: 0ad4 25bf 4df9 753d e251 c3be 7115 9dbd
000000a0: 9a06 53be 6a59 a0be ef26 5fbe 0441 ab3d
000000b0: dc9f 19be 3584 7c3d 320d 31be 0a55 84be
000000c0: f087 8dbc 6499 dcbe 6d9b cdbd 7ffe 95be
000000d0: e228 ccbe d6ce b5bd a0cf 8dbe a39c 87be
000000e0: f744 293d 0b03 9ebd b1fb 7ebd c8a2 eebe
000000f0: ef4a bebe 34f3 173d 7945 423e 501d 7dbe

actor.2.weight f4 [32, 64]
-0.17131953 -0.09152587 -0.35467383 -0.11862811 0.18143348 -0.08293457 -0.3804287 -0.060875025
-0.29409027 -0.37396201 0.020020034 -0.34537962 0.020484312 -0.44775233 -0.3502576 -0.23273738
-0.3229938 0.51522446 -0.35462594 -0.3373051 0.0790843 0.09025374 0.11374483 -0.23880097
0.22374564 0.09846688 0.24987008 -0.5171003 -0.16603777 -0.038214367 -0.31469408 -0.08683621
-0.30747274 0.07346347 -0.0116731515 0.16881604 0.019641757 -0.35249954 -0.015423959 0.14155275
-0.056442864 0.17813705 -0.053706843 -0.32395214 -0.075368024 -0.40342414 0.081183925 -0.24869056
0.1657896 -0.18773778 -0.4035752 0.3205461 -0.061057914 0.060336698 -0.041853603 0.043046877
0.2614552 -0.25125661 0.20987368 0.24134265 0.21428688 -0.3566169 -0.4211115 0.2531435
-1.0569994 0.5042144 -0.112541415 -0.16992737 -0.1753712 -0.21680705 -0.3380107 0.1200882
0.20326851 0.10006291 -0.5006809 -0.21175005 -0.058857918 -0.53490245 0.008185449 -1.2578479
0.050891202 0.23885153 0.16691957 -0.2178218 -0.23310031 0.018620139 -0.010273708 -0.021815298
-0.07092844 -0.0021388875 -0.029560102 -0.16157836 -0.44868526 -0.20545414 0.036599874 -0.14131226
-0.19397879 0.17220716 -0.3255634 -0.0011626902 0.04131799 -0.18669179 -0.023404323 0.007884526
-0.25893188 -0.1011954 0.08469766 -0.06558651 -0.28930867 -0.09944624 0.026686886 0.27722278
-0.013183902 0.0952917 -0.23203045 -0.6255792 -0.026388919 -0.16796952 -0.2999665 -0.3109943
-0.28173527 0.1197664 -0.19352019 -0.15906334 0.2815262 -0.23253082 -0.23666675 0.0671329
-0.66616356 -0.10591011 0.022173326 -0.20015052 -0.3176742 0.0061572935 -0.22435035 0.016039174
-0.11979495 -0.23259069 -0.07683536 -0.47145933 0.05611586 -0.23356333 -0.24724762 -0.35311177
-0.05795741 0.094160266 0.14628027 -0.013159216 -0.25005305 0.19938524 -0.14954576 -0.07538325
-0.30469108 -0.14867766 -0.064934164 0.24108188 -0.17159261 -0.10248683 0.03355117 -0.1547785
-0.045113035 -0.11294162 -0.042829704 -0.1399998 0.08059546 -0.1739572 -0.028768107 -0.15927884
-0.07762838 -0.008650531 -0.2196781 0.24932747 -0.3837427 0.095049016 0.12667872 0.30896434
0.13295466 -0.0027271647 -0.015562018 0.31555614 -0.050420962 -0.11283857 0.062190462 -0.17713618
0.2643963 -0.24998008 0.027755603 0.10744451 0.24995503 -0.09596614 0.2065181 -0.41465136
-0.33883524 -0.10258889 -0.006350118 0.01776474 0.095088035 0.30807742 0.369335 0.140089
-0.0008383817 -0.4634163 -0.08076259 -0.15510824 -0.2120177 -0.562887 -0.38689855 -0.24354567
0.115238674 -0.04114861 -0.054839183 -0.20913863 -0.49538782 -0.028333025 0.25903183 0.04961392
0.3781429 0.3655582 0.32943866 0.32019177 0.20004153 -0.028839853 -0.1756083 -0.069203846
0.31728116 -0.37837118 -0.09261504 -0.09772329 0.04261275 -0.983125 -0.07399639 0.29753214
-0.20974626 0.03421933 0.041058585 0.2751359 -0.28028753 0.12160442 0.35399625 0.021362673
0.009451706 -0.2232484 -0.3080675 -0.14018993 0.22188635 -0.1926281 -0.018794497 -0.038922995
0.49844328 0.1372457 0.18704537 0.11732457 0.33840406 0.034221757 -0.1889649 0.059557885
00000000: 636e 2fbe ea71 bbbd cf97 b5be 4bf3 f2bd
00000010: b3c9 393e 9ad9 a9bd 8dc7 c2be 1758 79bd
00000020: 0093 96be f377 bfbe 0e01 a43c 99d5 b0be
00000030: b7ce a73c cb3f e5be f754 b3be b552 6ebe
00000040: 715f a5be c0e5 033f 8891 b5be 41b3 acbe
00000050: f3f6 a13d f4d6 b83d 0df3 e83d 3e88 74be
00000060: 941d 653e 01a9 c93d f1dd 7f3e af60 04bf
00000070: ce05 2abe ab86 1cbd 951f a1be 2fd7 b1bd
00000080: 116d 9dbe 0474 963d bf40 3fbc 1dde 2c3e
00000090: c0e7 a03c d27a b4be c6b4 7cbc 34f3 103e
000000a0: a230 67bd 8f69 363e b5fb 5bbd 0edd a5be
000000b0: 8d5a 9abd 9c8d cebe c243 a63d bda8 7ebe
000000c0: c0c4 293e 553e 40be 69a1 cebe 9e1e a43e
000000d0: dd17 7abd 9d23 773d af6e 2bbd ec51 303d
000000e0: 75dd 853e b5a4 80be 20e9 563e 8722 773e
000000f0: 056e 5b3e 7e96 b6be ed9b d7be 069c 813e
00000100: c24b 87bf 3214 013f 1d7c e6bd 7101 2ebe
00000110: 8294 33be ab02 5ebe bd0f adbe cdf0 f53d
00000120: 9f25 503e c8ed cc3d a02c 00bf 01d5 58be
00000130: 0015 71bd 5eef 08bf 431c 063c 2901 a1bf
00000140: 4b73 503d 7f95 743e f7ec 2a3e ae0c 5fbe
00000150: d9b1 6ebe 4389 983c 0e53 28bc ffb5 b2bc
00000160: ee42 91bd 942c 0cbb 0728 f2bc cc74 25be
00000170: 13ba e5be 9262 52be c0e9 153d 29b4 10be
00000180: 60a2 46be 1357 303e 3fb0 a6be 6965 98ba
00000190: 0d3d 293d 222c 3fbe 6cba bfbc 192e 013c
000001a0: b892 84be 893f cfbd f775 ad3d 3852 86bd
000001b0: 4420 94be 78aa cbbd 759e da3c 25f0 8d3e
000001c0: 4b01 58bc 4b28 c33d 6499 6dbe f525 20bf
000001d0: 932d d8bc 3400 2cbe 3695 99be a53a 9fbe
000001e0: 9b3f 90be 1648 f53d 282a 46be 80e1 22be
000001f0: 3424 903e 8f1c 6ebe c558 72be f97c 893d
00000200: b289 2abf 66e7 d8bd d6a4 b53c 42f4 4cbe
00000210: 31a6 a2be 1fc3 c93b 19bc 65be 9664 833c
00000220: 0e57 f5bd 412c 6ebe db5b 9dbd 1e63 f1be
00000230: bed9 653d 3a2b 6fbe 7b2e 7dbe 11cb b4be
00000240: c064 6dbd 19d7 c03d 7fca 153e c199 57bc
00000250: f406 80be a52b 4c3e 8622 19be 8962 9abd
00000260: 7800 9cbe f53e 18be 34fc 84bd 2bde 763e
00000270: f9b5 2fbe 9de4 d1bd f46c 093d 417e 1ebe
00000280: 72c8 38bd f04d e7bd 336e 2fbd 1c5c 0fbe
00000290: 3c0f a53d d621 32be 18ab ebbc fe19 23be
000002a0: a1fb 9ebd f5ba 0dbc 4cf3 60be b34f 7f3e
000002b0: ec79 c4be 0fa9 c23d 11b8 013e 9330 9e3e
000002c0: 4425 083e 3bba 32bb d6f7 7ebc 9390 a13e
000002d0: 3686 4ebd e817 e7bd 6dbb 7e3d 3063 35be
000002e0: f45e 873e c7fa 7fbe b85f e33c de0b dc3d
000002f0: 36f4 7f3e e589 c4bd 7b79 533e 2f4d d4be
00000300: d07b adbe 201a d2bd a714 d0bb 5c87 913c
00000310: 84bd c23d 53bc 9d3e 7a19 bd3e 7e73 0f3e
00000320: d8c6 5bba e744 edbe db66 a5bd b2d4 1ebe
00000330: 2b1b 59be 5d19 10bf 9117 c6be 0964 79be
00000340: 4102 ec3d 728b 28bd 0d9f 60bd 7028 56be
00000350: 79a3 fdbe a91a e8bc d29f 843e f737 4b3d
00000360: f29b c13e 722a bb3e 2fac a83e 2df0 a33e
00000370: b0d7 4c3e 8e41 ecbc aad2 33be bfba 8dbd
00000380: ad72 a23e deb9 c1be f4ac bdbd 2623 c8bd
00000390: b58a 2e3d 14ae 7bbf 6b8b 97bd 2256 983e
000003a0: b9c7 56be 9129 0c3d 0c2d 283d 9dde 8c3e
000003b0: d981 8fbe bd0b f93d ff3e b53e c600 af3c
000003c0: 54db 1a3c 3b9b 64be 06bb 9dbe f38d 0fbe
000003d0: 2d36 633e 4d40 45be ebf6 99bc b86d 1fbd
000003e0: f533 ff3e 238a 0c3e d288 3f3e dd47 f03d
000003f0: 4c43 ad3e 1d2c 0c3d 0480 41be f8f2 733d

actor.2.bias f4 [32]
-0.26935264 -0.12959635 -0.18594895 -0.28594217 -0.035163455 -0.009620873 -0.2610116 0.06702878
0.10717799 0.055614486 -0.063671045 -0.29966432 -0.15972029 0.07201941 -0.07721174 -0.15490428
-0.006547754 -0.14270362 -0.08506751 -0.119612105 -0.23874338 -0.11464648 -0.11352737 0.036661968
-0.08704739 -0.13140681 -0.2134553 -0.29204753 -0.20455296 -0.15240042 -0.16242814 -0.060328063
00000000: 97e8 89be e8b4 04be 6769 3ebe 0367 92be
00000010: 8e07 10bd dea0 1dbc 50a3 85be 6346 893d
00000020: 2280 db3d 04cc 633d f765 82bd 9a6d 99be
00000030: b78d 23be ea7e 933d 3021 9ebd 3a9f 1ebe
00000040: 8b8e d6bb e620 12be e037 aebd 31f7 f4bd
00000050: 2579 74be c6cb eabd 0a81 e8bd dc2a 163d
00000060: e745 b2bd 828f 06be 0794 5abe 4187 95be
00000070: 5576 51be db0e 1cbe 9053 26be 8f1a 77bd

actor.4.weight f4 [3, 32]
0.013668289 -0.04460775 -0.06415785 0.042369932 -0.08882177 0.03436228 0.10007447 -0.012744777
-0.08163639 -0.0003535824 0.013308225 0.058702894 -0.059455045 -0.0067668515 0.0154653685 0.004828763
-0.048980135 -0.010404999 0.031439558 -0.020875001 0.09182545 -0.019331886 -0.12693195 -0.09975344
-0.0019189838 0.046784848 0.030471858 0.037754532 0.039410856 0.052522052 0.012167316 0.00043661843
0.06436678 0.03218592 -0.017799644 -0.0092105 -0.0008820169 0.028436532 -0.0041524353 -0.0016617657
-0.065321766 0.020453736 0.0033633208 0.041121 -0.10411817 -0.020548707 0.012720609 0.06911857
0.0034828973 0.032274637 -0.0146635445 -0.0065562776 0.01976213 -0.019632248 0.060669806 0.0655817
0.014828751 0.025717232 -0.023347313 0.17197515 -0.053141307 -0.08575712 0.02828647 -0.09451969
-0.015534285 -0.02977876 0.026929807 0.083778255 0.013421296 -0.024254715 0.06589939 -0.049950927
0.10862671 -0.00017582331 -0.04736237 -0.026801636 0.1202559 0.004207755 0.111987926 0.07027912
0.05365933 0.037024505 -0.025193606 0.00044411427 -0.040632896 0.04644397 0.06577826 0.012492566
-0.021323774 0.050696064 0.097900406 -0.034989275 0.002670195 0.14511736 -0.010595418 0.028733583
00000000: f6f0 5f3c 9eb6 36bd 3165 83bd 188c 2d3d
00000010: 30e8 b5bd 76bf 0c3d d8f3 cc3d 78cf 50bc
00000020: fb30 a7bd 0761 b9b9 be0a 5a3c 7272 703d
00000030: 2287 73bd 77bc ddbb 7562 7d3c 9a3a 9e3b
00000040: 659f 48bd bb79 2abc c4c6 003d 0d02 abbc
00000050: fb0e bc3d e75d 9ebc 73fa 01be 884b ccbd
00000060: 6986 fbba 78a1 3f3d 1ea0 f93c 7fa4 1a3d
00000070: 476d 213d 5d21 573d 6c59 473c efe9 e439
00000080: bbd2 833d 62d5 033d 8fd0 91bc a3e7 16bc
00000090: 2737 67ba bbf3 e83c 2711 88bb 9bcf d9ba
000000a0: 6bc7 85bd 988e a73c 296b 5c3b 7e6e 283d
000000b0: e83b d5bd c355 a8bc 1a6a 503c 098e 8d3d
000000c0: 5241 643b 6932 043d 5d3f 70bc 0bd6 d6bb
000000d0: 31e4 a13c cfd3 a0bc e780 783d b34f 863d
000000e0: 4af4 723c f2ac d23c dd42 bfbc 411a 303e
000000f0: b3aa 59bd 6ea1 afbd 07b9 e73c 8a93 c1bd
00000100: 8483 7ebc 96f2 f3bc e69b dc3c ef93 ab3d
00000110: ffe4 5b3c d3b1 c6bc 42f6 863d 5899 4cbd
00000120: ae77 de3d 365d 38b9 0bff 41bd 1b8f dbbc
00000130: ba48 f63d 35e1 893b ed59 e53d 80ee 8f3d
00000140: e3c9 5b3d 02a7 173d d262 cebc 02d8 e839
00000150: ae6e 26bd 083c 3e3d c1b6 863d 9fad 4c3c
00000160: 32af aebc ada6 4f3d 0280 c83d ea50 0fbd
00000170: 70fe 2e3b a599 143e 6798 2dbc b162 eb3c

actor.4.bias f4 [3]
0.112102255 -0.0743773 0.117121674
00000000: de95 e53d 2053 98bd 7ddd ef3d

critic.0.weight f4 [64, 24]
-0.30028906 -0.04898212 -0.7948442 -0.91906613 0.0084325075 0.1809988 -0.10360501 0.16941006
-0.3195926 0.2176154 0.035738602 0.3214459 0.061679117 0.4054842 0.098913506 -0.07807648
0.16219093 0.31410787 -0.2540251 -0.304574 -0.09516244 -0.12231348 0.1846526 -0.26194727
-0.2895664 -0.0040896614 0.19203752 0.42570105 -0.0846722 -1.6790729 -0.14482695 -1.6608276
0.30641285 -1.2323188 0.4796329 -1.3036579 0.510688 -0.8452092 0.30673215 -1.1826963
-0.14619404 -0.628937 -0.027269706 -0.6652216 0.17045848 -0.666666 -0.36721224 -0.7001398
-0.4798175 0.12433772 -0.25235084 -0.5384278 -1.3277233 -0.075475626 -0.24462834 0.45232397
0.14817351 0.64337176 0.35639587 0.6417947 -0.152383 0.9624427 0.24427663 0.46787515
0.08708074 0.41653717 0.16223538 0.550161 -0.13115092 0.4065451 0.22681418 0.25643724
0.27413145 -0.15359166 -0.07487645 -0.3672455 -1.0228189 -0.4347488 0.44997177 -0.5616308
0.79892826 -0.5335 0.65429586 -0.19696605 0.5196285 -0.50611615 0.24374503 -0.3406408
0.39052296 -0.08405358 0.19608602 -0.30103043 -0.10723872 -0.40617713 0.60730547 -0.19298236
-0.684914 -0.16663331 -0.59068525 -0.9074573 -0.17293191 1.2185918 0.08444646 1.4573503
-0.003570457 1.1936141 0.08079492 1.3033229 0.3275139 0.91777956 0.5571457 1.0634328
0.46373695 0.5124463 0.026741723 0.86543405 0.5522629 0.76178926 0.36369497 0.38298568
0.43294534 -0.12014751 -0.13974302 0.024928872 -2.0293837 -0.08087627 -0.882146 0.03321307
-0.35535336 -0.12228801 -0.43738407 0.68372583 -0.46669897 0.7729636 -0.1066396 0.69124514
-0.16115446 0.6300276 -0.0506069 0.47767067 0.43444484 0.1825999 0.4119715 0.35403934
0.010361036 0.041125033 -0.6424621 -0.009786598 -0.32165584 0.75020427 -1.02275 0.20579997
-0.7341349 -0.12175082 -0.81564 -0.3947605 -0.37860537 -0.47103184 -0.37042227 -0.7232052
-0.26046425 -0.6866686 -0.23531567 -0.6642669 -0.11485691 -0.81863904 -0.34336475 -0.7990019
0.02441511 0.2319336 -0.5497013 -0.31347433 -1.2192285 -0.48052484 -0.4384206 -1.1246843
-0.21902384 -0.90138406 0.4252891 -1.1043897 0.10821461 -1.0381266 0.06291409 -0.29476705
0.23627828 -0.76948583 0.3217436 -0.5500452 0.24327375 -0.31419814 0.0471894 -0.3201473
-1.0462338 0.04973576 0.32147095 -1.5227052 -1.4889847 -3.555612 -0.41874465 -1.6731267
0.03936887 -0.75606185 0.30942094 -0.32016903 -0.20216922 0.066045955 0.07644601 0.4236465
-0.2231211 0.14716357 -0.34891704 0.20924488 -0.21654984 0.43648222 -0.29385975 0.7351395
0.081841156 0.011050123 0.18894185 -0.55699193 -0.06133305 0.71577 -0.74014384 0.18222937
-0.2979078 -0.042173374 -0.43844628 0.24013452 -0.42018124 0.0246822 -0.29892296 -0.33943024
0.026413819 -0.47876757 -0.13706467 -0.2580504 -0.2615045 -0.16931522 -0.06320375 -0.10732659
-0.03728586 -0.060086343 -0.47337878 0.39710632 0.5833482 1.3185941 -0.03987656 0.23494615
-0.34295014 -0.11453593 -0.27257976 -0.08871998 -0.35838258 -0.35311282 -0.20839952 -0.41397575
00000000: 7dbf 99be 7aa1 48bd e97a 4bbf eb47 6bbf
00000010: 8028 0a3c c057 393e dd2e d4bd d579 2d3e
00000020: a4a1 a3be 92d6 5e3e a462 123d 8f94 a43e
00000030: 3ea3 7c3d a09b cf3e 2a93 ca3d 90e6 9fbd
00000040: 6115 263e bfd2 a03e 940f 82be 20f1 9bbe
00000050: 86e4 c2bd 7d7f fabd 9215 3d3e f41d 86be
00000060: 0c42 94be 9102 86bb 7ca5 443e 7df5 d93e
00000070: 9e68 adbd dceb d6bf 844d 14be 0096 d4bf
00000080: 25e2 9c3e 9fbc 9dbf 7292 f53e 43de a6bf
00000090: 73bc 023f a15f 58bf ff0b 9d3e 9862 97bf
000000a0: e4b3 15be 0402 21bf b864 dfbc f64b 2abf
000000b0: ab8c 2e3e 9faa 2abf 3e03 bcbe 5d3c 33bf
000000c0: a4aa f5be c6a4 fe3d 2134 81be 68d6 09bf
000000d0: d6f2 a9bf f792 9abd da7f 7abe 0297 e73e
000000e0: ccba 173e 03b4 243f 8579 b63e a84c 243f
000000f0: 4a0a 1cbe a562 763f a723 7a3e 558d ef3e
00000100: 6357 b23d 5c44 d53e 0821 263e 5ad7 0c3f
00000110: 6d4c 06be ae26 d03e fa41 683e be4b 833e
00000120: f55a 8c3e 2247 1dbe d358 99bd 9a07 bcbe
00000130: bbeb 82bf 6597 debe b362 e63e 09c7 0fbf
00000140: 9086 4c3f 7593 08bf ef7f 273f 78b1 49be
00000150: 6006 053f d490 01bf 4c98 793e 7968 aebe
00000160: a0f2 c73e 4924 acbd c6ca 483e a920 9abe
00000170: f99f dbbd 73f6 cfbe 5f78 1b3f 2b9d 45be
00000180: 8656 2fbf eca1 2abe 2637 17bf 1f4f 68bf
00000190: 1015 31be d1fa 9b3f 44f2 ac3d 748a ba3f
000001a0: 54fe 69bb 59c8 983f cf77 a53d 49d3 a63f
000001b0: e7af a73e 9af3 6a3f 1aa1 0e3f 911e 883f
000001c0: ee6e ed3e ae2f 033f 7511 db3c 168d 5d3f
000001d0: 1a61 0d3f 9f04 433f 3a36 ba3e b316 c43e
000001e0: 03ab dd3e e60f f6bd cb18 0fbe a237 cc3c
000001f0: 6ce1 01c0 75a2 a5bd 52d4 61bf 6e0a 083d
00000200: e0f0 b5be 2372 fabd cef0 dfbe a808 2f3f
00000210: 2bf3 eebe f1e0 453f dd65 dabd 71f5 303f
00000220: ad05 25be 7d49 213f 2e49 4fbd 4091 f43e
00000230: 8e6f de3e 78fb 3a3e eeed d23e a544 b53e
00000240: 56c1 293c b972 283d 6578 24bf f857 20bc
00000250: 13b0 a4be 630d 403f 79e9 82bf 3abd 523e
00000260: 44f0 3bbf 7e58 f9bd c8cd 50bf 0c1e cabe
00000270: 90d8 c1be 162b f1be fda7 bdbe fa23 39bf
00000280: 925b 85be 83c9 2fbf 97f6 70be 650d 2abf
00000290: 1a3a ebbd 5492 51bf 81cd afbe 638b 4cbf
000002a0: 3202 c83c 0080 6d3e 39b9 0cbf b57f a0be
000002b0: ae0f 9cbf 5a07 f6be aa78 e0be a8f5 8fbf
000002c0: c947 60be 1bc1 66bf 7ebf d93e a45c 8dbf
000002d0: 9f9f dd3d 55e1 84bf 1ad9 803d b5eb 96be
000002e0: eff2 713e 06fd 44bf 94bb a43e c3cf 0cbf
000002f0: c11c 793e 94de a0be ac49 413d 59ea a3be
00000300: fdea 85bf b9b7 4b3d d797 a43e 01e8 c2bf
00000310: 0d97 bebf 268f 63c0 b365 d6be 0429 d6bf
00000320: 4141 213d 458d 41bf 6c6c 9e3e 32ed a3be
00000330: 7305 4fbe 1a43 873d ba8f 9c3d 32e8 d83e
00000340: dc79 64be 0cb2 163e 41a5 b2be 4a44 563e
00000350: 3ebf 5dbe 997a df3e c974 96be 1a32 3c3f
00000360: 569c a73d 930b 353c f979 413e 0697 0ebf
00000370: 5d38 7bbd b43c 373f 117a 3dbf 569a 3a3e
00000380: 5f87 98be fdbd 2cbd 087c e0be d3e5 753e
00000390: ff21 d7be 5332 ca3c 6e0c 99be cdc9 adbe
000003a0: cb61 d83c 0621 f5be ae5a 0cbe 2f1f 84be
000003b0: ebe3 85be f860 2dbe f870 81bd 0bce dbbd
000003c0: 0fb9 18bd 191d 76bd b45e f2be 8551 cb3e
000003d0: 4f56 153f b1c7 a83f 9b55 23bd b995 703e
000003e0: 2997 afbe d091 eabd 938f 8bbe d2b2 b5bd
000003f0: ec7d b7be 34cb b4be af66 55be a1f4 d3be

critic.0.bias f4 [64]
-0.58164907 -0.47706205 0.18611684 0.21062306 -0.50427926 0.42899144 -0.0946936 0.45801494
0.6563981 0.27597964 0.4997974 -0.4496477 0.6096927 0.35830888 0.16044776 -0.63436913
0.86252546 0.1534848 -0.77208716 -1.6057339 -0.9493109 -1.0412248 0.4776139 0.21172133
-0.0895474 -0.21485978 -0.037659846 -1.2073866 -1.5681689 -0.88611794 -0.9284261 0.24458979
-0.42061007 0.23509444 0.45645532 -0.8231807 -2.3216708 0.31081742 0.06870121 0.6591095
0.3363382 -1.2859379 -0.57312304 0.14697112 0.46547368 0.35957164 -0.3541071 -0.20299228
-1.4640803 -0.20568989 -0.38181427 -1.0565863 0.35154042 0.3995279 -0.26942125 0.19367798
0.6194281 0.6473388 0.2720579 0.4469815 -1.0329758 0.24352251 0.18495922 -2.0292487
00000000: f4e6 14bf 7a41 f4be 6a95 3e3e 92ad 573e
00000010: 7218 01bf c4a4 db3e b8ee c1bd ef80 ea3e
00000020: b509 283f 344d 8d3e 72e5 ff3e 3938 e6be
00000030: d214 1c3f 4374 b73e 6b4c 243e 0466 22bf
00000040: 78ce 5c3f 1f2b 1d3e 81a7 45bf b088 cdbf
00000050: 0a06 73bf db46 85bf cf89 f43e 7acd 583e
00000060: a164 b7bd 3404 5cbe 3641 1abd a58b 9abf
00000070: c2b9 c8bf a0d8 62bf 55ad 6dbf bf75 7a3e
00000080: 345a d7be 99bc 703e 83b4 e93e f8bb 52bf
00000090: 4196 14c0 7623 9f3e 38b3 8c3d 66bb 283f
000000a0: 8534 ac3e 9d99 a4bf 31b8 12bf 997f 163e
000000b0: 9152 ee3e c619 b83e 874d b5be 35dd 4fbe
000000c0: fc66 bbbf 5fa0 52be 297d c3be 383e 87bf
000000d0: 1bfd b33e ec8e cc3e 95f1 89be 8553 463e
000000e0: d792 1e3f ffb7 253f 2c4b 8b3e c2da e43e
000000f0: 8d38 84bf f75d 793e f365 3d3e 36df 01c0

critic.2.weight f4 [32, 64]
-0.20120196 -0.1993974 -0.1052384 -0.46310043 -0.22087657 0.29575193 -0.22221206 -0.43668273
0.49539065 -0.11323278 -0.2854078 -0.068197556 -0.5931028 -0.3518942 -0.57093114 0.041908182
-0.4221756 -0.41684726 -0.13348879 -0.6047562 0.17454281 0.23426706 -0.55773973 0.08591227
-0.14626132 -0.26185995 -0.16255268 -0.06987311 -0.010254813 0.1110914 0.10362441 -0.60327864
-0.14662121 -0.32325497 -0.40280247 0.054361492 -1.1060252 -0.0628249 -0.29706943 -0.57317454
-0.28607452 0.07588064 -0.6715481 -0.24789539 0.2378991 0.040106744 -0.20242374 -0.11541725
0.17849833 -0.4473532 0.15164211 -0.060632076 -0.3571778 -0.30208263 -0.29589406 0.01300072
-0.1624198 -0.1590935 -0.05964148 -0.089161165 0.08184605 -0.08154784 -0.39549953 -0.55398935
-0.63436514 0.32370037 0.17912509 -0.36819258 -0.77370733 -2.408158 -0.76735014 -1.6729004
0.6606343 -0.011839081 -0.33631843 -0.3308195 -0.33817005 -0.39835465 -0.5328924 -0.66181767
-0.20201103 0.061813675 -0.07003295 0.17866059 0.4256882 0.16597518 -1.0306803 0.33591804
-0.22734284 -1.246169 -1.595499 0.16079502 0.6981452 -1.0233467 0.11276278 -0.7703287
-0.37384737 -0.44499168 -1.4559019 -0.04245612 -0.7566391 -1.0134681 -0.1035397 -0.4387122
-0.6298689 0.77709615 -1.8243221 -0.12457486 -0.1487908 -0.67057735 0.4359202 0.821879
-0.14399354 -0.7460938 0.24023196 0.27030933 0.09315416 -0.26838115 1.1896574 -2.608512
-1.5220432 0.7607092 -0.3330048 0.78958637 -0.20787898 -0.4960932 -0.68838567 0.52316594
-0.14591566 0.67175585 -0.16626406 0.47643867 -0.4400602 -0.040255796 -0.3255076 0.49731344
0.23943159 -0.16553879 0.32394388 -0.20730367 0.17892212 0.117249556 0.02493396 -0.41059688
-0.41887328 -0.19606568 0.30192864 -0.30046952 0.20556533 -0.4809287 0.23218821 0.30570033
0.26235667 -0.30984348 -0.24094145 -0.6699458 -0.49202806 -0.15061851 0.16793585 0.4539423
0.010601704 0.31497145 0.34842658 -0.044394713 0.88902164 0.2477562 0.04079863 0.2653611
0.25189567 -0.26726937 0.48477075 0.3582461 -0.0529103 -0.021061327 -0.003958132 -0.65586364
-0.17288919 -0.113836795 0.14280131 -0.2470744 -0.074501224 0.25495568 -0.62881434 0.19342476
0.3629788 -0.2790162 0.20401694 -0.36736724 0.39434046 0.401325 -0.007492846 -0.6779667
-0.2799172 0.16474561 0.13495024 -0.6333518 -0.9098967 -0.67457324 0.21526845 -0.33509594
0.37417853 -0.23613498 -0.09597787 0.45475316 0.31265074 0.04854829 -0.1781513 -0.9777623
-0.12297588 0.2655531 0.021796113 -1.3710355 -0.6012247 -0.93164176 0.21794987 0.025495017
0.6173383 0.04620954 -0.10489674 -1.0987812 -1.1300634 -0.27966082 -0.16742615 -0.17136106
0.014104337 0.39012936 0.33655187 -0.33661255 -0.8174781 0.3027605 -0.0874628 -0.10124874
-0.35835567 -0.97602457 -0.06557512 0.011438766 0.17382863 -0.2792002 -0.093411885 -0.22104622
-1.0939769 -0.13925944 0.2692489 -1.2139211 -0.28659394 -0.45612198 -0.74647623 -0.4558618
0.103965424 -0.18807343 -0.18412587 -0.14329298 -0.9867808 0.20526634 -0.0019116474 -1.5675231
00000000: e307 4ebe d52e 4cbe 3b87 d7bd 801b edbe
00000010: 782d 62be cc6c 973e 8f8b 63be e194 dfbe
00000020: d8a3 fd3e 96e6 e7bd f920 92be 29ab 8bbd
00000030: 96d5 17bf 7a2b b4be 8b28 12bf eaa7 2b3d
00000040: 6627 d8be 016d d5be 49b1 08be 4dd1 1abf
00000050: 5abb 323e b4e3 6f3e 08c8 0ebf c6f2 af3d
00000060: 87c5 15be 8212 86be 3674 26be a219 8fbd
00000070: ce03 28bc e383 e33d 0939 d43d 7870 1abf
00000080: df23 16be ad81 a5be 203c cebe 28aa 5e3d
00000090: 3c92 8dbf 57aa 80bd 7c19 98be 91bb 12bf
000000a0: 5c78 92be 4f67 9b3d 94ea 2bbf 4ad8 7dbe
000000b0: d29b 733e f846 243d 2b48 4fbe e15f ecbd
000000c0: 44c8 363e 7b0b e5be 1248 1b3e 5759 78bd
000000d0: 02e0 b6be 93aa 9abe 6d7f 97be f900 553c
000000e0: 6051 26be 68e9 22be a04a 74bd 219a b6bd
000000f0: e79e a73d 8e02 a7bd ea7e cabe 3fd2 0dbf
00000100: c165 22bf 0ebc a53e 916c 373e bd83 bcbe
00000110: af11 46bf 431f 1ac0 0f71 44bf 9a21 d6bf
00000120: 541f 293f b4f8 41bc ee31 acbe 2c61 a9be
00000130: a024 adbe 24f5 cbbe a36b 08bf e26c 29bf
00000140: fbdb 4ebe 5630 7d3d 6f6d 8fbd cdf2 363e
00000150: cef3 d93e 66f5 293e 55ed 83bf 73fd ab3e
00000160: 90cc 68be 7782 9fbf 5039 ccbf 73a7 243e
00000170: a5b9 323f 06fd 82bf 2cf0 e63d 4334 45bf
00000180: ec68 bfbe f3d5 e3be fe5a babf 78e6 2dbd
00000190: 1ab3 41bf 53b9 81bf 9f0c d4bd e39e e0be
000001a0: 173f 21bf c6ef 463f 6383 e9bf 1b21 ffbd
000001b0: 9e5c 18be f5aa 2bbf ef30 df3e aa66 523f
000001c0: 0b73 13be 0100 3fbf 5eff 753e fc65 8a3e
000001d0: 9cc7 be3d 4169 89be b246 983f dcf1 26c0
000001e0: 50d2 c2bf d7bd 423f 9b7f aabe 5522 4a3f
000001f0: 3ade 54be eeff fdbe 0b3a 30bf 34ee 053f
00000200: ea6a 15be 31f8 2b3f 2041 2abe c5ef f33e
00000210: 924f e1be 43e3 24bd efa8 a6be de9f fe3e
00000220: 8e2d 753e 0083 29be f9db a53e 6a47 54be
00000230: 5c37 373e 8920 f03d 4e42 cc3c c139 d2be
00000240: 8f76 d6be 71c5 48be 6496 9a3e 24d7 99be
00000250: b87f 523e 493c f6be bfc2 6d3e c184 9c3e
00000260: 9d53 863e cea3 9ebe 5bb9 76be 9181 2bbf
00000270: 1aeb fbbe bd3b 1abe 60f7 2b3e 206b e83e
00000280: c5b2 2d3c f043 a13e f864 b23e 3bd7 35bd
00000290: ec96 633f cdb3 7d3e 771c 273d 69dd 873e
000002a0: 78f8 803e 88d7 88be df33 f83e 086c b73e
000002b0: 79b8 58bd ce88 acbc 38b3 81bb aee6 27bf
000002c0: dd09 31be 4423 e9bd 823a 123e 1201 7dbe
000002d0: 1994 98bd 8d89 823e faf9 20bf 2411 463e
000002e0: 5bd8 b93e 36db 8ebe d1e9 503e 8f17 bcbe
000002f0: fee6 c93e 787a cd3e 8c86 f5bb 3a8f 2dbf
00000300: 4f51 8fbe 13b3 283e 6530 0a3e 5823 22bf
00000310: fdee 68bf d5b0 2cbf 556f 5c3e b291 abbe
00000320: 5494 bf3e 5ecd 71be 0c90 c4bd 68d5 e83e
00000330: c213 a03e 92da 463d 4b6d 36be a14e 7abf
00000340: c7da fbbd 93f6 873e c38d b23c 177e afbf
00000350: dde9 19bf 1380 6ebf 402e 5f3e edda d03c
00000360: e209 1e3f 3746 3d3d 1ad4 d6bd dda4 8cbf
00000370: eba5 90bf b42f 8fbe c371 2bbe 4679 2fbe
00000380: e115 673c 09bf c73e 8750 ac3e 7b58 acbe
00000390: 3f46 51bf 6d03 9b3e b21f b3bd 805b cfbd
000003a0: 657a b7be bfdc 79bf 404c 86bd a969 3b3c
000003b0: 2200 323e 54f3 8ebe bb4e bfbd f159 62be
000003c0: 6f07 8cbf 079a 0ebe feda 893e c461 9bbf
000003d0: 71bc 92be d288 e9be 1119 3fbf b866 e9be
000003e0: d3eb d43d 5296 40be 7e8b 3cbe 65bb 12be
000003f0: ab9d 7cbf 5731 523e 3e90 faba 99a4 c8bf

critic.2.bias f4 [32]
-0.428319 -0.013585605 0.42409214 0.49622568 0.4586899 0.41579208 -0.15216999 -0.36518446
0.5690103 0.7357504 -0.2274223 -0.37300184 0.56918603 0.4544591 0.5793318 0.41440973
-0.36899084 0.49445224 0.479624 0.58520395 0.68416077 0.45974362 -0.29916888 -0.60748327
-0.29045084 0.3033671 -0.38644946 0.5075095 -0.110177286 -0.11415849 -0.09728502 -0.23613109
00000000: a14c dbbe 2896 5ebc 9b22 d93e 4b11 fe3e
00000010: 67d9 ea3e b3e2 d43e 73d2 1bbe 75f9 babe
00000020: a9aa 113f 235a 3c3f 64e1 68be 19fa bebe
00000030: 2db6 113f ddae e83e 174f 143f 832d d43e
00000040: 5eec bcbe d828 fd3e 4791 f53e edcf 153f
00000050: 2925 2f3f 8463 eb3e aa2c 99be 0684 1bbf
00000060: f9b5 94be ef52 9b3e b4dc c5be 25ec 013f
00000070: a1a4 e1bd edcb e9bd 5e3d c7bd 59cc 71be

critic.4.weight f4 [1, 32]
-0.48033217 -1.5497117 0.16369028 0.45362917 0.40184066 0.51223403 -0.61746776 -1.2986112
0.41542286 0.5733692 -1.0420045 -2.1005602 0.57474405 0.40325537 0.32795972 0.33790675
-1.3533553 0.4592611 0.37508425 0.5309974 0.47040462 0.5756967 -0.60299665 -1.0294167
-0.805433 0.3057941 -0.81291175 0.4505971 -0.8748671 -0.43146285 -1.9191867 -0.8217155
00000000: 19ee f5be f45c c6bf 6d9e 273e 1542 e83e
00000010: 0fbe cd3e c521 033f 5e12 1ebf e438 a6bf
00000020: 4eb2 d43e 53c8 123f 6760 85bf 946f 06c0
00000030: 6d22 133f 7d77 ce3e 56ea a73e 1d02 ad3e
00000040: bf3a adbf 4524 eb3e 0b0b c03e 72ef 073f
00000050: e0d8 f03e dc60 133f fd5d 1abf edc3 83bf
00000060: db30 4ebf 0b91 9c3e fc1a 50bf aab4 e63e
00000070: 4af7 5fbf b3e8 dcbe e9a7 f5bf f25b 52bf
