logs/exp/model_80.pt (torch, 34660 bytes, 12 tensors)

log_std f4 [3]
000000 53 4e b4 be 1f 48 e3 bd 9e 69 12 be
       -0.35216007 -0.110977404 -0.14298102

actor.0.weight f4 [64, 24]
000000 1d 18 d4 be c7 26 48 3c be 83 01 3f d9 c1 eb be
       -0.41424647 0.0122162765 0.5059165 -0.46046332
000010 79 7f d1 be 4d c0 ed be 93 e7 92 be d0 f8 68 be
       -0.40917566 -0.46435776 -0.28692302 -0.22751164
000020 43 3d 84 3c e5 5a 0c bf d8 16 1e be 73 a8 9d be
       0.016142493 -0.54826194 -0.15438402 -0.3079258
000030 07 94 f8 be f7 8e 2d bd b8 d3 a9 be 28 65 1a bf
       -0.48550436 -0.04237267 -0.3316934 -0.603106
000040 56 94 2c be b6 0e 8c be 20 64 da 3d 58 e4 37 bf
       -0.1685346 -0.27354974 0.106636286 -0.718328
000050 be 30 e6 bc a6 aa e3 be 0e 21 47 be 46 5f c2 be
       -0.028099414 -0.44466132 -0.19446203 -0.37963313
000060 5f 81 93 bd 4c f4 ad 3d 80 06 ac 3d 9b 6d 83 3e
       -0.0720241 0.084938616 0.08399677 0.2566956
000070 8d e2 b9 be 2a 7c 80 3e 59 cb da bd e5 49 7b 3e
       -0.36305657 0.2509473 -0.10683317 0.24539907
000080 f4 39 16 be 16 9a 7c bd 6d 10 22 bd 3d 46 85 be
       -0.14670545 -0.061670385 -0.039566446 -0.2603015
000090 2d a6 01 3e 89 10 d4 be 4e c2 2a 3e 8b 28 7d be
       0.12661047 -0.41418865 0.16675684 -0.24722497
0000a0 40 57 38 bd f2 54 cd be 37 43 1c be b7 d6 b7 be
       -0.045005083 -0.4010387 -0.15260015 -0.35906002
0000b0 e0 5c a1 be 30 39 3e be 5a 1c 94 bb fd f2 8c be
       -0.3151617 -0.18576503 -0.0045199813 -0.27529135
0000c0 dc 51 0f bd 14 f4 39 be f8 f0 1d 3e d3 99 83 be
       -0.034990177 -0.18159515 0.15423954 -0.25703296
0000d0 59 47 b0 3d 3b 2e af 3e f9 69 10 3e 11 9f 56 be
       0.086073585 0.3421496 0.14102925 -0.20959117
0000e0 b7 86 e9 3e 01 8f 99 bc 2a 4d 42 3e 48 59 0b be
       0.45610592 -0.018744947 0.18974748 -0.13608277
0000f0 e7 ba 4c 3e 67 9c 03 be 15 4f cb 3e 26 1e ab be
       0.19993173 -0.12852632 0.39708772 -0.3342144
000100 7d eb a5 be 85 d4 5c bd 8f c0 4c be 9c 2c 93 3d
       -0.32406226 -0.053913612 -0.1999533 0.07186243
000110 90 75 51 bd 1b c1 66 3a 3b e3 df bd 7d 04 ad be
       -0.051137507 0.00088025787 -0.10932013 -0.33792487
000120 d5 2e de be 36 8b 4c 3e 94 9f f7 3b 0e e9 ef bd
       -0.43395105 0.1997498 0.007556865 -0.117143735
000130 82 17 32 b9 47 ca 08 be 3a a2 18 bc 11 e4 f2 be
       -0.0001698416 -0.13358413 -0.009316022 -0.47439626
000140 f7 98 65 3e b8 e1 37 3d 68 e9 9c bd 64 eb 3a bc
       0.22421633 0.044892997 -0.07661706 -0.011408661
000150 56 48 1c 3e 48 a2 13 3e 37 c3 27 3e 6e 62 b5 be
       0.15261969 0.14417374 0.16383062 -0.35426658
000160 a2 03 ef 3c dd d2 af bd b2 d4 19 3d b1 86 90 3c
       0.029176537 -0.08585141 0.037556358 0.01764235
000170 d4 a2 93 3d 89 13 5e be 7d 1d 18 be fa 19 72 3d
       0.072087914 -0.2168714 -0.14854999 0.059106804
000180 92 a6 66 be 31 b4 65 bc 87 0b 3c 3e 43 3f 98 bf
       -0.22524479 -0.014020012 0.18363772 -1.1894306
000190 06 07 f1 3e 18 10 66 3f 41 02 14 bd e5 f7 28 3e
       0.4707567 0.8986831 -0.036134962 0.16500814
0001a0 d2 e4 18 be 30 af dd 3d 32 e6 97 bd 96 d8 b7 bd
       -0.14931038 0.1082443 -0.07416953 -0.08976857
0001b0 67 b7 36 be a0 62 9a bd 1a 1d 9b be 62 3d bf bd
       -0.178434 -0.075383425 -0.3029564 -0.0933788
0001c0 ff a7 55 be b0 8f 61 bd 88 84 cc bd 63 dd 94 3c
       -0.20864867 -0.05506867 -0.09986216 0.018171972
0001d0 8c 5c 89 3d 75 f2 92 be ad cf 9e 3b 36 9e 81 be
       0.06707105 -0.28700605 0.004846534 -0.25316018
0001e0 33 48 00 bf 45 e4 3b be f6 3f ac 3d 1d 8b 52 be
       -0.5011017 -0.18348797 0.08410637 -0.2056088
0001f0 d3 5d 88 be 74 df 1e 3f a6 9d 31 3e 09 1b 01 3e
       -0.26634082 0.6205971 0.17345294 0.1260797
000200 2a 5b 2f 3d b2 9a 89 3e e5 34 c2 bc 70 37 6b 3e
       0.04281155 0.26875836 -0.023706863 0.22970366
000210 6c 48 4d 3d c7 9d 22 3e d4 5b 02 bc 5a 7d e6 3e
       0.050117895 0.158805 -0.007956464 0.4501751
000220 ff ca ab bd 40 92 78 3e 0c 3c 45 3e 08 47 5a bc
       -0.08388328 0.2427454 0.19261187 -0.013322599
000230 2e c2 bd bd d8 46 16 3d b0 4c ac bb d6 c1 18 3e
       -0.092655525 0.036688656 -0.0052581653 0.14917693
000240 15 cb a6 3d ba b8 d3 3e e0 b4 89 be 3e e9 1d bf
       0.081442036 0.41351873 -0.2689581 -0.61684024
000250 51 86 02 3f bb 23 6e bd 90 22 41 3f a1 b0 92 be
       0.509862 -0.058139544 0.75443363 -0.28650382
000260 8b 47 24 3f 6d 7a 7f bd 99 2c d1 3e 6b ea 31 3d
       0.64171666 -0.062372614 0.40854338 0.04343645
000270 bf 4e 68 3e fe ed 1f 3d cc 42 03 3f 75 91 b0 3e
       0.22686289 0.039045326 0.512738 0.34485975
000280 d4 0c 3f be 53 47 9c 3e db 88 8d bd 9d 97 2b 3d
       -0.18657237 0.30523166 -0.06910869 0.041892637
000290 40 07 84 bd c3 e4 b7 3e a8 1c 4b bd 0a 01 5c 3e
       -0.06446695 0.3591672 -0.049587876 0.21484771
0002a0 10 73 50 3d a9 2e 21 3d c2 5d 08 be 8f a6 aa bf
       0.050890982 0.03935114 -0.13317016 -1.333208
0002b0 23 4d be bb 54 6c ad bd c3 f5 9e be 6a 04 4d 3e
       -0.0058075353 -0.084679276 -0.31046876 0.20021215
0002c0 78 6a 9f 3c 4d a5 19 3e ea 5e 31 3e bd 1b 80 3e
       0.019459948 0.15004463 0.17321363 0.25021163
0002d0 f7 2b 17 be e6 79 fc bc d8 4c 06 3d 65 93 36 3d
       -0.14762865 -0.030819844 0.032788128 0.04457416
0002e0 7c c5 b8 3e bb 0f 45 bd 55 f5 01 be 6f 58 8d 3c
       0.3608817 -0.048110705 -0.12691243 0.017254082
0002f0 56 18 76 be 7f 3c 44 3e cb b9 b4 be 91 1f bb 3e
       -0.24032721 0.19163702 -0.35298 0.3654752
000300 06 25 1f 3c 17 e3 87 3d b0 af a4 3c 74 57 d3 3e
       0.009713417 0.06635111 0.020103306 0.4127766
000310 d4 54 29 3f 1f 44 71 3e 20 1d 38 3e b5 e7 8c 3c
       0.6614506 0.23561142 0.1797986 0.01720033
000320 c4 9b f5 3e 17 c4 a2 b9 ca c5 06 be 81 38 a8 3d
       0.47970402 -0.00031045146 -0.13161388 0.08213902
000330 cb 3d 09 3e 9f a5 10 3e 77 ee 47 be ef fa 51 be
       0.13402478 0.1412568 -0.19524561 -0.2050588
000340 7d b5 d5 bd c6 3c 88 be 14 2d d6 3b 8a 8b ab be
       -0.10435007 -0.26608866 0.0065361355 -0.33504897
000350 6a 62 64 3c f6 55 8d be 26 3c bc be e8 85 9a be
       0.013939479 -0.27604645 -0.3676464 -0.30180287
000360 30 7d 33 3d 8a 81 03 3e 13 6c a7 3c 4c 3c 8c bf
       0.04382056 0.12842384 0.020437276 -1.0955901
000370 e9 d2 fd be a1 73 f1 be d0 84 8d be d8 44 9c 3c
       -0.49574974 -0.4715853 -0.2764039 0.019075796
000380 05 97 aa be 9a 39 64 be 32 df e7 be cc 4d 74 3d
       -0.33318344 -0.22287598 -0.45287472 0.059644505
000390 51 44 bd be 2f 8f b3 3d 1c 3b e5 be 3a 27 5e 3e
       -0.36966184 0.087675445 -0.4477166 0.21694651
0003a0 96 df d4 be 37 53 ac be e9 69 a8 be 51 1b bb 3c
       -0.41576833 -0.33657238 -0.32893303 0.022840174
0003b0 de 8d b1 be 83 1e db bc 4f 6a 8a bc a2 73 b0 bc
       -0.3467855 -0.026747948 -0.016896395 -0.021539513
0003c0 08 09 9e be 52 cf 4d be 16 03 63 be ef 2d 19 be
       -0.30866265 -0.20098618 -0.22169146 -0.14958929
0003d0 0b 41 5e be 5e 7b e6 3b c8 2d 8d 3e fa 77 a2 3e
       -0.217045 0.0070337495 0.2757399 0.3173216
0003e0 f2 e2 bc 3e 9c 04 c8 bc 6f 8c b5 3c 4a 38 54 bd
       0.36891896 -0.02441626 0.02216169 -0.051811494
0003f0 d1 5f 0c 3e bc 5b 08 3e bc de 74 3e 0b ef ea 3d
       0.13708426 0.13316244 0.23913091 0.11471375

actor.0.bias f4 [64]
000000 b6 54 04 3e 88 58 52 bd d9 0c 85 be 23 3b 10 be
       0.1292294 -0.05135396 -0.25986364 -0.14085059
000010 e3 40 17 bd e9 ed 90 bd f8 3a 40 be 0d f4 31 bd
       -0.036927115 -0.07076628 -0.18772495 -0.043445636
000020 51 be e0 be 74 c1 bc be 9c de 59 bd a4 e6 7a be
       -0.438952 -0.36866343 -0.053190812 -0.24502045
000030 05 dc 22 be 45 5c ca 3d 35 34 7b be 99 06 47 3c
       -0.15904243 0.0988088 -0.24531634 0.012147569
000040 c9 f0 9f 3d 53 b5 40 be 8f 70 49 3d af 9d 71 be
       0.07809598 -0.1881917 0.04917961 -0.23595308
000050 a9 39 63 bc 7c 79 db be 9c 5c 37 be bf ed 5a be
       -0.013868728 -0.42866123 -0.17906421 -0.21379755
000060 15 cc 86 be e5 f6 ea be e6 4f 27 be 94 f7 b0 3e
       -0.26327577 -0.4589149 -0.16339073 0.34563887
000070 d2 ca 19 be 29 86 0c be e4 b2 cb be 82 61 d6 be
       -0.15018776 -0.13723053 -0.3978492 -0.41871268
000080 86 63 88 be b0 03 ad be 48 28 da bd d7 f6 64 be
       -0.2663843 -0.33791876 -0.10652214 -0.22359787
000090 94 ad 27 bf bd b1 81 3d 69 78 c4 be 82 a4 9d bd
       -0.65499234 0.06332729 -0.38373116 -0.07697393
0000a0 ba 69 41 be 8f 12 a4 be 42 5a 57 be 68 f3 b1 3d
       -0.18887988 -0.3204541 -0.21030524 0.08689004
0000b0 d3 6a fe bd 0b 3f 88 3d 41 e2 36 be 0f 6e 8a be
       -0.12422719 0.066526495 -0.17859747 -0.27037093
0000c0 0d ff a2 bc c3 07 d7 be d3 ed d4 bd d4 11 95 be
       -0.019897008 -0.4199811 -0.10396924 -0.29115164
0000d0 3b 12 cc be 0b 92 a8 bd 25 a3 8a be d5 4f 80 be
       -0.3985766 -0.082309805 -0.27077594 -0.25060907
0000e0 fe f3 85 3d 71 3e 95 bd a1 52 22 bd 69 97 ec be
       0.065406784 -0.072873004 -0.039629582 -0.46209267
0000f0 2e e3 c4 be f1 ef 08 3d 18 5d 3e 3e 52 2f 72 be
       -0.38454574 0.03343195 0.185902 -0.23650864

actor.2.weight f4 [32, 64]
000000 36 89 33 be a9 17 c1 bd 5c dd b5 be 08 1b f1 bd
       -0.1753281 -0.09428341 -0.35520446 -0.11772734
000010 a4 8f 37 3e 9e 7b a7 bd af 94 c2 be 8c cc 78 bd
       0.17925888 -0.08177875 -0.38004062 -0.060741946
000020 8f 72 97 be 0e 12 c2 be b5 63 b7 3c d3 4d b0 be
       -0.2957959 -0.379044 0.022386411 -0.34434375
000030 12 e4 ba 3c 78 3a e5 be cd 82 b3 be 13 31 6d be
       0.02281383 -0.4477117 -0.3506073 -0.23163252
000040 62 66 a5 be 47 55 03 3f c9 37 b5 be 26 13 ac be
       -0.32304674 0.51302 -0.35394123 -0.3360836
000050 eb 0e a2 3d f2 7b b8 3d 0f 46 ea 3d ba 21 75 be
       0.079130016 0.09008016 0.11439144 -0.23938647
000060 68 0c 66 3e 1b 42 cb 3d 17 5b 80 3e 66 93 04 bf
       0.2246567 0.09924718 0.25069496 -0.5178741
000070 c0 09 29 be 00 6b 1f bd f9 5d a1 be a6 36 b1 bd
       -0.16507626 -0.038920403 -0.31517008 -0.086530015
000080 97 20 9d be 85 21 94 3d a9 82 31 bc d8 4d 2e 3e
       -0.30688927 0.07232956 -0.010834374 0.17021883
000090 2a 52 ab 3c 75 9a b4 be 16 b9 68 bc 5a 13 11 3e
       0.020913202 -0.3527409 -0.014204284 0.14167538
0000a0 b4 e5 64 bd 3d f0 37 3e f3 00 57 bd 0f 61 a5 be
       -0.055883124 0.17962737 -0.05249114 -0.32300612
0000b0 38 ea 95 bd 50 3e ce be a6 b9 a8 3d 3a 44 7e be
       -0.07320064 -0.40281916 0.08238535 -0.24830714
0000c0 f7 f4 2b 3e 42 a2 42 be ff 80 cf be 7e 80 a3 3e
       0.16792665 -0.19007209 -0.40528104 0.3193397
0000d0 4e 5d 78 bd d8 8d 7f 3d 43 60 20 bd 2d bf 31 3d
       -0.060635857 0.062391132 -0.039154302 0.04339521
0000e0 f1 53 86 3e a0 88 80 be 06 4c 57 3e 61 a8 7a 3e
       0.26235917 -0.25104237 0.21025094 0.24478294
0000f0 27 64 5c 3e a7 4e b6 be 76 8f d7 be a7 e2 81 3e
       0.2152258 -0.35606882 -0.4210164 0.25368235
000100 48 26 87 bf 44 bc ea 3e 05 9b ab bd 73 65 3a be
       -1.0558558 0.4584676 -0.08379177 -0.18202762
000110 3b 5a 40 be 7d b7 70 be ad 21 b0 be 3c 66 df 3d
       -0.1878442 -0.23507495 -0.34400693 0.109081715
000120 32 34 49 3e cb 1c 05 3e ce 4d 08 bf 25 5f 4c be
       0.19648817 0.12999265 -0.5324372 -0.1995817
000130 3d 39 af bd 3d 63 00 bf fa 3f 12 3d 62 08 a1 bf
       -0.08555839 -0.50151426 0.035705544 -1.2580683
000140 36 01 2e 3d f9 00 3e 3e 40 53 25 3e 70 fa 53 be
       0.042481624 0.18555059 0.16145039 -0.20701003
000150 51 d8 50 be 67 8e b2 3a 54 9f e5 bc b6 90 9e bd
       -0.20395018 0.0013622761 -0.028030075 -0.07742445
000160 6f 7e bd bd 4a aa 2b bd 6f 59 14 bd 28 47 0e be
       -0.09252631 -0.041910447 -0.036218103 -0.13894331
000170 8b da e9 be b0 8c 8d be 3f 78 05 3d f4 09 22 be
       -0.45674548 -0.276464 0.03258538 -0.1582411
000180 12 b8 44 be 4a 28 45 3e 5e 47 b2 be b2 53 5c bc
       -0.19210842 0.1925365 -0.34820074 -0.013447689
000190 60 7a c7 3c 70 ae 21 be d1 23 ff bc b0 fe b0 bc
       0.024350345 -0.15789199 -0.031145008 -0.02160582
0001a0 7d 5c 73 be e3 4c 04 be d1 24 9d 3d 8d 2c 13 bc
       -0.2376575 -0.12919955 0.07673038 -0.00898279
0001b0 8d a7 90 be 7a b0 4e bd 7b 58 f2 3c 09 f3 82 3e
       -0.2825283 -0.05046127 0.029583206 0.25576046
0001c0 13 dd 0a bd 04 1a ba 3d 3a 0f 5a be f8 6c 27 bf
       -0.03390224 0.09086993 -0.21294871 -0.6540065
0001d0 74 1a 86 bc 00 7a 56 be 62 ee 72 be 57 f5 9f be
       -0.016370036 -0.20944977 -0.23723748 -0.31241867
0001e0 1f 67 93 be 74 79 74 3d 02 86 64 be fb 55 43 be
       -0.28789613 0.05968614 -0.22316745 -0.19075768
0001f0 df 50 88 3e e1 d7 80 be 0d 0e 58 be d0 67 1f 3d
       0.266242 -0.25164703 -0.2109911 0.038917363
000200 3a 2c 2c bf 91 1c dd bd 3e c1 6e 3b 83 52 43 be
       -0.67254984 -0.10796464 0.00364311 -0.19074444
000210 f2 15 9b be 28 4a 2e 3c 73 fc 5f be 31 43 fe 39
       -0.3029018 0.010637797 -0.21873645 0.00048496717
000220 3b a0 b7 bd b3 91 6e be 39 8c 90 bd 49 d5 e0 be
       -0.089661084 -0.23297767 -0.07057995 -0.43912724
000230 ce cf 7a 3d 2c ad 8b be d1 20 72 be b4 85 ad be
       0.061233334 -0.27280557 -0.23645331 -0.3389107
000240 46 24 8f bd f6 6f cf 3d c6 9e 19 3e 6c 45 2c bd
       -0.069893405 0.10128777 0.15001974 -0.042058393
000250 fe 7b 85 be 8e 47 46 3e 38 d1 1d be c5 b7 ad bd
       -0.2607116 0.19363233 -0.15411842 -0.08482317
000260 17 fb 98 be 16 2c 27 be db 75 5d bd 1e 16 63 3e
       -0.29879066 -0.16325411 -0.054067474 0.22176406
000270 4e 2f 23 be 23 6d de bd 49 cc 8b 3c ac 4f 1a be
       -0.15936014 -0.1086066 0.017065184 -0.15069455
000280 2d 07 e1 bc 2e 71 c9 bd 3f 90 25 bd db db 02 be
       -0.027469242 -0.098360404 -0.040420767 -0.1277918
000290 a5 ca b5 3d 85 6a 3c be ef e5 e8 bc fe 85 22 be
       0.08876542 -0.18400009 -0.028429953 -0.15871426
0002a0 2c 74 c2 bd 8b 3d 2d bc f9 ea 68 be c5 1d 85 3e
       -0.09494814 -0.010573755 -0.22745885 0.25999275
0002b0 02 07 d2 be 0a ae d2 3d 5f c6 dd 3d e0 50 a0 3e
       -0.41020972 0.102871016 0.10828852 0.31311703
0002c0 c9 6e 11 3e 73 41 b1 bb 1c 62 47 bb 29 d8 a1 3e
       0.14202417 -0.0054094135 -0.0030423468 0.3161023
0002d0 9b 61 2a bd 45 24 07 be d7 e3 99 3d 07 aa 3e be
       -0.04159699 -0.1319743 0.0751416 -0.18619548
0002e0 64 50 8d 3e c8 7c 83 be 14 7c c8 3c 32 92 16 3e
       0.27600396 -0.25681138 0.024473228 0.14704207
0002f0 bf f9 83 3e 12 af b4 bd 23 b8 5a 3e 8e f2 cf be
       0.2577648 -0.088224545 0.21359305 -0.40614742
000300 4c c8 a5 be 6e 84 ed bd d9 7b e3 3b 5f 04 c6 3b
       -0.32379377 -0.115975246 0.006942254 0.0060430015
000310 3e a1 cc 3d 6d 42 a3 3e 53 69 b7 3e b6 af 1f 3e
       0.09991692 0.31886616 0.35822544 0.15594372
000320 57 ea 5d 3c e8 cd ee be 60 88 90 bd b1 8c 18 be
       0.0135446405 -0.4664147 -0.070572615 -0.1489742
000330 be ad 58 be 70 74 0c bf 63 de c6 be 9f 48 75 be
       -0.21160027 -0.5486517 -0.38841543 -0.23953484
000340 bd c7 0a 3e ec aa f2 bc 47 f3 40 bd 42 3d 5e be
       0.13552757 -0.029622518 -0.047107007 -0.21703056
000350 04 65 f8 be f1 4b 0f bd 2b cf 8a 3e 17 b4 90 3d
       -0.4851457 -0.034984533 0.27111182 0.070655994
000360 75 29 c4 3e 2c 91 c9 3e 04 26 ae 3e 31 20 9f 3e
       0.3831288 0.3936857 0.3401338 0.31079248
000370 ec a5 43 3e ac 6c 2e bd 4b 1f 33 be 9b 6e 85 bd
       0.19106263 -0.042584106 -0.17492406 -0.06515237
000380 c4 ef a3 3e 09 3c ba be 18 4f ad bd 0e 87 9d bd
       0.32018864 -0.36373928 -0.084623516 -0.07691775
000390 52 4d 32 3d 4a 86 7d bf a9 ca 71 bd 66 5d 9d 3e
       0.04353077 -0.99033034 -0.059031162 0.3073532
0003a0 5f 6a 4c be 55 ae 22 3d e0 94 65 3d ff 67 93 3e
       -0.19962452 0.039717037 0.05605018 0.2879028
0003b0 97 be 8c be d2 83 12 3e f6 00 ba 3e 5b e2 c1 3c
       -0.2748916 0.14308098 0.36328858 0.023667505
0003c0 b0 10 90 3c 17 22 76 be 74 5a a1 be 40 d6 1f be
       0.017586082 -0.24036442 -0.31514323 -0.15609074
0003d0 40 26 61 3e 59 11 3a be 90 e1 bc bb ff d4 0d bd
       0.21987247 -0.1817068 -0.005764194 -0.034626957
0003e0 84 b6 02 3f 31 f6 f9 3d 76 a8 46 3e 7d 55 00 3e
       0.51059747 0.122051604 0.194002 0.12532611
0003f0 4f 34 ae 3e 20 02 13 3d 26 25 3d be 47 48 41 3d
       0.34024283 0.0358907 -0.18471202 0.04718807

actor.2.bias f4 [32]
000000 2e 4b 8a be 01 7d fd bd d7 84 48 be 3d 01 94 be
       -0.27010483 -0.12377358 -0.19581924 -0.28907195
000010 95 d4 1f bd bd 8e 25 bb a1 5f 81 be aa ee 94 3d
       -0.039021093 -0.002526208 -0.25268272 0.07272084
000020 47 74 e0 3d 32 7b 30 3d 97 78 8a bd 31 a1 95 be
       0.10959678 0.04308624 -0.06761282 -0.29224542
000030 23 cc 20 be fd a2 8f 3d f2 4e 82 bd 8d 16 25 be
       -0.15702872 0.070135094 -0.06362714 -0.16121884
000040 96 a6 17 bc 9e da 18 be 44 96 ab bd aa 74 ec bd
       -0.009256026 -0.14927146 -0.0837827 -0.115456894
000050 9e c4 71 be 4a 90 ee bd 76 9e ec bd 6a 63 38 3d
       -0.2361016 -0.11648615 -0.115536615 0.045016684
000060 a1 6a ae bd 38 73 05 be 4e 08 5d be 35 2d 94 be
       -0.085164316 -0.13032234 -0.21585199 -0.2894074
000070 00 fc 46 be 6b 45 17 be 69 26 24 be bd f2 5d bd
       -0.19432068 -0.14772575 -0.16030277 -0.05418657

actor.4.weight f4 [3, 32]
000000 f4 56 13 3c 6c 5a 4a bd c8 8b a2 bd 93 92 25 3d
       0.008992899 -0.04940264 -0.079368174 0.040422987
000010 74 9d ae bd ce 4b 88 3c 3e fb c4 3d 76 56 44 bc
       -0.085261256 0.016637709 0.09618233 -0.0119835045
000020 6f e3 ae bd 40 1d f2 bb 44 07 2b bb da e4 66 3d
       -0.08539473 -0.007388741 -0.002609686 0.056370594
000030 f4 26 77 bd fb b7 c6 ba ea bc a6 3c 45 91 9c 3b
       -0.060339883 -0.0015161032 0.020353753 0.0047780597
000040 a6 cb 55 bd 44 cd 6f bc ce 6c e3 3b f6 8c b5 bc
       -0.052196167 -0.0146363415 0.0069404608 -0.022161942
000050 9c f4 b2 3d f8 bc ae bc 3f e1 08 be 24 57 b7 bd
       0.08738062 -0.021330342 -0.13367175 -0.08952168
000060 6a 51 26 38 e2 97 fe 3c 52 1f c9 3c 74 32 fc 3c
       3.9653307e-05 0.031078283 0.024551068 0.030785777
000070 ef 00 2b 3d 8e 09 73 3d 33 ff 12 3c 97 26 20 bb
       0.041748937 0.059335284 0.008971977 -0.0024437064
000080 f0 4a 8f 3d 72 54 29 3d b2 0f 8e bc bf 00 6b 3b
       0.06996715 0.0413403 -0.017341468 0.00358586
000090 cf be 82 3b 79 df cb 3c ba af 10 bb 8f 51 1e 3c
       0.0039900313 0.024886834 -0.0022077397 0.009663
0000a0 d6 e3 83 bd 95 10 b3 3c a4 22 e6 bb 79 36 2f 3d
       -0.06439941 0.021858493 -0.0070231725 0.04277656
0000b0 25 ed d1 bd 63 83 5f bc 69 0c bb 3c 0f 3c ac 3d
       -0.1025031 -0.013642165 0.022833066 0.08409893
0000c0 1b ee 24 3c bd 1f 29 3d 2a ee af bb eb b5 ac 39
       0.010066534 0.041290034 -0.0053689675 0.00032941936
0000d0 4d 35 b4 3c 3d 9e 5f bc 3e 4b 85 3d 49 3d 8b 3d
       0.021998072 -0.013648567 0.06508492 0.067987986
0000e0 7a ea 8a 3c 1f bd cc 3c ca 80 33 bc 35 e5 30 3e
       0.01695751 0.024992524 -0.010955999 0.17274936
0000f0 c4 94 27 bd bc 21 b1 bd 32 07 08 3d 2c 74 ba bd
       -0.04091336 -0.086490124 0.033209987 -0.09104189
000100 4c d6 0b bd 24 9f 53 bd e4 2c 45 3a 69 c5 60 3d
       -0.034139916 -0.05166544 0.0007521643 0.054875765
000110 bb 1a 11 3c 85 cd 0a bd 67 ce 5d 3d da 1e 7f bd
       0.008856471 -0.033887405 0.05415192 -0.06228528
000120 f3 43 bd 3d f4 97 2e bc 9a c9 a0 bd fa 41 0c bd
       0.09241476 -0.010656346 -0.078509524 -0.034242608
000130 72 55 d2 3d 0e 3d 5a bc 18 87 ae 3d 33 6a 4f 3d
       0.10270204 -0.013320221 0.08521861 0.05063839
000140 79 53 29 3d 2c a6 21 3d ff 67 65 bd 72 27 84 bc
       0.04133937 0.039465114 -0.05600738 -0.01613209
000150 26 2c c8 bc 9b c5 01 3d 00 92 53 3d b1 6f 94 3c
       -0.024435114 0.031682592 0.05165291 0.018119665
000160 31 d5 38 3c ff 30 36 3d c0 d1 a4 3d 68 7d 15 bd
       0.011281298 0.04448032 0.08047819 -0.03649655
000170 dc 9e fa bc 88 bc 01 3e 13 a6 95 bc 04 99 98 ba
       -0.030593328 0.12669575 -0.018267667 -0.0011642282

actor.4.bias f4 [3]
000000 e0 2e ef 3d 0f 9c a3 bd 29 79 0a 3e
       0.116788626 -0.0798875 0.13522781

critic.0.weight f4 [64, 24]
000000 33 73 a9 be df 3d 34 bd c4 5e 4b bf 1e 3c 56 bf
       -0.33095703 -0.044004317 -0.79441476 -0.8368548
000010 51 ab aa 3c 25 62 45 3e 71 b5 ab bd 93 dd 2c 3e
       0.020833643 0.1927572 -0.083842166 0.16881399
000020 35 60 99 be ed d1 5b 3e c3 17 64 3d 79 bf a2 3e
       -0.29956213 0.21466799 0.055686723 0.31786707
000030 68 0d a8 3d 8f ca cd 3e e4 a8 f5 3d d7 6b a6 bd
       0.08205682 0.40193602 0.11995104 -0.081260376
000040 a3 6e 3c 3e 6a 77 9f 3e 95 ea 6c be 7c 0b 9d be
       0.1840158 0.31145793 -0.23136361 -0.30672824
000050 7a 7c 92 bd 28 ed fd bd ae 3e 56 3e d3 be 86 be
       -0.07152648 -0.123987496 0.20922348 -0.26317462
000060 dd 8f 85 be e6 f4 84 bc 9b 13 57 3e 5f cd 00 3f
       -0.2608632 -0.016230058 0.21003573 0.5031337
000070 f6 4a c5 bd 1d 15 d6 bf f8 ba 22 be 6f 2e d4 bf
       -0.09633438 -1.6725193 -0.15891635 -1.657667
000080 30 ad 96 3e 89 5f 9d bf dc fd ef 3e fd 68 a6 bf
       0.29429007 -1.229478 0.46873367 -1.300079
000090 10 1c 00 3f a1 31 57 bf a0 ec 97 3e 01 a9 96 bf
       0.5004282 -0.840601 0.29672718 -1.1770326
0000a0 1c cf 1f be 75 4d 1f bf ee 0d 1a bd c2 7b 28 bf
       -0.1560635 -0.62227565 -0.03761094 -0.6581384
0000b0 e1 d8 23 3e c3 c0 28 bf f5 5a c1 be e7 3e 31 bf
       0.16000701 -0.6591913 -0.37764707 -0.69236606
0000c0 9f d1 f6 be b6 f6 05 3e 78 61 7d be 5c 7b 0a bf
       -0.48206803 0.13082394 -0.24744213 -0.5409448
0000d0 0a 87 ac bf 81 e1 80 bd 60 47 83 be 83 92 ef 3e
       -1.3478711 -0.062930115 -0.25640392 0.46791467
0000e0 28 dc 0f 3e c9 56 28 3f 9c d5 b3 3e 4b 2d 27 3f
       0.14048827 0.65757424 0.3512391 0.65303487
0000f0 47 4f 1f be b4 16 78 3f ae 42 79 3e 67 4a f0 3e
       -0.15557586 0.9690964 0.24341843 0.46931764
000100 d7 31 b6 3d c9 8b d3 3e fe 8e 2b 3e 28 4d 0b 3f
       0.08896225 0.41317585 0.16753766 0.54414606
000110 ef b0 fb bd d5 99 cc 3e 8a 3b 73 3e 6d 30 80 3e
       -0.12289607 0.39961115 0.23753181 0.25036946
000120 64 61 8f 3e d7 8e 1b be e1 64 9f bd 22 3c e7 be
       0.2800399 -0.15191208 -0.07782913 -0.45163065
000130 cd c8 7e bf 65 b5 da be c7 f5 ee 3e 20 94 0d bf
       -0.9952515 -0.42716518 0.46671888 -0.55304146
000140 db f3 4e 3f 44 77 06 bf e2 0a 29 3f 15 f0 41 be
       0.80840844 -0.52525735 0.6603223 -0.1893924
000150 6e 11 06 3f ba cb ff be 56 7b 7c 3e f6 d2 ab be
       0.52370346 -0.4996012 0.24656424 -0.33559388
000160 ad f2 c8 3e 61 54 a5 bd 05 4f 4a 3e de 43 99 be
       0.39247647 -0.080727346 0.19756706 -0.2993459
000170 90 94 d9 bd 2d f3 cf be 53 99 1b 3f a3 41 47 be
       -0.10624039 -0.40615216 0.6078083 -0.19458632
000180 59 6b 2b bf 9c 7a 3d be 71 f8 1d bf 3e 5c 61 bf
       -0.66960675 -0.18503803 -0.61707217 -0.88031375
000190 f8 f8 e7 bd a6 56 9b 3f 89 38 10 3e a0 2b b9 3f
       -0.11326784 1.2135818 0.14084066 1.4466438
0001a0 74 db 2d 3d 06 1d 97 3f ad 18 f4 3d 6b 0a a5 3f
       0.042445615 1.1805732 0.11918769 1.2893804
0001b0 7c c7 b8 3e 37 40 67 3f 05 4e 16 3f 32 37 86 3f
       0.36089694 0.9033236 0.587128 1.0485594
0001c0 55 81 fb 3e 3f 8d fe 3e ba 3d 57 3d 43 96 59 3f
       0.4912211 0.49717137 0.0525491 0.84994906
0001d0 0d 90 13 3f 74 f2 3e 3f 98 e1 c5 3e fc b9 bb 3e
       0.5764168 0.74588704 0.38648677 0.36665332
0001e0 bf 3b c8 3e b2 a0 04 be 70 ae 02 be 90 f9 5b 3d
       0.39108083 -0.12951925 -0.12761855 0.0537048
0001f0 24 bd 01 c0 5d 2b 88 bd 70 b8 61 bf f4 e0 81 3d
       -2.0271692 -0.06648896 -0.88172054 0.063417345
000200 02 d6 b5 be 70 6b b6 bd 1d 20 df be b6 54 36 3f
       -0.35514838 -0.08907211 -0.43579188 0.7122301
000210 54 b6 ec be da 59 4b 3f 9d 2a c9 bd c2 6b 34 3f
       -0.46232855 0.7943398 -0.09822581 0.70476925
000220 92 46 17 be 07 f2 22 3f 44 37 01 bd 2c 26 f5 3e
       -0.14773014 0.63650554 -0.031546846 0.47880685
000230 39 02 eb 3e 4a 81 38 3e b3 02 e2 3e 49 f1 b2 3e
       0.45900133 0.1801807 0.44142684 0.3494971
000240 de d9 b8 3c 9f 57 85 3d 33 3f 23 bf da 14 c0 bd
       0.022564825 0.06510853 -0.6376831 -0.09378977
000250 a9 76 a9 be 47 3f 3b 3f 04 08 83 bf 6f 2e 46 3e
       -0.33098343 0.7314343 -1.0236821 0.1935365
000260 4d ee 3a bf 47 fc 01 be 0b 53 4f bf ba 15 ca be
       -0.7301987 -0.12693892 -0.8098609 -0.394697
000270 ea c2 be be 46 54 ef be 46 cf ba be 97 a1 37 bf
       -0.37258083 -0.46743983 -0.36486262 -0.7173094
000280 fd e7 82 be b0 e3 2d bf 68 04 6d be 7c e4 27 bf
       -0.25567618 -0.6792555 -0.23146212 -0.65583014
000290 25 eb e4 bd b3 32 4f bf 12 a2 ae be 61 04 4a bf
       -0.11177663 -0.80936736 -0.34108025 -0.7891293
0002a0 8f a7 06 3d e7 52 70 3e 16 c0 0b bf a7 87 aa be
       0.03287464 0.23469125 -0.54589975 -0.3330662
0002b0 ab 35 9b bf fd b8 f8 be 20 bc da be 35 74 8f bf
       -1.2125753 -0.48578635 -0.42721653 -1.1207339
0002c0 99 e5 54 be b3 3b 64 bf cd 0d df 3e 53 b7 8b bf
       -0.2079071 -0.89153594 0.43565217 -1.0915321
0002d0 e2 6d f1 3d ca 0b 83 bf f1 75 93 3d dd 44 8f be
       0.117885366 -1.0237973 0.0720023 -0.27982226
0002e0 f6 c5 7a 3e 2b 1d 41 bf 68 ec a8 3e b8 e8 08 bf
       0.24489579 -0.7543513 0.32992864 -0.534801
0002f0 b3 8b 80 3e 76 f4 98 be 73 66 5f 3d 2c d9 9b be
       0.25106582 -0.2987401 0.054541063 -0.30439126
000300 2e a5 84 bf 73 10 99 3c 2d 90 aa 3e 0d a1 bc bf
       -1.0362909 0.018684601 0.33313122 -1.4736649
000310 7b 03 cc bf 64 65 65 c0 47 01 00 bf 6f c5 d5 bf
       -1.5938562 -3.5843134 -0.5000195 -1.6700877
000320 92 10 ef bc d8 22 3d bf 8f 34 7d 3e cb 6a 9a be
       -0.029182706 -0.7388129 0.24727081 -0.30159602
000330 df a0 84 be 15 e4 a0 3d fb b0 d5 3c 28 26 db 3e
       -0.25903985 0.07856003 0.026085367 0.42802548
000340 56 0d 88 be 84 dc 13 3e 3f d8 c3 be 16 43 4f 3e
       -0.26572675 0.14439589 -0.3825092 0.20240435
000350 ba dc 76 be fc 68 db 3e a4 a5 9e be c4 98 3a 3f
       -0.24107638 0.42853534 -0.3098575 0.7288935
000360 36 f3 c4 3d b2 de 5f ba 68 f8 0b 3e 21 73 15 bf
       0.09616701 -0.0008539959 0.13668978 -0.583788
000370 7f 6e 47 bd 6c a7 2e 3f 33 ce 3a bf d8 33 0d 3e
       -0.04868936 0.68224216 -0.72970885 0.13789308
000380 cb 9e 92 be d7 ea b0 bd da 14 da be 9c c0 4d 3e
       -0.28636774 -0.08638542 -0.42594033 0.20093006
000390 bb 92 d0 be 75 5b ea bb a7 35 93 be 59 20 ba be
       -0.40736946 -0.007152016 -0.2875187 -0.36352804
0003a0 98 b0 0f 3d 40 c4 fd be 1b e9 07 be c3 cc 89 be
       0.035080522 -0.4956379 -0.13272516 -0.26914033
0003b0 22 33 86 be fb 3b 34 be 30 36 8e bd bf 36 e4 bd
       -0.26210886 -0.17601006 -0.06943929 -0.111432545
0003c0 85 da be bc 73 fa 80 bd ae 59 f3 be 96 d9 c4 3e
       -0.023297558 -0.062977694 -0.47529358 0.38447255
0003d0 c5 5c 11 3f ea 31 a1 3f b6 84 4d bd 07 23 4c 3e
       0.5678218 1.2593358 -0.05017539 0.19935237
0003e0 a2 35 b3 be c1 50 0a be da 96 8e be 75 16 d0 bd
       -0.35001856 -0.13507368 -0.27849466 -0.10160533
0003f0 5b 59 ba be b7 fd b8 be aa 2f 5b be f6 71 d6 be
       -0.36396298 -0.3613107 -0.21404901 -0.4188382

critic.0.bias f4 [64]
000000 65 2b 14 bf a8 00 e7 be 66 3f 3b 3e a3 73 55 3e
       -0.57878715 -0.45117688 0.18285903 0.20844893
000010 5e 6f f7 be 8e 21 d4 3e f2 d5 d7 bd c4 1b ec 3e
       -0.48327154 0.4143185 -0.10538854 0.46114933
000020 41 83 2c 3f 7b 71 8b 3e 29 4f fd 3e e8 14 ef be
       0.6738778 0.27235016 0.49474457 -0.46695638
000030 76 a1 19 3f 54 2d b6 3e b1 0b 15 3e 83 18 1f bf
       0.60011995 0.35581458 0.14555241 -0.62146777
000040 7f 9a 55 3f ca 69 27 3e 46 a3 44 bf dc 92 c9 bf
       0.8343887 0.16348949 -0.76811635 -1.5747943
000050 d9 87 6f bf e5 63 84 bf 6a cd f3 3e 8b ab 63 3e
       -0.9356666 -1.0342985 0.47617656 0.22233407
000060 69 ff b8 bd df 80 76 be 22 79 02 bc b9 11 9a bf
       -0.090330906 -0.24072598 -0.007963451 -1.2036659
000070 cf e6 c7 bf b6 cd 64 bf 2f c0 6c bf 88 78 68 3e
       -1.5617312 -0.8937639 -0.9248075 0.22702229
000080 05 e5 d3 be 0f 04 78 3e 43 60 e8 3e d8 87 4f bf
       -0.41385666 0.24220298 0.45385942 -0.81066656
000090 08 18 13 c0 b5 a8 99 3e e8 48 8c 3d 9b 72 28 3f
       -2.2983418 0.30011526 0.06849843 0.65799874
0000a0 3d ee b3 3e e5 cb a0 bf c0 9c 18 bf 35 59 12 3e
       0.351427 -1.2562224 -0.5961418 0.14291842
0000b0 7e 6f f1 3e 55 b5 b9 3e a2 7c aa be 5b 49 4f be
       0.47155374 0.36271158 -0.33298212 -0.20242827
0000c0 b5 61 bb bf e1 3a 4d be 8e 55 b9 be 4d ee 80 bf
       -1.4639193 -0.20041992 -0.36198086 -1.0072724
0000d0 14 44 b1 3e 1c 95 cc 3e d7 df 8f be 4f 4c 30 3e
       0.34622252 0.3995751 -0.28100464 0.1721661
0000e0 3a cd 1a 3f bb ce 1f 3f 92 a5 91 3e b4 d1 de 3e
       0.604694 0.6242482 0.28446633 0.43519366
0000f0 cb 3d 83 bf c0 59 6a 3e 9f 58 38 3e 33 27 02 c0
       -1.0253233 0.228858 0.18002556 -2.0336425

critic.2.weight f4 [32, 64]
000000 33 ad 4e be 5c 12 4d be 7c aa d6 bd da e4 ec be
       -0.20183258 -0.20026535 -0.10481736 -0.4626835
000010 7c 2b 62 be 00 30 99 3e e9 b0 63 be 9a b5 de be
       -0.220869 0.29919434 -0.22235455 -0.43497926
000020 32 c0 fe 3e 3d c5 e7 bd 00 2c 92 be 49 cd 8b bd
       0.49756008 -0.11316917 -0.28549194 -0.068262644
000030 df fb 17 bf 9b 09 b4 be 6f 1b 12 bf aa 96 2b 3d
       -0.593687 -0.35163578 -0.5707311 0.04189173
000040 82 ba d7 be 08 1f d5 be 3f 7c 08 be bd 35 1b bf
       -0.42134482 -0.41625237 -0.13328646 -0.60628873
000050 c2 50 33 3e 39 eb 6f 3e c6 cd 0e bf 14 30 b0 3d
       0.17511275 0.23429574 -0.55782735 0.0860292
000060 c6 9e 16 be f9 1a 86 be 82 bf 25 be 55 b8 8f bd
       -0.14709005 -0.26192454 -0.16186336 -0.070175804
000070 f1 7e 20 bc 9d 44 e3 3d d4 37 d3 3d ee 8f 1a bf
       -0.00979589 0.11097071 0.10313383 -0.6037587
000080 ac 6e 16 be 1e 70 a5 be c2 6d ce be 43 74 5c 3d
       -0.14690655 -0.323121 -0.40318114 0.053821813
000090 de ba 8d bf bd 15 80 bd d9 44 98 be bb 8b 12 bf
       -1.1072652 -0.06254146 -0.29740027 -0.5724446
0000a0 e4 b4 91 be 4d 86 98 3d 0e 7b 2b bf 3b 47 7d be
       -0.2845832 0.07447491 -0.6698464 -0.24734204
0000b0 f7 7b 73 3e 2b 4f 23 3d 46 92 4f be 07 13 eb bd
       0.23777758 0.039870422 -0.20270643 -0.114782386
0000c0 fb 36 36 3e 69 27 e5 be aa eb 19 3e a6 a3 74 bd
       0.17794411 -0.4475663 0.15031305 -0.05972638
0000d0 33 8b b6 be 24 dd 99 be 8c 75 97 be 04 ec 66 3c
       -0.35653076 -0.3005153 -0.2958187 0.014094356
0000e0 45 b6 24 be b9 37 22 be 29 d7 72 bd 6f 23 b4 bd
       -0.16085155 -0.15841569 -0.059287224 -0.08795821
0000f0 6b c2 a6 3d 88 44 a7 bd 03 b0 ca be 23 15 0e bf
       0.08142551 -0.08167368 -0.3958741 -0.55501
000100 a5 80 1d bf 97 65 a3 3e c3 20 3b 3e 0b 73 ce be
       -0.6152442 0.31913444 0.18274216 -0.40322146
000110 c0 80 50 bf 43 e1 19 c0 e2 b4 42 bf 77 80 d7 bf
       -0.81446457 -2.404374 -0.76057255 -1.6836079
000120 ad fa 30 3f 83 66 b4 ba 76 49 a7 be 0b 60 a3 be
       0.691325 -0.0013763461 -0.32673234 -0.31909212
000130 54 a9 a4 be 0b 45 ca be b7 4c 09 bf 8f 58 27 bf
       -0.32160437 -0.395058 -0.5363268 -0.65369505
000140 47 5c 78 be da 1b 26 3d f7 03 6b bd c3 2c 21 3e
       -0.24253951 0.040553905 -0.057376828 0.15739731
000150 b8 02 dc 3e aa da 2e 3e 2b 6d 83 bf 38 01 ae 3e
       0.42970824 0.17075601 -1.026769 0.33985305
000160 11 ca 5b be 03 91 9e bf 3e 7e c7 bf 21 41 29 3e
       -0.21463801 -1.2388004 -1.5585401 0.16528751
000170 03 1b 34 3f 47 4a 81 bf 30 a2 03 3e 15 2e 4e bf
       0.70353717 -1.0100793 0.12854838 -0.80539066
000180 c0 68 be be 81 e7 dc be 5b ab ba bf b9 9f f9 bc
       -0.37189293 -0.43145373 -1.4583544 -0.03047167
000190 32 cc 4c bf e9 b5 7f bf 8a df c4 bd fa a0 f4 be
       -0.7999908 -0.9988695 -0.09612949 -0.47779065
0001a0 1c 1a 1c bf aa 6d 42 3f b0 af e1 bf 21 c6 d9 bd
       -0.6097734 0.75948584 -1.763174 -0.10633493
0001b0 4f 44 de bd 1e 0a 2c bf fe a7 c8 3e 8c 13 50 3f
       -0.108528726 -0.6720294 0.39190668 0.81279826
0001c0 b7 a4 0b be 08 26 3a bf 4d a3 75 3e 37 1b 8c 3e
       -0.13637052 -0.7271428 0.23988076 0.27364513
0001d0 5a 77 8c 3d ec f7 97 be 6d 6f 99 3f 2f cd 24 c0
       0.06858702 -0.29681337 1.198713 -2.5750234
0001e0 88 56 bc bf 83 8f 38 3f 44 33 a4 be 51 16 42 3f
       -1.4713907 0.7209398 -0.32070363 0.758153
0001f0 ca 02 4e be e4 db f9 be 03 52 36 bf e1 99 03 3f
       -0.20118251 -0.48800576 -0.7121889 0.51406676
000200 98 15 19 be 49 c5 27 3f 05 3c 28 be 8b 06 f6 3e
       -0.14949644 0.6553541 -0.16429146 0.48051867
000210 51 2c df be db 17 04 bd 8d 82 a5 be e7 73 fd 3e
       -0.43588498 -0.032249313 -0.32326165 0.4950249
000220 48 22 83 3e a9 ca 26 be 30 64 a8 3e 71 b1 54 be
       0.25612092 -0.16288246 0.32888937 -0.20770814
000230 e1 9d 34 3e 1e 0a 01 3e 39 51 f2 3c 79 59 d1 be
       0.17638351 0.12601516 0.029579746 -0.40888575
000240 35 be ce be c4 ae 3f be 34 4f 97 3e 1f 1c 96 be
       -0.4037949 -0.18719012 0.29552615 -0.2931833
000250 f0 ca 50 3e f2 6a f5 be 38 f6 6a 3e e8 f1 98 3e
       0.20389915 -0.47933155 0.22945487 0.2987206
000260 ee 01 86 3e c2 0b 9d be cc 0b 92 be dc 4f 2b bf
       0.26173347 -0.30673033 -0.28524625 -0.6691873
000270 d2 1a fd be e7 a1 1c be d8 3d 2c 3e d3 4f e9 3e
       -0.49434525 -0.15296136 0.16820467 0.45568714
000280 d8 6e e0 3b 8c 9b a2 3e 3f 9e b5 3e a9 ad 36 bd
       0.006849151 0.31759298 0.35472295 -0.04459921
000290 e7 e1 66 3f 44 6e 79 3e d9 2e 2d 3d 46 28 88 3e
       0.9018845 0.24358469 0.042281006 0.26593226
0002a0 21 2b 86 3e 8a ae 85 be 75 48 f9 3e d9 e8 b8 3e
       0.2620478 -0.26109725 0.48688093 0.3611515
0002b0 af 37 44 bd 33 9d 58 bc bf 5b 8b 3b 43 67 27 bf
       -0.047904667 -0.013221073 0.0042528803 -0.6539194
0002c0 46 47 33 be 70 8a f3 bd 50 4f 13 3e 69 1f 96 be
       -0.17507657 -0.11891639 0.14385724 -0.2932084
0002d0 93 98 88 bd 83 92 82 3e 9a 47 20 bf 0d 46 48 3e
       -0.06669726 0.25502405 -0.62609255 0.19557972
0002e0 22 4c b9 3e 6e e4 94 be c6 60 54 3e b3 65 b4 be
       0.36190897 -0.29080528 0.20740041 -0.3523384
0002f0 01 a5 c8 3e 21 7d d0 3e 85 c3 bf bb b3 c1 2a bf
       0.39188388 0.40720466 -0.005852165 -0.6670181
000300 d2 8e 98 be e5 b4 09 3e 44 4f 11 3e a7 7d 21 bf
       -0.29796463 0.13447912 0.14190394 -0.63082355
000310 67 ec 69 bf f0 fc 2a bf c2 2c 57 3e 8e 11 b1 be
       -0.91376346 -0.667922 0.21013168 -0.34583706
000320 9b 09 cf 3e f3 dc 6d be 81 95 c2 bd 19 a3 e7 3e
       0.40437016 -0.23228817 -0.09501172 0.4524162
000330 d0 94 9a 3e f4 7d 74 3d 7a 38 37 be a6 4d 79 bf
       0.3019166 0.05969043 -0.17892638 -0.9738411
000340 37 c7 02 be 99 e6 8b 3e 4a 4a 86 3c a5 07 af bf
       -0.12771307 0.2732437 0.016392846 -1.3674208
000350 33 d5 18 bf ed 4a 6d bf 7e d6 54 3e bf 51 92 3c
       -0.59700316 -0.9269245 0.20784947 0.017861245
000360 af 43 1f 3f be 8b 42 3d 6e ea 33 be 70 01 8c bf
       0.6221265 0.04749655 -0.17569897 -1.0937939
000370 7c 30 90 bf 2a 84 93 be 7e b4 26 be 0c cd 3b be
       -1.1264796 -0.2881177 -0.1627979 -0.18339938
000380 ff 5f 0c 3a f7 f0 c9 3e d3 25 ad 3e 2f 81 a8 be
       0.00053548807 0.39441654 0.3381792 -0.3291106
000390 ab c1 51 bf a4 37 95 3e d7 ae b2 bd 6a fe c9 bd
       -0.8193614 0.29144013 -0.08724754 -0.09862979
0003a0 6a f1 a8 be ba f5 78 bf 1e 9d 89 bd cb 14 8e 3c
       -0.32996684 -0.9724995 -0.06719421 0.0173439
0003b0 11 d3 39 3e 8f 26 8b be e4 bf d2 bd 8b f5 5f be
       0.18146922 -0.27177855 -0.102905065 -0.21871011
0003c0 4b 69 8b bf 6d 03 1d be c3 4a 8a 3e ac 02 a1 bf
       -1.0891508 -0.15333338 0.27010164 -1.257894
0003d0 a2 8b 92 be 45 20 e7 be e3 32 3e bf 17 9a d9 be
       -0.28622156 -0.45141807 -0.74296397 -0.42500374
0003e0 5e e9 e3 3d d9 a9 68 be 25 2a 36 be 54 e0 0f be
       0.11128496 -0.22721042 -0.17789514 -0.14050418
0003f0 c4 72 7b bf 63 ab 51 3e 36 f4 28 bc 2e 0a c8 bf
       -0.98221993 0.20475535 -0.010312131 -1.5628107

critic.2.bias f4 [32]
000000 6b f3 da be 98 a7 ff bc 76 c5 d7 3e fb 87 fb 3e
       -0.42763838 -0.031207845 0.42142838 0.49127182
000010 a7 51 eb 3e e4 c6 d3 3e ab 18 17 be 3f 69 b7 be
       0.45960733 0.4136268 -0.14755504 -0.35822484
000020 c6 bb 10 3f 02 5e 3b 3f 6e b9 68 be 30 aa b7 be
       0.5653652 0.7319032 -0.22726986 -0.3587203
000030 3d a3 11 3f 50 c1 e6 3e 77 57 13 3f fe f1 d0 3e
       0.56889707 0.4506936 0.57555336 0.40809625
000040 0d 1b b6 be 34 63 fc 3e e9 f9 f3 3e db bb 14 3f
       -0.35567513 0.49294436 0.47651604 0.58099145
000050 ea 23 2e 3f 3a 0d ec 3e d1 28 99 be 52 77 15 bf
       0.6802355 0.4610384 -0.29913953 -0.58385193
000060 4f ca 94 be 8d 04 99 3e 42 90 bb be 9b d3 01 3f
       -0.290606 0.29886284 -0.36633497 0.5071351
000070 7a 47 07 be c0 9c e9 bd 04 8b c9 bd 0b cc 71 be
       -0.1321086 -0.11406851 -0.09840968 -0.23612992

critic.4.weight f4 [1, 32]
000000 53 12 f4 be 9e 9f c4 bf cc 9a 29 3e 1b ba e9 3e
       -0.4767023 -1.5361211 0.16562957 0.456498
000010 1f 89 d1 3e b9 de 02 3f ad 70 1b bf 18 84 a0 bf
       0.40924928 0.511211 -0.60718805 -1.2540312
000020 70 96 d7 3e 43 2c 14 3f bf f0 84 bf a6 33 03 c0
       0.42106962 0.5788004 -1.038597 -2.0500274
000030 28 3d 14 3f 01 f0 cf 3e 52 bc ab 3e 83 cb b0 3e
       0.5790582 0.40612796 0.33542114 0.34530267
000040 d9 2f a7 bf bd 08 ec 3e c6 86 c1 3e 4a 3d 07 3f
       -1.3061477 0.46100417 0.37798136 0.52827895
000050 ef 56 f3 3e 7f 1e 15 3f 4b 6c 19 bf 9b a6 81 bf
       0.47527263 0.5824966 -0.59930867 -1.0128969
000060 3e 41 4d bf e5 a1 9f 3e 37 0e 50 bf 0d 18 e6 3e
       -0.80177677 0.31178203 -0.8127169 0.44940224
000070 08 45 60 bf af 02 db be c9 51 f5 bf d3 8c 51 bf
       -0.87605333 -0.42775485 -1.9165584 -0.81855506
