logs/exp/model_93.pt (torch, 34660 bytes, 12 tensors)

log_std f4 [3]
-0.4095028 -0.13802685 -0.14794198
00000000: 5aaa d1be e956 0dbe 1a7e 17be

actor.0.weight f4 [64, 24]
-0.40551257 0.012060309 0.5347021 -0.65412444 -0.6071587 -0.55846965 -0.35493505 -0.36065623
-0.02329216 -0.67593974 -0.1821376 -0.40199605 -0.5064188 -0.110577226 -0.34820598 -0.65428984
-0.18123542 -0.31075236 0.09714507 -0.74271613 -0.035557333 -0.45805246 -0.19977368 -0.38086215
-0.11489366 0.10498754 0.09893817 0.31755024 -0.41459844 0.08610553 -0.15679212 0.08840107
-0.19070847 -0.19439287 -0.080253944 -0.36782426 0.08681791 -0.5021524 0.1301632 -0.31619513
-0.08046713 -0.45582324 -0.18962587 -0.40424156 -0.3547031 -0.22303465 -0.046363108 -0.3050566
-0.07638602 -0.15233229 0.11974465 -0.44157568 0.18899947 0.23364975 0.23392448 -0.30307886
0.5324798 -0.089737274 0.2513809 -0.18984665 0.24790886 -0.1707564 0.43782312 -0.36624873
-0.28784055 -0.07620686 -0.17720559 0.053905465 -0.037217733 -0.012756648 -0.100911655 -0.3479116
-0.45583004 0.1962516 0.05321972 0.06326876 -0.1149276 -0.08771173 -0.12975504 -0.439928
0.10678983 0.07392633 -0.1865907 0.014451568 0.051931754 0.16859709 0.07304705 -0.3296445
-0.05063208 -0.059784316 -0.03250181 0.045619942 0.010643123 -0.18658483 -0.20239931 0.092247866
-0.23509306 -0.025129754 0.20668569 -1.3150123 0.50938845 0.90708953 -0.026328908 0.16057163
-0.14843647 0.09758428 -0.0772273 -0.10201727 -0.18560302 -0.09017068 -0.3117135 -0.10650459
-0.21796604 -0.06385679 -0.110210955 0.01417395 0.056502298 -0.2840564 -0.0055820644 -0.24194434
-0.5340283 -0.16053666 0.09252019 0.09330429 -0.19099435 0.74196464 0.27095023 0.23019955
0.1355265 0.35132512 0.06048602 0.29276302 0.12786077 0.20574148 0.06550567 0.4825734
-0.011833037 0.26329643 0.26388204 -0.0047523393 -0.022522863 0.03166868 0.06309362 0.12817848
0.06530139 0.40903714 -0.28483266 -0.6370122 0.59902745 -0.092126496 0.8272213 -0.33807188
0.6965017 -0.11708589 0.44901302 -0.007324919 0.25561133 -0.006503005 0.5334653 0.3057665
-0.17285767 0.2716688 -0.06311793 0.011247973 -0.06627639 0.3284805 -0.058340777 0.18161063
0.040739935 0.028171936 -0.11173184 -1.3585976 -0.02177143 -0.15470158 -0.3144278 0.1604742
0.024232352 0.13883932 0.17917778 0.2540275 -0.14591457 -0.019897467 0.030760484 0.061208226
0.3534304 -0.02880346 -0.13832843 0.037795395 -0.25481373 0.21047813 -0.3689675 0.38014656
-0.027481692 0.09554209 0.034871858 0.3819669 0.6905442 0.2546485 0.18867856 0.029995125
0.47406763 0.008803978 -0.14611433 0.089203894 0.113246396 0.14725596 -0.2189532 -0.19854711
-0.13060518 -0.25930452 -0.024678469 -0.3301734 -0.019944608 -0.2735326 -0.4033925 -0.30256954
0.031212589 0.13008115 0.05779332 -1.1358733 -0.5707314 -0.5753227 -0.34252214 -0.07659112
-0.379674 -0.298404 -0.4870525 0.002751759 -0.39866507 0.043003675 -0.47392923 0.18143244
-0.44100899 -0.365429 -0.3542302 -0.0019748248 -0.37392843 -0.050881904 -0.04331422 -0.044212285
-0.26088366 -0.23641087 -0.23749447 -0.07921367 -0.26229748 0.07075245 0.2379656 0.34793714
0.34182602 -0.0103009585 0.006282759 -0.048011307 0.13171588 0.13005494 0.24229716 0.106607884
00000000: 589f cfbe 9a98 453c 3de2 083f b374 27bf
00000010: c16e 1bbf def7 0ebf 0cba b5be efa7 b8be
00000020: 33cf bebc 630a 2dbf 4782 3abe 6dd2 cdbe
00000030: aaa4 01bf 5076 e2bd 0e48 b2be 8a7f 27bf
00000040: c795 39be ef1a 9fbe fff3 c63d a522 3ebf
00000050: 91a4 11bd da85 eabe 7991 4cbe 5d00 c3be
00000060: 5e4d ebbd b503 d73d 18a0 ca3d f295 a23e
00000070: 3f46 d4be 1958 b03d 1d8e 20be 9f0b b53d
00000080: 1549 43be ed0e 47be 2e5c a4bd 7653 bcbe
00000090: 97cd b13d 0f8d 00bf 8049 053e 54e4 a1be
000000a0: f3cb a4bd aa61 e9be 492d 42be c0f8 cebe
000000b0: a59b b5be 3263 64be 3ee7 3dbd 6130 9cbe
000000c0: 4670 9cbd fffc 1bbe af3c f53d 3516 e2be
000000d0: 1489 413e e141 6f3e e689 6f3e 272d 9bbe
000000e0: 9950 083f 2dc8 b7bd ffb4 803e 2967 42be
000000f0: d2db 7d3e c4da 2ebe 5a2a e03e f484 bbbe
00000100: d65f 93be 5812 9cbd 6275 35be facb 5c3d
00000110: 9f71 18bd 4201 51bc c5aa cebd 7821 b2be
00000120: 8e62 e9be 2ef6 483e ecfc 593d 0d93 813d
00000130: 295f ebbd 35a2 b3bd 81de 04be 3e3e e1be
00000140: a0b4 da3d b066 973d a211 3fbe 45c6 6c3c
00000150: 64b6 543d b7a4 2c3e b199 953d 2ac7 a8be
00000160: 9563 4fbd 66e0 74bd 9e20 05bd fadb 3a3d
00000170: 7e60 2e3c 1810 3fbe c441 4fbe 73ec bc3d
00000180: 3cbc 70be eadc cdbc 6aa5 533e 5352 a8bf
00000190: 4867 023f 0537 683f b9af d7bc e46c 243e
000001a0: bbff 17be 44da c73d 5929 9ebd 6eee d0bd
000001b0: b80e 3ebe 68ab b8bd e998 9fbe 141f dabd
000001c0: 7d32 5fbe 59c7 82bd 48b6 e1bd db39 683c
000001d0: f46e 673d d76f 91be c0e9 b6bb 42c0 77be
000001e0: 14b6 08bf b963 24be 3a7b bd3d 5216 bf3d
000001f0: 0694 43be 65f1 3d3f fdb9 8a3e 6eb9 6b3e
00000200: 75c7 0a3e e3e0 b33e 30c0 773d 09e5 953e
00000210: efed 023e e5ad 523e d627 863d dc13 f73e
00000220: 5bdf 41bc cace 863e 8c1b 873e 83b9 9bbb
00000230: de81 b8bc 05b7 013d 3a37 813d 3841 033e
00000240: bcbc 853d 516d d13e 96d5 91be 3b13 23bf
00000250: dd59 193f d1ac bcbd c6c4 533f c217 adbe
00000260: ef4d 323f baca efbd 09e5 e53e e005 f0bb
00000270: 7ddf 823e 2917 d5bb 2f91 083f 6d8d 9c3e
00000280: 9a01 31be 2c18 8b3e f943 81bd 6b49 383c
00000290: eabb 87bd 992e a83e bdf6 6ebd 23f8 393e
000002a0: ebde 263d d5c8 e63c aad3 e4bd 87e6 adbf
000002b0: ff59 b2bc 176a 1ebe aefc a0be 5953 243e
000002c0: ed82 c63c e52b 0e3e 617a 373e e40f 823e
000002d0: a16a 15be 0300 a3bc 69fd fb3c 7ab5 7a3d
000002e0: d4f4 b43e 3cf5 ebbc f8a5 0dbe 58cf 1a3d
000002f0: f276 82be 9487 573e 4fe9 bcbe 92a2 c23e
00000300: 4921 e1bc 92ab c33d cbd5 0e3d 2a91 c33e
00000310: 81c7 303f 4a61 823e f434 413e 56b8 f53c
00000320: feb8 f23e 8f3e 103c ff9e 15be 88b0 b63d
00000330: baed e73d 44ca 163e 4535 60be ef4f 4bbe
00000340: 5dbd 05be 90c3 84be 802a cabc 7d0c a9be
00000350: e062 a3bc 770c 8cbe 7689 cebe 65ea 9abe
00000360: 8bb1 ff3c fe33 053e b0b8 6c3d 4c64 91bf
00000370: 741b 12bf 5948 13bf 105f afbe cedb 9cbd
00000380: a164 c2be 69c8 98be f25e f9be db56 343b
00000390: d41d ccbe 9f24 303d daa6 f2be 6dc9 393e
000003a0: eecb e1be 8319 bbbe a95d b5be 106c 01bb
000003b0: 8c73 bfbe 8b69 50bd 406a 31bd f117 35bd
000003c0: 8b92 85be b115 72be c031 73be c73a a2bd
000003d0: db4b 86be a9e6 903d 41ad 733e d124 b23e
000003e0: d203 af3e 5ac5 28bc 9adf cd3b 81a7 44bd
000003f0: 87e0 063e 1f2d 053e bf1c 783e 3c55 da3d

actor.0.bias f4 [64]
0.13804895 -0.0868496 -0.29462722 -0.16566186 -0.057852827 -0.12562658 -0.24145491 -0.058486864
-0.45646507 -0.3847143 -0.030603666 -0.26042524 -0.14512792 0.09178728 -0.23693256 0.025952104
0.07834707 -0.13183758 0.029202132 -0.22510517 -0.027852513 -0.43489176 -0.19947909 -0.24952053
-0.33086938 -0.49453896 -0.13184999 0.33953604 -0.15010665 -0.13827565 -0.44297406 -0.47045434
-0.27043486 -0.34053233 -0.11470411 -0.2417758 -0.6390952 0.050777577 -0.36801046 -0.052735936
-0.22844036 -0.3367732 -0.23568757 0.06930784 -0.17910153 0.041531067 -0.18010886 -0.2589199
-0.0047362563 -0.45113483 -0.102446735 -0.2686886 -0.4189261 -0.098311216 -0.2936379 -0.28834268
0.051387392 -0.10086103 -0.08700464 -0.46945465 -0.39191338 0.05082767 0.19742931 -0.28403145
00000000: b45c 0d3e 34de b1bd 61d9 96be 43a3 29be
00000010: 16f7 6cbd 41a4 00be f53f 77be ec8f 6fbd
00000020: cab5 e9be 46f9 c4be 8ab4 fabc 7556 85be
00000030: 6a9c 14be f8fa bb3d 739e 72be 8299 d43c
00000040: 6e74 a03d 6e00 07be 4f39 ef3c f881 66be
00000050: f42a e4bc 22aa debe 3f44 4cbe 4f82 7fbe
00000060: b667 a9be 3634 fdbe af03 07be abd7 ad3e
00000070: 8fb5 19be 2298 0dbe 7fcd e2be 64df f0be
00000080: 7076 8abe 415a aebe fde9 eabd 1394 77be
00000090: be9b 23bf 26fc 4f3d de6b bcbe a301 58bd
000000a0: 45ec 69be 896d acbe 1558 71be 45f1 8d3d
000000b0: 6466 37be 7b1c 2a3d 756e 38be 2691 84be
000000c0: 9932 9bbb 25fb e6be 98cf d1bd 8d91 89be
000000d0: 7b7d d6be 6457 c9bd b557 96be a7a1 93be
000000e0: 967b 523d 3a90 cebd 7d2f b2bd 5c5c f0be
000000f0: dfa8 c8be ad30 503d e92a 4a3e 926c 91be

actor.2.weight f4 [32, 64]
-0.19109868 -0.09791446 -0.35692433 -0.11721781 0.17011583 -0.083394065 -0.3687233 -0.05735279
-0.29704848 -0.38493055 0.022306403 -0.3368339 0.022066914 -0.44854036 -0.3501487 -0.22231445
-0.32579187 0.5044255 -0.35480505 -0.33909404 0.07870453 0.09199629 0.121006876 -0.2455594
0.22374757 0.09590667 0.24921612 -0.5162004 -0.15973629 -0.03518236 -0.3129242 -0.08954941
-0.30630082 0.0725911 -0.010202148 0.17362653 0.019474246 -0.35513783 -0.012027529 0.13767678
-0.056227643 0.17834942 -0.055112444 -0.32433957 -0.068920955 -0.40331134 0.081262894 -0.24814019
0.16769722 -0.19101366 -0.40986317 0.3248011 -0.055119302 0.062982924 -0.0398018 0.0429402
0.261221 -0.25323677 0.20809412 0.24372824 0.21496238 -0.3566917 -0.4173004 0.25259507
-0.99011713 0.5345174 -0.12301183 -0.17284997 -0.14043611 -0.221108 -0.35083404 0.16204427
0.154672 0.18385532 -0.5143931 -0.24377018 -0.049446728 -0.52584946 -0.013761225 -1.2789907
0.053629607 0.24903335 0.12986122 -0.22478698 -0.25814834 0.0075863046 -0.014841428 0.015715064
-0.06886615 0.013236564 -0.037091006 -0.13608067 -0.45681065 -0.18124495 0.011808461 -0.12899081
-0.1793119 0.15589474 -0.31868762 0.013525544 0.04230569 -0.19716135 0.040228646 0.019933142
-0.2966568 -0.10475353 0.08548458 -0.16802984 -0.24461523 -0.18724789 0.0051646386 0.23378944
-0.0128875645 0.123189285 -0.23376134 -0.6045512 -0.04894732 -0.14917073 -0.3537978 -0.2709701
-0.28459576 0.17950056 -0.19183354 -0.17997508 0.25185755 -0.22323878 -0.2795329 0.08704802
-0.65272206 -0.16443865 0.07721168 -0.21889174 -0.32638636 -0.016688697 -0.2196995 0.051721256
-0.1710877 -0.24443719 -0.13619535 -0.5167044 -0.0016462783 -0.15188463 -0.2729107 -0.41479316
-1.3067268e-05 0.08491981 0.116726436 0.029450899 -0.20514326 0.15897089 -0.15147795 0.01870849
-0.34113768 -0.11701041 -0.07731633 0.300757 -0.20969807 -0.14370635 -0.021487271 -0.17670572
-0.03215873 -0.13739644 -0.06216208 -0.14556374 0.0631411 -0.1170735 -0.020174593 -0.15855186
-0.025159907 -0.03387591 -0.21077453 0.21230179 -0.3664009 0.06324442 0.18030912 0.25803557
0.111135624 -0.0508586 -0.047740772 0.29233205 -0.092670314 -0.18417266 0.018876495 -0.12980679
0.25652087 -0.28752375 -0.0016096024 -0.0033767896 0.20540565 -0.11259177 0.17892389 -0.4467437
-0.42424643 -0.18666184 0.03024669 0.03455176 0.123108216 0.35893735 0.36285728 0.17769654
-0.025649827 -0.53555024 -0.10152712 -0.1270413 -0.18541577 -0.51967126 -0.43300864 -0.23880175
0.20526725 -0.0075220964 -0.058018897 -0.1987659 -0.46320805 -0.11053464 0.20104806 0.16165356
0.41878685 0.39727762 0.36261487 0.31434187 0.19366848 -0.08761901 -0.1950878 -0.054245286
0.43423003 -0.44218177 -0.07607972 -0.089027196 0.017604945 -0.9498249 -0.012349697 0.341807
-0.16305558 0.0481017 0.09859156 0.25567234 -0.22635165 0.11650526 0.4137955 0.05457066
0.03744624 -0.3324089 -0.30375522 -0.1623539 0.20435739 -0.19013451 -0.020346275 0.0066178595
0.51764786 0.10938867 0.22327058 0.118718304 0.38872227 -0.029626744 -0.21958089 0.06832507
00000000: 5faf 43be 6087 c8bd c9be b6be e40f f0bd
00000010: d832 2e3e 82ca aabd 4dc9 bcbe c2ea 6abd
00000020: bd16 98be 9e15 c5be ebbb b63c 7e75 acbe
00000030: acc5 b43c 15a7 e5be b146 b3be 66a6 63be
00000040: 31ce a6be 0822 013f 02a9 b5be bc9d adbe
00000050: d72f a13d 8d68 bc3d 74d2 f73d ec73 7bbe
00000060: 151e 653e b76a c43d 8332 7f3e b625 04bf
00000070: e991 23be 611b 10bd 9a37 a0be ae65 b7bd
00000080: 76d3 9cbe a5aa 943d e926 27bc 27cb 313e
00000090: 7488 9f3c a0d4 b5be 1d0f 45bc 24fb 0c3e
000000a0: f54e 66bd 3ba1 363e 96bd 61bd d60f a6be
000000b0: 6e26 8dbd d37e cebe 296d a63d 7618 7ebe
000000c0: d2b8 2b3e 1699 43be 96d9 d1be 544c a63e
000000d0: c7c4 61bd 31fd 803d 3607 23bd 10e2 2f3d
000000e0: c2be 853e 40a8 81be a016 553e e593 793e
000000f0: 191f 5c3e 4ba0 b6be 66a8 d5be 2454 813e
00000100: 5178 7dbf 22d6 083f a0ed fbbd 95ff 30be
00000110: 7cce 0fbe 236a 62be 85a0 b3be efee 253e
00000120: 5662 1e3e 9244 3c3e 44af 03bf e49e 79be
00000130: a788 4abd 129e 06bf c376 61bc f8b5 a3bf
00000140: b8aa 5b3d 9902 7f3e 57fa 043e 8f2e 66be
00000150: 052c 84be 8996 f83b 7629 73bc e1bc 803c
00000160: b209 8dbd 2cde 583c bdec 17bd bb58 0bbe
00000170: 16e3 e9be 4798 39be 4678 413c 2b16 04be
00000180: 8a9d 37be dfa2 1f3e 062b a3be 3e9a 5d3c
00000190: bb48 2d3d aae4 49be cbc6 243d d44a a33c
000001a0: 66e3 97be 0589 d6bd 8a12 af3d 0410 2cbe
000001b0: 6a7c 7abe e9bd 3fbe 213c a93b 8066 6f3e
000001c0: 5d26 53bc aa4a fc3d 225f 6fbe dec3 1abf
000001d0: fc7c 48bd 36c0 18be fc24 b5be 98bc 8abe
000001e0: 89b6 91be ffce 373e 0370 44be 634b 38be
000001f0: 79f3 803e b598 64be f01e 8fbe 3b46 b23d
00000200: cb18 27bf 9b62 28be 2821 9e3d 2825 60be
00000210: 1d1c a7be bcb6 88bc e8f8 60be abd9 533d
00000220: 9d31 2fbe be4d 7abe cb76 0bbe bd46 04bf
00000230: efc7 d7ba a587 1bbe f4ba 8bbe c55f d4be
00000240: 7d3b 5bb7 70ea ad3d 450e ef3d 0343 f13c
00000250: 1311 52be 44c9 223e 091d 1bbe 8c42 993c
00000260: 99a9 aebe 27a3 efbd 0658 9ebd d2fc 993e
00000270: 17bb 56be c227 13be 1306 b0bc 58f2 34be
00000280: dfb8 03bd a7b1 0cbe aa9d 7ebd a90e 15be
00000290: 1f50 813d 3bc4 efbd 3045 a5bc 6b5b 22be
000002a0: 261c cebc 77c1 0abd 47d5 57be a465 593e
000002b0: e698 bbbe 4a86 813d f4a2 383e 3d1d 843e
000002c0: 139b e33d 1b51 50bd d48b 43bd 8cac 953e
000002d0: efc9 bdbd c297 3cbe e1a2 9a3c 12ec 04be
000002e0: b456 833e 5036 93be 4bf9 d2ba 214d 5dbb
000002f0: dc55 523e 8496 e6bd d337 373e 97bb e4be
00000300: d436 d9be 4824 3fbe e8c7 f73c 2586 0d3d
00000310: 2920 fc3d a3c6 b73e 6ec8 b93e 15f6 353e
00000320: 961f d2bc d219 09bf 73ed cfbd 1d17 02be
00000330: a2dd 3dbe 2d09 05bf 4fb3 ddbe 7288 74be
00000340: 9431 523e eb7b f6bb 39a5 6dbd 4a89 4bbe
00000350: 9b29 edbe fc5f e2bd 8bdf 4d3e 8388 253e
00000360: 3b6b d63e f967 cb3e a8a8 b93e 6bf1 a03e
00000370: 0851 463e 9871 b3bd 19c5 47be 4e30 5ebd
00000380: 6653 de3e a665 e2be afcf 9bbd e453 b6bd
00000390: 3f38 903c ba27 73bf 6256 4abc 5401 af3e
000003a0: 0bf8 26be 4a06 453d 5fea c93d 7ce7 823e
000003b0: bac8 67be 4f9a ee3d 01dd d33e 7c85 5f3d
000003c0: 3b61 193d 8031 aabe ce85 9bbe 1a40 26be
000003d0: 1043 513e 9fb2 42be 3bad a6bc a1da d83b
000003e0: 9284 043f 2b07 e03d 0ba1 643e 9522 f33d
000003f0: 9b06 c73e c9b3 f2bc d0d9 60be 04ee 8b3d

actor.2.bias f4 [32]
-0.27002734 -0.12171494 -0.17209564 -0.32104248 -0.047898524 -0.03155767 -0.27265725 0.052307215
0.14365776 0.04332271 -0.06628838 -0.32833374 -0.14116926 0.07581826 -0.095728084 -0.1509901
-0.0002351431 -0.15869044 -0.099882625 -0.13749903 -0.245417 -0.1087351 -0.11745028 0.026185
-0.10604797 -0.124585405 -0.20507686 -0.334603 -0.28680727 -0.15397395 -0.13695942 -0.05234324
00000000: 0641 8abe af45 f9bd d739 30be ae5f a4be
00000010: 3e31 44bd 9e42 01bd bb99 8bbe 1740 563d
00000020: 051b 133e 2773 313d 34c2 87bd 5c1b a8be
00000030: ad8e 10be 9b46 9b3d 160d c4bd 269d 1abe
00000040: bf90 76b9 bf7f 22be 438f ccbd 8ccc 0cbe
00000050: 984e 7bbe 82b0 debd c689 f0bd ed81 d63c
00000060: ae2f d9bd a226 ffbd abff 51be 1651 abbe
00000070: 67d8 92be 59ab 1dbe 173f 0cbe dd65 56bd

actor.4.weight f4 [3, 32]
0.018368112 -0.040447988 -0.045258623 0.0681198 -0.08182509 0.033152856 0.10576014 -0.01965431
-0.07372176 0.0039345287 -0.02210798 0.040365413 -0.044038523 -0.01147454 0.0047924565 0.00095481635
-0.04438185 -0.011735565 0.024297107 -0.034233175 0.11581797 -0.016182505 -0.10570172 -0.095263295
-0.0035642313 0.028838199 0.03835198 0.034796353 0.04137419 0.04519602 0.0044741677 -0.0008865673
0.05911362 0.019570392 -0.011232211 -0.026492933 0.015313345 0.023218242 0.0038857467 0.0047602393
-0.063018516 0.0035340388 0.022652915 0.058125403 -0.105590634 0.021158991 -0.0013583521 0.02687378
0.0063460385 -0.005960157 0.0022490027 -0.0049500605 0.010375075 -0.024920203 0.05174079 0.06357409
-0.016331993 -0.016988613 -0.009098038 0.16857815 -0.063120924 -0.09810528 -0.006731664 -0.0990192
-0.024677498 -0.03979021 0.010721841 0.09158513 0.008106611 -0.03331831 0.09775512 -0.064312354
0.10324697 -0.0062483447 -0.040712323 -0.031359453 0.12645923 -0.034403298 0.116168514 0.07302651
0.044588607 0.039932445 -0.033328786 -0.03722539 -0.038324732 0.038192626 0.04979256 -0.011930468
-0.0070246668 0.06364301 0.09441249 -0.04028417 0.06301578 0.15800633 -0.009857713 0.02335792
00000000: b978 963c caac 25bd 1b61 39bd 6582 8b3d
00000010: ea93 a7bd 4acb 073d c698 d83d 1302 a1bc
00000020: 6ffb 96bd 38ed 803b cb1b b5bc 3456 253d
00000030: bd61 34bd b6ff 3bbc 0a0a 9d3b a44c 7a3a
00000040: bec9 35bd 8746 40bc ba0a c73c 1638 0cbd
00000050: f931 ed3d 2c91 84bc 257a d8bd 6719 c3bd
00000060: e195 69bb 163e ec3c f716 1d3d 9f86 0e3d
00000070: fc77 293d 761f 393d 0a9c 923b 8668 68ba
00000080: 2021 723d 1652 a03c 4f07 38bc b507 d9bc
00000090: d3e4 7a3c 2f34 be3c 03a8 7e3b c8fb 9b3b
000000a0: da0f 81bd 559b 673b 9b92 b93c e714 6e3d
000000b0: e73f d8bd 9f55 ad3c bc0a b2ba 6726 dc3c
000000c0: 6ef2 cf3b 6c4d c3bb 0164 133b 1e34 a2bb
000000d0: 38fc 293c 7425 ccbc 27ee 533d 2233 823d
000000e0: acca 85bc b42b 8bbc f00f 15bc c09f 2c3e
000000f0: 8b45 81bd 6ceb c8bd 4a95 dcbb 94ca cabd
00000100: 7728 cabc 0ffb 22bd a9aa 2f3c fc90 bb3d
00000110: 97d1 043c c878 08bd d633 c83d 32b6 83bd
00000120: 2673 d33d eabe ccbb f7c1 26bd c572 00bd
00000130: 877e 013e 79ea 0cbd c2e9 ed3d ec8e 953d
00000140: 8ba2 363d 3490 233d c483 08bd a779 18bd
00000150: 65fa 1cbd df6f 1c3d 49f3 4b3d 0278 43bc
00000160: 2d2f e6bb 4457 823d 565b c13d 0401 25bd
00000170: 6b0e 813d 69cc 213e 3f82 21bc 1c59 bf3c

actor.4.bias f4 [3]
0.10733874 -0.06926841 0.12603615
00000000: 6ad4 db3d 99dc 8dbd 9f0f 013e

critic.0.weight f4 [64, 24]
-0.24367775 -0.010239084 -0.77741843 -0.8609804 -0.2162187 -0.058681626 -0.32736242 0.10741899
-0.49150762 0.19990142 -0.10918906 0.31979606 -0.07238362 0.40977526 -0.031746954 -0.07312039
0.031518247 0.316569 -0.38593638 -0.30595845 -0.22903973 -0.12781596 0.04876941 -0.27143997
-0.2783376 -0.0038347137 0.17391694 0.34473068 -0.16495797 -1.6501738 -0.22302118 -1.6260136
0.23522313 -1.2030298 0.41038668 -1.2813041 0.44020778 -0.830438 0.23433062 -1.1756971
-0.22032845 -0.62963635 -0.10234877 -0.67258 0.094632566 -0.6795239 -0.44457328 -0.7181828
-0.44444403 0.14440967 -0.3243342 -0.5519734 -1.3086374 -0.04960039 -0.223528 0.42022872
0.16839443 0.58312 0.37563574 0.57092357 -0.13115478 0.8917562 0.2670695 0.4011613
0.112082474 0.35654974 0.18792461 0.49564847 -0.10366534 0.35808992 0.25558797 0.21325208
0.18250863 -0.15298308 -0.07569634 -0.35062665 -1.0347018 -0.38387316 0.4753583 -0.5397506
0.8319831 -0.5342624 0.68988734 -0.21194105 0.55783343 -0.52900285 0.28437173 -0.3667592
0.4337041 -0.109325096 0.2415321 -0.32263926 -0.057460263 -0.42035535 0.6603139 -0.198804
-0.69714093 -0.11693975 -0.598251 -0.93265754 -0.1858466 1.2067956 0.077865206 1.4403976
-0.0093883 1.1731769 0.07393534 1.2804997 0.3206591 0.8938589 0.55045354 1.038965
0.4580908 0.4881541 0.021762663 0.841356 0.54922473 0.73901546 0.36271638 0.36197478
0.46935737 -0.078666806 -0.13582134 0.037894417 -2.0772803 -0.19892907 -0.90623516 -0.08974747
-0.37191808 -0.22781609 -0.45505688 0.5954036 -0.4877351 0.69586366 -0.13280854 0.6203657
-0.19277753 0.5629271 -0.08608692 0.414513 0.39553952 0.12340742 0.37054408 0.2999869
-0.060949877 0.0035775567 -0.6463927 -0.022793252 -0.24975988 0.78153807 -0.95656735 0.21504863
-0.674475 -0.13090375 -0.758443 -0.41493884 -0.32030505 -0.49678913 -0.30902246 -0.7503815
-0.19582474 -0.7126076 -0.16691697 -0.6869349 -0.043171722 -0.8374586 -0.2681842 -0.8134907
-0.05229649 0.19953589 -0.52876335 -0.387354 -1.1595402 -0.44852743 -0.39103717 -1.1048582
-0.18269116 -0.8940846 0.45590428 -1.1055219 0.13660127 -1.0437598 0.090918876 -0.30148202
0.26450098 -0.7749606 0.35092217 -0.5527321 0.27376816 -0.31361988 0.07946666 -0.31586036
-1.0425642 0.01594956 0.30918097 -1.4276705 -1.4561553 -3.62882 -0.43904343 -1.7748705
0.009888476 -0.84943265 0.27845517 -0.4017662 -0.23056592 -0.0050247055 0.04944407 0.35893196
-0.24930558 0.086209804 -0.37566563 0.14946511 -0.2439076 0.37781325 -0.3213343 0.67871445
0.06155705 0.037774753 0.20550056 -0.38435537 -0.05638255 0.6600339 -0.7135963 0.16078101
-0.26931095 -0.044354994 -0.41566727 0.24938957 -0.4073974 0.03930841 -0.29668805 -0.32266036
0.016766824 -0.4630763 -0.15648818 -0.24462375 -0.29033914 -0.16060328 -0.09913259 -0.10451178
-0.079016745 -0.07154079 -0.4861619 0.27009082 0.7376085 1.4366426 0.07194371 0.30406854
-0.2681349 -0.07790622 -0.215983 -0.06803371 -0.31074315 -0.34103495 -0.16512766 -0.40660912
00000000: a986 79be d5c1 27bc e504 47bf 3669 5cbf
00000010: 6f68 5dbe 255c 70bd 0c9c a7be 7dfe db3d
00000020: e3a6 fbbe f5b2 4c3e 849e dfbd 4fbc a33e
00000030: dd3d 94bd 10ce d13e 1809 02bd 25c0 95bd
00000040: 4719 013d 5515 a23e 7499 c5be 96a6 9cbe
00000050: 6489 6abe 30e2 02be 6fc2 473d 2efa 8abe
00000060: 4482 8ebe d24f 7bbb 4817 323e 8a80 b03e
00000070: beea 28be e538 d3bf aa5f 64be 3721 d0bf
00000080: 55de 703e e1fc 99bf 341e d23e c601 a4bf
00000090: ea62 e13e 9697 54bf 5ef4 6f3e 3e7d 96bf
000000a0: c89d 61be d92f 21bf 3b9c d1bd 342e 2cbf
000000b0: b8ce c13d 47f5 2dbf 1c9f e3be d4da 37bf
000000c0: 2b8e e3be 21e0 133e 220f a6be 214e 0dbf
000000d0: 6e81 a7bf c729 4bbd 86e4 64be 3828 d73e
000000e0: 976f 2c3e 5a47 153f 5453 c03e 0c28 123f
000000f0: 704d 06be 224a 643f 55bd 883e 0465 cd3e
00000100: 7f8b e53d b08d b63e 4f6f 403e a3c5 fd3e
00000110: 7e4e d4bd 9057 b73e 6ddc 823e c15e 5a3e
00000120: 8be3 3a3e 99a7 1cbe af06 9bbd 5685 b3be
00000130: 1c71 84bf 068b c4be 2a62 f33e 182d 0abf
00000140: d8fc 543f 6cc5 08bf 759c 303f 1307 59be
00000150: 2cce 0e3f bb6c 07bf 2c99 913e ddc7 bbbe
00000160: 770e de3e d6e5 dfbd 3154 773e f930 a5be
00000170: 745b 6bbd d138 d7be 550a 293f 4793 4bbe
00000180: d477 32bf 1c7e efbd fa26 19bf a5c2 6ebf
00000190: 924e 3ebe 4778 9a3f cb77 9f3d f35e b83f
000001a0: 62d1 19bc a92a 963f 696b 973d 6ae7 a33f
000001b0: 6e2d a43e f0d3 643f 86ea 0c3f cefc 843f
000001c0: e18a ea3e 56ef f93e 9d47 b23c 1b63 573f
000001d0: fe99 0c3f 1e30 3d3f f6b5 b93e c254 b93e
000001e0: 9c4f f03e 101c a1bd c014 0bbe 2d37 1b3d
000001f0: 29f2 04c0 10b4 4bbe 07ff 67bf 86cd b7bd
00000200: 0c6c bebe 9f48 69be 37fd e8be 5f6c 183f
00000210: 6ab8 f9be 1f24 323f f6fe 07be 49d0 1e3f
00000220: 7967 45be fe1b 103f 574e b0bd 0c3b d43e
00000230: 2884 ca3e 08bd fc3d f4b7 bd3e e297 993e
00000240: 94a6 79bd 7175 6a3b fe79 25bf eab8 babc
00000250: 0ec1 7fbe e112 483f 99e1 74bf b535 5c3e
00000260: 65aa 2cbf a20b 06be 5229 42bf dd72 d4be
00000270: 06ff a3be 255b febe 3138 9ebe 0119 40bf
00000280: 4886 48be 746d 36bf 48ec 2abe f7da 2fbf
00000290: d5d4 30bd b063 56bf 714f 89be ed40 50bf
000002a0: d834 56bd 2353 4c3e 095d 07bf 4353 c6be
000002b0: d06b 94bf 63a5 e5be 0636 c8be fe6b 8dbf
000002c0: 6413 3bbe bae2 64bf 496c e93e be81 8dbf
000002d0: 34e1 0b3e ec99 85bf ad33 ba3d da5b 9abe
000002e0: ac6c 873e d163 46bf 12ac b33e da7f 0dbf
000002f0: 572b 8c3e c992 a0be 6bbf a23d 73b8 a1be
00000300: be72 85bf a7a8 823c f84c 9e3e e8bd b6bf
00000310: 4c63 babf 963e 68c0 4dca e0be f52e e3bf
00000320: 4603 223c 6b74 59bf ad91 8e3e 4db4 cdbe
00000330: 7919 6cbe 49a6 a4bb dd85 4a3d eec5 b73e
00000340: f649 7fbe c48e b03d 3f57 c0be 620d 193e
00000350: eac2 79be bd70 c13e ee85 a4be 3bc0 2d3f
00000360: 3f23 7c3d b3b9 1a3d bd6e 523e 3aca c4be
00000370: 64f1 66bd fbf7 283f 3fae 36bf c7a3 243e
00000380: 20e3 89be 95ad 35bd 57d2 d4be fb5f 7f3e
00000390: 6496 d0be db01 213d 7fe7 97be bd33 a5be
000003a0: 945a 893c 5618 edbe 703e 20be a67e 7abe
000003b0: 55a7 94be 3075 24be 0706 cbbd 460a d6bd
000003c0: 88d3 a1bd fa83 92bd 36ea f8be 5849 8a3e
000003d0: e9d3 3c3f e8e3 b73f 3957 933d dfae 9b3e
000003e0: fa48 89be 4c8d 9fbd a62a 5dbe 4255 8bbd
000003f0: ba19 9fbe 229c aebe 3a17 29be 122f d0be

critic.0.bias f4 [64]
-0.6453252 -0.52932006 0.22780372 0.19558437 -0.51672864 0.41417894 -0.05754131 0.46343777
0.63765657 0.28246137 0.5405945 -0.45925108 0.6330529 0.3740731 0.1833271 -0.678579
0.8633171 0.15160353 -0.7842113 -1.6957968 -0.9790122 -1.0630174 0.51164407 0.23875986
-0.07857515 -0.17709123 -0.0539264 -1.2183532 -1.602904 -0.9068544 -0.94283915 0.23970455
-0.44019914 0.24210097 0.48236212 -0.84421843 -2.3764303 0.33016288 0.086067155 0.67934287
0.31744015 -1.361739 -0.5868563 0.17720792 0.4546266 0.357731 -0.37573344 -0.2156887
-1.4768169 -0.21037564 -0.4170488 -1.1140666 0.35044995 0.40864477 -0.2738905 0.19976276
0.65369177 0.6477691 0.24281044 0.44047138 -1.0574739 0.23630963 0.17389902 -2.089696
00000000: 0834 25bf 8581 07bf 6145 693e 4547 483e
00000010: 5448 04bf 430f d43e 70b0 6bbd b747 ed3e
00000020: 763d 233f c79e 903e 6764 0a3f f522 ebbe
00000030: c10f 223f 8286 bf3e 19ba 3b3e 5ab7 2dbf
00000040: 5902 5d3f f53d 1b3e 12c2 48bf df0f d9bf
00000050: 8ba0 7abf f410 88bf 1bfb 023f 777d 743e
00000060: 02ec a0bd 6757 35be eee1 5cbd fff2 9bbf
00000070: f52b cdbf 9c27 68bf e85d 71bf 1c75 753e
00000080: c861 e1be 51e9 773e 2bf8 f63e b31e 58bf
00000090: 6f17 18c0 1c0b a93e fa43 b03d 6ae9 2d3f
000000a0: 8487 a23e 774d aebf 373c 16bf fe75 353e
000000b0: d1c4 e83e 8528 b73e 2260 c0be 80dd 5cbe
000000c0: 5608 bdbf b66c 57be 6c87 d5be bc99 8ebf
000000d0: 2d6e b33e e339 d13e 603b 8cbe 9c8e 4c3e
000000e0: 5858 273f 32d4 253f 4da3 783e 7785 e13e
000000f0: 4e5b 87bf 27fb 713e 9612 323e 94bd 05c0

critic.2.weight f4 [32, 64]
-0.1963407 -0.21124975 -0.10776512 -0.46808872 -0.21941182 0.26369444 -0.22209337 -0.46262547
0.46681103 -0.11494821 -0.2828331 -0.07701044 -0.58522594 -0.35600227 -0.5757074 0.043424986
-0.42280078 -0.42015982 -0.12832935 -0.59097886 0.1616758 0.23113175 -0.56590253 0.08547826
-0.13804792 -0.25779802 -0.16277876 -0.06833168 -0.0290165 0.10878049 0.1077548 -0.59871036
-0.14364837 -0.32473725 -0.40047824 0.05927837 -1.0949117 -0.05794948 -0.29336393 -0.580212
-0.2956047 0.08859593 -0.6640914 -0.25586823 0.23987909 0.041211583 -0.19969639 -0.12051466
0.18349569 -0.44460458 0.16386123 -0.08452677 -0.36421156 -0.32225657 -0.3067403 0.003717759
-0.17485507 -0.16357628 -0.068922766 -0.0997139 0.0817979 -0.08012531 -0.39026195 -0.5448304
-0.61024594 0.31902412 0.17928669 -0.37675574 -0.76912296 -2.4136772 -0.7583394 -1.6702573
0.6442329 -0.028926834 -0.32292792 -0.31588617 -0.33407673 -0.40069586 -0.528579 -0.64111674
-0.25210163 0.0311398 -0.08475935 0.18209848 0.43027025 0.17197636 -1.0243381 0.34068793
-0.2148517 -1.2629285 -1.5881519 0.16635464 0.7024959 -1.0234964 0.13376687 -0.7943821
-0.3541009 -0.47586372 -1.4691138 -0.036968112 -0.7329757 -0.99986804 -0.12722844 -0.46167487
-0.6388513 0.77445084 -1.8236939 -0.1472471 -0.16469984 -0.68733275 0.42072836 0.8219587
-0.13353528 -0.7218938 0.24206503 0.27375665 0.06176201 -0.29241312 1.1720228 -2.5946157
-1.515405 0.73836064 -0.35204846 0.7465581 -0.19911768 -0.4850643 -0.7056296 0.5274225
-0.1285813 0.6441421 -0.14015907 0.47256866 -0.41786677 -0.07032192 -0.3524858 0.4823399
0.18624876 -0.19053178 0.32254922 -0.20854501 0.14139926 0.07897641 0.036359668 -0.4336216
-0.5028595 -0.20667954 0.28551126 -0.4043549 0.15799208 -0.5153724 0.20921223 0.26106703
0.22554936 -0.32433474 -0.21720187 -0.70670074 -0.52876806 -0.1474715 0.13855447 0.41845694
0.058167934 0.30309597 0.32549515 -0.02811216 0.79772025 0.26351854 0.008651859 0.256551
0.25793067 -0.3547211 0.46733627 0.34318173 -0.079755455 -0.050113574 -0.0790905 -0.6824156
-0.2095857 -0.106521614 0.097637735 -0.24602838 -0.123495996 0.24204478 -0.65259725 0.18916129
0.34129825 -0.24465261 0.18078947 -0.4438632 0.35295397 0.40044197 -0.04018299 -0.78598726
-0.2277907 0.17599297 0.11090679 -0.60179913 -0.93045896 -0.6339526 0.23660472 -0.31013244
0.24004069 -0.24638505 -0.058171373 0.4456802 0.2830462 0.049572162 -0.15207836 -1.0220453
-0.15253809 0.25139928 0.045612093 -1.4153787 -0.64675516 -0.97690153 0.2319095 0.013355015
0.5706318 0.04722357 -0.06988338 -1.1450391 -1.1758553 -0.2629055 -0.2139838 -0.14098749
0.060317792 0.3884746 0.33363327 -0.34245962 -0.84792185 0.31150487 -0.11592921 -0.07974968
-0.34909964 -1.0204573 -0.040421475 0.008768438 0.11759147 -0.27826178 -0.1175753 -0.25793442
-1.1389223 -0.12641302 0.24785984 -1.092369 -0.31172732 -0.4484444 -0.6898407 -0.4588426
0.0954249 -0.14717616 -0.19608158 -0.1882787 -1.0326806 0.21341094 0.026928265 -1.6114163
00000000: 890d 49be db51 58be f6b3 dcbd 53a9 efbe
00000010: 7ead 60be f502 873e 726c 63be 3fdd ecbe
00000020: db01 ef3e f869 ebbd 80cf 90be a6b7 9dbd
00000030: 5ed1 15bf ee45 b6be 8f61 13bf 66de 313d
00000040: 5879 d8be 301f d7be c568 03be 644a 17bf
00000050: 578e 253e cdad 6c3e fdde 10bf 3a0f af3d
00000060: 6f5c 0dbe 1afe 83be 7aaf 26be 7bf1 8bbd
00000070: 03b4 edbc 4ec8 de3d 8cae dc3d 1545 19bf
00000080: 8f18 13be f643 a6be 7c0b cdbe e0cd 723d
00000090: 1126 8cbf 6f5c 6dbd cc33 96be c688 14bf
000000a0: 8059 97be c871 b53d e501 2abf 2901 83be
000000b0: dda2 753e 7acd 283d 367d 4cbe 64d0 f6bd
000000c0: 4be6 3b3e 36a3 e3be 3dcb 273e 5f1c adbd
000000d0: f079 babe d0fe a4be 110d 9dbe a5a5 733b
000000e0: 350d 33be 8a80 27be 6127 8dbd cd36 ccbd
000000f0: a885 a73d bd18 a4bd 6ad0 c7be 017a 0bbf
00000100: 1439 1cbf 2157 a33e ee96 373e 21e6 c0be
00000110: 3ee5 44bf b079 1ac0 8822 42bf feca d5bf
00000120: 73ec 243f f8f7 ecbc cf56 a5be d5bb a1be
00000130: 1b0c abbe 0228 cdbe f450 07bf 3a20 24bf
00000140: 7713 81be e518 ff3c 4f96 adbd 0678 3a3e
00000150: 624c dc3e 921a 303e 831d 83bf a66e ae3e
00000160: 1602 5cbe a4a7 a1bf 9048 cbbf df58 2a3e
00000170: c5d6 333f ee01 83bf 2ffa 083e a05c 4bbf
00000180: b74c b5be 69a4 f3be ec0b bcbf e06b 17bd
00000190: 4ca4 3bbf 5af7 7fbf 2c48 02be a660 ecbe
000001a0: c28b 23bf 6942 463f cd6e e9bf f2c7 16be
000001b0: 13a7 28be 0af5 2fbf b569 d73e e36b 523f
000001c0: 79bd 08be 08ce 38bf e5df 773e d529 8c3e
000001d0: 29fa 7c3d 2cb7 95be d804 963f 2f0e 26c0
000001e0: cbf8 c1bf 3405 3d3f b23f b4be 6f1e 3f3f
000001f0: 81e5 4bbe 595a f8be 24a4 34bf 2905 073f
00000200: d1aa 03be 7fe6 243f dc85 0fbe 85f4 f13e
00000210: a2f2 d5be f004 90bd 0579 b4be 41f5 f63e
00000220: ffb7 3e3e c31a 43be 2c25 a53e d38c 55be
00000230: f8ca 103e 62be a13d e0ed 143d a603 debe
00000240: 66bb 00bf cda3 53be 882e 923e 9b07 cfbe
00000250: adc8 213e 72ef 03bf bb3b 563e 94aa 853e
00000260: 69f6 663e 340f a6be 2b6a 5ebe 57ea 34bf
00000270: 585d 07bf c502 17be 39e1 0d3e fd3f d63e
00000280: 8041 6e3d 652f 9b3e 4da7 a63e 794b e6bc
00000290: 6537 4c3f e7eb 863e 87c0 0d3c a75a 833e
000002a0: 7d0f 843e 019e b5be b346 ef3e 84b5 af3e
000002b0: d456 a3bd e443 4dbd 33fa a1bd cab2 2ebf
000002c0: a29d 56be 0128 dabd 4bf6 c73d ddee 7bbe
000002d0: 78eb fcbd 96da 773e 9d10 27bf 7fb3 413e
000002e0: a5be ae3e 3786 7abe e020 393e 0a42 e3be
000002f0: 62b6 b43e bb06 cd3e eb96 24bd 7636 49bf
00000300: f741 69be 8037 343e 1923 e33d 820f 1abf
00000310: 8f32 6ebf b84a 22bf 8248 723e aec9 9ebe
00000320: 3acd 753e 5d4c 7cbe 1b45 6ebd 3230 e43e
00000330: 6eeb 903e 2e0c 4b3d 6eba 1bbe 61d2 82bf
00000340: f232 1cbe 68b7 803e bfd3 3a3d 212b b5bf
00000350: bf91 25bf 3816 7abf af79 6d3e fece 5a3c
00000360: ed14 123f 816d 413d 041f 8fbd a490 92bf
00000370: 6d82 96bf 8d9b 86be 921e 5bbe 065f 10be
00000380: ca0f 773d 25e6 c63e fbd1 aa3e de56 afbe
00000390: 6811 59bf 917d 9f3e 4b6c edbd cd53 a3bd
000003a0: 30bd b2be 589e 82bf fd90 25bd 7fa9 0f3c
000003b0: ccd3 f03d 5478 8ebe 52cb f0bd fb0f 84be
000003c0: 35c8 91bf 6a72 01be f8ce 7d3e bfd2 8bbf
000003d0: b99a 9fbe 819a e5be 6699 30bf 6bed eabe
000003e0: 216e c33d 59b5 16be 9cc9 48be 22cc 40be
000003f0: e12e 84bf 6688 5a3e aa98 dc3c e442 cebf

critic.2.bias f4 [32]
-0.4344325 -0.03821521 0.44601858 0.541749 0.46754813 0.43188965 -0.17463756 -0.37182048
0.5962972 0.7654822 -0.24163528 -0.3832047 0.59667283 0.48257545 0.6075745 0.45377386
-0.37649465 0.5439186 0.5144471 0.6001072 0.71331847 0.4654483 -0.29941806 -0.6859998
-0.2910574 0.31127152 -0.39819077 0.5223272 -0.088181615 -0.11435945 -0.09757827 -0.23606962
00000000: f06d debe 8d87 1cbd 8c5c e43e 10b0 0a3f
00000010: 7862 ef3e a420 dd3e 30d4 32be 415f bebe
00000020: efa6 183f a4f6 433f 3d6f 77be 6833 c4be
00000030: 8dbf 183f 2114 f73e 018a 1b3f 0c55 e83e
00000040: e8c3 c0be 403e 0b3f ceb2 033f a0a0 193f
00000050: 0a9c 363f 3d4f ee3e 534d 99be af9d 2fbf
00000060: 7a05 95be fb5e 9f3e a9df cbbe 3cb7 053f
00000070: 9098 b4bd 4a35 eabd 1ed7 c7bd 3cbc 71be

critic.4.weight f4 [1, 32]
-0.505939 -1.5711722 0.15790987 0.43753552 0.37938952 0.53382766 -0.6064284 -1.2976763
0.40119162 0.5557402 -1.0656202 -2.107934 0.56190604 0.39253104 0.31157464 0.33225447
-1.3501837 0.45562178 0.34353465 0.4802601 0.45402372 0.538582 -0.6289703 -1.0621791
-0.8311524 0.24306153 -0.8320286 0.47269493 -0.87800664 -0.45761076 -1.9359727 -0.8443179
00000000: 3885 01bf 2c1c c9bf 20b3 213e a804 e03e
00000010: 583f c23e eea8 083f e43e 1bbf 421a a6bf
00000020: fd68 cd3e fd44 0e3f 3e66 88bf 64e8 06c0
00000030: 13d9 0f3f d4f9 c83e b686 9f3e 421d aa3e
00000040: d2d2 acbf 4247 e93e c6e3 af3e a7e4 f53e
00000050: cc75 e83e 83e0 093f 3304 21bf 7cf5 87bf
00000060: 67c6 54bf 1fe5 783e d4ff 54bf 1205 f23e
00000070: 0bc5 60bf f54b eabe f4cd f7bf 3825 58bf
