dynamics_models/nn_kinematic.ckpt (torch, 17331 bytes, 30 tensors)

throttle_encoder.0.weight f4 [4, 3]
-1.4911395 0.06038181 1.222298 0.28719538 -0.17390268 1.5630546 0.4241384 -0.0029057653
-1.9037201 0.45635384 0.047377314 2.2590723
00000000: a9dd bebf eb52 773d 4374 9c3f 460b 933e
00000010: 8b13 32be 2c12 c83f ab28 d93e a76e 3ebb
00000020: 1aad f3bf 36a7 e93e b70e 423d a494 1040

throttle_encoder.0.bias f4 [4]
0.04982798 1.153936 0.7324922 0.0018595932
00000000: 6d18 4c3d 2db4 933f 9c84 3b3f 98bd f33a

throttle_encoder.2.weight f4 [4, 4]
-0.4031852 -0.3328011 -0.33070117 0.09754717 2.8773527 0.7870627 -0.9815714 0.49029526
-0.055940326 0.35701388 -0.51794803 -0.53976774 0.36231244 0.41384172 1.7320633 -0.8833894
00000000: 4a6e cebe e864 aabe aa51 a9be d0c6 c73d
00000010: 8c26 3840 f17c 493f 4348 7bbf fb07 fb3e
00000020: af21 65bd 86ca b63e 3e98 04bf 382e 0abf
00000030: 0481 b93e 10e3 d33e 40b4 dd3f cf25 62bf

throttle_encoder.2.bias f4 [4]
-0.49557817 0.8396609 -0.2424985 1.0156596
00000000: 6cbc fdbe 04f4 563f 8751 78be 2201 823f

throttle_encoder.4.weight f4 [1, 4]
0.24808323 1.671527 -0.17754647 -1.1800532
00000000: 8809 7e3e 99f4 d53f bece 35be fc0b 97bf

steer_offset_encoder.0.weight f4 [4, 3]
-0.2045101 0.3485138 0.1776036 -0.16876292 1.7980783 0.18841152 0.18707114 1.8731436
0.010771236 -0.16112104 -0.011843534 -0.008015507
00000000: 186b 51be 6770 b23e b8dd 353e 30d0 2cbe
00000010: 6e27 e63f f3ee 403e 948f 3f3e 2bc3 ef3f
00000020: d779 303c eafc 24be 620b 42bc 7953 03bc

steer_offset_encoder.0.bias f4 [4]
1.1239053 0.31678873 -0.32960755 -0.31823602
00000000: 21dc 8f3f 2232 a23e 52c2 a8be d5ef a2be

steer_offset_encoder.2.weight f4 [4, 4]
0.16381288 -0.30132788 -0.17143226 -0.4898311 -0.48060745 0.14020503 -0.20830768 0.46036166
1.6243755 -0.94678515 1.3886948 0.42949483 -0.7925004 1.4002779 -0.9073707 -0.14604934
00000000: 90be 273e a647 9abe f08b 2fbe 24cb fabe
00000010: 2e12 f6be e891 0f3e 9c4e 55be 86b4 eb3e
00000020: 89eb cf3f 8360 72bf c0c0 b13f bfe6 db3e
00000030: 4ee1 4abf 4e3c b33f 7249 68bf f58d 15be

steer_offset_encoder.2.bias f4 [4]
-0.23484462 -0.43766117 -0.05216876 1.105307
00000000: 1c7b 70be 2015 e0be e9ae 55bd b37a 8d3f

steer_offset_encoder.4.weight f4 [1, 4]
-0.17563504 0.049507737 -1.4470989 2.6378455
00000000: acd9 33be a0c8 4a3d 893a b9bf 76d2 2840

exp_avg f4 [4, 3]
0.00020501771 0.00030876003 2.3917955e-05 -0.0011356404 -0.00044278588 -0.001417379 0.017684108 0.0036250737
0.0012197803 -0.010438054 -0.0011342166 -0.0019710911
00000000: 06fa 5639 12e1 a139 6ba3 c837 c5d9 94ba
00000010: b725 e8b9 59c7 b9ba 43de 903c a592 6d3b
00000020: 09e1 9f3a 5f04 2bbc fea9 94ba 6c2d 01bb

exp_avg_sq f4 [4, 3]
8.4430434e-07 7.976907e-07 1.0935912e-06 0.008976902 2.667018e-05 6.834069e-05 0.2158046 0.0006505069
0.0007934609 0.052942652 0.00015605074 0.0002391891
00000000: 27a4 6235 e320 5635 82c7 9235 db13 133c
00000010: c7b9 df37 2152 8f38 e2fb 5c3e c786 2a3a
00000020: 4200 503a 65da 583d 8da1 2339 d6ce 7a39

exp_avg f4 [4]
-0.0011194116 -0.005232968 0.014776393 -0.009327863
00000000: 38b9 92ba 5179 abbb af18 723c e5d3 18bc

exp_avg_sq f4 [4]
1.1784479e-05 0.0018637673 0.04261373 0.010431145
00000000: f4b5 4537 a749 f43a bc8b 2e3d 65e7 2a3c

exp_avg f4 [4, 4]
0.0 0.0 0.0 0.0 -0.00011824425 -0.015320104 -0.0047321804 -0.0081665795
3.717372e-39 4.159558e-39 5.69932e-40 2.50698e-40 8.5744774e-05 0.00845547 0.0066383905 0.0059271157
00000000: 0000 0000 0000 0000 0000 0000 0000 0000
00000010: e6f9 f7b8 2c01 7bbc 6810 9bbb 1ecd 05bc
00000020: 857a 2800 284b 2d00 bd34 0600 d8ba 0200
00000030: e0d1 b338 d088 0a3c db86 d93b 4038 c23b

exp_avg_sq f4 [4, 4]
0.0 0.0 0.0 0.0 1.1691915e-07 0.034031287 0.015017578 0.014844701
3.9028984e-14 3.1898017e-13 5.30443e-15 5.2677433e-14 5.9376852e-08 0.018218009 0.009826936 0.0076499577
00000000: 0000 0000 0000 0000 0000 0000 0000 0000
00000010: fc14 fb33 6464 0b3d 4a0c 763c 3037 733c
00000020: 5bc5 2f29 e391 b32a bb1c bf27 f23c 6d29
00000030: 8a05 7f33 ef3d 953c 2801 213c 7fac fa3b

exp_avg f4 [4]
0.0 -0.0088130655 3.505804e-39 0.004840197
00000000: 0000 0000 ad64 10bc c12c 2600 849a 9e3b

exp_avg_sq f4 [4]
0.0 0.008247845 4.858445e-13 0.0046501025
00000000: 0000 0000 f821 073c c9c0 082b e35f 983b

exp_avg f4 [1, 4]
0.0 -0.011378917 -1.6884e-41 -0.012517586
00000000: 0000 0000 a36e 3abc 112f 0080 9016 4dbc

exp_avg_sq f4 [1, 4]
0.0 0.009181052 2.2635175e-14 0.0347103
00000000: 0000 0000 206c 163c 29e1 cb28 632c 0e3d

exp_avg f4 [4, 3]
-0.5411719 0.014963001 -0.048155226 0.036911238 0.001145461 0.008369386 -0.3460907 -0.00079926435
-0.033761807 -6e-45 6e-45 -6e-45
00000000: 3e8a 0abf 6027 753c 6a3e 45bd 3d30 173d
00000010: 4b23 963a c01f 093c cd32 b1be b985 51ba
00000020: d249 0abd 0400 0080 0400 0000 0400 0080

exp_avg_sq f4 [4, 3]
8.471397 0.012459405 0.031418547 1.1113701 0.008016057 0.0046069054 4.611942 0.006194366
0.01659871 8.3567794e-17 5.995048e-19 3.1376188e-17
00000000: d88a 0741 8822 4c3c bcb0 003d 6041 8e3f
00000010: c855 033c 86f5 963b 0795 9340 1cfa ca3b
00000020: 05fa 873c b8b1 c024 4df1 3021 77b2 1024

exp_avg f4 [4]
-0.13187326 -0.0036183137 -0.08886965 6e-45
00000000: c909 07be 3b21 6dbb 4b01 b6bd 0400 0000

exp_avg_sq f4 [4]
0.85723484 0.15168369 0.40838775 9.728548e-17
00000000: be73 5b3f f852 1b3e 3318 d13e 3653 e024

exp_avg f4 [4, 4]
0.0 0.0 0.0 0.0 0.0 0.0 0.0 0.0
-0.011972781 0.000753525 -0.011500906 6e-45 0.021925634 -0.0014062437 0.020556523 -6e-45
00000000: 0000 0000 0000 0000 0000 0000 0000 0000
00000010: 0000 0000 0000 0000 0000 0000 0000 0000
00000020: 7c29 44bc 3588 453a 4c6e 3cbc 0400 0000
00000030: 639d b33c b551 b8ba 2766 a83c 0400 0080

exp_avg_sq f4 [4, 4]
0.0 0.0 0.0 0.0 0.0 0.0 0.0 0.0
0.023710508 0.0011988833 0.010699649 1.9993656e-19 0.07880975 0.0039845756 0.035601184 1.0249637e-18
00000000: 0000 0000 0000 0000 0000 0000 0000 0000
00000010: 0000 0000 0000 0000 0000 0000 0000 0000
00000020: 8a3c c23c d923 9d3a 954d 2f3c 1e0b 6c20
00000030: 0267 a13d 0b91 823b 8cd2 113d 0942 9721

exp_avg f4 [4]
0.0 0.0 -0.04139459 0.078219466
00000000: 0000 0000 0000 0000 608d 29bd 8731 a03d

exp_avg_sq f4 [4]
0.0 0.0 0.09412676 0.31430712
00000000: 0000 0000 0000 0000 88c5 c03d ddec a03e

exp_avg f4 [1, 4]
0.0 0.0 0.023252718 0.018698314
00000000: 0000 0000 0000 0000 7c7c be3c 352d 993c

exp_avg_sq f4 [1, 4]
0.0 0.0 0.054904196 0.014904137
00000000: 0000 0000 0000 0000 39e3 603d 7b30 743c
