logs/exp/21_11_02_11_39_15/model_0.pt (torch, 34660 bytes, 12 tensors)

log_std f4 [3]
0.00801056 -0.00085644296 0.002057557
00000000: b93e 033c ea82 60ba 14d8 063b

actor.0.weight f4 [64, 24]
0.24859712 -0.09508988 0.18137069 -0.1269616 -0.1469536 -0.0014907325 -0.22867736 0.18560012
-0.10932309 -0.07199136 -0.09053085 -0.015946722 -0.10728014 -0.14157818 -0.076851904 0.14699307
0.113055795 -0.019488629 -0.30146018 -0.31959036 -0.17719108 0.20918058 0.04494138 -0.11898221
-0.1900879 -0.36007333 0.29156685 0.05194998 0.5406451 -0.17929943 0.24772954 -0.07387504
-0.012405088 0.1598318 -0.32157597 0.13833112 0.43602675 -0.19448242 -0.17487441 -0.07799498
0.05351327 0.05934997 0.0235846 0.21862075 -0.14657521 -0.26269773 -0.2638184 0.03596754
-0.2135477 -0.03702606 -0.04890335 0.0017315283 -0.468037 0.124253385 0.14523037 0.1687402
-0.108846866 0.35555038 -0.18585926 -0.16502886 -0.30923086 -0.04089247 0.08220458 -0.2077014
0.3335516 0.17283495 -0.11558694 0.09580585 0.026200859 -0.24804096 0.085104115 -0.29808134
-0.06596055 -0.19557835 0.09218388 0.31090966 -0.30574775 0.2952159 0.13859648 0.24614985
0.112516746 -0.14272653 0.1186934 -0.17424579 0.082459435 -0.24811937 0.17526105 0.21999663
-0.033244714 0.052163567 -0.06600918 0.07767241 -0.17845878 0.06482369 0.14227651 -0.16023742
-0.0019524642 0.11287206 0.18750311 -0.1022102 -0.30809143 0.58120894 0.25646526 -0.04055703
0.304749 -0.007260822 0.038489185 0.07967327 -0.07512112 0.16983229 0.012797574 0.21390058
0.16785918 0.13773307 -0.0058570127 0.07647672 -0.21981363 0.15276858 0.46707204 -0.047454514
0.058897033 0.14237672 -0.043747652 -0.09226437 -0.31463054 -0.28018662 -0.008037613 0.08637847
0.27499947 0.19771153 -0.014783259 -0.050131716 -0.046768058 0.24020453 -0.12605059 -0.26645017
0.13330106 0.23080279 -0.05325528 -0.025588233 -0.05714815 -0.49967533 0.1387776 0.09079506
-0.022993723 -0.21186295 0.08280481 -0.21553057 -0.28482074 0.013331388 -0.04036477 -0.040433943
-0.22293086 -0.14725226 0.18811671 0.12652773 0.085897215 -0.15584794 0.052951023 0.2303676
0.021701848 0.35138035 0.073628224 0.09283106 -0.21448584 -0.17789611 -0.21737114 0.13451807
-0.044604655 -0.055254597 -0.0552337 -0.011290771 -0.32433346 -0.19150834 0.27051222 -0.43717328
0.040416017 -0.06348973 -0.16266422 -0.17200069 -0.34782097 -0.18328811 0.083136514 -0.015932126
0.0016923054 -0.25750268 0.24764396 0.21607104 -0.032799855 0.115987144 -0.0576009 0.14934544
-0.25419793 -0.45988032 0.13104425 -0.18300058 0.0027859483 0.18601854 -0.30558643 -0.17472166
0.2248841 -0.33098033 0.045876533 -0.06264766 0.063035496 -0.22521633 0.24172905 -0.27781793
-0.039484676 -0.0037715258 0.0778981 0.21510105 0.1343631 -0.23266637 0.016515575 0.13761216
0.15317813 0.5649825 0.24596123 0.20561515 0.19341657 -0.07005562 -0.2705848 -0.12177074
-0.28557283 0.15890361 -0.029515292 0.026525307 -0.05176464 -0.20538644 0.14457022 -0.007220605
-0.14224213 -0.1449835 0.13249041 0.07525941 -0.10619726 -0.17500745 0.16484506 0.14997964
-0.08793884 0.1404436 0.34248126 -0.22478077 0.2357958 0.08700688 0.341194 -0.016068682
-0.062451914 -0.30305463 0.025901379 0.034885522 -0.15097846 0.3308542 0.06763944 0.11213864
00000000: 3e90 7e3e 7cbe c2bd 3db9 393e 3902 02be
00000010: 017b 16be af64 c3ba 662a 6abe f50d 3e3e
00000020: c9e4 dfbd 3570 93bd 3d68 b9bd b3a2 82bc
00000030: b1b5 dbbd dff9 10be 8864 9dbd 5a85 163e
00000040: cc89 e73d 9ea6 9fbc fd58 9abe 59a1 a3be
00000050: 9471 35be 6f33 563e 7414 383d f2ac f3bd
00000060: 67a6 42be 885b b8be 4048 953e 81c9 543d
00000070: b867 0a3f 459a 37be d0ac 7d3e cc4b 97bd
00000080: b63e 4bbc f3aa 233e 9ba5 a4be aca6 0d3e
00000090: e63e df3e 6626 47be 4712 33be d5bb 9fbd
000000a0: bb30 5b3d f418 733d 7e34 c13c 1ede 5f3e
000000b0: d017 16be 5180 86be 3513 87be b352 133d
000000c0: 40ac 5abe a3a8 17bd e14e 48bd 73f4 e23a
000000d0: 8ca2 efbe 8f78 fe3d 45b7 143e 3bca 2c3e
000000e0: 1beb debd b30a b63e e451 3ebe 53fd 28be
000000f0: 8253 9ebe dd7e 27bd e05a a83d adaf 54be
00000100: 46c7 aa3e a5fb 303e d8b8 ecbd dc35 c43d
00000110: 2fa3 d63c 73fe 7dbe 114b ae3d 1e9e 98be
00000120: 5316 87bd b145 48be e7ca bc3d 8d2f 9f3e
00000130: f88a 9cbe 8a26 973e 3cec 0d3e b50e 7c3e
00000140: 2e6f e63d e726 12be 8615 f33d 7d6d 32be
00000150: 7ee0 a83d 0113 7ebe a277 333e cc46 613e
00000160: 9c2b 08bd 77a9 553d d22f 87bd b612 9f3d
00000170: e6bd 36be 48c2 843d efb0 113e 4715 24be
00000180: d4e9 ffba 7729 e73d d100 403e 9553 d1bd
00000190: 29be 9dbe 1cca 143f 6a4f 833e 211f 26bd
000001a0: 1008 9c3e 31ec edbb d6a6 1d3d bd2b a33d
000001b0: 1ad9 99bd 84e8 2d3e eaac 513c c108 5b3e
000001c0: 47e3 2b3e e609 0d3e 2fec bfbb d49f 9c3d
000001d0: d316 61be 5e6f 1c3e 1124 ef3e aa5f 42bd
000001e0: 043e 713d 34cb 113e bd30 33bd 1af5 bcbd
000001f0: 4117 a1be 9f74 8fbe 31b0 03bc 32e7 b03d
00000200: bbcc 8c3e e474 4a3e 7b35 72bc ea56 4dbd
00000210: dd8f 3fbd 2df8 753e 6813 01be 286c 88be
00000220: 1380 083e 9157 6c3e 3522 5abd 6a9e d1bc
00000230: 2e14 6abd 72d5 ffbe b71b 0e3e c3f2 b93d
00000240: 555d bcbc 9af2 58be 9195 a93d 0cb4 5cbe
00000250: 06d4 91be e56b 5a3c 8755 25bd 109e 25bd
00000260: fd47 64be 4cc9 16be aba1 403e 7c90 013e
00000270: e1ea af3d 9a96 1fbe 2ce3 583d 7ce5 6b3e
00000280: 13c8 b13c 20e8 b33e 65ca 963d 361e be3d
00000290: 2da2 5bbe 662a 36be 8a96 5ebe 1bbf 093e
000002a0: 5fb3 36bd a552 62bd bb3c 62bd edfc 38bc
000002b0: 090f a6be c31a 44be 9480 8a3e 2dd5 dfbe
000002c0: 448b 253d e706 82bd 7391 26be f320 30be
000002d0: 9715 b2be e1af 3bbe 7a43 aa3d 1784 82bc
000002e0: 59d0 dd3a 64d7 83be 6196 7d3e ba41 5d3e
000002f0: 2459 06bd ab8a ed3d ecee 6bbd 03ee 183e
00000300: 3b26 82be 6f75 ebbe 7730 063e 8164 3bbe
00000310: 7594 363b a57b 3e3e d375 9cbe 3cea 32be
00000320: 0448 663e 4176 a9be 08e9 3b3d 6b4d 80bd
00000330: c118 813d 1c9f 66be d287 773e 273e 8ebe
00000340: afba 21bd b42b 77bb 0a89 9f3d 7343 5c3e
00000350: 7b96 093e 1840 6ebe ac4b 873c 34ea 0c3e
00000360: bada 1c3e b1a2 103f 43dd 7b3e c78c 523e
00000370: fe0e 463e 5279 8fbd 178a 8abe f062 f9bd
00000380: 9a36 92be a1b7 223e 0eca f1bc 9a4b d93c
00000390: 2907 54bd d350 52be 370a 143e d39a ecbb
000003a0: eca7 11be 8e76 14be 91ab 073e 9b21 9a3d
000003b0: f37d d9bd 2735 33be 25cd 283e 4394 193e
000003c0: 4719 b4bd 72d0 0f3e b459 af3e ee2c 66be
000003d0: 7474 713e aa30 b23d fbb0 ae3e 78a2 83bc
000003e0: 94cd 7fbd fa29 9bbe 212f d43c 1fe4 0e3d
000003f0: 199a 1abe b965 a93e 8c86 8a3d f1a8 e53d

actor.0.bias f4 [64]
-0.1560419 0.16271766 -0.03168937 -0.10638542 -0.1782146 -0.20336752 -0.18323916 0.0678952
-0.09099452 -0.13545296 -0.062143315 -0.2453294 0.082746305 -0.0363312 0.062914096 -0.14704071
-0.04709392 -0.18576172 0.1101687 0.043328222 -0.20106977 -0.18683149 -0.20482466 0.057148978
0.029074006 0.045642514 0.11011011 0.059450593 0.14831263 0.055226233 -0.17455608 -0.17453979
0.14940375 0.10562137 0.08450189 -0.15498444 -0.1496419 -0.13453843 -0.08520365 0.05475865
-0.067434885 0.016018068 0.16421002 -0.089169495 0.15641347 -0.02243533 -0.20404965 0.06924025
-0.16100946 -0.050659534 0.22863576 -0.28467336 0.22230554 0.14950033 0.25746205 0.077319756
0.1715335 -0.22431998 -0.21337228 0.027322246 -0.14985643 -0.059318114 -0.06444769 -0.10184385
00000000: 73c9 1fbe 759f 263e b6cc 01bd 99e0 d9bd
00000010: e37d 36be 933f 50be 0ca3 3bbe a30c 8b3d
00000020: 565b babd 2eb4 0abe fd89 7ebd a137 7bbe
00000030: e576 a93d 06d0 14bd 1bd9 803d d791 16be
00000040: 8ee5 40bd 5238 3ebe 21a0 e13d ef78 313d
00000050: 3ce5 4dbe c150 3fbe 8ebd 51be 0c15 6a3d
00000060: 9c2c ee3c a5f3 3a3d 6981 e13d 7782 733d
00000070: 44df 173e e734 623d d4be 32be 8fba 32be
00000080: 4cfd 183e 0450 d83d 540f ad3d 3eb4 1ebe
00000090: ba3b 19be 71c4 09be 407f aebd 9b4a 603d
000000a0: 4d1b 8abd 5338 833c ac26 283e 7f9e b6bd
000000b0: da2a 203e 4cca b7bc 64f2 50be d5cd 8d3d
000000c0: aadf 24be 5f80 4fbd 7e1f 6a3e b5c0 91be
000000d0: 10a4 633e 9d16 193e 11d2 833e d259 9e3d
000000e0: 7aa6 2f3e 23b4 65be 437e 5abe e7d2 df3c
000000f0: f773 19be 8df7 72bd 27fd 83bd 8293 d0bd

actor.2.weight f4 [32, 64]
-0.044124123 -0.15700313 -0.16121104 0.3303259 -0.07831044 0.03724544 -0.0071896445 -0.3584978
-0.18873492 -0.23722984 0.31367904 0.13299377 -0.20006986 -0.32098284 0.19295146 -0.05195594
-0.15469523 -0.04011887 0.15958495 -0.075137876 0.1348846 0.06407137 0.10139521 0.2520403
-0.016160551 0.047581937 0.043489825 0.040082034 -0.14538237 -0.0852201 -0.07311099 0.2621028
-0.3292557 0.21359906 -0.14344847 -0.0010988325 0.12972203 -0.06841342 -0.14329617 0.007682737
0.089634605 -0.096848845 -0.25212651 0.23845008 0.06694946 0.17042147 -0.07979812 -0.25962958
0.055689447 -0.019850964 0.26047698 0.35766664 -0.22540659 0.139747 -0.055251412 0.13203782
-0.00025733866 -0.07002935 0.015545656 -0.2831091 -0.038220108 0.062356114 -0.10359671 -0.06513764
-0.025893142 0.2822248 -0.13014974 -0.22423646 0.042357042 0.08673252 -0.11588586 -0.086165346
-0.026691254 0.050707396 -0.04868079 0.35621533 -0.0022956491 0.005578768 0.16732018 0.16640742
-0.16625175 0.022415936 0.2645167 0.17742905 0.09667426 -0.053159956 0.079897635 -0.034526993
0.3027447 0.16045551 -0.12770495 -0.007285539 0.19795854 0.44718668 -0.057348084 -0.17129567
-0.18501416 -0.3833757 -0.11742791 0.023361156 -0.099146925 -0.026316797 0.020318154 -0.31015208
-0.34941664 -0.3110264 -0.14272328 -0.07609377 0.00038293394 -0.35295188 -0.01460507 -0.13834196
0.13655056 0.17712484 0.40121612 -0.007971197 -0.13205998 0.09551098 -0.120175116 0.05156018
0.034395307 -0.21150939 0.023217825 0.09879668 -0.054899085 0.113886565 -0.2505561 0.07581093
0.1909183 -0.21682818 -0.015020251 -0.17638712 -0.07291644 0.20889184 0.13831872 0.20400716
0.23751508 -0.20257348 -0.08041492 -0.0076392526 0.00029353207 0.17577378 0.2547284 0.25084665
-0.21496207 0.05911716 0.056735534 -0.038136106 0.049581654 0.018852081 0.062202774 -0.28384125
-0.015043505 -0.251702 -0.24074003 -0.18194434 -0.24787098 -0.02503076 -0.30387804 -0.0099089835
0.016130857 -0.18125898 0.36566913 0.0074198633 0.06029182 0.12275727 -0.05695243 0.38818857
-0.033459593 -0.12503077 -0.10023772 -0.005995544 0.35719192 -0.032555673 0.07149671 0.2054647
-0.123487465 0.30025873 0.0027459785 0.0666343 -0.3003869 0.078157455 0.0048327334 -0.10673112
0.07645058 0.0329723 -0.2699811 -0.09652545 -0.03967818 -0.18445352 -0.1912122 0.23209773
0.2604169 -0.0023230545 -0.1593752 0.26308155 0.116892286 -0.07608624 0.24354285 0.063212775
0.19082712 -0.17768407 -0.21209231 -0.021948041 -0.01096004 0.13976331 0.37871546 -0.3444585
-0.4604256 -0.17973264 0.21513936 0.15978809 0.039981537 0.1945421 0.11254127 -0.1929972
0.18768016 -0.0056418055 -0.19105694 -0.04015477 0.14608012 0.18512069 -0.06253769 0.018417163
0.023059644 0.051433247 -0.1671874 -0.012060985 -0.06436863 -0.12515841 0.06131834 0.12518704
0.2939853 0.3225722 -0.16458935 -0.1781863 0.071728475 0.12176163 0.20694068 -0.20836572
0.16517594 -0.13809869 -0.15075925 -0.031644493 0.49939457 -0.028160114 0.091005 0.12089817
-0.17842038 0.050858043 -0.08429797 0.1417062 -0.06053224 0.164173 0.1327699 -0.124859
00000000: 7fbb 34bd 6ec5 20be 8214 25be 7a20 a93e
00000010: 3961 a0bd ad8e 183d 1c97 ebbb 068d b7be
00000020: ba43 41be 61ec 72be 8a9a a03e 852f 083e
00000030: 1ddf 4cbe dd57 a4be 1195 453e c0cf 54bd
00000040: 6d68 1ebe af53 24bd 3d6a 233e e3e1 99bd
00000050: 301f 0a3e da37 833d 4ba8 cf3d 6d0b 813e
00000060: 2263 84bc 47e5 423d 6322 323d 0f2d 243d
00000070: 1edf 14be e087 aebd 37bb 95bd 5732 863e
00000080: 3494 a8be b6b9 5a3e 28e4 12be b306 90ba
00000090: dad5 043e 561c 8cbd 3bbc 12be 78bf fb3b
000000a0: 5992 b73d b058 c6bd ba16 81be 422c 743e
000000b0: cc1c 893d f782 2e3e 326d a3bd 2bee 84be
000000c0: 9e1a 643d 7d9e a2bc 3d5d 853e 1520 b73e
000000d0: fcd0 66be d619 0f3e 4e4f 62bd ec34 073e
000000e0: 69eb 86b9 8c6b 8fbd 35b3 7e3c adf3 90be
000000f0: b08c 1cbd 2069 7f3d 832a d4bd e266 85bd
00000100: db1d d4bc c57f 903e f945 05be 3e9e 65be
00000110: 947e 2d3d d2a0 b13d 9155 edbd 7577 b0bd
00000120: 9ea7 dabc 8fb2 4f3d 8265 47bd db61 b63e
00000130: 9a72 16bb 19ce b63b fb55 2b3e b566 2a3e
00000140: e63d 2abe a0a1 b73c bc6e 873e f6af 353e
00000150: 28fd c53d 41be 59bd 5fa1 a33d 2d6c 0dbd
00000160: 5a01 9b3e 734e 243e 16c5 02be 88bb eebb
00000170: a5b5 4a3e a7f5 e43e d3e5 6abd 2268 2fbe
00000180: 5a74 3dbe d249 c4be 0b7e f0bd e55f bf3c
00000190: 8b0d cbbd 5396 d7bc 4272 a63c 41cc 9ebe
000001a0: bde6 b2be da3e 9fbe 0d26 12be 0dd7 9bbd
000001b0: 86c4 c839 1cb6 b4be 1b4a 6fbc 84a9 0dbe
000001c0: e9d3 0b3e 3760 353e 336c cd3e a099 02bc
000001d0: bb3a 07be 439b c33d 5f1e f6bd c430 533d
000001e0: 18e2 0c3d eb95 58be 4f33 be3c ea55 ca3d
000001f0: dddd 60bd 5c3d e93d e448 80be c342 9b3d
00000200: 1680 433e 3508 5ebe 8017 76bc d39e 34be
00000210: 3755 95bd bee7 553e 6ca3 0d3e 41e7 503e
00000220: 2737 733e 6c6f 4fbe 94b0 a4bd b252 fabb
00000230: 35e5 9939 0bfe 333e c36b 823e f96e 803e
00000240: 041f 5cbe d624 723d 8563 683d 9b34 1cbd
00000250: 2216 4b3d ae6f 9a3c 56c8 7e3d a453 91be
00000260: 0879 76bc 16df 80be 8e84 76be 9e4f 3abe
00000270: e4d1 7dbe 4f0d cdbc e795 9bbe 4a59 22bc
00000280: dc24 843c f49b 39be fc38 bb3e 5322 f33b
00000290: 8ef4 763d 2a68 fb3d f446 69bd a7c0 c63e
000002a0: ed0c 09bd 1108 00be 6f49 cdbd 4576 c4bb
000002b0: dce1 b63e 1959 05bd de6c 923d 5765 523e
000002c0: ffe6 fcbd 83bb 993e e0f5 333b 9077 883d
000002d0: 50cc 99be 0411 a03d e85b 9e3b d895 dabd
000002e0: 1f92 9c3d f60d 073d f63a 8abe 23af c5bd
000002f0: 9685 22bd 62e1 3cbe 22cd 43be 07ab 6d3e
00000300: 5d55 853e 633e 18bb 4133 23be a0b2 863e
00000310: 3965 ef3d 1ad3 9bbd 4c63 793e b375 813d
00000320: 2f68 433e d0f2 35be ba2e 59be 61cc b3bc
00000330: bd91 33bc 1d1e 0f3e fee6 c13e dd5c b0be
00000340: e7bc ebbe d50b 38be 7e4d 5c3e 7d9f 233e
00000350: aec3 233d 0b36 473e 0a7c e63d 0fa1 45be
00000360: 3a2f 403e e5de b8bb 6ea4 43be 5479 24bd
00000370: 0796 153e 4790 3d3e c313 80bd 97df 963c
00000380: 94e7 bc3c abab 523d 2c33 2bbe 709b 45bc
00000390: b3d3 83bd 8729 00be f128 7b3d 0831 003e
000003a0: 3e85 963e 2f28 a53e 1c8a 28be 7876 36be
000003b0: 61e6 923d 295e f93d 42e8 533e d35d 55be
000003c0: e223 293e be69 0dbe a260 1abe a89d 01bd
000003d0: a5b0 ff3e 0ab0 e6bc d460 ba3d 7699 f73d
000003e0: d5b3 36be 8650 503d 6aa4 acbd 6e1b 113e
000003f0: a7f0 77bd f81c 283e d5f4 073e 13b6 ffbd

actor.2.bias f4 [32]
-0.024749931 -0.052239772 0.04548452 -0.011798619 0.021963079 -0.06512349 -0.113888346 0.04122542
-0.1098615 -0.007918218 -0.1291436 -0.06711221 0.052879248 0.038630955 -0.010333774 -0.042391602
0.054612726 0.060642894 -0.085503064 0.071579196 -0.013563072 -0.14306752 -0.04927603 0.082217954
0.088100605 -0.10238557 0.042920146 0.0136492215 0.06305751 -0.10971792 0.012647117 0.08645093
00000000: 5ec0 cabc 5ff9 55bd fa4d 3a3d ff4e 41bc
00000010: eaeb b33c 775f 85bd 4b3e e9bd fcdb 283d
00000020: 11ff e0bd 6abb 01bc 383e 04be 2072 89bd
00000030: e997 583d 7e3b 1e3d fd4e 29bc d1a2 2dbd
00000040: 98b1 5f3d af64 783d 3b1c afbd 1d98 923d
00000050: a637 5ebc 4b80 12be aad5 49bd e361 a83d
00000060: 176e b43d 87af d1bd 09cd 2f3d fca0 5f3c
00000070: 4c24 813d cab3 e0bd da35 4f3c 2f0d b13d

actor.4.weight f4 [3, 32]
0.0022115572 0.0068229963 0.014867298 0.0023053307 -0.00073170563 0.021984642 -0.008440589 -0.0110799195
-0.009787571 0.00024490856 0.011604322 -0.0021571873 0.0014613917 0.0022925006 -0.010493225 0.013686102
0.00030199037 -0.014767298 0.00073868997 0.021217167 -0.009919467 -0.00090808974 -0.00473047 0.011927929
-0.0081417505 -0.012775999 -0.0090613635 0.010264043 0.009547228 0.010282166 0.0034953079 0.0045015765
0.001899255 -0.006561688 -0.00055984064 0.0023933358 -0.0021721874 0.008575082 0.0027184652 0.0058837347
0.012582819 -0.011156435 -0.0044377167 0.012535768 0.0063259024 -0.0016874706 -9.154282e-05 0.013510252
0.014321857 0.0042022797 -0.012347781 -0.013032455 0.00022441616 -0.017558673 0.008665276 -0.0014509151
-0.00851077 -0.018150384 -0.016264852 -0.0123568205 -0.012088699 0.0025140313 -0.015525926 -0.0032999977
0.0062535657 0.0321174 0.0073566632 -0.010647039 -0.002462044 0.0035407667 0.006615006 0.005078972
-0.0098745795 0.014517167 -0.016439801 0.017128576 0.004505435 0.0096791405 0.0041043926 -0.0003913412
-0.008508904 0.012256612 0.0027362145 0.03433714 -0.0045760158 0.00459492 0.00606748 0.0061619054
0.0035381862 0.026169732 0.0019833602 -0.004120729 -0.0032419986 -0.0028806457 0.016907556 0.0075250217
00000000: c6ef 103b 7193 df3b f895 733c 0815 173b
00000010: efcf 3fba 2319 b43c 654a 0abc 8d88 35bc
00000020: 0c5c 20bc 1267 8039 0e20 3e3c 995f 0dbb
00000030: 2b8c bf3a c73d 163b c7eb 2bbc ac3b 603c
00000040: 7654 9e39 89f2 71bc a5a4 413a a0cf ad3c
00000050: 4385 22bc df0c 6eba 0f02 9bbb 5c6d 433c
00000060: fa64 05bc 6c52 51bc 1d76 14bc 842a 283c
00000070: fa6b 1c3c 8876 283c 8911 653b f681 933b
00000080: 6cf0 f83a 6e03 d7bb 45c2 12ba 83d9 1c3b
00000090: 425b 0ebb 807e 0c3c 4728 323b 58cc c03b
000000a0: 2b28 4e3c 7bc9 36bc 446a 91bb d262 4d3c
000000b0: 8449 cf3b 1e2e ddba adfa bfb8 1b5a 5d3c
000000c0: 39a6 6a3c 47b3 893b 594e 4abc 1486 55bc
000000d0: 4151 6b39 35d7 8fbc cdf8 0d3c a22c beba
000000e0: c270 0bbc 1db0 94bc de3d 85bc 4374 4abc
000000f0: ae0f 46bc 72c2 243b 7460 7ebc c644 58bb
00000100: b6ea cc3b 898d 033d 2a10 f13b eb70 2ebc
00000110: 3e5a 21bb 350c 683b b1c2 d83b 816d a63b
00000120: fdc8 21bc 69d9 6d3c c3ac 86bc 3a51 8c3c
00000130: 54a2 933b 4295 1e3c 247e 863b ed2c cdb9
00000140: ee68 0bbc f5cf 483c 1052 333b 1aa5 0c3d
00000150: 67f2 95bb fc90 963b b6d1 c63b cfe9 c93b
00000160: eae0 673b e861 d63c 43fb 013b 2e07 87bb
00000170: b677 54bb 37c9 3cbb b781 8a3c 7594 f63b

actor.4.bias f4 [3]
0.12723628 -0.071652964 0.094034776
00000000: 3a4a 023e cabe 92bd 4e95 c03d

critic.0.weight f4 [64, 24]
-0.11304731 0.1399168 0.1680968 -0.09873688 -0.05086873 -0.21105787 -0.07228987 0.002464254
-0.047747463 0.16775405 0.18182185 -0.038909234 -0.04172314 0.10831269 0.029929036 0.025061592
0.19496408 0.25384146 0.25643554 -0.11377978 -0.09253798 0.33589652 -0.07148362 -0.318553
-0.022621896 -0.26953605 -0.20608443 -0.06559191 -0.18704046 0.19048172 -0.15917833 -0.06856796
-0.27194312 -0.23682685 -0.050787278 -0.3098393 -0.111700825 -0.28946048 0.19172803 0.03621893
0.20585196 0.41025814 -0.22647753 0.038681116 0.10070332 -0.016603477 -0.16853799 0.25251636
-0.086699635 -0.4265875 -0.090338886 -0.31226918 -0.07268669 0.39972034 -0.1021735 0.26100743
0.04908055 -0.13337442 0.079300396 -0.32417405 -0.06924916 -0.01728473 -0.016871879 0.19177958
0.05621656 -0.30739588 0.054112453 -0.12962177 0.1896688 -0.13915329 -0.334419 0.013847678
0.084724516 -0.13303663 0.18284115 -0.039752297 0.11485287 -0.09430935 0.081497476 0.1133922
0.021704962 0.22926319 0.34226567 0.07012639 0.11548769 -0.17829522 -0.16005217 0.22657876
-0.21717891 0.1819222 0.08775103 0.40748575 -0.30266136 0.23115927 -0.07408437 -0.027049642
-0.21173483 0.04483894 -0.12814073 0.33919185 0.1796689 0.22569063 -0.08748593 0.19840637
0.08893836 -0.07094148 -0.04790735 0.13239542 -0.13351211 -0.16444808 -0.1224233 -0.0077722846
0.1908495 0.028795669 0.13338637 -0.22631381 0.03038265 0.03935826 -0.013430488 -0.1925031
0.026963973 -0.019408744 -0.049606003 -0.10558607 -0.32593158 0.34614465 0.22593369 -0.23717782
0.11512241 -0.21152149 -0.056401618 -0.13703595 0.19789599 -0.13860719 -0.09913677 -0.026897741
-0.2755982 -0.25729805 -0.009745989 -0.16947332 0.043778084 0.20074444 -0.1506022 0.016433008
0.14906847 -0.37737244 0.22348687 0.37700117 0.085891806 -0.14619784 0.06977633 -0.11872989
0.037382394 0.31329152 -0.0033766883 -0.13255343 -0.41284433 0.31213817 -0.18228732 0.05971431
0.14569035 0.15454008 0.09581795 0.05887387 0.107735366 0.17341116 0.27022353 0.19159831
-0.007541272 -0.0773067 0.18336621 -0.0644154 -0.38962364 -0.20515986 0.014310074 0.062457252
-0.107503645 -0.119894855 0.02962582 -0.19345555 0.27455682 0.027447192 0.05596707 -0.027183283
-0.111682296 -0.0594877 0.13946876 -0.035093304 -0.08769825 -0.017873503 -0.016669953 -0.34679157
-0.21859738 -0.08889064 -0.050719287 -0.14816613 0.1299787 -0.19519548 -0.023176912 -0.011206323
0.14826572 0.07363002 0.15698299 0.32871875 -0.19369684 0.06534948 -0.35253778 -0.021036727
-0.33062705 0.011835014 0.29478273 -0.084106095 -0.10947964 -0.079685695 -0.16744651 0.033127844
-0.5018327 -0.0054573636 -0.013179749 -0.32524914 0.3783524 -0.066731915 -0.20110294 -0.57438767
-0.04819621 0.3735637 -0.016853273 -0.042052697 0.019561864 -0.22402526 -0.0027361198 0.110751614
-0.07063162 -0.10455958 0.030806683 -0.0514754 0.107665285 0.13030669 -0.042912476 0.005405848
0.22243801 0.2513192 0.26196998 0.1796777 -0.0044466355 0.20781527 -0.18894976 0.08561734
-0.11564065 -0.12797616 -0.1579695 0.24816303 0.38424957 -0.06097585 0.11217887 0.14120367
00000000: 5985 e7bd 5a46 0f3e 9121 2c3e 9036 cabd
00000010: bb5b 50bd 8e1f 58be b60c 94bd 527f 213b
00000020: d892 43bd b8c7 2b3e 822f 3a3e 4a5f 1fbd
00000030: e2e5 2abd 0bd3 dd3d bd2d f53c f84d cd3c
00000040: aaa4 473e 82f7 813e 854b 833e 6005 e9bd
00000050: 8d84 bdbd a1fa ab3e 0166 92bd 6119 a3be
00000060: 8e51 b9bc a100 8abe cc07 53be 0d55 86bd
00000070: 8987 3fbe a40d 433e a5ff 22be 5c6d 8cbd
00000080: 213c 8bbe bd82 72be 5206 50bd 42a3 9ebe
00000090: 67c3 e4bd 2a34 94be 5a54 443e 4d5a 143d
000000a0: dbca 523e 5b0d d23e bae9 67be 1770 1e3d
000000b0: 8b3d ce3d 0404 88bc 3995 2cbe d349 813e
000000c0: 948f b1bd ad69 dabe 9803 b9bd bfe1 9fbe
000000d0: c2dc 94bd 25a8 cc3e 5740 d1bd c4a2 853e
000000e0: b008 493d 4e93 08be 3f68 a23d 24fa a5be
000000f0: 81d2 8dbd b598 8dbc e536 8abc de61 443e
00000100: 5643 663d fe62 9dbe 05a5 5d3d 92bb 04be
00000110: 8a38 423e 337e 0ebe f838 abbe 5fe1 623c
00000120: 0c84 ad3d c13a 08be b63a 3b3e 4ed3 22bd
00000130: fb37 eb3d 4325 c1bd 26e8 a63d 2b3a e83d
00000140: 9bce b13c f8c3 6a3e 723d af3e 6d9e 8f3d
00000150: cf84 ec3d 0693 36be b7e4 23be 4304 683e
00000160: 2664 5ebe d049 3a3e d0b6 b33d f9a1 d03e
00000170: 6ef6 9abe 04b5 6c3e 8cb9 97bd 3697 ddbc
00000180: 04d1 58be 09a9 373d 5337 03be 8eaa ad3e
00000190: 20fb 373e 721b 673e d32b b3bd 0a2b 4b3e
000001a0: 5125 b63d c449 91bd 7f3a 44bd aa92 073e
000001b0: 66b7 08be 1465 28be 11b9 fabd a6ae febb
000001c0: 0d6e 433e e5e4 eb3c 7096 083e cfbe 67be
000001d0: 09e5 f83c 2036 213d 8d0b 5cbc 881f 45be
000001e0: 8de3 dc3c 16ff 9ebc aa2f 4bbd 823d d8bd
000001f0: 81e0 a6be df39 b13e 295b 673e bede 72be
00000200: 4cc5 eb3d 1799 58be 6205 67bd 2753 0cbe
00000210: 3fa5 4a3e 0bef 0dbe 3808 cbbd a758 dcbc
00000220: 351b 8dbe 92bc 83be a4ad 1fbc 6a8a 2dbe
00000230: a650 333d f38f 4d3e 7737 1abe 849e 863c
00000240: 68a5 183e f636 c1be bed9 643e 4c06 c13e
00000250: 0be8 af3d e3b4 15be e4e6 8e3d a828 f3bd
00000260: 481e 193d bf67 a03e 6e4b 5dbb 16bc 07be
00000270: 5560 d3be 93d0 9f3e 87a9 3abe fe96 743d
00000280: da2f 153e c13f 1e3e 343c c43d ba25 713d
00000290: 5ca4 dc3d b292 313e bd5a 8a3e 5932 443e
000002a0: c61c f7bb fa52 9ebd 5ac4 3b3e 39ec 83bd
000002b0: c07c c7be 6d15 52be cd74 6a3c 2dd3 7f3d
000002c0: df2a dcbd 6f8b f5bd d9b1 f23c 3619 46be
000002d0: b692 8c3e efd8 e03c ba3d 653d 7aaf debc
000002e0: b0b9 e4bd 60a9 73bd e6d0 0e3e ffbd 0fbd
000002f0: 249b b3bd 746b 92bc 6d8f 88bc aa8e b1be
00000300: fed7 5fbe 4c0c b6bd 07bf 4fbd ddb8 17be
00000310: 2319 053e 53e1 47be 82dd bdbc ba9a 37bc
00000320: f8d2 173e 56cb 963d 26c0 203e d34d a83e
00000330: 7758 46be f3d5 853d d57f b4be 3755 acbc
00000340: f347 a9be a6e7 413c c3ed 963e d13f acbd
00000350: dd36 e0bd 4132 a3bd 1977 2bbe 10b1 073d
00000360: 1c78 00bf afd3 b2bb e0ef 57bc 0e87 a6be
00000370: 68b7 c13e beaa 88bd eeed 4dbe 120b 13bf
00000380: 6469 45bd be43 bf3e e00f 8abc 733f 2cbd
00000390: 3440 a03c e166 65be 7950 33bb bed1 e23d
000003a0: 50a7 90bd 5523 d6bd 4c5e fc3c ded7 52bd
000003b0: 9e7f dc3d 1e6f 053e fec4 2fbd 8a23 b13b
000003c0: cac6 633e e9ac 803e ee20 863e 6efd 373e
000003d0: 15b5 91bb 87cd 543e 0c7c 41be 2558 af3d
000003e0: 01d5 ecbd 2f0c 03be c2c2 21be 731e 7e3e
000003f0: 5cbc c43e d0c1 79bd 09be e53d b297 103e

critic.0.bias f4 [64]
0.13436928 0.028831957 0.18348181 -0.0020715357 -0.024314404 -0.18455377 0.15648897 0.14486706
-0.025406718 -0.033180606 -0.1933172 -0.1593694 -0.005007404 -0.15205182 0.06297216 0.013733802
-0.25168818 -0.18367635 0.15983729 -0.0696897 0.099878944 0.08907977 -0.0019891304 -0.06278908
0.14092155 -0.19589317 0.081375785 0.07482371 0.17996214 0.060658794 -0.11536292 0.0147848725
-0.15529332 0.12418311 -0.15117672 -0.18825968 0.22144736 0.02898396 -0.09517212 0.18812868
0.14766245 -0.23348828 0.08473677 0.054507602 0.13394867 0.12575334 0.03322671 -0.14876111
-0.21460973 0.20642763 -0.15066127 -0.14202072 -0.026391374 -0.09207742 -0.048176274 0.13583834
-0.17749132 0.0014870296 0.04523333 -0.1332742 0.042095512 -0.1365093 -0.18584573 0.19311927
00000000: 1a98 093e ff30 ec3c a8e2 3b3e 9ac2 07bb
00000010: 002f c7bc aafb 3cbe a53e 203e 0858 143e
00000020: c021 d0bc 63e8 07bd f2f4 45be bb31 23be
00000030: 2615 a4bb 79b3 1bbe 8cf7 803d be03 613c
00000040: 46dd 80be a715 3cbe 63ac 233e 79b9 8ebd
00000050: 558d cc3d 746f b63d 125c 02bb 9097 80bd
00000060: bd4d 103e 3898 48be 59a8 a63d 2c3d 993d
00000070: ff47 383e 5b75 783d 6543 ecbd 403c 723c
00000080: 3605 1fbe b753 fe3d 12ce 1abe 25c7 40be
00000090: 19c3 623e c56f ed3c 9ae9 c2bd cea4 403e
000000a0: d334 173e 8d17 6fbe 798a ad3d 5d43 5f3d
000000b0: d729 093e 7cc5 003e bb18 083d d554 18be
000000c0: a7c2 5bbe c461 533e f346 1abe e16d 11be
000000d0: b932 d8bc 1693 bcbd 7c54 45bd 3519 0b3e
000000e0: 49c0 35be 6fe8 c23a 9646 393d 0879 08be
000000f0: 586c 2c3d 18c9 0bbe 584e 3ebe 0fc1 453e

critic.2.weight f4 [32, 64]
0.39155257 -0.27949804 -0.23552115 -0.22926775 -0.32074228 -0.029725581 -0.0012506151 0.24982509
-0.015216049 0.04608209 -0.026661979 -0.16482222 -0.12514433 0.050763827 0.054802723 0.2545455
0.13067347 0.017888842 -0.100934155 0.09535455 0.02954367 0.44611263 0.12293841 -0.13504574
-0.08802012 0.07088466 -0.11052878 0.120693214 -0.1134928 0.11265204 -0.22146173 -0.104323566
-0.17717211 -0.27240303 -0.13699028 -0.0362824 -0.20385844 -0.23232815 0.10801414 0.06145197
-0.10332556 -0.22520186 -0.014588335 0.018448684 -0.1380057 -0.048986334 -0.15597653 0.10418498
-0.09783201 -0.276975 0.35832858 -0.13973932 0.11132145 0.4023166 -0.11453527 0.023471555
0.2587774 0.17476885 -0.12091595 0.02957282 -0.27425826 -0.18372265 0.17876396 0.03275041
-0.1403059 -0.17782067 -0.2676799 -0.0663411 -0.07717741 0.06952972 -0.2680499 -0.26797622
0.017898392 -0.1923911 0.23167868 0.23000836 -0.007988018 -0.10272337 -0.00053809426 0.19749148
0.12711325 0.037815116 0.18284841 -0.22566712 -0.07633426 0.06440888 -0.17631167 0.30252472
-0.005309519 0.005922409 -0.00866413 -0.09485354 0.036729477 -0.2984353 0.056394063 0.06874344
0.07636153 -0.2762289 0.1268739 -0.03589783 -0.23175609 -0.054015566 0.012297364 0.16401723
0.26907095 0.12932862 -0.5007349 0.013817022 -0.0015803545 0.36586553 -0.32780862 -0.010291725
-0.26734003 -0.058143396 0.11595533 -0.09960288 -0.13829888 0.1937671 -0.0726989 -0.009316898
0.0926493 -0.18306823 -0.0052260035 0.11623575 0.102745496 -0.048855733 -0.40144673 0.05839545
-0.008298965 0.08303723 -0.0111790355 0.036035538 -0.058758963 -0.29541075 0.16785602 -0.12119993
-0.29946285 -0.06446312 0.10436042 -0.04743517 -0.040395167 0.36749554 -0.06515455 0.06933256
0.24463227 0.0200357 0.12561108 -0.24769065 0.19154918 -0.42914793 0.12495604 -0.17080623
0.041961394 -0.059350353 0.016652716 -0.05991532 0.08155145 0.23103651 -0.098707385 -0.17248178
0.1424136 0.06141914 0.18036863 -0.2103011 -0.47253937 -0.05062131 -0.1819432 0.16179153
0.45734322 -0.21207078 0.050767332 0.110451214 0.23474342 0.09256972 -0.029316153 0.1574913
0.29512346 -0.16943519 -0.025090896 -0.16176602 -0.071431234 -0.30392936 0.03814386 -0.13821366
0.025588954 0.10297147 -0.020823197 -0.1685256 -0.35202152 0.054489568 -0.03490856 0.04315377
-0.018991962 -0.024177216 -0.13120285 0.23832346 -0.12120361 -0.5557113 -0.23617719 0.0015103653
0.16071643 -0.051788077 -0.21393701 -0.12976582 -0.1299172 -0.21636355 -0.08498724 -0.26334125
0.24204636 -0.032081988 0.031270966 0.10942754 0.26751712 -0.30515608 0.12361339 0.18541916
-0.05744524 0.23430647 0.14819026 -0.04381052 -0.21166517 -0.08177621 -0.016660092 0.17300239
0.06471864 0.094888106 -0.074765 0.04737956 0.050206218 0.01009386 0.12909496 0.13553682
0.08021995 -0.021448491 -0.27498585 0.0712742 -0.05028563 -0.1266871 -0.12961026 0.24486814
-0.18462276 0.03433808 -0.08327115 0.19407938 -0.18156059 0.124480054 -0.020131627 -0.03978795
0.12297894 -0.254317 0.3928896 0.017588636 -0.113960005 -0.090905555 0.50096965 0.085810006
00000000: 9479 c83e 5e1a 8fbe 752c 71be 2ac5 6abe
00000010: 5538 a4be 1083 f3bc aeeb a3ba 26d2 7f3e
00000020: bc4c 79bc 93c0 3c3d 396a dabc 28c7 28be
00000030: d625 00be bbed 4f3d d278 603d ca53 823e
00000040: 44cf 053e 9f8b 923c 91b6 cebd 3f49 c33d
00000050: 9105 f23c e068 e43e 22c7 fb3d 6e49 0abe
00000060: e543 b4bd fa2b 913d ea5c e2bd 012e f73d
00000070: ea6e e8bd 1db6 e63d ddc6 62be 98a7 d5bd
00000080: 9b6c 35be 6978 8bbe 2e47 0cbe db9c 14bd
00000090: 44c0 50be 6ee7 6dbe 8436 dd3d 10b5 7b3d
000000a0: 5a9c d3bd 519b 66be e903 6fbc b221 973c
000000b0: 5e51 0dbe e5a5 48bd 50b8 1fbe ef5e d53d
000000c0: 265c c8bd abcf 8dbe d876 b73e d317 0fbe
000000d0: 80fc e33d 71fc cd3e 7891 eabd 6b47 c03c
000000e0: 797e 843e 9bf6 323e c8a2 f7bd b342 f23c
000000f0: 946b 8cbe ca21 3cbe e60d 373e 4b25 063d
00000100: 5aac 0fbe 9f16 36be 570d 89be d8dd 87bd
00000110: 310f 9ebd 9965 8e3d d63d 89be 2e34 89be
00000120: a69f 923c 2c02 45be 2d3d 6d3e 5087 6b3e
00000130: 2de0 02bc a160 d2bd e50e 0dba 353b 4a3e
00000140: fa29 023e 06e4 1a3d 9d3c 3b3e 4815 67be
00000150: 2355 9cbd cee8 833d 0c8b 34be 85e4 9a3e
00000160: 79fb adbb c410 c23b fff3 0dbc 9342 c2bd
00000170: a671 163d 83cc 98be 76fd 663d 5cc9 8c3d
00000180: 6f63 9c3d e06d 8dbe 3beb 013e 9a09 13bd
00000190: 7851 6dbe 6d3f 5dbd e27a 493c 22f4 273e
000001a0: abc3 893e b96e 043e 2a30 00bf ca60 623c
000001b0: e623 cfba ba52 bb3e 88d6 a7be a09e 28bc
000001c0: cbe0 88be c527 6ebd fd79 ed3d 98fc cbbd
000001d0: 399e 0dbe e26a 463e 29e3 94bd e7a5 18bc
000001e0: ebbe bd3d 3d76 3bbe e53e abbb 020d ee3d
000001f0: 3b6c d23d f31c 48bd 6d8a cdbe 1130 6f3d
00000200: 62f8 07bc 6c0f aa3d 4628 37bc 009a 133d
00000210: 3dad 70bd 1440 97be 73e2 2b3e ab37 f8bd
00000220: 3253 99be 3e05 84bd eaba d53d 614b 42bd
00000230: 6775 25bd 6028 bc3e c06f 85bd 3bfe 8d3d
00000240: e280 7a3e e921 a43c 31a0 003e 9ea2 7dbe
00000250: 7825 443e 47b9 dbbe f4e8 ff3d d4e7 2ebe
00000260: b6df 2b3d 5b19 73bd 476b 883c c469 75bd
00000270: 7204 a73d d694 6c3e 1927 cabd 109f 30be
00000280: dfd4 113e a392 7b3d 8eb2 383e 2c59 57be
00000290: aef0 f1be 4a58 4fbd 514f 3abe aeac 253e
000002a0: e428 ea3e 1529 59be 68f1 4f3d 3f34 e23d
000002b0: 9460 703e 3195 bd3d 6e28 f0bc 6645 213e
000002c0: 6c1a 973e 6b80 2dbe 6c8b cdbc fea5 25be
000002d0: 8a4a 92bd a19c 9bbe bc3c 1c3d e287 0dbe
000002e0: ed9f d13c b5e2 d23d 6995 aabc fa91 2cbe
000002f0: 2a3c b4be 7430 5f3d 47fc 0ebd 02c2 303d
00000300: 0895 9bbc 4c0f c6bc 0a5a 06be 110b 743e
00000310: 9939 f8bd 1943 0ebf 6fd8 71be 73f7 c53a
00000320: d992 243e bc1f 54bd 4e12 5bbe 55e1 04be
00000330: 0409 05be 688e 5dbe ca0d aebd aad4 86be
00000340: 00db 773e 6768 03bd fc15 003d 8c1b e03d
00000350: 01f8 883e 6b3d 9cbe 0429 fd3d 85de 3d3e
00000360: b34b 6bbd 09ee 6f3e 30bf 173e a972 33bd
00000370: c1be 58be 497a a7bd bf7a 88bc 8a27 313e
00000380: 358b 843d b254 c23d 641e 99bd 1211 423d
00000390: 09a5 4d3d b860 253c 7831 043e 2aca 0a3e
000003a0: 5b4a a43d bfb4 afbc f2ca 8cbe 35f8 913d
000003b0: 4ef8 4dbd 43ba 01be 8db8 04be b7be 7a3e
000003c0: c00d 3dbe 16a6 0c3d 118a aabd bfbc 463e
000003d0: 05eb 39be 66ef fe3d 15eb a4bc b1f8 22bd
000003e0: 62dc fb3d d635 82be d328 c93e 0b16 903c
000003f0: dd63 e9bd b12c babd 8c3f 003f 28bd af3d

critic.2.bias f4 [32]
0.10984148 -0.078587756 -0.025843326 -0.077284925 -0.06720332 -0.035705946 0.071192786 -0.061706148
-0.05789933 0.01207124 -0.060570225 -0.12458614 -0.086561844 0.032920074 -0.038184404 0.044367824
0.11055758 -0.11170378 0.035833944 0.09018787 0.0071591754 -0.03348729 -0.06718993 -0.09223242
0.043509033 -0.066781126 0.018192872 -0.052160997 -0.024390519 -0.06909595 0.03517044 0.042910736
00000000: 92f4 e03d 9ef2 a0bd 62b5 d3bc 8f47 9ebd
00000010: e5a1 89bd 6640 12bd 86cd 913d 96bf 7cbd
00000020: d927 6dbd 73c6 453c 7c18 78bd 0527 ffbd
00000030: 5647 b1bd 33d7 063d 4067 1cbd 09bb 353d
00000040: 036c e23d f4c4 e4bd 9dc6 123d 6bb4 b83d
00000050: 8497 ea3b f829 09bd e09a 89bd 5ae4 bcbd
00000060: 8736 323d 8bc4 88bd 3809 953c c5a6 55bd
00000070: a0ce c7bc 2d82 8dbd e10e 103d 2bc3 2f3d

critic.4.weight f4 [1, 32]
-0.028128374 -0.2508579 0.01669926 0.12787686 -0.0009367372 0.006412199 -0.18425837 0.023156194
0.20222628 0.38075373 -0.008159216 -0.167962 0.09130507 0.13691111 0.002255302 -0.06537539
0.0016394658 -0.038176745 -0.05872202 0.028255383 -0.13522002 0.008393535 -0.2568111 0.06790272
-0.19002587 0.0008358716 -0.17171873 0.1780681 0.015264793 0.040424768 -0.1651287 0.0061929883
00000000: 7a6d e6bc 7270 80be e3cc 883c 27f2 023e
00000010: 5f8f 75ba 6d1d d23b 3aae 3cbe 0fb2 bd3c
00000020: 6814 4f3e 27f2 c23e 3bae 05bc 3bfe 2bbe
00000030: 27fe ba3d 6d32 0c3e b0cd 133b 88e3 85bd
00000040: 58e3 d63a 385f 1cbd 8086 70bd d577 e73c
00000050: 1e77 0abe 0a85 093c bf7c 83be 9510 8b3d
00000060: 2496 42be 651e 5b3a 09d7 2fbe 7c57 363e
00000070: 2f19 7a3c 7194 253d 7f17 29be 8dee ca3b
