logs/exp/21_11_01_17_50_06/model_0.pt (torch, 34660 bytes, 12 tensors)

log_std f4 [3]
0	0xbc5af0a1	-0.013363034
1	0xbc8ae146	-0.016953122
2	0xbccbcb90	-0.02487734

actor.0.weight f4 [64, 24]
0	0xbe987d25	-0.29782978
1	0x3e0d8f2f	0.13824151
2	0xbb395be5	-0.0028283533
3	0x3e09eb6b	0.13468711
4	0xbe3e64bb	-0.18593113
5	0xbea017a9	-0.3126805
6	0x3e80d82f	0.25164935
7	0xbdd5e6cc	-0.10444412
8	0x3dc0c4f3	0.09412565
9	0x3ce4d2ba	0.027932514
10	0xbea487c5	-0.32134834
11	0xbdb75aea	-0.08952887
12	0x3e267d28	0.16258681
13	0x3e746cde	0.23869655
14	0x3dcbb483	0.09946539
15	0xbd947c0d	-0.07250223
16	0xbdde2952	-0.10847725
17	0xbe13c001	-0.14428712
18	0x3da2c598	0.07947844
19	0x3dc17648	0.094463885
20	0x3d971cd3	0.07378545
21	0xbd3103b0	-0.043216407
22	0x3ecfd275	0.40590253
23	0xbe24f96d	-0.16110773
24	0xbcd88db5	-0.026434759
25	0x3d0bdb49	0.034144673
26	0x3e76eb89	0.24113287
27	0x3e4f7585	0.20259674
28	0x3c9cf17c	0.019158117
29	0x3dc32074	0.09527674
30	0xbe85746e	-0.2606539
31	0x3e07847b	0.13234131
32	0x3e4ecd14	0.20195419
33	0x3e3b95f7	0.18318926
34	0x3e8d2a3e	0.2757129
35	0xbe9ee002	-0.3103028
36	0xbe6956b9	-0.22786988
37	0x3d1949ac	0.037423775
38	0xbe855919	-0.2604454
39	0xbea1c132	-0.3159271
40	0x3d02aedb	0.031905036
41	0xbe2c909e	-0.16852042
42	0xbdf3ed58	-0.11910504
43	0xbba78697	-0.00511248
44	0x3e5f3840	0.21798801
45	0x3d7f8feb	0.06239311
46	0xbe2e9f0a	-0.17052856
47	0x3e265dbf	0.16246699
48	0x3e8265fe	0.2546844
49	0x3da5db8f	0.08098518
50	0x3e71f81e	0.23629805
51	0xbcab91a4	-0.02094347
52	0x3dddbbf5	0.108268656
53	0x3e82cfa3	0.2554904
54	0xbe4c7e59	-0.19970073
55	0x3d9f369d	0.077740885
56	0x3e8060d1	0.25073865
57	0x3e9029e1	0.2815695
58	0x3d66def7	0.05636498
59	0x3e6508b4	0.22366601
60	0xbda65720	-0.081220865
61	0x3da3d460	0.07999492
62	0x3e4b9314	0.19880325
63	0x3e8012ec	0.25014436
64	0x3c82794a	0.015926976
65	0xbea46e79	-0.32115534
66	0x3ea0d129	0.31409577
67	0xbd7ce5f8	-0.061742753
68	0xbdfdd442	-0.123940006
69	0x3dc43102	0.0957966
70	0xbce438ee	-0.027859177
71	0xbe083fb9	-0.13305558
72	0xbdd11d57	-0.10210674
73	0x3e34c8b5	0.17654689
74	0x3de95dc3	0.11394837
75	0xbd61b909	-0.055108104
76	0x3d1962fe	0.037447922
77	0x3d32bff0	0.043640077
78	0xbe29a3d5	-0.16566403
79	0xbe9babcd	-0.3040451
80	0x3df109a4	0.11769417
81	0xbe94011b	-0.28907093
82	0x3c8660ff	0.016403673
83	0x3d19290d	0.037392665
84	0x3e824882	0.25445944
85	0xbe963765	-0.29339138
86	0xbe5a3f6b	-0.21313255
87	0xbd4dcb62	-0.05024279
88	0x3ca29355	0.019845644
89	0xbe213560	-0.15743017
90	0x3ddb3ea8	0.1070531
91	0xbe9037f1	-0.2816768
92	0x3e031caa	0.12803903
93	0x3e7fb616	0.24971804
94	0x3dc12e36	0.09432642
95	0x3e9eadcc	0.30991971
96	0x3e355cd9	0.177112
97	0xbddf7976	-0.10911839
98	0x3d70a0e2	0.05874718
99	0xbe9cee95	-0.30650774
100	0xbd9309fd	-0.071796395
101	0xbe79ae18	-0.24382818
102	0x3df4a389	0.11945254
103	0xbd7d506c	-0.061844274
104	0xbe91dda2	-0.28489405
105	0xbc93a1ab	-0.018021425
106	0x3e1abfb8	0.15112197
107	0xbd9b82dc	-0.07593319
108	0x3daeef39	0.08541722
109	0xbd3db48c	-0.04631476
110	0x3e8152b5	0.25258413
111	0x3e4c2bdd	0.19938608
112	0xbda6fc7f	-0.081536286
113	0x3da82d62	0.08211781
114	0x3e1c2a64	0.15250546
115	0x3e721c0b	0.2364351
116	0x3e8d2442	0.27566725
117	0xbc58eb18	-0.0132396445
118	0xbe9e3c50	-0.3090539
119	0x3dbb0bc1	0.09133101
120	0xbd85f349	-0.065405436
121	0xbe3d1dda	-0.18468419
122	0xbec97ba8	-0.39352155
123	0xbe674bdf	-0.22587536
124	0x3ceb0651	0.028689535
125	0xbd0660aa	-0.03280703
126	0x3dfd74c9	0.123757906
127	0x3e00306a	0.12518468
128	0x3ecd47c3	0.40093812
129	0xbe8d4ade	-0.27596182
130	0xbd063a56	-0.032770477
131	0x3c25db0d	0.010123027
132	0xbe99584b	-0.29950175
133	0x3e0a6b12	0.13517407
134	0x3db15387	0.0865851
135	0x3e7cbb62	0.24680856
136	0xbdb0d264	-0.08633879
137	0xbe902d1e	-0.28159422
138	0x3d6b4a63	0.057443988
139	0x3d1c4fad	0.038161922
140	0x3db9f335	0.09079591
141	0xbdc5d2a6	-0.096593186
142	0xbdd50966	-0.10402183
143	0xbe067030	-0.13128734
144	0xba199de2	-0.0005860013
145	0x3e0eaed5	0.1393388
146	0x3e8553ac	0.260404
147	0xbe965042	-0.29358107
148	0x3e82b6cd	0.2553009
149	0xbe524466	-0.20533904
150	0xbdac8755	-0.0842425
151	0xbea6dc6c	-0.32590044
152	0x3caf81a0	0.021424115
153	0x3e6f53ae	0.23371765
154	0x3db3d349	0.08780534
155	0x3dedf158	0.11618298
156	0xbe1494c2	-0.14509872
157	0x3dd7da54	0.1053969
158	0x3e18170d	0.14852543
159	0x3d9e1776	0.077193186
160	0xbcfe088c	-0.031009935
161	0x3eae29df	0.3401632
162	0xbd798482	-0.060917385
163	0xbe513bf7	-0.20433031
164	0x3e9cf875	0.30658308
165	0xbdc712bd	-0.09720371
166	0x3d840adb	0.06447383
167	0x3e88af00	0.26696014
168	0x3e4c2cad	0.19938917
169	0xbe36162c	-0.17781895
170	0x3d58c06b	0.05291788
171	0xbdf6943c	-0.12039992
172	0x3d425ecc	0.047453687
173	0x3e81669c	0.25273597
174	0x3e3c20b5	0.18371852
175	0x3c87ee9c	0.01659327
176	0xbdae920f	-0.08523952
177	0xbe6c9cc4	-0.23106676
178	0xbda77c39	-0.081779905
179	0x3c9e4f3d	0.019324893
180	0x3d385206	0.0450001
181	0x3e4c54d1	0.1995423
182	0x3e04b8f1	0.12961175
183	0xbe4b6887	-0.19864093
184	0x3e813341	0.25234416
185	0xbd3f1976	-0.04665514
186	0x3cdddb3d	0.02708208
187	0xbd607ed5	-0.054808456
188	0xbc8ed4f1	-0.017435523
189	0x3c36ce95	0.011157651
190	0x3e0f04c6	0.13966665
191	0x3e8886bb	0.2666529
192	0xba8c63c6	-0.0010710887
193	0xbb350c45	-0.0027625721
194	0xbe2468fe	-0.16055676
195	0x3eabcbce	0.33553928
196	0xbb8e5c47	-0.0043444964
197	0x3ea06937	0.31330273
198	0x3e8e5427	0.27798578
199	0x3df16855	0.11787478
200	0x3e8b3d1b	0.27195057
201	0x3dabcad1	0.083882935
202	0x3e628f52	0.22124985
203	0xbb83501d	-0.004007353
204	0x3ea9c5f9	0.33158854
205	0xbd9d9959	-0.07695264
206	0x3e27a783	0.16372494
207	0x3e6b1a6f	0.22959302
208	0xbed96ec8	-0.42467332
209	0xbe2d5c32	-0.16929701
210	0xbd9cc637	-0.07654994
211	0x3c9aa8bb	0.018879285
212	0xbd9c0c55	-0.0761954
213	0xbea8bdf5	-0.32957426
214	0xbe3cc1a9	-0.1843325
215	0x3d86b80d	0.06578074
216	0x3db8d186	0.090243384
217	0xbeb08c03	-0.3448182
218	0xbe446892	-0.19180515
219	0x3ecea8b5	0.40363088
220	0x3d460221	0.048341874
221	0x3e71d07d	0.23614688
222	0xbdf64349	-0.120245524
223	0xbe6c690c	-0.23086947
224	0xbd9cfa66	-0.07664947
225	0x3d93eaf6	0.072225496
226	0xbe195c0d	-0.14976521
227	0x3df43910	0.11924946
228	0xbb868e29	-0.0041063023
229	0xbe6996c0	-0.22811413
230	0x3dec0930	0.1152519
231	0x3ce52547	0.027971877
232	0xbe488c07	-0.19584666
233	0x3db48a6f	0.088154666
234	0xbdc7ad6e	-0.09749876
235	0xbdf5a03f	-0.11993455
236	0xbdf4c898	-0.11952323
237	0x3da27a68	0.079335034
238	0xbc189836	-0.009313634
239	0xbea8c0b9	-0.32959536
240	0x3bcae905	0.006192329
241	0x3bf13e2e	0.0073621487
242	0x3e419f61	0.18908454
243	0x3d689725	0.056784768
244	0x3e19abe9	0.15006985
245	0xbe16a200	-0.14710236
246	0xbe6f6984	-0.23380095
247	0x3d0a8c68	0.033825308
248	0xbe33b8a2	-0.175509
249	0xbe19ff78	-0.1503886
250	0xbd97bab7	-0.0740866
251	0xbdd65fdd	-0.10467503
252	0x3ce4eaec	0.02794405
253	0x3e2dd721	0.16976596
254	0xbe363e78	-0.17797267
255	0x3e3be43c	0.18348783

actor.0.bias f4 [64]
0	0x3e09ca06	0.13455972
1	0xbe32d709	-0.17464842
2	0x3de1b908	0.1102162
3	0x3da4c568	0.08045465
4	0xbd673881	-0.05645037
5	0xbdf4f878	-0.11961454
6	0xbd87f8c4	-0.06639245
7	0xbdde65ad	-0.10859237
8	0x3c52eee9	0.012874343
9	0xbd391769	-0.04518834
10	0x3d28ac03	0.04117967
11	0x3e2b2ada	0.16715565
12	0x3decb555	0.11558024
13	0xbe67383a	-0.22580042
14	0xbd0b7fad	-0.034057308
15	0xbdb55040	-0.08853197
16	0x3df5688e	0.11982833
17	0x3dbe7dd7	0.09301346
18	0x3dff3fe5	0.12463359
19	0x3dd66cf1	0.10469998
20	0x3c872bab	0.016500315
21	0xbd16b449	-0.036793027
22	0x3c83dbfb	0.016096106
23	0xbd155a38	-0.036462992
24	0xbe1c6b08	-0.15275204
25	0x3e5dd2f4	0.21662503
26	0xbda808e4	-0.08204821
27	0xbe1d73d5	-0.15376218
28	0x3d9b2bd8	0.07576722
29	0x3df2f8a4	0.11863831
30	0x3e0a3ddc	0.1350016
31	0xbe0f0c6f	-0.13969587
32	0xbe0f7317	-0.14008747
33	0xbe3506ea	-0.17678419
34	0xbdef6407	-0.116890006
35	0x3cc91b1b	0.024549058
36	0xbe0a86a3	-0.13527922
37	0x3df39739	0.11894078
38	0xbe3e6f57	-0.1859716
39	0x3c7474b7	0.014920405
40	0xbe1bc90a	-0.15213409
41	0x3e218a8d	0.15775509
42	0xbdd79f62	-0.10528447
43	0xbd6c9cfd	-0.057766903
44	0xbdcb360f	-0.0992242
45	0x3e2eb4dd	0.17061181
46	0x3cb20454	0.02173058
47	0x3e3ba0b7	0.18323027
48	0x3e149099	0.14508285
49	0xbe042a8e	-0.12906858
50	0x3e349e51	0.17638518
51	0xbde298c0	-0.11064291
52	0xbe55b76f	-0.20870756
53	0x3e112bb2	0.14176825
54	0xbe639a36	-0.22226796
55	0xbe4a0d0a	-0.19731537
56	0xbdd7f575	-0.10544864
57	0xbc59d42b	-0.013295214
58	0x3cd166a8	0.025561646
59	0xbe67ba8d	-0.22629757
60	0x3cc76b1b	0.024343064
61	0x3dd556b9	0.10416932
62	0xbdac5541	-0.084146984
63	0x3e9d7c56	0.30758923

actor.2.weight f4 [32, 64]
0	0x3d8d5e3f	0.06902742
1	0xbd72c142	-0.059266336
2	0x3d089910	0.033349097
3	0xbe5a911e	-0.2134442
4	0xbe37a7d0	-0.17935109
5	0xbd4d3f2d	-0.050109077
6	0xbe8f4dfc	-0.27989185
7	0x3dbd199c	0.092334
8	0x3e9efbcd	0.31051484
9	0xbea8a6ff	-0.32939908
10	0xbcef5759	-0.029216455
11	0x3e0abd6c	0.13548821
12	0x3d4151e4	0.047197238
13	0xbe712558	-0.23549402
14	0xbda8ee33	-0.08248558
15	0xbdcdee90	-0.10055268
16	0xbd9148bc	-0.07093951
17	0xbd3e73d6	-0.04649719
18	0xbec57afc	-0.38570392
19	0xbe0afe7d	-0.13573642
20	0x3e4a887e	0.1977863
21	0x3eb16897	0.34650108
22	0xbe42fd77	-0.19042002
23	0x3dfed77f	0.12443446
24	0x3dd740c3	0.10510399
25	0xbe55e805	-0.2088929
26	0x3e53f6bd	0.20699592
27	0x3d5e999f	0.054345723
28	0xbe01d1d1	-0.12677695
29	0xbca1b5b6	-0.019739967
30	0xbdaf8551	-0.0857035
31	0xbdd883f5	-0.10572044
32	0xbceddacb	-0.029034993
33	0x3d55b213	0.052171778
34	0xbe8429e2	-0.25813204
35	0xbd8d702e	-0.06906162
36	0xbeba283d	-0.36358824
37	0xbdaabcbb	-0.08336779
38	0x3e8ab582	0.27091604
39	0x3e4ced20	0.20012331
40	0x3de19901	0.11015511
41	0x3ec5b6e8	0.3861611
42	0xbe4053b6	-0.18781933
43	0xbe54fe2e	-0.20800087
44	0xbcfa30b2	-0.030540798
45	0x3e53a145	0.20666988
46	0xbe031c16	-0.12803683
47	0xbdc50269	-0.096196
48	0xbe59f85a	-0.21286145
49	0x3d20a31b	0.03921805
50	0xb95d1142	-0.00021082631
51	0x3d767c77	0.060177293
52	0xbd619e75	-0.055082757
53	0xbe0c39b3	-0.13693886
54	0x3bbbcedc	0.0057314467
55	0x3e10bb17	0.14133869
56	0x3e435c33	0.1907814
57	0x3d960d78	0.07326788
58	0x3e53e636	0.20693287
59	0x3e7b8989	0.24564184
60	0x3c7cfbc2	0.015440883
61	0x3cefef73	0.029288983
62	0x3e3be585	0.18349274
63	0x3d60d5c6	0.05489137
64	0xbe7263c1	-0.23670866
65	0x3e0b2026	0.13586482
66	0x3cefced2	0.029273424
67	0x3c8c85c2	0.017153624
68	0xbddf8f52	-0.10916008
69	0xbdaa863e	-0.08326386
70	0xbddc9e5f	-0.107723944
71	0x3d6bebdb	0.057597976
72	0xbc2ad48f	-0.0104266545
73	0xbdd31f3f	-0.10308694
74	0xb9dcedb6	-0.00042138778
75	0xbd677d47	-0.05651596
76	0xbe24f769	-0.16110004
77	0xbe47b30d	-0.19501896
78	0x3c734677	0.014848343
79	0xbd823da0	-0.0635941
80	0x3ddff40b	0.109352194
81	0x3ec3cd68	0.3824265
82	0x3d2b37c4	0.04180123
83	0x3e4aa777	0.19790445
84	0x3e16bc30	0.14720225
85	0xbe3f3bef	-0.18675207
86	0xbc212463	-0.009835335
87	0x3ee5f4d1	0.44913343
88	0xbd5b4cf1	-0.053540174
89	0x3cdb9d42	0.026808385
90	0xbcd741fa	-0.026276577
91	0x3c6e9a44	0.014563147
92	0xbc1c3c12	-0.009535806
93	0xbe1daeb9	-0.15398683
94	0xbe4c2eb6	-0.19939694
95	0xbe8551ea	-0.26039058
96	0x3dc41824	0.09574917
97	0x3cab1d29	0.020887928
98	0x3c35b3a5	0.011090194
99	0x3d166280	0.03671503
100	0x3e5a9539	0.21345986
101	0x3d8736f6	0.0660228
102	0x3d0a91e5	0.033830542
103	0xbd665b8f	-0.05623966
104	0xbcc85057	-0.024452372
105	0x3ddbabc7	0.10726123
106	0x3dab230d	0.08356295
107	0xbeaa4a12	-0.33259636
108	0x3e81fdff	0.25389096
109	0xbedd6d8a	-0.43247634
110	0x3e2d39df	0.16916607
111	0xbe8ecf3b	-0.2789248
112	0xbdb9e524	-0.09076908
113	0x3e77f493	0.24214391
114	0x3dc828a6	0.09773378
115	0xbb65b08c	-0.0035047857
116	0x3f156e34	0.5837128
117	0xbe159b62	-0.14610055
118	0xbd183645	-0.03716113
119	0xbea26756	-0.31719464
120	0x3e08cc93	0.13359289
121	0x3d6b61cb	0.05746631
122	0x3d6f87a3	0.058478963
123	0xbbb5a9a2	-0.0055439034
124	0xbe31009f	-0.17285393
125	0xbd8adbea	-0.067802265
126	0xbe03eadb	-0.12882559
127	0x3c29a6d3	0.010354715
128	0x3d06f35d	0.032946933
129	0x3df62804	0.12019351
130	0x3e85a714	0.26104033
131	0x3e8d27b7	0.27569363
132	0x3daeda77	0.085377626
133	0xbdf26b8f	-0.118369214
134	0x3c919ede	0.01777595
135	0x3df51c7a	0.11968322
136	0xbcb14aa4	-0.021642037
137	0xbd46dcff	-0.048550602
138	0x3d2e4e6c	0.042555258
139	0xbd71995c	-0.058984146
140	0x3e3b4c9c	0.18290943
141	0xbe16c6fe	-0.14724347
142	0xbe5006d3	-0.20315103
143	0xbeadcdca	-0.33946067
144	0xbe228117	-0.15869556
145	0xbe0149c8	-0.12625802
146	0x3dc76919	0.09736843
147	0xbde77e7c	-0.11303422
148	0x3db9b7bc	0.09068248
149	0x3e64829d	0.2231545
150	0x3e5cfc4d	0.2158062
151	0xbcba3128	-0.022728518
152	0x3d174dd5	0.03693946
153	0xbe31337e	-0.17304799
154	0xbd33e916	-0.04392346
155	0xbe31e0b5	-0.17370875
156	0x3d3f97ed	0.046775747
157	0xbed35ae7	-0.4128029
158	0x3dbdeefb	0.092740975
159	0x3e01b1a2	0.12665418
160	0x3d7cb888	0.06169942
161	0x3e8ce193	0.2751585
162	0x3e4894d9	0.19588031
163	0x3dd5e2b2	0.10443629
164	0x3d63b51a	0.055592634
165	0xbe87bbb3	-0.2651039
166	0x3e0f9cdd	0.14024682
167	0xbe78bcae	-0.24290726
168	0x3e0d8619	0.13820685
169	0x3da85671	0.082196124
170	0xbe0302a4	-0.12793976
171	0xbe2f0bb6	-0.17094311
172	0xbe837f00	-0.2568283
173	0xbcf059eb	-0.029339751
174	0x3e063cdd	0.13109155
175	0x3c844b56	0.016149204
176	0xbd23fce7	-0.04003611
177	0xbdced31b	-0.10098859
178	0xbdcea77b	-0.10090538
179	0xbc82bcc6	-0.015959155
180	0xbd62bd2e	-0.055356197
181	0xbdc535d1	-0.09629405
182	0x3e6fb3a7	0.23408376
183	0xbe8b20a7	-0.2717335
184	0x3e3d225f	0.18470143
185	0x3dd4f597	0.10398405
186	0x3cdaac47	0.026693476
187	0xbe60d9b8	-0.21958053
188	0xbc8b9e2b	-0.017043194
189	0x3ed61683	0.4181405
190	0xbe84ee41	-0.25963023
191	0xbe7e6aa2	-0.24845365
192	0x3e09997e	0.13437459
193	0xbe2b4723	-0.16726355
194	0x3e1799cd	0.14804764
195	0xbea02909	-0.31281307
196	0x3e1de3d2	0.15418938
197	0x3dabfaff	0.08397483
198	0xbdbf3654	-0.09336534
199	0x3ecd1799	0.40057066
200	0xbda000ed	-0.078126766
201	0xbe8cd0b3	-0.27502975
202	0x3de4207b	0.11139008
203	0x3ddae795	0.10688702
204	0xbe5dae8d	-0.21648617
205	0x3dde98e5	0.10869006
206	0x3d5d0d54	0.05396779
207	0xbda81b1b	-0.08208295
208	0x3db54317	0.08850687
209	0xbe6fbdf8	-0.23412311
210	0xbea8efb2	-0.32995373
211	0x3dab1395	0.08353344
212	0xbe71aac8	-0.23600304
213	0x3e80c51d	0.25150385
214	0x3e3a7b96	0.18211207
215	0xbd952f16	-0.072843716
216	0x3c24d798	0.010061167
217	0x3cbf174e	0.023326542
218	0x3e836019	0.25659254
219	0xbd46dab9	-0.048548434
220	0x3e609c47	0.21934615
221	0xbc9efa59	-0.019406484
222	0x3c13983b	0.009008463
223	0x3e6022aa	0.21888223
224	0x3dafee51	0.08590377
225	0x3ddcb43a	0.10776563
226	0xbd286b4f	-0.041117962
227	0x3e56b61d	0.20967908
228	0x3daaef48	0.083464205
229	0x3dd1fa34	0.102528006
230	0xbc34e406	-0.011040693
231	0x3e5024a6	0.2032648
232	0xbe8731c2	-0.2640515
233	0xbefdef03	-0.49596414
234	0x3e82f1f8	0.25575233
235	0x3d8e5db9	0.0695147
236	0x3e4a979c	0.19784397
237	0xbe032fbc	-0.12811178
238	0xbc807113	-0.015678918
239	0xbde4afbe	-0.11166333
240	0xbe9473cc	-0.28994596
241	0xbe209a66	-0.15683898
242	0x3d4f4a8f	0.050608214
243	0x3d952006	0.072814986
244	0x3dc2a00d	0.095031835
245	0x3de8a98d	0.11360464
246	0xbcda9fc1	-0.026687505
247	0xbdbeca95	-0.09315983
248	0x3e485939	0.19565286
249	0xbd33e296	-0.04391726
250	0x3dbf61a1	0.09344793
251	0xbe664d06	-0.2249032
252	0xbdb4d297	-0.08829229
253	0xbdd00a55	-0.10158221
254	0xbebf1b2f	-0.37325427
255	0xbe3e0266	-0.18555602

actor.2.bias f4 [32]
0	0xbcf20b85	-0.029546509
1	0xbd8c23ad	-0.06842742
2	0x3cde52d4	0.027139105
3	0xbcf342c2	-0.029694919
4	0x3da9bd95	0.08288113
5	0xbe11052c	-0.14162129
6	0xbd745195	-0.059648115
7	0xbd06dbf6	-0.032924615
8	0x3d5e9605	0.05434229
9	0xbd92418e	-0.0714141
10	0xbd3be7a3	-0.045875203
11	0xbdd031e5	-0.101657666
12	0x3dc4083c	0.09571883
13	0x3dfb028b	0.122563444
14	0xbced012c	-0.028931223
15	0xbde86d23	-0.11348941
16	0x3d8aa628	0.06769973
17	0xbe057022	-0.13031057
18	0x3c923542	0.01784766
19	0x3cc4502c	0.02396401
20	0xbc575da2	-0.013144882
21	0x3d909f91	0.07061685
22	0x3b8ab29c	0.0042327177
23	0xbd2e3ba9	-0.042537365
24	0xbe0a9edf	-0.13537167
25	0x3d2f1b91	0.0427509
26	0xbd832546	-0.06403594
27	0x3de851f2	0.11343755
28	0xbc8df22b	-0.017327389
29	0xbde03d27	-0.10949164
30	0xbdd6ad18	-0.10482234
31	0x3d9981d5	0.074954666

actor.4.weight f4 [3, 32]
0	0x3caa4e17	0.02078919
1	0x3c3c9e9e	0.011512427
2	0xbcb93e60	-0.02261275
3	0xbc3d834a	-0.011566946
4	0xbc3f52b8	-0.0116774365
5	0xba90bf9a	-0.001104343
6	0x3c5b139d	0.013371375
7	0x3c1c8f4a	0.009555647
8	0x3c4920e3	0.012275907
9	0xbaf2e4f1	-0.0018531365
10	0xbbfc43ee	-0.0076985275
11	0xbc5cde75	-0.013480772
12	0x3b94fe22	0.0045468966
13	0xbb8db965	-0.0043250793
14	0x3baab4b1	0.0052095284
15	0xbc22ba22	-0.009932073
16	0x3c02b6bb	0.007978137
17	0xbc921800	-0.01783371
18	0xbcc45877	-0.023967965
19	0x3c254430	0.010087058
20	0x3c00d51e	0.007863311
21	0x3b22dc8a	0.002485069
22	0x3c54f888	0.012998708
23	0xba907ad3	-0.0011022933
24	0xbcbbe498	-0.02293615
25	0xbbd2331d	-0.0064147846
26	0x3b352651	0.0027641247
27	0x39f58c64	0.0004683464
28	0xba6e1dc9	-0.0009083418
29	0x3c95698b	0.018238803
30	0x3c3d8c2f	0.011569067
31	0x3c2cd24c	0.010548186
32	0xbc79f9b0	-0.015257284
33	0x3b2ddf5b	0.0026530835
34	0xbcf2e99b	-0.029652407
35	0xbc33cb81	-0.010973812
36	0xbcaedede	-0.021346506
37	0xbd07532c	-0.033038303
38	0x3aade40f	0.0013266819
39	0x3b898127	0.0041963044
40	0x3bb2527e	0.0054419627
41	0xbc0070b8	-0.007839374
42	0xbbc8f3b0	-0.0061325654
43	0x3c8ab98f	0.016934184
44	0x3b26acd7	0.002543261
45	0x3c5de4c4	0.0135433115
46	0xbce66a64	-0.028126903
47	0xbc4bd799	-0.012441539
48	0xbbc67eb8	-0.0060575865
49	0xbc192b69	-0.009348729
50	0xbbfdc9b2	-0.007744991
51	0xbc7374b9	-0.014859372
52	0x3c281384	0.010258559
53	0xbc0e0526	-0.00866822
54	0xbc19ee6b	-0.009395222
55	0xbb88e468	-0.004177619
56	0xbb6cf98b	-0.0036159481
57	0xbc940ece	-0.018073466
58	0xbb9bc019	-0.0047531244
59	0xbb97447c	-0.0046163183
60	0xbcbc397c	-0.02297663
61	0x3bcd35b3	0.006262505
62	0x3b787762	0.0037912955
63	0xbac6f8a2	-0.00151803
64	0x3c84f583	0.01623035
65	0xbd081ad5	-0.033228714
66	0x3ce494f8	0.027903065
67	0x3c653bc8	0.013991304
68	0x3998af2f	0.0002912222
69	0x3cf28cba	0.02960812
70	0x3cb1fdd5	0.021727482
71	0xbc4ebe2f	-0.0126185855
72	0xbbc3d180	-0.005975902
73	0x3ba1877d	0.0049294815
74	0xbc0ea7f9	-0.00870704
75	0xbbf41ea9	-0.007449944
76	0x3aac0d15	0.0013126457
77	0x3a23506b	0.000622994
78	0x3c83aedf	0.016074596
79	0x3c86f5e1	0.016474666
80	0x3c5b8439	0.013398224
81	0x3ce15d4d	0.02751031
82	0x3ce2b931	0.027676197
83	0x3b65bfe9	0.0035057014
84	0xbca7dd7f	-0.02049136
85	0x3c119576	0.008885732
86	0x3c7d3a22	0.0154557545
87	0x3c929668	0.017893985
88	0x3c356e8b	0.011073719
89	0x3c0ebe7f	0.00871241
90	0x3b3382e0	0.002739124
91	0x3ad9e9b6	0.0016625437
92	0x3c153d55	0.009108861
93	0x3ac38e97	0.0014919814
94	0x3c947e2e	0.018126573
95	0x392fde6b	0.00016772158

actor.4.bias f4 [3]
0	0xbded2f3d	-0.115812756
1	0xbda56250	-0.08075392
2	0xbde7c149	-0.11316163

critic.0.weight f4 [64, 24]
0	0x3dbcdc95	0.0922176
1	0x3ece218c	0.4025997
2	0x3e42bb3a	0.19016734
3	0xbeae9607	-0.34098837
4	0xbe0261dc	-0.12732643
5	0xbd4f9019	-0.05067453
6	0xbe903ebc	-0.28172863
7	0xbd62500e	-0.055252127
8	0x3c0e26d1	0.008676247
9	0xbc0f3c6f	-0.008742436
10	0xbe06c239	-0.13160028
11	0xbd9f4ef4	-0.07778731
12	0xbd845c83	-0.06462958
13	0xbe09f714	-0.13473159
14	0xbe12033d	-0.14259048
15	0xbd8b3952	-0.06798042
16	0xbdb1cf07	-0.086820655
17	0x3d06efba	0.032943465
18	0xbdf2b35c	-0.11850616
19	0xbb9decea	-0.004819502
20	0xbd0817f3	-0.033225965
21	0xbe2aeb02	-0.16691211
22	0xbd2e1b71	-0.04250664
23	0x3da137ed	0.07871995
24	0xbe716f86	-0.23577699
25	0xbd5606ff	-0.052252766
26	0x3e0b9c1e	0.13633773
27	0xbdb1e989	-0.086871214
28	0x3df437cb	0.11924704
29	0xbdcc9ecb	-0.09991225
30	0xbda97549	-0.082743235
31	0xbe9665b7	-0.29374477
32	0x3de08126	0.10962133
33	0xbdfca22c	-0.12335619
34	0xbd2b4fdc	-0.041824207
35	0xbda34340	-0.07971811
36	0x3e5b77aa	0.21432367
37	0x3d04c2f0	0.03241247
38	0xbe4ec360	-0.20191717
39	0xbdab2c39	-0.08358044
40	0xbec5a6e8	-0.38603902
41	0xbdab1877	-0.08354276
42	0x3de70da7	0.11281901
43	0x3de7847d	0.11304567
44	0xba296e65	-0.00064632884
45	0xbe21f606	-0.15816507
46	0xbe413571	-0.18868043
47	0xbe0776ef	-0.13228963
48	0xbecd5ba5	-0.40108982
49	0xbe957762	-0.29192644
50	0x3e6bf6ae	0.2304332
51	0xbe214953	-0.15750627
52	0x3e000167	0.12500535
53	0xbdc0bb88	-0.09410769
54	0xbe358f58	-0.17730463
55	0xbd8aaeaa	-0.06771596
56	0xbefe24bd	-0.49637404
57	0xbebe2876	-0.37140244
58	0xbe4a4600	-0.19753265
59	0x3d6bb5b1	0.05754632
60	0xbf03a0a6	-0.51417005
61	0xbeaf43ad	-0.3423132
62	0xbda2dd0e	-0.07952319
63	0x3d399ec3	0.045317423
64	0xbdd7e1fd	-0.10541151
65	0xbe90a543	-0.28251085
66	0x3ca67723	0.02032048
67	0x3e9529be	0.2913341
68	0xbd9f08ca	-0.07765348
69	0x3cef15ca	0.029185195
70	0xbdd51465	-0.104042806
71	0xbe7fe63a	-0.24990168
72	0x3e13eafc	0.14445108
73	0xbea43c0a	-0.32077056
74	0x3e509cc5	0.20372303
75	0x3e83bda6	0.25730628
76	0x3cacf8a0	0.021114647
77	0xbd90d45f	-0.070717566
78	0x3d683700	0.056693077
79	0x3e95e607	0.2927706
80	0xbe25515d	-0.16144319
81	0xbdd9247a	-0.106026605
82	0xbe2c0460	-0.16798544
83	0x3d6e6106	0.058197998
84	0xbe9d7972	-0.30756718
85	0xbe295f13	-0.16540174
86	0x3ddd8ccf	0.10817873
87	0xbe2846a0	-0.16433191
88	0xbe9eff9a	-0.31054384
89	0x3e402203	0.18762974
90	0xbc763b30	-0.01502876
91	0x3db92ea6	0.090421006
92	0xbd84f141	-0.06491328
93	0x3bd96a0f	0.0066349576
94	0x3c425998	0.011862181
95	0xbde9784c	-0.11399898
96	0xbccc6844	-0.024952061
97	0xbe281cfb	-0.16417305
98	0xbe2a3456	-0.16621527
99	0x3bc6c87b	0.0060663796
100	0xbdae8826	-0.08522062
101	0xbe5030bb	-0.20331089
102	0xbeff42d4	-0.49855673
103	0x3cbcde90	0.023055345
104	0xbe98ffa1	-0.2988253
105	0xbe00a19f	-0.12561654
106	0xbe836e05	-0.25669876
107	0x3ceac457	0.028658075
108	0x3dd24f9a	0.10269089
109	0x3cd904a6	0.026491474
110	0x3dfa9e15	0.12237183
111	0x3e49452e	0.19655296
112	0xbec0cb69	-0.3765519
113	0x3cd60ced	0.02612921
114	0x3c1c5394	0.009541411
115	0xbc189293	-0.00931229
116	0xbe9505a4	-0.29105866
117	0xbe11628d	-0.1419775
118	0x3dc07fec	0.09399399
119	0xbbdcae55	-0.006734649
120	0xbce044c1	-0.027376534
121	0xbd8ddb14	-0.069265515
122	0xbe012f40	-0.1261568
123	0x3e3778f0	0.17917228
124	0xbd8cadda	-0.06869097
125	0x3ce00e41	0.027350547
126	0xbe45a311	-0.19300486
127	0xbcf71dd7	-0.030165596
128	0x3e7389e9	0.23783077
129	0x3e980c75	0.29697004
130	0xbdaa351d	-0.08310912
131	0x3e830a5c	0.2559384
132	0xbd69accd	-0.05704956
133	0xbe9b4149	-0.30323246
134	0xbdca77ca	-0.09886129
135	0x3e800e21	0.2501078
136	0x3ecff140	0.40613747
137	0xbdedf8d4	-0.11619726
138	0x3d0e0c29	0.034679566
139	0x3c94072e	0.01806983
140	0x3ecae0b1	0.3962455
141	0x3e84a12b	0.2590421
142	0x3d9d10ac	0.076691955
143	0xbe058c03	-0.13041691
144	0xbe8be67d	-0.27324286
145	0xbe2f847b	-0.17140381
146	0xbdd71672	-0.10502328
147	0x3ebb7e0c	0.36619604
148	0xbe858d34	-0.26084292
149	0x3e20c756	0.1570104
150	0x3d8c4fd3	0.06851163
151	0xbdc1a888	-0.09455973
152	0xbe8e5c50	-0.27804804
153	0x3e0a9abf	0.13535593
154	0xbe03e685	-0.12880905
155	0xbea142ac	-0.3149618
156	0xbc56a257	-0.013100228
157	0xbe906285	-0.28200164
158	0xbe2d8205	-0.1694413
159	0x3d2038fe	0.039116852
160	0xbdebed4a	-0.11519869
161	0xbeb3bb20	-0.35103703
162	0xbe40f8ee	-0.18844959
163	0xbb34623b	-0.002752437
164	0x3de3eab6	0.11128752
165	0xbe59fc33	-0.21287613
166	0xbd5377b1	-0.05162782
167	0x3d392e1f	0.04521
168	0x3c19caec	0.009386759
169	0xbb6fe430	-0.0036604516
170	0xbe752814	-0.2394107
171	0xbdaefaf8	-0.08543962
172	0x3d267ee9	0.040648375
173	0x3eb6822b	0.35646185
174	0xbd554e54	-0.052076653
175	0xbc47c7b1	-0.012193606
176	0xbf305001	-0.68872076
177	0xbe39fa8a	-0.1816198
178	0x3dfb9bb1	0.12285555
179	0x3d86e1c1	0.06586028
180	0xbd73939a	-0.059466936
181	0x3bba503b	0.0056858337
182	0xbe8912bb	-0.26772103
183	0xbd3b57ba	-0.04573796
184	0x3daf75a5	0.08567361
185	0xbd8413e6	-0.06449108
186	0xbda55757	-0.080732994
187	0x3d4cda88	0.050013095
188	0xbf0490fe	-0.5178374
189	0xbc2fb7e8	-0.010724999
190	0xbec0ca1c	-0.37654197
191	0xbdb45d34	-0.088068396
192	0xbddb49bd	-0.10707424
193	0xbea07c51	-0.31344846
194	0x3ce78398	0.028260991
195	0x3cd4c559	0.025973009
196	0x3e6e4224	0.23267418
197	0x3e896249	0.26832798
198	0xbe3047cd	-0.1721489
199	0xbe061518	-0.13093984
200	0xbdfa9811	-0.122360356
201	0xbe296c96	-0.16545328
202	0xbe91e338	-0.28493667
203	0xbf11f156	-0.57008874
204	0xbe105d85	-0.14098175
205	0xbb0720aa	-0.0020618835
206	0xbe9141a8	-0.28370404
207	0xbe4f06dc	-0.2021746
208	0xbbc7a510	-0.006092675
209	0x3d310ee7	0.043227103
210	0x3e221909	0.15829863
211	0x3cbfcef0	0.023414105
212	0x3ab436e7	0.0013749272
213	0x3e7f4e7a	0.2493228
214	0x3c936608	0.017992988
215	0xbe8cc7a8	-0.27496076
216	0x3e21f950	0.15817761
217	0x3cb49900	0.022045612
218	0x3d77d50f	0.060505923
219	0x3e68a0b8	0.2271756
220	0x3d339b80	0.04384947
221	0x3e20b72f	0.15694879
222	0xbd776f58	-0.06040892
223	0xbe6e52f2	-0.23273829
224	0xbe1a5022	-0.1506963
225	0xbe65d117	-0.22443043
226	0xbce7849f	-0.02826148
227	0x3dfdb816	0.12388627
228	0xbe0754cf	-0.13215946
229	0xbe22510a	-0.15851226
230	0xbe764f20	-0.24053621
231	0xbea4734c	-0.32119215
232	0xbe4d49f3	-0.2004774
233	0xbe7016af	-0.23446153
234	0xbe922a7f	-0.28548047
235	0xbe0a4f8b	-0.13506906
236	0xbeb8b988	-0.3607905
237	0xbd0e7b96	-0.03478583
238	0xbe39cead	-0.18145247
239	0xbe3ee84d	-0.18643303
240	0x3ea0fea4	0.31444275
241	0xbd8c8c56	-0.068627045
242	0xbdbe4421	-0.09290338
243	0x3dab886d	0.083756305
244	0x3c9b88bc	0.018986098
245	0x3ea9cc45	0.33163658
246	0x3d85cb5d	0.06532929
247	0xbe87eaf1	-0.26546434
248	0xbe2b2e48	-0.16716874
249	0xbe632c4c	-0.22184867
250	0xbf0a883f	-0.54114145
251	0xbe9ed0df	-0.3101873
252	0xbe30685b	-0.17227308
253	0xbea6abb6	-0.3255288
254	0xbeec9112	-0.4620443
255	0xbe5ce73c	-0.21572584

critic.0.bias f4 [64]
0	0xbdeaaf76	-0.11459248
1	0xbdd68c44	-0.10475972
2	0xbdecea10	-0.115680814
3	0x3e5797ae	0.21053955
4	0x3daa14ee	0.08304773
5	0xbd6f0dd4	-0.058362797
6	0xbc83c0d6	-0.016083162
7	0xbd9329b2	-0.07185687
8	0xbe239a49	-0.15976824
9	0xbd9b1d2f	-0.07573926
10	0xbe3a2114	-0.18176681
11	0x3d423db7	0.047422137
12	0x3dfc0788	0.12306124
13	0xbe2717b4	-0.16317636
14	0x3e5dbfd7	0.21655212
15	0x3eade8e0	0.33966732
16	0x3da38a1a	0.07985325
17	0x3e4f2eaf	0.20232652
18	0x3d8e05d6	0.06934707
19	0xbdb821ea	-0.089908436
20	0x3e157aee	0.14597675
21	0x3cf2e1d6	0.029648703
22	0x3e455b35	0.19273074
23	0xbe804a19	-0.25056532
24	0x3e6442fe	0.2229118
25	0x3de6db0e	0.1127225
26	0x3e02b493	0.12764196
27	0xbd83e0a3	-0.064393304
28	0xbdffabbe	-0.12483929
29	0x3e132f99	0.14373626
30	0xbce81c87	-0.028333915
31	0xbd30ddbf	-0.043180224
32	0xbd335946	-0.04378631
33	0x3dbcdaa2	0.092213884
34	0x3ddfd108	0.109285414
35	0xbe356d2e	-0.1771743
36	0x3d8a108c	0.06741437
37	0x3ddc9bcb	0.10771903
38	0xbe6fcfe2	-0.23419145
39	0x3ab08179	0.001346632
40	0x3cfc9386	0.030832063
41	0xbe29c44e	-0.1657879
42	0xbd8be53e	-0.06830834
43	0x3e5e3837	0.21701132
44	0xbde38b2d	-0.1111053
45	0x3d96b6aa	0.07359059
46	0xbde20f9c	-0.110381335
47	0xbc6dc794	-0.014512915
48	0xbda0a92d	-0.07844768
49	0x3e01c583	0.12673001
50	0x3e08e518	0.13368642
51	0x3d099a7c	0.033594593
52	0x3e7bc389	0.2458631
53	0xbea08a41	-0.3135548
54	0xbd441035	-0.04786702
55	0xbe16021d	-0.14649244
56	0x3c8b1876	0.016979437
57	0xbc3d0c56	-0.011538586
58	0xbe260f9a	-0.16216889
59	0xbeb78071	-0.3584018
60	0xbd82a316	-0.063787624
61	0x3e98339a	0.2972687
62	0xbdc68f35	-0.09695283
63	0x3d8c68c7	0.06855922

critic.2.weight f4 [32, 64]
0	0xbe7d981e	-0.2476506
1	0x3cb7fe54	0.02246014
2	0xbcd62ed5	-0.026145378
3	0x3e864e78	0.26231742
4	0xbd5ae86a	-0.053444304
5	0x3d036da9	0.032087002
6	0xbe930fa9	-0.28722885
7	0x3e1456f2	0.14486292
8	0xbdf665d1	-0.12031139
9	0x3de9a075	0.11407558
10	0x3e974e4d	0.29551926
11	0xbdf81e76	-0.12115185
12	0xbd9da8a8	-0.07698184
13	0xbe93915b	-0.28821835
14	0x3d3362bd	0.043795336
15	0x3e90dcdf	0.2829351
16	0x3d863119	0.065523334
17	0x3dcb12b8	0.0991568
18	0x3ec24547	0.3794348
19	0x3cb6ccfb	0.02231454
20	0xbe165b90	-0.14683366
21	0xbdfa63f0	-0.12226093
22	0xbceba2fb	-0.028764239
23	0xbe4606bd	-0.19338508
24	0xbda99b65	-0.08281592
25	0x3db133dc	0.086524695
26	0x3e403fd4	0.18774348
27	0x3dcfaac8	0.10139996
28	0x3e0bd882	0.1365681
29	0x3ec069f6	0.37580842
30	0x3e738393	0.2378066
31	0xbe81d3c9	-0.25356892
32	0x3b1d2a8e	0.0023981663
33	0xbb807baf	-0.0039209942
34	0xbddb7ae9	-0.107168026
35	0xbe1dce46	-0.15410718
36	0xbe856cc7	-0.26059553
37	0x3e3a4402	0.18190005
38	0xbd06d429	-0.032917175
39	0x3ce68008	0.028137222
40	0xbeadf8f0	-0.33978987
41	0xbef15698	-0.47136378
42	0x3e553668	0.20821536
43	0xbd63ab6b	-0.0555834
44	0xbeb97553	-0.36222324
45	0x3d4bcd65	0.049756426
46	0x3c8499f9	0.016186701
47	0x3efe656b	0.4968675
48	0x3e79a713	0.2438014
49	0x3de4f37f	0.11179256
50	0x3e0672a2	0.13129666
51	0xbcbd5d6c	-0.023115836
52	0xbd433e5a	-0.047666885
53	0xbea7725e	-0.32704443
54	0x3eba8a81	0.36433795
55	0x3e4af40d	0.1981966
56	0x3cb2a3ad	0.021806562
57	0xbe0824ea	-0.13295332
58	0xbe0e21c7	-0.13880073
59	0x3e1e08ef	0.15433095
60	0xbe149f15	-0.1451381
61	0x3ee6abbb	0.45052895
62	0xbe482058	-0.19543588
63	0x3db50a9b	0.088399135
64	0x3dfbe950	0.1230036
65	0x3de09ad6	0.109670326
66	0x3eb1a86f	0.34698817
67	0x3e022cec	0.12712449
68	0x3db8a59a	0.09015961
69	0xbe32935d	-0.17439027
70	0x3ed1f44e	0.41006702
71	0x3e8d8364	0.27639306
72	0xbcbf028c	-0.023316644
73	0xbe8cc5e9	-0.27494743
74	0x3c928586	0.017885935
75	0x3e41fa4e	0.1894314
76	0xbc114e5e	-0.008868782
77	0xbcbdece2	-0.023184244
78	0x3bc903bc	0.0061344784
79	0xbd7d33ec	-0.061817095
80	0x3bb0e6e9	0.0053986204
81	0xbc6fc615	-0.014634629
82	0xbe310c98	-0.1728996
83	0x3f11a96c	0.5689914
84	0xbdaf06d7	-0.085462265
85	0x3ddea109	0.10870559
86	0x3c09b705	0.008405452
87	0xbe95a54d	-0.29227677
88	0x3d0d10af	0.03443974
89	0x3eb4478a	0.3521083
90	0xbd9fc631	-0.07801474
91	0x3cb5be54	0.022185482
92	0x3d52bf7b	0.05145214
93	0xbe5d4694	-0.21608955
94	0x3de9ed69	0.114222355
95	0x3e7e2c9b	0.24821703
96	0x3dc0f030	0.09420812
97	0x3d9ae460	0.0756309
98	0x3dca151d	0.09867308
99	0x3d33cfe9	0.04389945
100	0x3d8564e2	0.065133825
101	0xbdfb0289	-0.12256343
102	0xbdf0ffe1	-0.11767555
103	0xbe2ba0f9	-0.16760625
104	0xbec33128	-0.3812344
105	0x3e1319ed	0.14365359
106	0x3ea14e55	0.31505075
107	0xbefeb5d7	-0.49748108
108	0x3e8b1d01	0.27170566
109	0x3d82ebdb	0.06392642
110	0x3df37efe	0.11889456
111	0x3d6c86e5	0.057745833
112	0xbe5054b6	-0.20344815
113	0x3e24ab18	0.16080892
114	0xbeff030a	-0.49807006
115	0xbd9a6ec5	-0.07540659
116	0x3d215780	0.039390087
117	0x3cc963a5	0.024583647
118	0xbe80919f	-0.251111
119	0xbe735664	-0.23763424
120	0xbe87d95f	-0.26533028
121	0x3dcbf617	0.09959047
122	0x3caad155	0.02085177
123	0xbd274d4d	-0.040845204
124	0x3e8641f7	0.26222202
125	0xbe3ef7d0	-0.1864922
126	0x3ead043a	0.33792287
127	0xbe0070eb	-0.12543075
128	0x3e1ed565	0.15511091
129	0x3e1d26d4	0.15346843
130	0x3e243e78	0.16039455
131	0x3c3303c4	0.010926191
132	0x3e47ed29	0.19524063
133	0x3df7afa4	0.12094048
134	0xbd101275	-0.035173852
135	0xbed72170	-0.42017698
136	0xbe77fc7e	-0.24217412
137	0xbec5dd61	-0.3864546
138	0x3e46a7f2	0.19400004
139	0xbde06cc3	-0.10958245
140	0x3cc7a16c	0.024368964
141	0xbeb54c9a	-0.35410005
142	0x3e652637	0.22377859
143	0xbed61e19	-0.41819838
144	0xbe36db43	-0.17857079
145	0xbd3b5c19	-0.045742128
146	0xbe0bfcbf	-0.13670634
147	0x3dcba72a	0.099439934
148	0xbe02c53e	-0.12770554
149	0xbe2ceab3	-0.16886406
150	0xbde9347a	-0.11386962
151	0xbe7a40c4	-0.24438769
152	0x3c2e6aa3	0.010645541
153	0xbe581ede	-0.21105525
154	0x3e0b8f68	0.13628924
155	0x3cd4e46e	0.02598783
156	0xbe3b1fe0	-0.18273878
157	0xbeac71d8	-0.33680606
158	0xbd1a9a65	-0.0377449
159	0x3dc0900f	0.09402477
160	0xbe5722ea	-0.21009412
161	0xbe88fcca	-0.26755363
162	0xbdb28f9d	-0.08718798
163	0x3e8f738a	0.28017837
164	0x3e1ad41e	0.15119979
165	0x3d9ac5d3	0.07557263
166	0x3dbb952b	0.09159311
167	0xbe6b1a95	-0.22959359
168	0xbd57dc19	-0.052700136
169	0x3eac117a	0.33607084
170	0x3e7a7b4a	0.24461094
171	0xbc8ec077	-0.017425759
172	0x3cd6dbdc	0.026227884
173	0x3debae67	0.11507874
174	0xbdf21628	-0.11820632
175	0xbe4c153d	-0.19929977
176	0xbe5165d3	-0.20448999
177	0x3a96c770	0.0011503529
178	0x3dbfbf5f	0.09362673
179	0xbe0b5691	-0.13607241
180	0xbd8fc34d	-0.070196725
181	0x3e606a79	0.21915616
182	0xbe8d27ee	-0.27569526
183	0xbe891da2	-0.2678042
184	0xbe7f3f30	-0.24926448
185	0x3ee2f200	0.44325256
186	0x3d0e0435	0.03467198
187	0x3ed58c4d	0.41708604
188	0x3d8b7b5f	0.068106405
189	0x3dda7377	0.106665544
190	0x3de8d044	0.113678485
191	0x3d0535d6	0.032522045
192	0xbd9bfa3b	-0.07616087
193	0x3de020bb	0.10943743
194	0xbdafd76d	-0.08586011
195	0x3dc3361a	0.095318034
196	0xbc3a30d6	-0.011364182
197	0xbdeeef2f	-0.116667144
198	0xbdb5f3b7	-0.088843755
199	0x3ca73e2b	0.020415386
200	0xbe840f1e	-0.25792783
201	0x3f066e8f	0.5251245
202	0xbd69a260	-0.05703962
203	0x3ddd550c	0.10807237
204	0xbe893e1f	-0.26805207
205	0xbe49221f	-0.19641922
206	0x3e1cc5ed	0.15309878
207	0xbd567c4f	-0.052364644
208	0x3d24c434	0.040226176
209	0x3e9de73d	0.30840483
210	0xbe211978	-0.15732372
211	0xbdcf1e24	-0.10113171
212	0xbe3e4798	-0.18581998
213	0x3e0c3878	0.13693416
214	0x3de85c37	0.113457136
215	0x3ec0aaaf	0.3763022
216	0x3d88d514	0.066812664
217	0x3d602014	0.054718092
218	0x3eeb1301	0.45912936
219	0x3ea181e5	0.31544414
220	0x3cebe4f6	0.0287957
221	0x3e04cf3a	0.12969676
222	0xbe46b73d	-0.19405837
223	0xbe4c3ee5	-0.19945867
224	0xbc66730e	-0.014065517
225	0x3dc3d2da	0.09561701
226	0x3e924d97	0.2857482
227	0x3e184102	0.14868549
228	0xbe9ced3d	-0.30649748
229	0xbe02da7e	-0.1277866
230	0xbe493dcf	-0.19652484
231	0x3a5cea99	0.0008427292
232	0xbd8d475d	-0.06898377
233	0xbe53dfa8	-0.20690787
234	0x3e1d05b4	0.15334207
235	0x3cd70166	0.026245784
236	0xbe11cdd2	-0.1423867
237	0x3e91dc0c	0.28488195
238	0xbe8ceeb3	-0.27525863
239	0xbea94668	-0.33061528
240	0xbd64480b	-0.055732768
241	0x3dd656d2	0.104657784
242	0x3d52e99b	0.051492315
243	0x3dba1de9	0.09087736
244	0xbd919bfc	-0.0710983
245	0xbeceff55	-0.40429178
246	0x3daea3a7	0.08527308
247	0xbdaa5247	-0.083164744
248	0x3ebd91bc	0.3702525
249	0xbdeeec8c	-0.116662115
250	0x3db023c3	0.08600571
251	0xbe78db31	-0.24302365
252	0x3db397db	0.087691985
253	0x3e6d0e87	0.23150073
254	0x3db1c17d	0.08679483
255	0x3c4e72f2	0.012600647

critic.2.bias f4 [32]
0	0x3e2b1630	0.16707683
1	0xbde8e5e5	-0.11371974
2	0xbe81edf2	-0.2537685
3	0x3e778571	0.24171998
4	0x3e1e2abe	0.15445992
5	0xbd915136	-0.07095568
6	0xbe40df3b	-0.18835156
7	0x3e0d433f	0.13795184
8	0xbd543b44	-0.051814333
9	0x3e446a90	0.19181275
10	0x3db61ce6	0.08892231
11	0xbe65d475	-0.22444327
12	0x3cc78d00	0.024359226
13	0xbd98656d	-0.074412204
14	0xbe33020b	-0.17481248
15	0xbe655e61	-0.22399284
16	0x3dfe7a37	0.124256544
17	0x3c998e22	0.018744532
18	0x3dfa643b	0.12226149
19	0xbbe78ad7	-0.0070661115
20	0xbe7afa0f	-0.24509452
21	0xbda7f3d4	-0.082008034
22	0x3daf4e66	0.08559875
23	0x3e008fbd	0.12554832
24	0xbe3b13b3	-0.18269233
25	0xbe20d7b5	-0.15707286
26	0xbe823383	-0.25429925
27	0x3d94618b	0.07245167
28	0x3e81942d	0.25308362
29	0xbe02e07f	-0.12780951
30	0x3e53b3f2	0.20674112
31	0xbdae5ed5	-0.085141815

critic.4.weight f4 [1, 32]
0	0x3eb46b9f	0.35238358
1	0xbd657161	-0.05601633
2	0xbea6ae75	-0.32554975
3	0x3e2325d4	0.15932399
4	0x3d9d87ac	0.07691893
5	0xbeb34c2d	-0.35019055
6	0xbe1d173a	-0.15340891
7	0x3d67f0b9	0.056626055
8	0xbe1a6094	-0.15075904
9	0x3e6c5297	0.2307838
10	0x3e69aed6	0.22820601
11	0xbe74fc7f	-0.23924445
12	0x3df5977e	0.119917855
13	0x3d08a07b	0.03335617
14	0xbeb2d60f	-0.3492894
15	0xbe7cc9e2	-0.24686387
16	0x3dd77762	0.10520817
17	0x3d827d97	0.063716106
18	0x3e35abe6	0.17741355
19	0xbda341b7	-0.079715185
20	0xbe3f19b6	-0.18662152
21	0xbeaceae6	-0.33772963
22	0xbce194fe	-0.027536865
23	0x3e81a5ce	0.2532181
24	0xbde4f375	-0.11179248
25	0xbe94095d	-0.28913394
26	0xbe60c891	-0.2195151
27	0x3c68dca1	0.014212758
28	0x3e25c047	0.16186629
29	0xbd31a92a	-0.043374218
30	0x3ed8ddc8	0.42356706
31	0xbe9cff09	-0.30663326
